ckpt/junyi/irt.pt (torch, 6695 bytes, 2 tensors)

alpha.weight f4 [706, 1]
0	0x3f8d8666	1.105664
1	0x3fcb625a	1.588939
2	0x3e87750e	0.26456493
3	0x3f01009e	0.50391567
4	0x3ecd07cb	0.40045008
5	0xbe17488e	-0.14773771
6	0x3f07b052	0.5300342
7	0x3e8635c0	0.26212883
8	0x3e56512f	0.20929407
9	0xbeb0b892	-0.34515816
10	0x3fbb6768	1.4640932
11	0x3e97e021	0.29663184
12	0x3f71d3f6	0.9446405
13	0x3ea6b3b1	0.3255897
14	0x3f978166	1.1836364
15	0x3f88aae0	1.0677147
16	0x3eb675be	0.35636705
17	0x3fdc935e	1.7232473
18	0x3f693a65	0.9110473
19	0x3fbc1ac3	1.4695667
20	0x3f04ee1c	0.51925826
21	0x3f7f46d7	0.9971747
22	0x3f861da5	1.0477797
23	0x3fad9303	1.356049
24	0x3ee24fc7	0.4420149
25	0x3f8226cb	1.0168089
26	0x3f763e44	0.9618876
27	0xbde79e56	-0.11309497
28	0x3f81ab96	1.0130489
29	0x3f9447e0	1.1584435
30	0xbeb734cb	-0.35782465
31	0x3fc5aa0d	1.544252
32	0x3f4a30a3	0.78980464
33	0x3f9655fc	1.174499
34	0x3fe1d1a5	1.7642103
35	0xbda2e2d1	-0.07953418
36	0xbe25f2a8	-0.16205847
37	0xbee332f2	-0.44374806
38	0x3f3f4614	0.74716306
39	0x3fa87192	1.3159659
40	0xbc91606b	-0.017746171
41	0x3f899519	1.0748626
42	0x3f96b4d0	1.177393
43	0x3f5e1af8	0.867599
44	0x3e9631ea	0.29334956
45	0x3fd2c074	1.6464982
46	0x3faf1b67	1.3680238
47	0x3e70f0e2	0.2352939
48	0x3fc6235e	1.5479543
49	0x3fb5fb12	1.4217246
50	0x3f84cae8	1.0374422
51	0x3f19a310	0.6001444
52	0x3f33cf89	0.7023855
53	0x3f1a6d22	0.60322773
54	0xbef51ac6	-0.4787199
55	0x3e851351	0.259913
56	0x3e910dc5	0.28330818
57	0xbdcad257	-0.099034004
58	0x3f8c5125	1.0962263
59	0x3f0c25ef	0.5474538
60	0xbe9a4ef5	-0.30138364
61	0x3ebf2af5	0.3733746
62	0x3f3d7457	0.74005646
63	0xbcfcd7b6	-0.030864578
64	0x3fafcbac	1.3734031
65	0xbe7c65b1	-0.24648167
66	0x3fa80487	1.3126382
67	0x3ea5c03a	0.3237322
68	0xbef48b48	-0.47762513
69	0x3f74bee6	0.9560379
70	0x3f2251ae	0.63405883
71	0x3f2d11c4	0.67605233
72	0x3ef08d85	0.4698297
73	0x3f8f542c	1.1197562
74	0x3eff054d	0.49808732
75	0x3fa0218f	1.2510241
76	0x3e907446	0.2821371
77	0x3f875fd1	1.0576116
78	0x3f0062dd	0.50150853
79	0x3f013e7c	0.5048597
80	0x3fda2d0a	1.7044995
81	0x3f2ee182	0.6831285
82	0x3f803407	1.0015877
83	0x3f790fde	0.97289836
84	0x3f5a3215	0.8523267
85	0x3dd981b1	0.1062044
86	0x3f75d0da	0.9602181
87	0x3fb724f0	1.4308147
88	0x3ed80d72	0.42197758
89	0x3fdc904f	1.723154
90	0xbf8dd198	-1.1079588
91	0x3f21b733	0.63170165
92	0x3e47956a	0.1949059
93	0xbd90c79b	-0.07069322
94	0x3f965995	1.1746088
95	0x4006b6d3	2.1049087
96	0x3f498b63	0.7872831
97	0x3f924d42	1.1429827
98	0x3ee885fd	0.45414725
99	0x3f3b413f	0.7314643
100	0xbd190352	-0.037356682
101	0x3eb99d2f	0.36252734
102	0x3fae5383	1.3619236
103	0xbf249533	-0.6429016
104	0xbec68bb3	-0.38778457
105	0x3fd31456	1.6490581
106	0x3fec4438	1.8458319
107	0x3f85b9d3	1.0447334
108	0x3f576793	0.84142417
109	0x3fa06d00	1.2533264
110	0x3e99bd3c	0.30027187
111	0x3f775f50	0.9662981
112	0x3f444ef1	0.76682955
113	0x3f06277a	0.52403986
114	0xbf645900	-0.89198303
115	0x3f748e01	0.9552918
116	0x3fab614b	1.3389066
117	0x3f811463	1.0084347
118	0x3f95c36a	1.1700261
119	0x3ff0d620	1.8815346
120	0x400cf795	2.2026112
121	0x3f2c1b17	0.67228836
122	0x3f641c80	0.8910599
123	0x3f298e18	0.6623244
124	0x3f82d9b8	1.0222692
125	0x3ea545cc	0.32279813
126	0x3f951a1f	1.1648597
127	0x3fc95e10	1.5731831
128	0x3f8ea604	1.1144414
129	0x3da0fcbc	0.07860705
130	0x3f65fb5a	0.8983666
131	0x3ec828b8	0.39093566
132	0x3d319cca	0.043362416
133	0x3f87e864	1.0617795
134	0x3f078497	0.5293669
135	0x3f5862c8	0.8452573
136	0x3f34168c	0.70346904
137	0x3fb6ce26	1.4281662
138	0x3fa1305b	1.2592882
139	0x3f8a3aef	1.0799235
140	0x3fbd91ac	1.481008
141	0x3f37baab	0.7176921
142	0xbe3d0130	-0.18457484
143	0x3d70edfd	0.058820713
144	0x3f2e77a8	0.6815133
145	0xbe3b8f60	-0.18316412
146	0x3fc559a1	1.5417978
147	0x3fa7fa1b	1.3123201
148	0x3f931837	1.1491765
149	0x3e0e0f06	0.13872918
150	0x3faf665a	1.370311
151	0x3ff7dbfa	1.9364007
152	0x3f9356f5	1.1510912
153	0x3ec86dc3	0.39146242
154	0x3f18517f	0.59499353
155	0x3fb30548	1.3985987
156	0xbf10ef56	-0.566152
157	0x3fafa514	1.3722253
158	0x3f0ecf49	0.5578504
159	0x3fc29141	1.5200578
160	0x3f2d32df	0.6765575
161	0x3f14a765	0.58067924
162	0x3f1dc836	0.6163362
163	0xbdacbeaa	-0.08434804
164	0x3edda0ed	0.4328684
165	0x3ecf4d9c	0.404889
166	0xbf33d545	-0.702473
167	0x4022e0e2	2.5449758
168	0x3fd98073	1.6992325
169	0x3fbc2e46	1.4701622
170	0x3fe3291d	1.7746922
171	0x3edcc8b9	0.4312189
172	0x3ec264b1	0.37967446
173	0x3f0dea86	0.5543598
174	0x3fa84696	1.3146541
175	0x3bb044ab	0.0053792796
176	0x3f93bfa1	1.1542856
177	0x3f94d28e	1.1626756
178	0x3ee82d14	0.45346892
179	0x3f8e12a7	1.1099442
180	0x3f7cefd6	0.9880346
181	0x3f8bc75a	1.0920212
182	0x3f6c8b67	0.9240021
183	0xbe95058d	-0.29105797
184	0x3df10b60	0.11769748
185	0x3fcc2f6a	1.595197
186	0x3fa4f32a	1.2886708
187	0x3faa1504	1.3287663
188	0x3d10f55c	0.035390243
189	0x3f256c7b	0.64618653
190	0x3fb24071	1.3925916
191	0x3f1a7514	0.603349
192	0x3fe217b7	1.7663487
193	0xbf677071	-0.90405947
194	0x3e097919	0.13425101
195	0x3e165d1d	0.14683957
196	0x3fe3e2d9	1.7803603
197	0x3fbb6594	1.4640374
198	0x3ef7ecd8	0.48422885
199	0x3fb9efea	1.4526341
200	0x3e2846f1	0.16433312
201	0xbd5e6b58	-0.05430159
202	0xbd3b0680	-0.045660496
203	0x3f1f7725	0.62291175
204	0x3f35e7d9	0.71056896
205	0x3f1bac81	0.60810095
206	0x3f5b8292	0.8574611
207	0xbfc98bf0	-1.574583
208	0x3e4993c3	0.19685273
209	0x3f1d8fd9	0.6154762
210	0xbe49ca8f	-0.19706176
211	0x3f6fd6b2	0.93686974
212	0x3f052dbc	0.5202291
213	0x3f4ffb3a	0.81242716
214	0x3fcd5b9c	1.6043582
215	0x3fe32873	1.7746719
216	0x3fbfd95d	1.4988209
217	0x3f7f44a9	0.9971414
218	0x3c316b43	0.010828796
219	0x3f4e22f5	0.8052209
220	0x3f4e9949	0.80702645
221	0x3f527e44	0.82223916
222	0x3ff08f10	1.8793659
223	0x3f9a3160	1.2046318
224	0x3f236531	0.6382628
225	0x3f5e87f6	0.8692621
226	0x3f46afba	0.7761189
227	0x3e9908b2	0.29889446
228	0x3f91c012	1.138674
229	0x3f531fce	0.82470405
230	0x3f42eb57	0.7614035
231	0xbed27cce	-0.41110843
232	0x3fcb9dad	1.5907494
233	0x3f7b394e	0.98134315
234	0x3f1de7d6	0.6168188
235	0x3f104037	0.56347984
236	0x3f4efbb1	0.808528
237	0x3e95b0d1	0.29236463
238	0x3fded591	1.7408925
239	0x3eeda137	0.4641206
240	0xbee0eaa5	-0.4392902
241	0xbe7a916e	-0.2446954
242	0x3fd20f76	1.6410968
243	0x3f48fdc5	0.7851222
244	0x3f8b225b	1.086986
245	0xbe5ff8c2	-0.21872237
246	0x3f924f74	1.1430497
247	0x3ef4dec4	0.47826207
248	0x3e9315de	0.2872762
249	0xbdc8b8a8	-0.098008454
250	0x3fff5363	1.9947323
251	0xbe6a4cdc	-0.22880882
252	0x3f009935	0.50233775
253	0x3f9699c8	1.176568
254	0x3f8ce5bd	1.100761
255	0x3fb39dbe	1.4032514

beta.weight f4 [706, 1]
0	0xbfa63056	-1.2983501
1	0x3f32218e	0.6958245
2	0x3f2bdff0	0.67138577
3	0xbfa48930	-1.2854366
4	0xbf16aaf5	-0.5885461
5	0x3f594487	0.8487019
6	0xbf3bc6b6	-0.73350084
7	0xbda41c54	-0.08013216
8	0xbee57fac	-0.44823968
9	0x3f13d45b	0.57745904
10	0x3f1c72c0	0.61112595
11	0xbf6475b1	-0.8924208
12	0x3ff8490b	1.9397291
13	0xbdada0a6	-0.08477907
14	0x3f685c1d	0.90765554
15	0x3ee601a9	0.44923142
16	0xbdac5d3e	-0.08416222
17	0xc0303085	-2.7529614
18	0xbe3f729e	-0.18696067
19	0xbfbb6066	-1.4638793
20	0xbf865dc0	-1.049736
21	0x3fd27b79	1.6443931
22	0xbeec7ebb	-0.46190438
23	0x3fd6f54a	1.6793606
24	0xbf2f29cc	-0.6842315
25	0x3f41296a	0.7545382
26	0x3fa67004	1.3002934
27	0x3e0f6387	0.1400281
28	0xc0389139	-2.8838637
29	0xbf9b26e4	-1.2121243
30	0xbfdf8fc1	-1.7465745
31	0x3f006767	0.5015778
32	0xbf7157e0	-0.9427471
33	0xbebaf8c1	-0.3651791
34	0xbf948eb1	-1.1606046
35	0xbefd2953	-0.4944559
36	0xbfd9107b	-1.6958154
37	0x3f9c232c	1.2198234
38	0xbf858ea1	-1.0434152
39	0x3caae36d	0.020860398
40	0xbf823228	-1.0171556
41	0xc030e83e	-2.764175
42	0xbf9a222f	-1.2041682
43	0xbf8203de	-1.015743
44	0x3e239dd2	0.15978172
45	0xbfc028cf	-1.5012454
46	0xbe94754f	-0.2899575
47	0x40321ba5	2.7829373
48	0xbf07a7f3	-0.52990645
49	0xbd4fe00d	-0.05075078
50	0xbf6c7fe6	-0.9238266
51	0x3f9a64e1	1.2062036
52	0xbeeedb94	-0.466519
53	0xbed5aee7	-0.41735002
54	0x3f0b95aa	0.54525244
55	0xc005330e	-2.0812411
56	0x3f5a49a4	0.85268617
57	0xbf3361a8	-0.70070887
58	0x3fbe0fde	1.4848592
59	0x3ff03655	1.8766581
60	0xbe21b899	-0.15793075
61	0xbef9de83	-0.48802575
62	0xbdd64e85	-0.10464195
63	0xbfa0e7ef	-1.257078
64	0xbe937ff0	-0.28808546
65	0xbf3753f4	-0.7161248
66	0x3ffa4d67	1.9554871
67	0xbfa6d658	-1.3034163
68	0xbf8c79f2	-1.0974715
69	0x3f47d3ef	0.7805776
70	0xbf21923d	-0.63113767
71	0x3ef1d506	0.47232836
72	0xbf99f430	-1.2027645
73	0x3d73aef1	0.05949301
74	0xbf8dc9f8	-1.1077261
75	0x3bc7b2f3	0.0060943305
76	0xbf2fa73c	-0.68614554
77	0x3fc98d6d	1.5746285
78	0x3f306154	0.6889851
79	0x40213855	2.5190632
80	0x3ee0a3c5	0.43874946
81	0x3e102af6	0.14078888
82	0x3f5f579a	0.87243044
83	0xbf79c4c6	-0.9756588
84	0x3fea8724	1.8322492
85	0xc01d70bb	-2.4600055
86	0xbf51980d	-0.81872636
87	0xbf97b243	-1.1851276
88	0x3f7b064f	0.980565
89	0xbe82c958	-0.25544238
90	0xbfdd606d	-1.7295052
91	0xc0275f5d	-2.6151955
92	0x40125c79	2.286894
93	0xbe7bb69e	-0.24581382
94	0x40417f25	3.0233853
95	0x3d0e894c	0.034798905
96	0x3e61ddb0	0.22057223
97	0x402ff1a6	2.749124
98	0x3ed6247a	0.41824704
99	0xbf26f012	-0.6521007
100	0x3fea8a9c	1.832355
101	0xbf85c271	-1.0449964
102	0xbe6a5143	-0.22882561
103	0xbfefe6aa	-1.8742268
104	0xbeea82f4	-0.45803034
105	0x3e6e2b3c	0.2325868
106	0xc0069cd1	-2.1033213
107	0xbedeee83	-0.43541345
108	0xbeeb77a5	-0.4598972
109	0x3ed218f4	0.41034663
110	0x3fd8034f	1.687601
111	0xbeb22083	-0.3479043
112	0x3f0a021e	0.5390948
113	0x3f807fc5	1.0038992
114	0xbfb3a958	-1.4036055
115	0xbf23a613	-0.63925284
116	0x3eae3539	0.3402498
117	0x3f92e763	1.1476864
118	0xc02f3e60	-2.738182
119	0xbf2dd7d9	-0.6790748
120	0x3f149240	0.5803566
121	0x3f6b5d32	0.9193908
122	0xbe991a11	-0.299027
123	0x3f4cade7	0.79952854
124	0xbf091527	-0.535479
125	0x3fe454ed	1.7838417
126	0xbf88ea8b	-1.0696577
127	0x3f1b1499	0.60578305
128	0x3ebbba85	0.3666574
129	0xbf1b63bc	-0.6069906
130	0xbf60d785	-0.87828857
131	0xba0e2da0	-0.0005423669
132	0xbf776e78	-0.96652937
133	0x40425771	3.036587
134	0x403da600	2.9632568
135	0xbf2e52a1	-0.6809483
136	0x3d903ab1	0.070424445
137	0x3f9322b8	1.149497
138	0x3ebe5a31	0.37178186
139	0x3f70598d	0.93886644
140	0xbfc0c8d0	-1.5061283
141	0xb9950ef4	-0.00028430636
142	0xc0288f71	-2.633755
143	0xbf2d84b8	-0.6778064
144	0x402a7fd2	2.6640515
145	0xbf51d22c	-0.8196132
146	0x3dab0875	0.083512224
147	0xbd0cac39	-0.03434393
148	0x3e1baf16	0.15203509
149	0xbfc287f6	-1.5197742
150	0x3d9e8b0e	0.07741366
151	0x3f4e7474	0.80646443
152	0xbef7fbdb	-0.48434338
153	0xbf0c81c4	-0.54885507
154	0xbeac9dbc	-0.33714092
155	0xbf432640	-0.7623024
156	0xbeb63ced	-0.35593358
157	0xbfcfef39	-1.624488
158	0xbf52a2e1	-0.82279783
159	0xbdfbf061	-0.12301708
160	0xbe4bd7fa	-0.19906607
161	0x3d3cd9a2	0.04610599
162	0xbf3835f4	-0.71957326
163	0xbefd6e55	-0.4949824
164	0xbf36349c	-0.71174026
165	0x3e058339	0.13038339
166	0xbf7d8d36	-0.99043596
167	0x3fc74848	1.5568933
168	0x3f271937	0.6527285
169	0xbfbd1ade	-1.4773824
170	0x4034d7bf	2.825668
171	0xc00809df	-2.1256025
172	0x3f32b594	0.69808316
173	0xbf86603d	-1.049812
174	0x40336d43	2.8035438
175	0xbe8a16d0	-0.2697053
176	0xbf00eca8	-0.5036111
177	0xbeed9b5e	-0.46407598
178	0xbf0cef2b	-0.5505244
179	0xbebbbb95	-0.3666655
180	0x3e581219	0.21100654
181	0xbf56cbcb	-0.83904713
182	0x3ffc8c8e	1.9730394
183	0xbf8f306f	-1.1186656
184	0xbf3adda4	-0.72994447
185	0xbff1431a	-1.8848603
186	0x3f0536d6	0.520368
187	0x401068bb	2.2563922
188	0xbf71e679	-0.944923
189	0x3fb6a027	1.4267625
190	0x3f8bec53	1.0931495
191	0x3e3f8306	0.18702325
192	0xbf45c24b	-0.7724959
193	0xbf755d07	-0.95845073
194	0x3ee57724	0.4481746
195	0xbf3e316d	-0.7429417
196	0xbf6af90d	-0.9178627
197	0xbe958ff2	-0.29211384
198	0xbf952765	-1.1652647
199	0xbeb960fa	-0.362068
200	0x40429f5a	3.040976
201	0x3f8af29d	1.085529
202	0xbfdfe8d2	-1.7492926
203	0xbf9ba31d	-1.2159153
204	0x3fec7843	1.8474201
205	0x3f2d74bd	0.67756253
206	0xbf09590a	-0.5365149
207	0xc01ec044	-2.480485
208	0xbf2e8d23	-0.6818411
209	0x3f07b9df	0.5301799
210	0xbf4a3913	-0.7899334
211	0xbd8e7522	-0.06955935
212	0xbf7e3f7d	-0.99315625
213	0x402356d2	2.552174
214	0x3fa28b9c	1.2698855
215	0xbe1cdd63	-0.15318827
216	0x3f4b9b30	0.7953367
217	0x3d2912b5	0.041277606
218	0xbea126c5	-0.3147489
219	0xbf8d71bb	-1.1050333
220	0x3db08b32	0.086202994
221	0x4064163e	3.5638576
222	0x3f5203a9	0.82036835
223	0x3e631805	0.22177131
224	0xbf72505f	-0.94653887
225	0x3eff15b8	0.49821258
226	0xbf020773	-0.50792617
227	0xbf682b2c	-0.90690875
228	0x3f1bf964	0.60927415
229	0x4000f351	2.0148509
230	0x3f5cf28b	0.8630759
231	0xbe825ade	-0.2545995
232	0xbf82a460	-1.0206413
233	0x3f065e7b	0.52487916
234	0xc01d1ea2	-2.4549947
235	0x3e5f1972	0.2178705
236	0xbfacec64	-1.3509641
237	0xbdceba1f	-0.100940935
238	0x3ea0d815	0.31414858
239	0x4056c181	3.3555605
240	0xbe48863c	-0.19582456
241	0xbf07c051	-0.53027827
242	0xbfc7f9e0	-1.5623131
243	0xbcd97815	-0.026546517
244	0x40150fc5	2.3290875
245	0xbf6e39e9	-0.93057114
246	0xbe578331	-0.2104614
247	0x3e87be69	0.2651246
248	0xbf468f68	-0.7756257
249	0xbe8c94a7	-0.27457163
250	0x402dd312	2.7160077
251	0xbf51d68d	-0.81968004
252	0xbf360c59	-0.7111259
253	0x3eca6a2f	0.39534137
254	0xbef554ba	-0.47916204
255	0xbf34e886	-0.706673
