ckpt/junyi/irt_MFI_ip.pt (torch, 286913 bytes, 12 tensors)

utn.0.weight f4 [256, 1]
00000000: a92d a13e 1a00 3d3f a7f1 d73e e1c1 203f
00000010: baf4 293f 4593 003f d2da d83e e1d6 023f
00000020: 8dfc e33e 60d0 cc3e f9ce f73e 7e9f 083f
00000030: 75e4 fe3e 5c76 e83e 1951 393f e01b 973e
00000040: ea59 9c3e 1d35 ee3e 7aff 383f c5c0 1c3f
00000050: 94f4 013f 1b30 f63e b886 0c3f ada8 003f
00000060: 19b0 063f 6b63 a53e 8635 e23e e8bc 023f
00000070: 7c6d 373f f0c3 023f 7693 f73e e80a 073f
00000080: 6e23 de3e b452 ea3e fab9 363f a270 523e
00000090: cb00 023f 9e30 093f 182e 0b3f 240c 993e
000000a0: ba75 ef3e 1e38 383f 3f97 0c3f 2ae9 2e3f
000000b0: eddd db3e f142 ef3e 13bc 9f3e 36f9 0f3f
000000c0: 2565 083f 9ea7 953e 9e8c 113f ba22 3c3f
000000d0: a7ce 093f 805b b93e d502 fb3e 5bb7 2c3f
000000e0: d2f7 053f 188f 383f 7174 39c0 c1e7 053f
000000f0: 8b5d 9a3e 481a 0d3f 1255 ec3e 462a 043f
00000100: 8542 f83e 254e 093f 241e b33e 3821 f53e
00000110: da95 033f 47bc 3b40 6696 eb3e 86ce 0d40
00000120: dd23 f03e 1bda 013f 2fa9 943e 455d 943e
00000130: 2bb2 f43e ee38 f83e 0318 9a3e 11d0 9c3e
00000140: e3f8 f53e 7165 c340 3296 5840 1ad7 48c0
00000150: fa89 033f a773 9b3e 0ad2 fb3e caee 023f
00000160: 03b3 9f3e 3ef7 a03e bd7d 0d3f e7f0 413f
00000170: 62e0 973e dc2a ef3e e9d2 143f d482 053f
00000180: f2c7 063f 30c4 0d3f 846b e63e 5d88 053f
00000190: 2b70 d03e 2500 f93e b4ec 193f f165 013f
000001a0: dd2d 2d3f cc14 0a40 66da 2f3f 331e f53e
000001b0: 6884 0a3f 74fc 163f 01b1 023f fcec 9c3e
000001c0: b650 1c3f 8455 073f 05e3 de3e 411b fa3e
000001d0: eb95 e23e 9fd6 943e 28ed de3e 8c70 0b3f
000001e0: d111 f13e 6828 0d3f 9fab f63e dcd2 ef3e
000001f0: 3ce5 0a3f 7251 393f 1fa8 973e bdd9 0c3f
00000200: d4de 963e f5d4 053f fe4c 0c3f b056 103f
00000210: 9bf0 353f e18f c53e 866d 0e3f 3351 053f
00000220: 4f93 a53e 3b0f 0e3f 0542 963e 2673 f53e
00000230: fc9f 9e40 433f f43e d38a 9e3e 8fd2 083f
00000240: f95a 3ac0 4a6c 023f 41dc af3e 4264 0e3f
00000250: 892d f43e 1360 233f 2760 8b3d fbbe 013f
00000260: 6d54 e03e 8398 103f b31c e93e b3a9 3a3f
00000270: cf2b 023f 9c40 3a3f 474c 023f 6606 e43e
00000280: 256b d43e 2936 083f b39e 323f bda5 47c0
00000290: 5d91 093f 5983 9e3e 0898 fa3e e6a8 123f
000002a0: df0d ef3e 38a4 4a40 1904 f33e 0f13 373f
000002b0: 5474 f33e 0cb7 0b3f 7487 373f ede2 023f
000002c0: 1a7f f73e a3e2 ff3e 058d 013f dd08 3b3f
000002d0: a7e8 043f 6d68 aa3e ad56 fd3e e547 9f3e
000002e0: ba8e 973e 161f 993e 9c9f 9c3e 4586 0f3f
000002f0: 634c 1c3f 43e6 b440 5ec2 023f 04a7 0c3f
00000300: 9dc7 89bc 33bc cd3e 8384 033f e001 fa3e
00000310: 73f3 053f 2861 0e3f 7b31 363f 6cab 093f
00000320: 5130 0d3f 62da 7b3f 9bdd 303f 40f3 da3e
00000330: 54a7 2f3f 9726 063f 7dea 023f 7b1e 953e
00000340: 87cb 0f3f a723 0c3f 24b1 973e 7def 0c3f
00000350: 90ff 9f3e 339e ec3e c352 0c3f 03e4 083f
00000360: db27 ea3e 4ad8 373f fa96 063f bf3d d33e
00000370: b67f 0f3f bbba 3440 5e5a ac3e 2d58 113f
00000380: 5c46 313f 17c0 973e 8ee8 353f 5af2 0f3f
00000390: 253a 023f 8e3a 973e e3dc f83e 1c33 013f
000003a0: c222 003f d259 063f 7a31 0f3f 18c5 ee3e
000003b0: 2733 fb3e 6cdf 333f 0d54 043f 8c4a 063f
000003c0: 33aa 963e 058b 023f 125e cc3e 864c 093f
000003d0: c846 963e 63ec 44c0 5fa0 0a3f b341 f53e
000003e0: d8b3 0f3f af26 de3e 9626 973e 9d50 0b3f
000003f0: 73ff 023f ea5f 0a3f 93ea 393f 99c1 983e
0.31480148 0.7382828 0.42176554 0.62795836 0.6638905 0.50224715 0.42354447 0.5110913
0.44528618 0.40002728 0.48400095 0.53368366 0.49783674 0.454028 0.7238937 0.29513454
0.3053735 0.46524897 0.72264826 0.6123164 0.5076382 0.48083577 0.54893064 0.5025738
0.52612454 0.32302412 0.4418146 0.510695 0.71651435 0.51080227 0.4835469 0.52751017
0.43386406 0.45766222 0.7137753 0.20550779 0.5078246 0.5358981 0.5436721 0.29892075
0.46769506 0.7196063 0.54918283 0.6832453 0.42942753 0.4673076 0.31198177 0.5623964
0.53279334 0.29229444 0.5685519 0.7349049 0.5383095 0.3620262 0.49025598 0.6746728
0.5233127 0.72093344 -2.897732 0.52306753 0.30149493 0.55118227 0.46158653 0.51627004
0.4848825 0.53634864 0.34983933 0.47876906 0.5140053 2.9333665 0.46013182 2.2157302
0.46902362 0.5072343 0.29035327 0.2897741 0.4779218 0.48480934 0.30096444 0.30627492
0.48041448 6.106133 3.3841672 -3.1381288 0.5138241 0.30361673 0.49183685 0.51145613
0.31191263 0.3143863 0.55269986 0.7575821 0.29663378 0.46712387 0.58134323 0.5215275
0.5264884 0.55377483 0.45003903 0.521612 0.40710577 0.48632923 0.60126805 0.50546175
0.67648107 2.1575193 0.68692625 0.47874603 0.54108286 0.5897896 0.51051337 0.30649555
0.61060655 0.5286486 0.43532577 0.48848918 0.44255003 0.29069993 0.4354031 0.5446861
0.47083905 0.5513978 0.48177812 0.4684056 0.54256034 0.723899 0.29620454 0.5501974
0.2946688 0.5227807 0.5480498 0.56382275 0.7107026 0.38586333 0.5563587 0.52077025
0.3233895 0.5549199 0.29347244 0.47939414 4.9570293 0.47704515 0.3096529 0.53446287
-2.9118025 0.50946486 0.34347728 0.5562173 0.4769099 0.6381847 0.06805449 0.5068204
0.43814412 0.56482714 0.45529708 0.7291519 0.50848097 0.72754836 0.5089764 0.44536132
0.41487995 0.5320764 0.69773406 -3.1194909 0.5373743 0.30959585 0.48944116 0.5728897
0.4669027 3.166273 0.47464064 0.71513456 0.4754969 0.5457618 0.7169106 0.5112751
0.48339158 0.49977598 0.50605804 0.730604 0.519175 0.33282796 0.4948019 0.3110954
0.2960108 0.2990653 0.30590522 0.56064254 0.61054057 5.653108 0.5107783 0.54942346
-0.016818816 0.40182647 0.5137407 0.48829556 0.523246 0.55617 0.7116925 0.53777194
0.5515185 0.983801 0.69088143 0.4276371 0.686147 0.52402633 0.5113905 0.29124817
0.56169933 0.547419 0.29627335 0.5505293 0.31249666 0.46214446 0.54813784 0.5347292
0.45733532 0.71814406 0.5257412 0.41258046 0.56054246 2.8238971 0.33662695 0.5677517
0.69247985 0.2963874 0.71057975 0.56229174 0.5086997 0.2953686 0.48606023 0.5046861
0.50053036 0.52480805 0.5593487 0.46634746 0.49062464 0.7026279 0.5169075 0.524575
0.29426727 0.50993377 0.3991552 0.5363239 0.29350877 -3.076928 0.54150957 0.47901687
0.56133795 0.43388888 0.29521626 0.5441988 0.51171035 0.54052603 0.72623557 0.29835203

utn.0.bias f4 [256]
00000000: 049a 7bc1 136b 0ec1 6d37 7fc1 ab76 78c1
00000010: ed55 7cc1 6ce6 77c1 e370 84c1 8d40 72c1
00000020: db2d 84c1 8ba3 84c1 f1b9 82c1 ea38 83c1
00000030: f0a0 83c1 0684 60c1 3dea 7ec1 0254 83c1
00000040: 3f3d 7bc1 4adc 80c1 b965 7cc1 2bfb 7dc1
00000050: cf57 75c1 d4d9 83c1 9266 83c1 28ad 78c1
00000060: c22c 83c1 b72d 6dc1 ae49 84c1 2a67 83c1
00000070: 762a 7fc1 599f 75c1 2d0a 83c1 0ab8 82c1
00000080: a66e 7fc1 5027 82c1 81b0 7cc1 0e33 1dc1
00000090: 37c8 82c1 d4ec 82c1 0428 83c1 95af 85c1
000000a0: f093 80c1 79be 7dc1 a303 83c1 2bf1 7cc1
000000b0: 0ed0 7fc1 c58b 82c1 9e98 85c1 ccd5 82c1
000000c0: 404a 83c1 02d8 82c1 d9ac 82c1 8302 f3c0
000000d0: 1ef5 82c1 b0ea 84c1 bbbf 83c1 6753 80c1
000000e0: 9833 83c1 9d0a 7dc1 ce2f 0240 9420 83c1
000000f0: 627c 85c1 341e 83c1 016c 82c1 6131 83c1
00000100: 6dc8 82c1 9a19 83c1 9604 4dc1 f1f2 83c1
00000110: 7ec7 71c1 6e98 bb40 9663 82c1 9979 0cc1
00000120: 6df6 81c1 1951 74c1 e0e5 83c1 3fd8 82c1
00000130: 09cb 7cc1 7eda 82c1 b067 80c1 4667 85c1
00000140: 4e89 83c1 65bc acbf e03b 9fc0 a0d4 8c40
00000150: ad96 83c1 3d1d 85c1 4140 79c1 3d3d 83c1
00000160: d291 85c1 c43d 7dc1 4be8 82c1 bc72 d5c0
00000170: b0af 85c1 9deb 81c1 5155 70c1 746b 83c1
00000180: e247 83c1 6511 83c1 8526 82c1 5e66 81c1
00000190: 0f99 84c1 e5af 82c1 d4f8 78c1 0186 83c1
000001a0: 5b9a 79c1 9197 0cc1 f6d4 7cc1 e650 82c1
000001b0: f40b 83c1 5ae3 34c1 5fa7 76c1 2d8a 85c1
000001c0: 941a 7ac1 01e5 82c1 a448 84c1 ac69 83c1
000001d0: e720 82c1 f469 82c1 7956 2cc1 f706 83c1
000001e0: 345a 7fc1 0ffe 82c1 fc06 84c1 911f 7fc1
000001f0: 3773 82c1 a512 7ec1 4675 84c1 aaf8 82c1
00000200: 5615 83c1 f45f 83c1 c5f8 82c1 f5c7 82c1
00000210: 8ecb 7cc1 d7b2 84c1 12d7 82c1 c87c 83c1
00000220: a4f7 6dc1 2b71 83c1 26f7 80c1 2762 7cc1
00000230: 056a 4b40 1239 7fc1 e8a6 85c1 7f27 83c1
00000240: 6d18 98bd e99f 83c1 8a20 85c1 9cfd 82c1
00000250: 9ffa 82c1 a982 7dc1 5477 fac0 1a32 82c1
00000260: 2d8d 84c1 3aa9 82c1 a638 84c1 7e88 7dc1
00000270: faa0 76c1 49a6 7ec1 9164 83c1 882e 82c1
00000280: 17a2 2fc1 e74f 83c1 8550 80c1 4df4 8a40
00000290: d125 83c1 ff66 85c1 e7f4 81c1 b27a 82c1
000002a0: f90d 82c1 f0bf ffc0 d255 80c1 e4a0 7cc1
000002b0: 2701 82c1 96f4 82c1 caa2 7bc1 76f6 82c1
000002c0: f1c7 7bc1 956f 83c1 da37 83c1 2320 7dc1
000002d0: 0438 83c1 8367 85c1 412f 7ac1 4533 7ac1
000002e0: eb27 82c1 1b2e 80c1 07f6 7fc1 f2b7 82c1
000002f0: b0bb 79c1 6f4e a9bf f393 83c1 aae4 82c1
00000300: 4473 cec0 6899 2fc1 58fd 82c1 d77d 82c1
00000310: 5e12 83c1 b7d9 82c1 1be9 7cc1 8615 83c1
00000320: d30a 83c1 2b89 92c0 18d0 78c1 8c85 7fc1
00000330: 87d4 7cc1 ea11 83c1 b82c 83c1 f4c8 83c1
00000340: 0cd9 82c1 4c2a 83c1 3ee5 84c1 007d 83c1
00000350: b350 79c1 d44e 84c1 440c 83c1 991b 83c1
00000360: 2364 83c1 45ed 7cc1 18c1 82c1 8108 7fc1
00000370: 437a 83c1 c98d a740 514e 85c1 21b5 82c1
00000380: fd49 7ac1 e1a2 85c1 b68e 7ac1 b2e4 82c1
00000390: a3f1 82c1 14fb 83c1 95b4 82c1 ed45 78c1
000003a0: 6960 83c1 c9f5 57c1 8bef 82c1 0339 82c1
000003b0: fb77 79c1 8a92 7cc1 9f8c 73c1 b724 83c1
000003c0: 144e 82c1 2c5c 83c1 a89a 84c1 fb3a 83c1
000003d0: 3c3d 84c1 591a 8440 c595 82c1 59fb 81c1
000003e0: 23d3 82c1 eaa2 84c1 3808 83c1 490b 83c1
000003f0: f076 83c1 30fd 82c1 d0a4 7dc1 6487 81c1
-15.725101 -8.901141 -15.951032 -15.528972 -15.770978 -15.493755 -16.55512 -15.140759
-16.52239 -16.579855 -16.340792 -16.40279 -16.453583 -14.032232 -15.932187 -16.41602
-15.702453 -16.107563 -15.774835 -15.87382 -15.333938 -16.481361 -16.425083 -15.542274
-16.396854 -14.823661 -16.535976 -16.425373 -15.947866 -15.351403 -16.379969 -16.339863
-15.964514 -16.269196 -15.793092 -9.824965 -16.347761 -16.365639 -16.394539 -16.710733
-16.072235 -15.859002 -16.376776 -15.808879 -15.988295 -16.318247 -16.69952 -16.354393
-16.411255 -16.355473 -16.334398 -7.5940566 -16.369686 -16.614594 -16.468618 -16.040724
-16.400192 -15.815091 2.0341678 -16.390907 -16.685734 -16.389748 -16.302736 -16.39911
-16.347864 -16.3875 -12.81362 -16.493624 -15.111204 5.862357 -16.298626 -8.779687
-16.245325 -15.269799 -16.487244 -16.355589 -15.799569 -16.356686 -16.050629 -16.675426
-16.442043 -1.3494993 -4.976059 4.400955 -16.448572 -16.639277 -15.578187 -16.404902
-16.696201 -15.8275795 -16.363424 -6.6702557 -16.710785 -16.240046 -15.020829 -16.427467
-16.410099 -16.383493 -16.268808 -16.174984 -16.574736 -16.335886 -15.560749 -16.440432
-15.600184 -8.7870035 -15.801992 -16.289501 -16.380836 -11.305506 -15.415862 -16.692469
-15.631489 -16.361818 -16.53547 -16.426598 -16.266066 -16.301735 -10.7711115 -16.3784
-15.959522 -16.374052 -16.50341 -15.945207 -16.306257 -15.879552 -16.557262 -16.371418
-16.385418 -16.421852 -16.37147 -16.347635 -15.799696 -16.587324 -16.355015 -16.435928
-14.872959 -16.430258 -16.120678 -15.773963 3.178346 -15.951433 -16.706497 -16.394285
-0.07426534 -16.453081 -16.640888 -16.373833 -16.372374 -15.844399 -7.8270664 -16.274464
-16.568933 -16.33263 -16.52766 -15.845823 -15.414301 -15.915597 -16.424105 -16.27272
-10.977073 -16.414015 -16.039316 4.342322 -16.393465 -16.675291 -16.244581 -16.30991
-16.256823 -7.99218 -16.041904 -15.78928 -16.250563 -16.369427 -15.727243 -16.370342
-15.736314 -16.429483 -16.402271 -15.820346 -16.402351 -16.675543 -15.636537 -15.637517
-16.269491 -16.022512 -15.997565 -16.339817 -15.608322 -1.3227061 -16.44724 -16.361652
-6.4515705 -10.974953 -16.373703 -16.311445 -16.383968 -16.356306 -15.8069105 -16.38551
-16.380285 -4.579244 -15.550804 -15.970104 -15.801887 -16.383747 -16.396835 -16.473122
-16.35598 -16.395653 -16.611935 -16.436035 -15.582202 -16.53849 -16.38099 -16.388475
-16.423895 -15.807927 -16.344284 -15.939576 -16.434698 5.2360578 -16.66324 -16.338442
-15.643064 -16.70453 -15.659842 -16.361668 -16.367987 -16.497597 -16.338175 -15.517072
-16.422075 -13.497506 -16.366964 -16.277838 -15.591792 -15.785776 -15.221831 -16.392927
-16.288124 -16.420006 -16.575516 -16.4038 -16.5299 4.1282163 -16.32313 -16.247728
-16.353094 -16.579548 -16.379013 -16.38051 -16.433075 -16.373627 -15.852737 -16.191109

utn.2.weight f4 [128, 256]
00000000: b6f2 5dc0 185d edbf 52dd 04bc 8047 a0bc
00000010: 5d68 513e b722 82bf dba3 94bf e063 32bf
00000020: 66e6 82bf 70e1 a1bf d725 c3be fb4e fdbe
00000030: da70 e9be 3f9c 173e 96a4 6d3c 0053 22c0
00000040: a1e0 5fc0 0608 69bf e001 d03c d238 ecbc
00000050: aadb 3cbf 653f 71bf 21fd 2abf 8a91 6fbf
00000060: 99f4 f5be 8ba4 82c0 1847 8dbf 7559 39bf
00000070: c552 96bd f4d7 5ebf c8b7 d8be 582b 27bf
00000080: 4ad9 37bc 8545 41be 5049 51bd c2f3 1d3f
00000090: 4ef3 dabe 448f 2bbf 19e9 30bf a95a f7bf
000000a0: 1ef3 5fbf 51d0 0f3c df13 10bf ae31 42bd
000000b0: 3905 a3bc fc18 aabe 47b2 dabf 2301 16bf
000000c0: 0954 09bf c249 32c0 0c89 14bf a809 91bf
000000d0: 8b4c 27bf 46a2 a8bf 0fbd 67bf 15fa 9bbd
000000e0: d7e7 2cbf b841 e23b 6526 b43f 814a edbe
000000f0: 7e8f f8bf 601e 21bf 60ce 90be 3599 37bf
00000100: e204 38bf 2e13 01bf 8774 aec0 4afd 62bf
00000110: e8bf 3abf e35f 2fbf f805 7ebe 82a1 2ac1
00000120: 3c03 46bf efc4 45bf 4eeb 21c0 634d 30c0
00000130: 9a82 82bf e10c c9be 1e5e 48c0 a0ff efbf
00000140: b688 efbe 785b 11c0 1930 2ac0 83e5 e13f
00000150: ae75 52bf e6a6 febf 3021 7bbf f25b f0be
00000160: 7c26 e5bf 4543 4cc0 112e 1ebf daa4 84bf
00000170: d0bb f3bf e9c5 53bf 5a1e 223d 96af 32bf
00000180: 11d9 40bf 25ea 17bf 682d 25be bb85 3ebe
00000190: 669c 99bf db22 34bf 6369 b33e cf9a 43bf
000001a0: 29bf 463e 1e2c 2ec1 d2b7 0ebd 88b4 9fbe
000001b0: 6bfc 04bf 66b5 acbf 5cd6 7abf 2610 f5bf
000001c0: 32ad 9dbc d404 32bf f7c3 87bf 0c2d e9be
000001d0: d04b c2bd 22d4 30c0 b704 e8c0 374a 2dbf
000001e0: dd6a 7cbf 4742 13bf 493e 67bf ff0d 64bf
000001f0: 3fda e6be 88f2 86bd c882 10c0 47d6 02bf
00000200: 91b8 25c0 ac15 0abf cede 01bf 8300 10bf
00000210: 54a4 59bd 0eec a7bf 4e9a 22bf 031f 47bf
00000220: cd25 81c0 55fb 14bf a55f 40c0 3b1d 6ebf
00000230: 8ce2 8dbf a89f 5dbf dd59 e5bf ac1b 2abf
00000240: f931 0740 2b05 e5be 5397 c0bf 0aea 0dbf
00000250: f651 d0be 054a 21bd 8ff2 8c3f d1c2 afbe
00000260: 404e 9abf c441 13bf a165 85bf a8d4 87bc
00000270: 9815 6ebf 6e81 fcbc 8bcd ffbe cc86 25be
00000280: 3851 dcc0 a910 39bf 35a1 e13b ff22 e43f
00000290: e1c7 fabe b8fa f4bf 8a63 65be 65d7 16bf
000002a0: d015 2dbe 027d 5dc1 c774 63bf 5f78 4d3b
000002b0: fd01 4bbf 7852 04bf 9ee8 a63d 2d25 33bf
000002c0: d366 85bf 0128 efbe bf0e 49bf 3c52 9abc
000002d0: ad4e 2cbf 1e8b dcbf 9b29 62bf b367 64c0
000002e0: 346d 36c0 03c4 4cc0 9029 43c0 cdb0 13bf
000002f0: cf35 ebbc 997a 08c0 3f41 5abf 5fd9 1cbf
00000300: 8aad b33f a8f0 dfc0 5387 f4be 5075 b2be
00000310: b7f3 f1be 8d8a 12bf 0763 9a3d 2e65 1abf
00000320: a119 0bbf a2e2 7abf 5d98 373e bfb7 49bc
00000330: ecf0 04bd 11ef 38bf 9c86 edbe 1379 21c0
00000340: f60a 09bf 6aaa 25bf 2b42 04c0 9500 22bf
00000350: 2068 64c0 438f 88bf 7ee6 17bf bfc4 12bf
00000360: b980 cebe 7630 63bd 300c 24bf ee80 6bbc
00000370: 7a78 22bf c82f 58bf 0da1 cbbf 5072 12bf
00000380: 366d 253e 8728 f7bf b1d7 da3d 788b 10bf
00000390: 06f2 edbe ddd3 13c0 52c0 32bf 7784 78bf
000003a0: cb0d 3ebf d97f 65bf 589d 21bf 2f75 6dbe
000003b0: 89a2 81bf e86c 28bd 9427 72bf 509b 31bf
000003c0: c309 32c0 3992 48bf 6da8 9fbf ae8a 1abf
000003d0: c34f 1cc0 64dc e23f a4b1 1ebf f048 6dbe
000003e0: c709 15bf e0ae 96bf b351 26c0 dec1 14bf
000003f0: deb3 4fbf 5518 00bf e089 823c f4a6 31c0
-3.467939 -1.8544035 -0.0081094075 -0.019565344 0.20449968 -1.0166844 -1.1612505 -0.6968365
-1.0226562 -1.2646923 -0.38114807 -0.4947432 -0.4559391 0.14805697 0.014504572 -2.536316
-3.4980853 -0.9102787 0.02539152 -0.028835688 -0.7377268 -0.9423736 -0.66792494 -0.9358145
-0.48038176 -4.082586 -1.1037321 -0.72402126 -0.07340006 -0.8704827 -0.42327714 -0.6530051
-0.011221239 -0.18874176 -0.051095307 0.6170007 -0.42763752 -0.6701548 -0.6910568 -1.9324542
-0.8748034 0.008777694 -0.5628032 -0.04741066 -0.019899951 -0.33222187 -1.7085656 -0.58595484
-0.5364385 -2.7857518 -0.58021617 -1.1331072 -0.6535117 -1.3174522 -0.90522856 -0.07616059
-0.6754126 0.006904807 1.4074217 -0.46345904 -1.941879 -0.62936974 -0.28282452 -0.7171815
-0.7188245 -0.5041989 -5.4517245 -0.8866774 -0.72949076 -0.68505687 -0.24806964 -10.664431
-0.77348685 -0.7725362 -2.5299869 -2.7547233 -1.0196106 -0.39267638 -3.1307445 -1.8749886
-0.4678399 -2.2712078 -2.6591856 1.7648166 -0.82210815 -1.9894683 -0.98097515 -0.4694515
-1.790237 -3.1916058 -0.6178904 -1.0362809 -1.9041691 -0.8272386 0.039579727 -0.6979917
-0.7533122 -0.5934165 -0.16130602 -0.18605702 -1.2000854 -0.70365685 0.3504134 -0.76408094
0.1940886 -10.885771 -0.034843273 -0.31192422 -0.5194766 -1.3492858 -0.97983336 -1.9145553
-0.019247625 -0.6953862 -1.0606679 -0.4554218 -0.09487116 -2.7629476 -7.2505755 -0.6769137
-0.9860056 -0.57523006 -0.90329415 -0.89083856 -0.45088384 -0.06589228 -2.2579823 -0.5110821
-2.58939 -0.5393932 -0.507306 -0.5625078 -0.05313523 -1.3118913 -0.635167 -0.77781695
-4.0358644 -0.58196 -3.0058377 -0.9301335 -1.1084762 -0.8657174 -1.7918049 -0.66448474
2.112425 -0.44730505 -1.504618 -0.5543524 -0.4068753 -0.03937723 1.1011523 -0.3432832
-1.205513 -0.57522225 -1.042164 -0.016580895 -0.930017 -0.030823436 -0.49961504 -0.16164702
-6.8849144 -0.72291046 0.0068856725 1.782318 -0.4898062 -1.9139013 -0.22401252 -0.58922416
-0.16902852 -13.8430195 -0.88850063 0.0031352264 -0.7929991 -0.5168834 0.08149837 -0.699786
-1.0422004 -0.46710208 -0.78538126 -0.01883804 -0.6730755 -1.7229955 -0.88344735 -3.5688293
-2.8504152 -3.1994636 -3.0494118 -0.5769165 -0.028712181 -2.1324828 -0.8525581 -0.6126918
1.4037335 -6.998127 -0.47759494 -0.34855127 -0.47256252 -0.5724266 0.07538419 -0.6031064
-0.5433598 -0.98002064 0.17929216 -0.012311875 -0.032456324 -0.72239786 -0.4639176 -2.5230148
-0.5353235 -0.64713156 -2.0665386 -0.6328214 -3.5688553 -1.066872 -0.5933608 -0.5733146
-0.40332583 -0.055466138 -0.64081097 -0.014374001 -0.6346508 -0.8444791 -1.5908524 -0.5720568
0.16154942 -1.9309243 0.10685671 -0.5646281 -0.46473712 -2.309806 -0.6982471 -0.97077125
-0.74239796 -0.89648205 -0.6313071 -0.23189233 -1.0127727 -0.041119486 -0.9459164 -0.69377613
-2.7818458 -0.7834812 -1.2473274 -0.6036786 -2.4423683 1.7723508 -0.6198981 -0.23172355
-0.58218044 -1.1772118 -2.5987365 -0.5810832 -0.8113383 -0.5003713 0.015934885 -2.775815

utn.2.bias f4 [128]
00000000: e7e5 b23f 1b3d 2ec0 5a63 25c0 b820 95bf
00000010: 62c6 aabf 280b b3bf 370a 00c0 0527 bdbf
00000020: c26a 8abf 4b67 04c0 a4f0 2bc0 450a 5cc0
00000030: 5a77 10c0 d24a 07c0 5926 febf 1fcf 11c0
00000040: 5c75 00c0 82a7 f7bf 3317 d0bf 6c05 0dbf
00000050: a901 c6bf b17c f5bf c2c2 bbbf 4b80 2240
00000060: 7db9 5dc0 b68a 5840 1449 b3bf d84e e5bf
00000070: afeb bdbf b398 4ec0 720d 29c0 d06b bfbf
00000080: 370f d7bf 975e 1940 3209 e8bf 5220 c9bf
00000090: 11ca 1d40 11b6 05c0 1f7d 85bf b90b e3bf
000000a0: 9cd4 07c0 df6b c9bf 596c b43f 747e e4bf
000000b0: 562f 1abf c364 f1bf e3d6 04c0 8bde cabf
000000c0: b145 aebf 5e65 ccbf 2a05 97bf a2b5 e5bf
000000d0: 686e 15c0 abf4 5740 958d 5840 3576 27c0
000000e0: f195 fdbf 2eba ddbf ca35 09c0 9864 84bf
000000f0: ee71 afbf 2fcb b7bf 27f3 94bf 7594 943f
00000100: 7d37 c0bf 5c5a 4240 aba3 a2bf 737d 0ebe
00000110: 8036 91bf a9c3 a8bf ba46 92bf c31b 6140
00000120: 6339 2440 8e59 853f c8dd 18c0 fb05 eebf
00000130: 72fa 25c0 2461 4940 93a1 cabf 8712 ecbf
00000140: 9f38 1abf 6a03 b9bf 8619 0bc0 1320 34c0
00000150: 0f9c 7540 0e96 44be d7d0 f0bf bf4b a1bf
00000160: f455 d5bf fb7e 5fbf 148d 9fbf 1932 55bf
00000170: bcb4 ddbf ab7e e3bf be51 18c0 4c09 e1bf
00000180: b96f 05c0 e0b9 dcbf bc61 93bf 9175 fdbf
00000190: cb1f 4d40 9ac1 5040 7650 6240 c235 643f
000001a0: f536 09bf a45c e0bf fbf1 d1bf 404e c8bf
000001b0: fc31 cdbf 89fd 9ebf e8c7 afbf d4ef f5bf
000001c0: e634 efbf da6c 7d3f 0ff5 c7bf f229 bdbf
000001d0: 3ade 40c0 9259 973f e8c1 1ac0 ad4e 4dc0
000001e0: bdd4 0ac0 f235 b1bf a60b dbbf 7bc1 0ec0
000001f0: 6cd9 24c0 6373 32bf 99e1 c5bf 5db5 13c0
1.3976411 -2.7224796 -2.584189 -1.165061 -1.3341792 -1.398778 -2.0006235 -1.4777533
-1.081383 -2.0688045 -2.6865625 -3.4381268 -2.2572846 -2.1139417 -1.9855453 -2.2782667
-2.007163 -1.9347994 -1.625708 -0.550864 -1.5469257 -1.9178678 -1.466881 2.5390804
-3.4644463 3.3834662 -1.4006677 -1.7914686 -1.483755 -3.22807 -2.6414456 -1.4954777
-1.6801518 2.3963983 -1.8127806 -1.5712988 2.4654582 -2.0892375 -1.0428809 -1.7737952
-2.1223516 -1.5736045 1.4095565 -1.785109 -0.6022848 -1.8858875 -2.0756156 -1.5849165
-1.3615018 -1.5968435 -1.1798451 -1.7946055 -2.3348637 3.3743083 3.3836415 -2.6165898
-1.9811383 -1.7322443 -2.143908 -1.0343199 -1.3706644 -1.4358882 -1.1636704 1.1607805
-1.5016934 3.036765 -1.2706198 -0.13915043 -1.1344757 -1.3184711 -1.1427834 3.5173194
2.5660026 1.0417955 -2.3885365 -1.8595575 -2.593411 3.146554 -1.5830559 -1.8443154
-0.60242647 -1.4454167 -2.1734328 -2.8144577 3.83765 -0.19197866 -1.8813733 -1.2601241
-1.6666856 -0.8730313 -1.2464929 -0.8327957 -1.7320781 -1.7773031 -2.3799891 -1.7580962
-2.084944 -1.7244225 -1.1514201 -1.9801503 3.2050655 3.2618165 3.536161 0.8914453
-0.5359948 -1.7528272 -1.6401972 -1.564888 -1.6030879 -1.2421123 -1.3732882 -1.9213815
-1.8688018 0.9899422 -1.5621661 -1.4778426 -3.0135636 1.182421 -2.418085 -3.207927
-2.1692345 -1.3844588 -1.711293 -2.230559 -2.5757704 -0.69707316 -1.5459472 -2.3079445

utn.4.weight f4 [15, 128]
00000000: eb36 0e41 7026 e53f 7ba9 4340 282b 393d
00000010: 8ea2 193e 43a2 9fbe e2b2 3fbf 8b28 ccbe
00000020: 65fa d63f 5b7e 113f 8287 4a40 d9c5 8b3e
00000030: 9011 9f3e 2902 35bf 1cbb f5be 7097 ba3f
00000040: 722d 1240 275e 77bf 24c0 4bbf 8181 6c40
00000050: 7a7f 07bf b1d4 f3be cbd5 1cbf 66f5 04c0
00000060: 9fbf 183f e069 08c0 d78b 9a3d a542 0c3f
00000070: 2e55 56bf 8fe1 3940 e302 5e40 5352 a2be
00000080: c56f 48bf f9f0 e2bf b2dd f33e 4e85 0cbf
00000090: 26c6 f2bf bd36 27bf 48ae ca3f 6f28 3abe
000000a0: d440 4dbe 7b1e 2fbf 8ac2 5c40 39ca 55be
000000b0: 3768 83bb 45bc 7abe 70cf 2cbf cdf1 4cbf
000000c0: c607 543c 6c3b 12be 6569 433f 369d 56bf
000000d0: b058 c4be a674 05c0 ddb8 07c0 0c26 0dbf
000000e0: c3f0 29bf bd8f ad3e cdf9 92be e6b8 103f
000000f0: 5316 e2be 9158 afbe d02f 41be f4c5 dcbd
00000100: 76d2 e7be 1f9d eebf ff74 a2be e0c6 e8bf
00000110: 1fa2 9bbd 54c2 9ebe 70fa f33f ba5c fabf
00000120: 2c37 06c0 5bc4 2b40 dd3e 97bc a7de 46bf
00000130: 1dfe 95c0 0cbc 09c0 d9e6 1fbf 45ad debe
00000140: 45c7 c3bf 7c4d fbbd 48b2 01bf cb3f e43f
00000150: 4ca2 03c0 6a63 8f40 6910 033f 22ec b2bf
00000160: 343d d8bd cf92 68be 0afa fa3b 2986 473f
00000170: 3576 66bf 6e55 843d cc9e c43d 6947 61bf
00000180: f2eb 0740 0b30 17bf 6a25 8b3e 9e82 61bf
00000190: 675b 05c0 975c fdbf 1ba2 0cc0 d73d 4341
000001a0: 1f59 b440 a3e9 67be b353 b1bf 8228 4c3e
000001b0: 1e78 023f 2c0e fbbe 43e9 b4bd 9f05 be3f
000001c0: f24e 6bbf 3846 efc0 944b ddbe ef59 eb3e
000001d0: ee07 7940 a0f0 abbf 75fe 733e bcb4 6940
000001e0: 424e 903e b5bc b340 5422 4dbf bfdc 553f
000001f0: cf9c e33e 9bb9 373f 2655 16bf a9a2 b8be
00000200: 41a6 4740 e420 bebe 5e12 043f c42c 81bf
00000210: ff19 c8bf 1237 8fbf cf9f 18bf 1cc5 52bf
00000220: f516 9dbf 1957 0dbf c6f1 f93e 3d4d 713f
00000230: df1c a93d c3ad 38bf 2328 f4be 5254 0940
00000240: bc1f 8040 82d3 3dbf b4bc afbf aaf0 80bf
00000250: 6bf0 55bf 9014 2dbf 3adb 30bf 5977 c1bf
00000260: 49d7 14be a6f5 bfbf a8fd 82bf f071 b7be
00000270: f06e 31bf a523 d73f 9511 993e b652 5cbf
00000280: dcba 6fbf dd34 babf d58d d4bf 7c2d 75bf
00000290: 8147 b6bf 19f8 6fbf c46e a5bf 4c60 60bf
000002a0: 48dd 96be 3725 98bf 9e5c 903f 633c 50bf
000002b0: 59aa a540 8dad 87bf abc8 0dbf a1d7 40bf
000002c0: 738e 7bbf 955d 92bf 5b88 90bf 8aeb 46bf
000002d0: e69a 0dc0 5b4b b7bf f0c1 c3bf 7535 70bf
000002e0: fad0 37bf e002 3fbf 0ca9 a9bf 3a80 80bf
000002f0: 1bde 84bf 05b7 8ebf 0ac2 f0be 646b 30c0
00000300: cb5e 8abf 7db9 9ebf ee8e 87bf ebf4 e5bf
00000310: e1cf 65bf 2807 75bf 97bf e63f c7d2 c2bf
00000320: 5f1f bdbf 99c8 ae3e 3e83 f53e 12e5 4fbf
00000330: eb32 1d3f 9770 cebf 0119 44bf 3bf2 45bf
00000340: f640 c7be 9164 77bf b014 31bf 8b37 2b3f
00000350: 4aea c1bf fa51 4dc0 3b45 7bbd 9517 b43d
00000360: 5d13 5ebf 2dbc fdbe b2d9 81bf fa54 fbbe
00000370: 1472 87bf b668 9cbf 2002 ebbe f99b 77bf
00000380: 0440 0e40 a66d 59bf bfc1 72bf 66f6 4abf
00000390: abf6 c3bf 7968 c2bf 2f59 d5bf d50b 5940
000003a0: 28c7 0d40 5ded 76bf f3a4 6840 ca4c 90bf
000003b0: d3fe d03e d443 8fbf 1a58 6bbf 22a5 853f
000003c0: d052 4dbf e989 9e40 79e4 83bf eb41 a1bf
000003d0: 82b4 5940 ffcd e23f b514 59be 98d9 4540
000003e0: 3a86 61bf 7fe0 ae40 4d56 59bf 23b1 8bbd
000003f0: f121 233f 3d89 9a3e d8cc 7bbf f817 00bf
8.888408 1.7902355 3.0572193 0.045207173 0.15003416 -0.31178483 -0.7488233 -0.39874682
1.6795164 0.5683343 3.1645207 0.27299383 0.31068087 -0.7070642 -0.47994316 1.4577465
2.2840238 -0.9662804 -0.7959006 3.6954043 -0.5292889 -0.47623208 -0.6126372 -2.077478
0.5966739 -2.131462 0.075462036 0.5478919 -0.83723724 2.904392 3.4689262 -0.31703433
-0.78295547 -1.7729789 0.47630078 -0.54890907 -1.896672 -0.653179 1.5834436 -0.18179487
-0.20044261 -0.68405885 3.4493737 -0.20877923 -0.004010226 -0.24485882 -0.67504025 -0.8005646
0.012941306 -0.1428048 0.76332694 -0.83833635 -0.38348913 -2.0852447 -2.1206582 -0.5513618
-0.66383 0.33898726 -0.28706208 0.5653213 -0.44157657 -0.34247258 -0.18865895 -0.10779944
-0.45277756 -1.86417 -0.31729886 -1.8185692 -0.075992815 -0.31007636 1.9060802 -1.9559548
-2.0971174 2.6838596 -0.018462593 -0.7768349 -4.6872697 -2.1521025 -0.6246162 -0.4349157
-1.5295187 -0.12270638 -0.5066266 1.7831968 -2.0567808 4.4808855 0.51196915 -1.3978312
-0.105585486 -0.22712253 0.0076592015 0.7793909 -0.9002412 0.06461607 0.096006006 -0.8799959
2.123776 -0.5905768 0.27176982 -0.8808993 -2.0837038 -1.9793881 -2.1973941 12.202598
5.635879 -0.22647719 -1.3853668 0.19937328 0.50964534 -0.4903425 -0.08833554 1.4845465
-0.91917336 -7.4773216 -0.43221724 0.4596705 3.891109 -1.3432808 0.23827536 3.6516562
0.28184706 5.6167855 -0.80130506 0.83539957 0.44455573 0.71767586 -0.58723676 -0.360616
3.1195223 -0.3713447 0.51590526 -1.0091786 -1.5632933 -1.1188681 -0.5961885 -0.82332015
-1.2272631 -0.55211025 0.4881727 0.9425848 0.0825746 -0.7214014 -0.47686872 2.1457715
4.003874 -0.7415086 -1.3729463 -1.0073445 -0.83569974 -0.676095 -0.69084513 -1.5114547
-0.1453525 -1.4996841 -1.023366 -0.35829115 -0.693099 1.6807753 0.29896227 -0.86063707
-0.936445 -1.4547383 -1.6605784 -0.9577253 -1.4240571 -0.9373794 -1.2924428 -0.8764694
-0.294657 -1.1886357 1.1278265 -0.8134214 5.1770444 -1.0599838 -0.5538432 -0.75329024
-0.98264235 -1.1434809 -1.1291612 -0.77703154 -2.2125793 -1.4319872 -1.529356 -0.9383157
-0.7180325 -0.7461376 -1.3254714 -1.0039132 -1.0380281 -1.1149603 -0.4702304 -2.7565546
-1.0810179 -1.2400357 -1.0590494 -1.7965368 -0.89770323 -0.95714045 1.8027219 -1.5220574
-1.4775199 0.3413742 0.47951692 -0.8120891 0.6140582 -1.612811 -0.7660065 -0.7732274
-0.3891675 -0.9663783 -0.6917219 0.66881627 -1.5149624 -3.2081285 -0.06134532 0.087935604
-0.86748296 -0.4955763 -1.014456 -0.4908827 -1.0581689 -1.2219455 -0.4590006 -0.9672237
2.2226572 -0.84932935 -0.94826883 -0.79282224 -1.5309652 -1.5188133 -1.6667842 3.3913472
2.2152805 -0.9645594 3.6350677 -1.1273434 0.40819415 -1.1192575 -0.9193131 1.044102
-0.80204487 4.9543347 -1.0304099 -1.2598242 3.4016423 1.7719115 -0.21199305 3.0914059
-0.8809544 5.4649043 -0.8489731 -0.068208955 0.63723665 0.3018283 -0.9835944 -0.50036573

utn.4.bias f4 [15]
00000000: 6a3e 0ac0 8ec2 bcbf 1195 c0bf e5b6 263d
00000010: 7477 a3be dd51 f9bf 5ebc 7cbf e542 57be
00000020: 3efc 36be 3089 ccbf 72e3 f4be 6191 c7bf
00000030: 100d 903d 02cd 99bf 45fd 5ebf
-2.1600595 -1.4746873 -1.5045491 0.040701766 -0.31927073 -1.9478108 -0.98724926 -0.21021612
-0.1786966 -1.5979366 -0.47829777 -1.5591241 0.070337415 -1.2015688 -0.8710521

itn.0.weight f4 [256, 2]
00000000: 3091 5241 209d 5f3c f4f5 9740 b2d6 3cbd
00000010: 0bc2 9b40 1943 09bd ed3a a840 72d2 26be
00000020: 1fc9 cd40 edbd 3f3f eb6f 9440 58a3 693c
00000030: 702e d740 adc8 e9bd 1f8a 9940 45dc 65bd
00000040: 4c54 9940 e545 a1bd c509 9e40 0fa0 6ebd
00000050: cedb 9f40 b9dd 6dbe 6745 9f40 88bc 93be
00000060: a8c9 a340 d59e 4bbe 0ebc ac40 df33 773e
00000070: 2566 cd40 1a3a 163d 99f6 9240 7dec 0ebe
00000080: 3ec2 9340 c954 dabd 0e49 6a40 1246 f1be
00000090: 103e a140 ce25 133e 36c4 a340 a106 f03d
000000a0: b6ab d040 388e 413e 02bd 9440 58d6 25bd
000000b0: 7ed4 9340 0ac6 69bd 2bef a340 2d7c bb3d
000000c0: f998 903f bce8 4040 146a aa40 8a70 02be
000000d0: d9c0 ae40 66c9 423e 5550 9f40 4618 a13c
000000e0: b284 9340 b6b3 17be 74d4 9940 1311 f4bd
000000f0: fc79 9740 f0be 2fbe e781 9440 ae8a cdbc
00000100: 5bb3 b640 8108 2a3e 9ff9 9440 5cc2 29be
00000110: d2d0 c540 df1d 8d3c a5b4 9340 38ae 88bd
00000120: 7606 9c40 6c60 81be 6d7b 9740 e477 95bd
00000130: d75f a140 217e 4bbe 9cf9 a340 efe4 97be
00000140: a6dd 9640 835d b9bd 77cb c440 46ab 1d3f
00000150: 9c25 ad40 37a0 8d3e 3513 9940 b323 1bbe
00000160: 46b9 bc40 bb52 be3e 50e9 b640 66a2 bc3e
00000170: f1a5 b340 c804 72be f0b4 9640 0e78 adbd
00000180: 0ec0 9540 0b0c abbc 6ab6 c640 a68c c8bd
00000190: 9fa6 9340 6b3f c0bd f48e 9340 1c58 2bbe
000001a0: 4f2b f240 3079 5dc0 c32e d740 01c0 19c0
000001b0: 5d15 c240 a8d1 b6bd b096 a640 e981 db3c
000001c0: a39c a140 036e 96be 8259 9a40 1796 96bd
000001d0: 4803 0841 bdc4 d1be 2438 a940 40b0 4d3d
000001e0: b08e 9640 aa69 a6bd c994 9440 927e 06be
000001f0: c0a1 c340 d3e8 eebc 7a9e c140 3b5c 273e
00000200: 4d5c 9d40 4ad6 1cbe 4ea9 9540 c064 66bd
00000210: a507 9540 a1ba f6bd 53a8 9240 696d 56be
00000220: c28b ad40 c3b4 85be c3e2 9c40 367b 00be
00000230: 6619 9f40 208e 57be aa71 9b40 3da6 5bbd
00000240: 3d36 cd40 ca41 95bc 02ce a040 ffe0 69be
00000250: c2b1 9440 670c 92bd c4c5 9f40 915b 6ebe
00000260: cd97 9b40 fd12 dbbd 42d3 a240 2d3e 81be
00000270: 7b83 9940 0288 e4bd 8cbc 9640 d236 4bbd
00000280: c35f 9440 febc 3fbe 23db 9440 7b25 e8bd
00000290: 6dc6 9540 5d8b 22be 9617 aa40 337d 85be
000002a0: 0f51 9d40 fb4b 133d aaf6 8640 bbc9 8ac0
000002b0: d8bf 8240 dc00 7840 8706 9a40 2344 1bbb
000002c0: 0754 9b40 37f7 e9bd 4186 a240 8042 acbd
000002d0: ecbd 9c40 8f9c adbe 326f 9b40 76fe 9bbd
000002e0: f1cb a73e 8e56 82c0 ca9a 9240 5603 c0bd
000002f0: d6bf c940 f24b 20bd fb72 ee40 2d58 403e
00000300: 9fe1 9a40 015c 8abd 35d8 ac40 3546 843e
00000310: 23ae 9540 e184 14be b717 9840 33e0 7ebd
00000320: 7fc8 9b40 e657 42bd 7828 ae40 f583 703d
00000330: a073 98c0 eba5 10bc 9a3b 9340 5a86 31bd
00000340: 446c 0541 4540 133e 7f4a ad40 aff5 89be
00000350: 29fd 9940 5624 18be 4157 9940 29dc afbe
00000360: 463a 9a40 4631 4fbe 304e ab40 6e09 583e
00000370: bd68 a840 4d74 05be 32b4 f140 e1cd ce3d
00000380: 86fd 9040 dc07 953d 0414 a040 6e70 08bd
00000390: c074 a140 0e00 7abe db6a c040 87fe fcbb
000003a0: 806d 9740 b89b 2abd ddd3 ef40 268a 08be
000003b0: bb09 af40 9a02 b33d 7b46 a140 04eb cf3d
000003c0: 0d33 db40 7f22 99c0 5abf ac40 7fdc c0bd
000003d0: 987d 9c40 1d7a c8be c90e a640 ac6c cbbc
000003e0: a5b9 9140 9afc 29be 4468 a740 c9b6 9dbe
000003f0: af44 aa40 7f9a a5bd cc05 a440 49be 263e
13.160446 0.013648301 4.7487736 -0.046103187 4.867437 -0.033511255 5.257193 -0.16291216
6.430801 0.7489918 4.638662 0.014260136 6.7244186 -0.11415229 4.7981105 -0.05611827
4.79154 -0.078746594 4.9386926 -0.058258113 4.9955816 -0.23229112 4.977222 -0.28854775
5.1183662 -0.19884808 5.397956 0.24140881 6.418719 0.036676504 4.5926023 -0.139574
4.617461 -0.10660703 3.660709 -0.47123772 5.038826 0.1436989 5.1177015 0.11720014
6.520961 0.18901908 4.6480722 -0.040487617 4.619689 -0.05707363 5.1229453 0.09154544
1.1296684 3.014205 5.325449 -0.12738243 5.461041 0.1902214 4.978556 0.019664895
4.609948 -0.14814648 4.807184 -0.11917319 4.7336407 -0.1716268 4.640857 -0.025090542
5.709394 0.16604806 4.6554713 -0.16578048 6.1817408 0.017226158 4.6158013 -0.066738546
4.8757887 -0.25268877 4.7338166 -0.07298258 5.042949 -0.19872333 5.12422 -0.2966685
4.7145567 -0.09051039 6.149837 0.6158947 5.410841 0.27661297 4.7835946 -0.15150337
5.8976164 0.37172493 5.7159805 0.3684265 5.6140065 -0.23634636 4.709587 -0.08470164
4.679694 -0.020879766 6.2097673 -0.097924516 4.6140895 -0.09387096 4.6112003 -0.1673283
7.5677867 -3.4605217 6.724458 -2.402344 6.065108 -0.089267075 5.2058945 0.026795344
5.0503707 -0.29380807 4.8234262 -0.07352846 8.500801 -0.40970412 5.288103 0.050216913
4.704918 -0.081256226 4.6431623 -0.1313422 6.113495 -0.029163754 6.0505953 0.16343777
4.917517 -0.1531612 4.676917 -0.056248426 4.657183 -0.120473154 4.5830474 -0.20940174
5.4233103 -0.26114473 4.902681 -0.12547001 4.9718504 -0.2105031 4.857625 -0.053625334
6.412871 -0.018219847 5.0251474 -0.22839735 4.646699 -0.07131272 4.9928913 -0.23277117
4.8622804 -0.10696981 5.0882883 -0.2524275 4.7973 -0.11158754 4.710516 -0.049612828
4.6366897 -0.18724439 4.65175 -0.11335274 4.680472 -0.15873475 5.315379 -0.26072082
4.916145 0.035961132 4.2176104 -4.3371253 4.0859184 3.8750525 4.813297 -0.0023691736
4.8540072 -0.114241056 5.0788884 -0.08411121 4.898184 -0.33908507 4.8573236 -0.07616894
0.32772782 -4.0730658 4.581395 -0.09375636 6.3046675 -0.039134927 7.4515357 0.18783636
4.8400416 -0.067558296 5.4013925 0.25834814 4.677507 -0.14503814 4.752895 -0.06222553
4.8682246 -0.047447108 5.44244 0.058719594 -4.7641144 -0.00882862 4.6010256 -0.04334102
8.338932 0.14379986 5.4153438 -0.26945254 4.8121533 -0.14857611 4.791901 -0.34347656
4.8196135 -0.2023364 5.3532944 0.21097347 5.2627854 -0.13032646 7.5532465 0.10097862
4.5309477 0.0727689 5.0024433 -0.033310346 5.0455017 -0.24414083 6.013044 -0.0077207717
4.7321167 -0.04165241 7.494612 -0.1333395 5.469938 0.087407306 5.0398536 0.101522475
6.849982 -4.785461 5.3983583 -0.09417056 4.8903313 -0.39155665 5.189305 -0.024832092
4.5539117 -0.16600266 5.2314777 -0.30803517 5.320884 -0.080861084 5.1257076 0.16283526

itn.0.bias f4 [256]
00000000: 70b6 00c1 50fe 75c0 0e86 03c0 fac0 d9c0
00000010: 518f 31c0 d509 dbc0 403b 33c1 e567 3ec0
00000020: 9945 4bc0 00ad 9ac0 9cf2 fbbf 6b75 82bf
00000030: cdce 3ac0 3f07 cdbf c115 f5bf fc17 81c0
00000040: 6aa9 90c0 2f2f 49c1 a735 3ac0 e2c0 13c1
00000050: 18b0 0ac1 ac0b 8cc0 0b2c 82c0 0adc c5bf
00000060: 0013 f6bf b382 bac0 5802 c0bf bf73 e9c0
00000070: 79ef 59c0 ab3b 44c0 0a09 d5c0 6590 9bc0
00000080: f631 16c1 eccc a6c0 841b 07c0 96e3 8cc0
00000090: c3fd 8cbf 6c77 5dc0 70d2 f4bf 6b97 bcbf
000000a0: 6971 51c0 df28 f7bf 6b81 0dc0 37a7 27c0
000000b0: 149e d9bf 635d a0bf 5384 9abf 5b02 a5c0
000000c0: 7dae 90c0 bb45 23c0 d745 85c0 4e68 b4c0
000000d0: b901 99c0 edd4 06bf abf5 23c0 e1e0 1ec1
000000e0: f3b0 a7bf da65 52c0 ee6c 1ec1 cf70 39c1
000000f0: 02db 5bc0 4e8a adc0 d1f8 21c0 c069 29c1
00000100: f1b7 2ac0 633e 07c1 015f a6c0 d09f b1c0
00000110: 1b30 1fc0 e562 26c0 1c78 f4bf 4d9d e5c0
00000120: 64ba 1ac0 c73c cfbf 4f00 9bc0 4551 dcbf
00000130: 87f1 3dc0 157e 2bc1 f1b8 38c0 884e 00c1
00000140: d645 c1c0 1280 b1c0 3e54 c6c0 46dc f0bf
00000150: 2063 14c0 d2d6 26c0 aef8 a1c0 6bb7 d6c0
00000160: eeb1 40c0 9bae 13c1 a81c 40bf bca5 e2c0
00000170: 0367 9cc0 8f2b 76c0 13eb 21c0 78f7 113f
00000180: 8cf2 59c0 c4b2 0ac1 56a7 c7c0 dbf9 75c0
00000190: 52a0 3bc0 57ca 12c1 365b e1c0 0a55 82c0
000001a0: 85da 04c1 8051 13c0 1e5b 1ac0 8223 a1be
000001b0: 8d8d c4bf 4426 13c1 d5dc bac0 9e9a 06c1
000001c0: 5341 33c1 68cc 04c1 1f24 dabf 938b 37c1
000001d0: afb3 58c0 a480 24c1 d9e5 0ac1 1493 abc0
000001e0: 739a edc0 1985 10c1 42dc b2bd 9b1f 25c1
000001f0: 1a9c 18c1 9318 b1bf 3776 41c0 d366 0cc1
00000200: fa7f 10c0 6666 0fc1 6cd8 febf dfce a9c0
00000210: 06db 2cc1 fb26 48c0 36ef 60c0 359b 35c0
00000220: d8f8 29c0 53fc 24c0 9314 dfc0 0712 43c1
00000230: 89e1 66c0 8a2e a3bf 9f89 d4c0 e0a8 d8c0
00000240: 3c26 1bc1 e529 d4bf ae77 80c0 10c3 67c0
00000250: 20f9 0fc0 e829 47c0 e3fc ffc0 5c1b babd
00000260: 48a8 82bf c519 18c0 0478 21c1 53fa aac0
00000270: a0d2 afc0 8087 a9c0 036a 15c0 44c2 15c1
00000280: f507 ffbf 722f fac0 f96d 0fc1 9424 49c1
00000290: 96e9 0ac1 563c 2fc0 b562 c2c0 d0f8 dfbf
000002a0: b24c 08c0 d629 51c0 e909 8ec0 13d3 5fc0
000002b0: a286 68c0 92a8 e9bf 7720 06c1 d32c 1dc1
000002c0: c9d6 8dc0 f5b5 09c0 f5e0 aac0 44be e4c0
000002d0: b533 02c0 e907 f4c0 e525 22c1 1432 67c0
000002e0: 4579 a7c0 0d91 b7c0 5dea 18c0 8ec1 3ec0
000002f0: 754a 19c1 c817 a7c0 c2bf c7c0 ee56 35c1
00000300: 561c 5dc0 f6b5 d8c0 d586 10c0 d4fb adc0
00000310: 2f75 3cc0 c5e8 88c0 cb97 17c1 871d 55c0
00000320: 6584 92bf 6f1e d4c0 3290 63c0 eaa9 61c0
00000330: 7e4e 13c1 6e9e 4bc0 5720 19c0 61ff bcc0
00000340: 0a9e 2dc1 c0af 1ec1 4fec 57c0 7cc0 37c1
00000350: a9f6 21c1 97ef b1bf a152 07c0 024d 56c0
00000360: 2c1e 61c0 6c1b f4c0 16ea 12c1 cda0 35c1
00000370: 87dd ccc0 75c6 17c1 d3b5 bbc0 4293 17c1
00000380: 1113 0ec0 d43f 9ac0 7ed9 c4c0 480d 09c1
00000390: 428b 95c0 dcd2 4fc1 fdfc 7ac0 1334 06c0
000003a0: b31b f5bf 32d4 2bc1 28ee 0cc1 9e58 22c1
000003b0: bb49 c3c0 2437 65c1 2e74 7ebf 0962 36c0
000003c0: c5bb ccc0 c3e2 85bf a6ae 90c0 4d55 8ac0
000003d0: d799 4ac1 d558 e1bf 7824 1fc1 f557 f0c0
000003e0: 5186 ffc0 2196 02c1 9777 aac0 108b 1ec1
000003f0: a9eb fdc0 470c 04c0 86ba c7c0 8feb 2cc0
-8.04454 -3.843647 -2.055057 -6.8048067 -2.7743723 -6.84495 -11.201965 -2.9750912
-3.176123 -4.833618 -1.9683414 -1.0192083 -2.918872 -1.6017836 -1.9147264 -4.034178
-4.5206804 -12.574019 -2.9095247 -9.234591 -8.667992 -4.376425 -4.0678763 -1.5457776
-1.9224548 -5.8284545 -1.5000715 -7.295379 -3.4052413 -3.0661418 -6.6573534 -4.8613763
-9.3871975 -5.212515 -2.1110544 -4.4027815 -1.1014942 -3.460414 -1.912672 -1.4733709
-3.272547 -1.9309348 -2.211024 -2.619581 -1.7001367 -1.2528499 -1.2071632 -5.1565375
-4.5213 -2.551131 -4.1647754 -5.6377325 -4.7814603 -0.5266865 -2.5618694 -9.929902
-1.3100876 -3.2874665 -9.901594 -11.590041 -3.4352422 -5.423133 -2.5308115 -10.588318
-2.667477 -8.452731 -5.199097 -5.5507584 -2.4873111 -2.599786 -1.9099154 -7.1754518
-2.4176264 -1.6190423 -4.8437877 -1.7212301 -2.9678667 -10.718282 -2.886288 -8.019173
-6.039775 -5.5468836 -6.1977835 -1.8817222 -2.31855 -2.6068616 -5.0616064 -6.70989
-3.01086 -9.230128 -0.75043726 -7.0827312 -4.8875747 -3.8464086 -2.5299728 0.5701823
-3.405429 -8.668644 -6.2391768 -3.843375 -2.9316602 -9.174399 -7.042384 -4.0728807
-8.3033495 -2.3018494 -2.4118114 -0.31472403 -1.5355698 -9.196842 -5.839457 -8.412748
-11.203448 -8.299904 -1.7042273 -11.471576 -3.385967 -10.281406 -8.681115 -5.361704
-7.4251037 -9.032495 -0.08733417 -10.320216 -9.538111 -1.3835624 -3.0228403 -8.775104
-2.257811 -8.9625 -1.9909797 -5.306503 -10.8034725 -3.1273792 -3.5146003 -2.837598
-2.6558132 -2.5779006 -6.9712615 -12.191901 -3.6075156 -1.2748578 -6.6417994 -6.7706146
-9.696835 -1.6575285 -4.0146093 -3.6212807 -2.2495804 -3.1119328 -7.99962 -0.0908725
-1.0207605 -2.3765728 -10.091801 -5.343057 -5.494461 -5.2977905 -2.3345954 -9.359928
-1.9924303 -7.8182917 -8.964349 -12.57143 -8.682028 -2.7380576 -6.074549 -1.7497807
-2.129681 -3.2681785 -4.4387097 -3.497258 -3.6332173 -1.8254569 -8.382926 -9.823443
-4.432469 -2.1517308 -5.3399606 -7.148226 -2.034406 -7.6259656 -10.134252 -3.6124315
-5.2335534 -5.7364564 -2.3893044 -2.9805636 -9.580678 -5.221653 -6.242158 -11.333723
-3.4548545 -6.772212 -2.2582295 -5.4369907 -2.9446523 -4.2784142 -9.474559 -3.3299272
-1.1446654 -6.628715 -3.555676 -3.5259957 -9.206663 -3.1815448 -2.3925989 -5.906174
-10.851084 -9.917908 -3.3737981 -11.484493 -10.12272 -1.3901242 -2.1144183 -3.3484502
-3.5174665 -7.6283474 -9.18215 -11.351758 -6.402042 -9.485951 -5.8659453 -9.473452
-2.2199137 -4.8202915 -6.1515493 -8.5657425 -4.6732492 -12.988979 -3.9216912 -2.0969284
-1.9149078 -10.7393055 -8.808144 -10.146635 -6.1027503 -14.325962 -0.99396026 -2.8497336
-6.397921 -1.0459827 -4.5213194 -4.3229127 -12.662559 -1.7605234 -9.9464035 -7.510737
-7.985146 -8.161653 -5.3270984 -9.908951 -7.935017 -2.0632493 -6.241519 -2.7018774

itn.2.weight f4 [128, 256]
00000000: 3b84 93bf 5dba 1fc1 07e0 37c1 0adc a4c0
00000010: 3eff 5fc1 4ca2 d0c0 f33e e1bf 359a 27c1
00000020: b27e 22c1 cb08 32c0 095f 1ac1 609c 0dc1
00000030: 3362 fdc0 d6dc 62c1 a68e e9c0 ec68 f2c0
00000040: d28e fac0 96c3 febf 6c9d 3ac1 4d19 19c0
00000050: 7bec 29c0 0c95 13c1 d897 14c1 ad33 56c1
00000060: f843 f8c0 1b6d 89c0 107c 71c1 20b0 d4c0
00000070: 46ad 0bc1 b407 21c1 707a 40c0 0fae 0cc1
00000080: 8a6e 43c0 dee1 e8c0 cf53 a4c0 3464 0bc1
00000090: f68e 1dc1 fddf 1fc1 2303 24c1 6dea 14c1
000000a0: 9418 1cc1 059b 67c1 2f55 54c1 e553 1dc1
000000b0: a12c 72c1 18a0 6bc1 00c7 9ec0 8b3c 02c1
000000c0: 5ada 15c1 4606 fdc0 88be 08c1 0a19 ccc0
000000d0: 2b7d a43f 127e b0bf 4f56 ebc0 16ed dbbf
000000e0: 5fbb 0ec1 9c59 26c1 d92e 05bf a5b9 74c0
000000f0: 26ea 1dc1 97ae e3c0 d31a c7c0 8303 84c0
00000100: 4a28 23c1 e6f1 88c0 a98a dec0 81e9 6cc0
00000110: 03ad 10c1 331e 26c1 cc8a 22c1 da92 22c0
00000120: 8b20 e9c0 dd1d 1cc1 ac5e 06c1 86ac 1ac1
00000130: f227 21c1 90ae a0c0 2edd 21c1 50ad 9bc0
00000140: bb3a 97c0 d962 e2c0 7f8b 95c0 7eb8 f8c0
00000150: 94f2 3bc1 d247 bfc0 43fe 80c1 dae2 cabf
00000160: aa12 22c1 6e8c 4bc0 19a6 10c1 262c 6bc0
00000170: 4779 fbc0 5abb 0bc1 0b89 e5c0 b3d5 fec0
00000180: 704e 26c1 da94 eebf 9d28 bbc0 54bc 1dc1
00000190: e9e1 2bc1 b3ec 3bc0 56d8 d7c0 704c 17c1
000001a0: 8130 7bc0 787c 09c1 2af8 20c1 8d3b 09c1
000001b0: 68b7 21c1 79f4 d0bf 4c7e 83c0 faf6 9ac0
000001c0: 8510 afbe f7d1 55c0 f6b7 18c1 0087 4cbf
000001d0: d1db 20c1 d751 d7bf fe1b 54c0 c6cd 31c1
000001e0: 68d6 2a3e 0491 8fc0 5d43 04c1 7ed4 9cbe
000001f0: 4277 85c0 214f 0bc1 96e4 53c0 d0cb 88c0
00000200: 08b6 74c0 5be2 7dc0 5b00 24c1 89dd cec0
00000210: 4954 b4c1 96e8 25c1 1f45 26c1 35ce 1ac1
00000220: c73a 20c1 4e35 20c1 7e3c c2c0 2173 41bf
00000230: d079 02c1 4b82 88c0 de3d 91c0 67d3 8ec0
00000240: ee46 d8bf 7eda 50c1 4cd3 22c1 84c3 13c1
00000250: f7c1 ddc0 e0ca a7c0 de52 69c0 47a8 53c1
00000260: c6f4 72c1 9904 40c1 d882 ebbf ba57 d7c0
00000270: 59a9 9fc0 14b8 bac0 133e c0c0 ec18 38c0
00000280: 9b53 21c1 01c7 e4bf 2b28 a8c0 2d9d 05c0
00000290: 8264 13c0 7d25 ccc0 f8e9 d3c0 2f04 3dc1
000002a0: 7867 51c0 9076 29c1 4e83 0bc1 f84c 97c0
000002b0: d692 22c1 7945 c4c0 d1cc 58bf 0327 11c0
000002c0: 494f 1ac1 236d a9c0 4a3c a2c0 488c 75c0
000002d0: 2f9f 26c1 09d7 b4c0 06f8 d7be 0034 1fc1
000002e0: e7f5 bfc0 5919 e4c0 871d 12c1 7548 2bc1
000002f0: 6388 1ac0 af75 e6c0 5f6c b8c0 4063 9cc0
00000300: c9dd 1cc1 f53a 58c0 feda 99c0 209a c5c0
00000310: b3f6 28c1 b143 13c1 0001 03c0 c9b5 1dc1
00000320: 0b4a 10c1 e2dd 7fc0 0126 1cc1 aacf 26c1
00000330: 9009 56bf 75cb 26c1 5591 63c1 e7ee b6c0
00000340: 5d38 f7bf 6968 13c0 3d4c 2bc1 f95d 8ac0
00000350: 8f5f b2bf 10fe 6cc1 1059 21c1 44ff 12c1
00000360: af19 21c1 920b 20c1 4824 74c0 e4cc 51c0
00000370: ae5d 01c1 4d3b 91c0 2aea bac0 4cd4 5cc0
00000380: 3add 07c1 3427 0fc1 c0e6 afc0 3f93 34c0
00000390: 2bf3 f7c0 eb64 59c0 7cb5 16c1 c5f0 21c1
000003a0: 719b 1ec1 5fb8 31bf b506 79bf 9d11 c7bf
000003b0: 6e88 a3c0 b689 c9c0 4be5 7fbf 429a 99c0
000003c0: eaa2 1cc1 a97a 0dc1 a107 0ac1 7e60 16c1
000003d0: 4a4e 37c0 e777 54bf 61fa 28c0 e933 96bf
000003e0: 16c3 0fc0 5dcf 82bf 725a 91bf 53d2 e8bf
000003f0: 0220 b1c0 46e7 14c1 406a a9c0 2d9c dac0
-1.1524729 -9.982999 -11.492194 -5.15186 -13.999815 -6.5198116 -1.7597336 -10.475148
-10.155931 -2.7817867 -9.648202 -8.8506775 -7.918237 -14.178915 -7.298663 -7.575308
-7.829934 -1.9903438 -11.663433 -2.3921692 -2.6550586 -9.223888 -9.287071 -13.387616
-7.758297 -4.2945685 -15.092789 -6.6464996 -8.729803 -10.064381 -3.007473 -8.792495
-3.0536218 -7.2775717 -5.1352305 -8.711964 -9.847403 -9.992185 -10.250766 -9.307233
-9.7560005 -14.475347 -13.270797 -9.832982 -15.135896 -14.726585 -4.961792 -8.139781
-9.3658085 -7.907016 -8.546516 -6.3780565 1.2850698 -1.3788474 -7.3542857 -1.7181728
-8.920745 -10.396877 -0.5202461 -3.8238308 -9.869665 -7.115062 -6.2220244 -4.1254287
-10.197336 -4.2795286 -6.9544263 -3.701752 -9.042239 -10.382373 -10.158886 -2.540213
-7.2852225 -9.757291 -8.398113 -9.66712 -10.072252 -5.021309 -10.116499 -4.8649063
-4.7259192 -7.0745664 -4.6732783 -7.772521 -11.746723 -5.977517 -16.124151 -1.585048
-10.129557 -3.1804461 -9.040551 -3.6745696 -7.8585544 -8.73324 -7.172979 -7.9635863
-10.39415 -1.8639176 -5.8487077 -9.858479 -10.742654 -2.936322 -6.745158 -9.4561615
-3.9248354 -8.592888 -10.060587 -8.577039 -10.107277 -1.6324607 -4.109167 -4.8426485
-0.3419229 -3.3409402 -9.544912 -0.79893494 -10.053666 -1.682185 -3.3142085 -11.112738
0.16683352 -4.486452 -8.266446 -0.3063087 -4.170808 -8.706819 -3.3108268 -4.2748795
-3.8236103 -3.9669406 -10.250087 -6.464543 -22.541155 -10.369284 -10.391875 -9.6753435
-10.01435 -10.013014 -6.0698843 -0.755663 -8.154739 -4.265905 -4.538802 -4.463306
-1.6896646 -13.053343 -10.176586 -9.235233 -6.9299273 -5.243515 -3.6456828 -13.228583
-15.184759 -12.001122 -1.8399305 -6.729459 -4.9894223 -5.8349705 -6.0075774 -2.876521
-10.0829115 -1.7873231 -5.2549033 -2.0877182 -2.3030095 -6.379576 -6.6223106 -11.813521
-3.2719402 -10.591446 -8.719557 -4.7281456 -10.160849 -6.1334805 -0.84687525 -2.268006
-9.644357 -5.2945724 -5.0698595 -3.836687 -10.413863 -5.6512494 -0.42181414 -9.950195
-5.9987674 -7.128094 -9.132209 -10.70519 -2.4145744 -7.2018657 -5.763229 -4.8871155
-9.804147 -3.3785985 -4.8079824 -6.175064 -10.560229 -9.204026 -2.046936 -9.856881
-9.018077 -3.9979177 -9.759278 -10.425699 -0.8360834 -10.424672 -14.222981 -5.716663
-1.9314076 -2.3032477 -10.706113 -4.3239713 -1.3935412 -14.812027 -10.084244 -9.187321
-10.06877 -10.002825 -3.8147144 -3.2781305 -8.085371 -4.538489 -5.8410845 -3.4504576
-8.49151 -8.947071 -5.4969177 -2.8214872 -7.7484336 -3.3967845 -9.419308 -10.121282
-9.91295 -0.6942195 -0.9727586 -1.555225 -5.110404 -6.2980604 -0.9995925 -4.8000803
-9.789774 -8.842446 -8.626863 -9.398558 -2.8641534 -0.82995456 -2.640282 -1.1734592
-2.246282 -1.0219532 -1.1355727 -1.8189186 -5.535157 -9.306463 -5.29422 -6.8315644

itn.2.bias f4 [128]
00000000: cbad 6fc0 055b fcc0 819a b3c0 23ad bfc0
00000010: 09c7 eac0 23aa 0bc1 202b f6c0 5dd6 bbc0
00000020: 684e 83c0 964f 10c1 df80 f7c0 4c43 efc0
00000030: 0ebe 08c1 013b cfc0 7f51 ffc0 b23d 2ac1
00000040: c0df 76c0 04ec 98bf 4b63 10c1 c8a4 1fc1
00000050: 2ce0 10c1 401d 61c0 5fe7 b7c0 22c2 00c1
00000060: e73d f8c0 b84c 79c0 f576 02c1 9e4b efc0
00000070: c728 04c1 f8bc 1ac1 6c4c f2c0 3c78 c1c0
00000080: 9557 f1c0 3343 26c1 3d53 0bc1 2e58 fbc0
00000090: 5f4c 9fc0 9510 dac0 e7a1 e5bf 4d70 2ec1
000000a0: 0578 07c1 acb0 72c0 e2dd d1c0 d8de 61c0
000000b0: b9b2 0dc0 b268 a1c0 bc87 debf 461e 33c0
000000c0: f903 fcbf 077f b0c0 0422 10c1 fd46 24c1
000000d0: 9bac a3c0 be26 edc0 0ec9 0cc1 fe4a a4c0
000000e0: f174 1fc0 8844 fbc0 198f 12c1 8f3a 0fc1
000000f0: 1b06 e6c0 7ef6 8bc0 df5d f8bf 8302 93c0
00000100: ebf3 63c0 2418 f1bd ffe1 c9c0 2497 16c1
00000110: e3e2 26c1 f38a bbc0 4655 20c1 ce05 f9c0
00000120: fbc7 1ac1 9c67 2cc0 1026 dbc0 b85f 57c0
00000130: 257f 20c0 c79e cdc0 8fbd 2ec1 4dee a2c0
00000140: e9c2 88c0 0d21 d7c0 0394 99c0 bd4f 0ec1
00000150: 33dd 92c0 1f06 d4c0 370f 2ec1 417e 0bc1
00000160: bafa 5fc0 af15 c9c0 b1ca 85c0 12e1 25c0
00000170: 9179 bdc0 538e 80c0 32aa 15c1 35b5 e8bf
00000180: 03c8 1bc1 98c6 37c0 8c61 e8c0 26e1 babf
00000190: d3da 1dc1 b17c 6dc0 6e7e e4c0 4a6a 22c0
000001a0: 1f2b dbc0 a461 cec0 811f 36c0 adb4 10c1
000001b0: 7ee7 75c0 dc8c 11c1 caaa 72c0 6d23 11c1
000001c0: f3a5 70c0 3c3e 17c1 e213 b0c0 f322 75c1
000001d0: 2e52 9dc0 43a6 84c0 35f9 97c0 5053 26c1
000001e0: 7c1e 74c0 b09b 94c0 7c6d 97c0 93d8 eac0
000001f0: 7622 fdc0 e0bf 2ec1 dbec 8ec0 37a0 80c0
-3.7449825 -7.886111 -5.6126103 -5.989885 -7.3367963 -8.729037 -7.6927643 -5.8699174
-4.103321 -9.01943 -7.7344813 -7.476965 -8.5464 -6.4759526 -7.9786983 -10.640062
-3.8574066 -1.1947026 -9.024241 -9.97773 -9.054729 -3.5174103 -5.7469935 -8.047396
-7.7575564 -3.8953075 -8.154042 -7.4779806 -8.259955 -9.671135 -7.571829 -6.045927
-7.541941 -10.391406 -8.707822 -7.854514 -4.9780726 -6.814524 -1.7940034 -10.902417
-8.466802 -3.7920332 -6.5583353 -3.5292263 -2.2140334 -5.04403 -1.7385173 -2.7987227
-1.9688712 -5.5155063 -9.008305 -10.267331 -5.11482 -7.4109793 -8.799086 -5.1341543
-2.4915125 -7.8521156 -9.159936 -8.951797 -7.1882453 -4.3738394 -1.9403647 -4.5940566
-3.5617626 -0.117721826 -6.3088374 -9.4119 -10.430392 -5.8607116 -10.020819 -7.7819586
-9.673823 -2.6938238 -6.8483963 -3.3652172 -2.5077603 -6.425632 -10.921279 -5.0915895
-4.2737927 -6.7227845 -4.799318 -8.894467 -4.589502 -6.625747 -10.878715 -8.718324
-3.4996781 -6.283897 -4.1809926 -2.5918622 -5.9210896 -4.0173736 -9.354052 -1.81803
-9.736331 -2.8714962 -7.2619076 -1.459996 -9.865924 -3.7107356 -7.1404333 -2.5377374
-6.849014 -6.449419 -2.8456728 -9.04411 -3.8422542 -9.0968895 -3.7916741 -9.071149
-3.7601287 -9.452694 -5.502427 -15.321033 -4.9162817 -4.1452956 -4.749171 -10.39534
-3.8143606 -4.644005 -4.732115 -7.3389373 -7.9104567 -10.9218445 -4.466413 -4.0195575
