ckpt/junyi/irt_with_theta.pt (torch, 162147 bytes, 3 tensors)

theta.weight f4 [38813, 1]
000000 9d c6 ed be a4 aa 50 3f e2 49 04 c0 94 82 2c 3e
       -0.46440592 0.81510377 -2.0670094 0.16846687
000010 24 1f 47 be 91 db 94 bf 48 63 c8 3e 26 ef 07 c0
       -0.19445473 -1.1629506 0.39138246 -2.1239715
000020 3e 6b 06 bf 4a dd 85 be c2 f1 0f be 48 ec 80 bf
       -0.5250739 -0.26145393 -0.14057067 -1.0072107
000030 68 79 61 be 5d dc 5d 3f cc 41 41 bf 78 57 ba be
       -0.22018969 0.8666437 -0.75491023 -0.36394858
000040 f1 a6 2b bf 65 f3 17 be 0e 9b 18 bf 31 90 34 3c
       -0.6705161 -0.14838941 -0.59611595 0.011020706
000050 da 79 b8 bf 82 e2 22 3f 95 2c df bf 05 3c 84 3d
       -1.4412186 0.63626873 -1.743548 0.0645676
000060 36 e9 3c be e3 ba b0 3e 42 43 78 3c ba 07 26 3e
       -0.18448338 0.34517583 0.015152754 0.16213885
000070 45 3d a0 3e 26 f1 f0 3e 2b 7c 7d 3f cd 68 05 bf
       0.31296745 0.47058982 0.9901759 -0.5211304
000080 68 0d 0d 3e 17 a7 95 bf e7 e3 83 bf f0 ee aa 3f
       0.13774645 -1.1691617 -1.0303925 1.3354168
000090 d0 0d f1 3d 4f f9 d4 bf f6 94 66 bf 93 e1 82 bf
       0.11770213 -1.6638583 -0.90071046 -1.022509
0000a0 d3 da 42 bf 76 fd b7 bf 18 a3 a7 bf 59 f7 23 3f
       -0.7611515 -1.4374225 -1.3096647 0.640493
0000b0 5e 5e 77 3f f8 cd 2f bf 7c 1a a9 3e 15 cf 27 be
       0.9662837 -0.6867366 0.33028018 -0.1638759
0000c0 0c fc 22 bf b1 f9 20 3f 0d 83 05 c0 5e cf 1c 3f
       -0.63665843 0.62881 -2.0861237 0.6125392
0000d0 3a 77 b7 be e8 6f 04 3e a5 f4 8f 3d 2c a7 30 be
       -0.3583315 0.12933314 0.07029084 -0.17251271
0000e0 c2 0f b5 bf 7f 0c b7 bf af 8b b4 ba cf ff 33 bf
       -1.4145434 -1.4300689 -0.0013774539 -0.7031221
0000f0 3d 2d 3a 3e 3a ad 25 bf ce 98 20 3f 55 f8 5e 3e
       0.1818132 -0.6471745 0.6273316 0.21774419
000100 75 e6 9e be e2 9f 11 3e 20 6d 0a 3f a2 5b 3c 3e
       -0.310352 0.14221147 0.5407276 0.1839433
000110 7b 10 33 3f f5 d5 32 3e f1 3f ba 3d ba 09 5e 3f
       0.6994702 0.1746443 0.09094227 0.8673359
000120 24 b3 67 bf 8d 11 be 3f 2e 12 45 be c5 fc 10 bf
       -0.9050772 1.4849106 -0.19245216 -0.56635696
000130 4f 22 bb 3e c2 7a 5b bf 62 f8 d4 bf a6 25 a2 3e
       0.36549613 -0.8573419 -1.66383 0.31669348
000140 10 f6 89 bf dc d9 3e 3e 15 6b ac bf 83 16 88 bf
       -1.0778217 0.18637794 -1.3470179 -1.063187
000150 28 c4 6d bf 83 95 8d be 14 04 44 bf 05 16 ee 3d
       -0.92877436 -0.2765313 -0.7656872 0.11625294
000160 93 03 1d bd 22 29 84 3d 3d 76 c7 bd 35 39 e5 be
       -0.038333487 0.06453158 -0.09739349 -0.44770208
000170 fb 2d 43 be 52 04 09 bf 2e 85 54 bf d1 17 12 bf
       -0.19060509 -0.5352222 -0.83015716 -0.5706759
000180 97 41 13 bf 60 57 4e 3e 67 a4 96 3f 2d 21 88 bf
       -0.5752196 0.20150518 1.1768922 -1.0635124
000190 a4 11 d1 bd e7 f1 2b bf b7 a4 f8 bf 94 a0 8d be
       -0.10208443 -0.6716599 -1.9425267 -0.27661574
0001a0 b9 4a 04 c0 c3 bc 01 3f 61 eb fc 3e aa c0 02 bf
       -2.0670607 0.5067865 0.4939833 -0.5107523
0001b0 47 6c f3 bd aa d2 9c 3d bd f3 ca bf 5d 10 37 bf
       -0.11885887 0.076573685 -1.5855633 -0.71509343
0001c0 8a 1a 89 3f a9 af f6 3b 0a b3 18 be 55 59 73 3f
       1.0711224 0.0075282645 -0.14912048 0.95058185
0001d0 6c 76 9b 3e bc a5 cc be b9 de 48 be af fd 96 3f
       0.30363786 -0.39970195 -0.19616212 1.1796168
0001e0 27 16 24 bf 49 af 6e bf 22 42 89 bc b5 63 06 bf
       -0.640963 -0.93236214 -0.016755167 -0.5249589
0001f0 75 f8 cd bf 15 a8 91 bf cc 5b a5 3e fc 69 db bf
       -1.6091448 -1.137942 0.32296598 -1.7141719
000200 3f 6a b4 3e 76 61 96 be c7 70 90 bf 48 cf ab 3d
       0.3523731 -0.29371232 -1.1284417 0.08389145
000210 0f d6 3e 3f 74 54 9d bd 90 e8 d4 3e 75 c2 a7 bf
       0.7454538 -0.07682124 0.4158368 -1.3106219
000220 e6 66 1d be 19 9a 03 c0 3d 83 39 3e 8d 34 dd bd
       -0.15371284 -2.0562804 0.1811647 -0.10801039
000230 6e 33 f5 bf f9 d1 78 3e ce ce 69 bf 6d da e0 bf
       -1.915632 0.24298848 -0.91331184 -1.7566658
000240 54 38 81 3e 29 cd e2 bf 41 2c 20 bf 45 bf 2e 3f
       0.25238287 -1.771886 -0.62567526 0.68260604
000250 e3 f8 14 bf 37 a2 91 be 65 ef fe bf ee 65 b7 bf
       -0.5819227 -0.28444073 -1.9916807 -1.4327981
000260 41 35 91 be e2 f2 4c 3f 19 a4 44 bf fa a6 80 bf
       -0.28360942 0.8005811 -0.76812893 -1.0050957
000270 61 68 86 3e 50 12 e8 3e e2 7f b6 bf bd c5 8b 3f
       0.2625151 0.4532647 -1.4257777 1.091972
000280 3c 33 09 bf c1 54 4d be a7 b0 30 bd 9f 22 53 bf
       -0.535938 -0.20051862 -0.04313722 -0.824747
000290 12 b2 38 bf f1 37 d3 be b8 04 c1 3d 9c d5 17 bc
       -0.72146714 -0.41253617 0.09424728 -0.009267237
0002a0 8b 52 e2 bf 5f 52 b3 bd fe 44 9a 3f c5 d8 a0 3e
       -1.768144 -0.087559454 1.2052305 0.31415382
0002b0 1b 14 fe bd 4f c8 0d bf 4d 39 de be e2 28 2b 3f
       -0.124061786 -0.5538377 -0.43403092 0.6685926
0002c0 2b e7 7f 3f 9f 3d 2a bf c1 46 a6 be 80 3c 1b 3f
       0.9996211 -0.66500276 -0.32475856 0.6063919
0002d0 c2 86 02 3f bf 0b db be 2d 0a 39 3f 3d eb 7e 3e
       0.50986874 -0.427824 0.7228115 0.24894424
0002e0 30 71 59 bf 68 e1 14 c0 97 ff c5 be 67 eb 13 3f
       -0.84938335 -2.3262577 -0.38671562 0.5778107
0002f0 53 43 d7 bf 31 70 53 3f 9b 55 10 40 ef 76 e2 3d
       -1.6817421 0.82593066 2.255225 0.11057841
000300 8c ec 9f be d6 c5 56 3f 7e ce 63 bf 5f cc 3b 3f
       -0.31235158 0.83895624 -0.8898696 0.7335872
000310 73 28 a6 3f 8f 3b 59 be 36 26 84 be a9 34 29 bf
       1.2981094 -0.21214126 -0.25810403 -0.6609598
000320 80 08 10 3f a2 b6 15 bf 91 a8 33 bf af 56 a9 be
       0.5626297 -0.584818 -0.70179087 -0.33073947
000330 60 4b 0d c0 97 2f b2 be 5c a4 ae bf 27 b2 a2 bf
       -2.2077255 -0.34801933 -1.3643909 -1.2710618
000340 f7 3f 85 bf 42 c6 6b bf 44 c3 aa bf 1b e5 c1 bf
       -1.0410146 -0.9209939 -1.334084 -1.5148042
000350 9b 99 80 bd 90 86 7c 3e eb cb a0 bf 1a 23 86 3e
       -0.06279298 0.24660707 -1.2562231 0.26198655
000360 f0 ed 9e bf 22 09 52 bf 9b df 0c 3d 6b 79 3f 3c
       -1.2416363 -0.82045186 0.034392934 0.011686663
000370 7a 8e 1c 3f 45 1c 7b bf 02 63 0c bf 4e 65 77 be
       0.611549 -0.9809001 -0.54838574 -0.24159738
000380 14 e9 d2 bf 14 1d 26 3f d8 42 0d 3f 16 1e b3 be
       -1.647738 0.6488812 0.5518012 -0.3498389
000390 d2 d6 77 3f ec 0d dd bf c0 39 eb bf fb a8 fc bb
       0.96812165 -1.7269874 -1.8376999 -0.0077105737
0003a0 b6 82 c6 be 75 0a 33 be 26 02 c8 bd 95 11 2a 3f
       -0.387716 -0.17484458 -0.09766035 0.6643308
0003b0 ba e8 65 3f 17 82 33 3e 81 57 39 bf c4 50 87 bf
       0.8980824 0.17530094 -0.72399145 -1.0571523
0003c0 40 08 01 c0 23 17 94 bf 98 ff 37 bf 55 3b 63 3f
       -2.0161285 -1.1569561 -0.7187438 0.8876241
0003d0 75 04 40 3f b1 58 c0 be 2c 7b 87 bf d1 66 68 bb
       0.750068 -0.37567666 -1.0584464 -0.0035461674
0003e0 39 57 b4 3f 8b f7 35 be d4 df cd 3e bc 4c 25 3f
       1.4089118 -0.17770211 0.4020983 0.6457021
0003f0 e3 e9 01 bf cb 39 a7 be a2 81 85 3e f4 35 bc be
       -0.5074751 -0.3266128 0.26075464 -0.36759913

alpha.weight f4 [706, 1]
000000 67 88 7f bf 09 3f a0 bf 02 70 02 bf 64 3d 46 bf
       -0.9981751 -1.2519237 -0.5095216 -0.77437425
000010 11 e9 2a bf 0d d0 b8 be 50 34 53 bf 3b c9 1f bf
       -0.6676188 -0.3609623 -0.825017 -0.6241643
000020 c3 a1 1e bf 03 c0 e4 3d 5b 9a 8f bf aa 55 11 bf
       -0.6196558 0.11169436 -1.121898 -0.5677134
000030 ec 53 4f bf d7 35 f7 be a6 4d 86 bf 58 39 5f bf
       -0.8098743 -0.48283264 -1.0492446 -0.87196875
000040 53 47 34 bf 3e 5e b5 bf 04 6c 93 bf c3 10 9b bf
       -0.7042133 -1.4169385 -1.1517339 -1.211449
000050 32 1b 29 bf e6 c2 56 bf b9 18 75 bf 5b 74 5e bf
       -0.6605712 -0.8389114 -0.9574085 -0.86896294
000060 7e 28 15 bf bd c3 76 bf e7 ad 56 bf 6d 07 c3 be
       -0.5826491 -0.9639242 -0.83859104 -0.38091603
000070 84 f1 9a bf 07 b0 8c bf 72 65 b5 be 12 6d 98 bf
       -1.2104955 -1.0991219 -0.3542896 -1.1908286
000080 cd 17 3b bf 69 4f 02 bf 63 58 c3 bf fe 9e b3 be
       -0.7308319 -0.5090242 -1.5261348 -0.3508224
000090 db 19 1e bf ec df e4 be 13 65 2e bf bd 18 81 bf
       -0.617582 -0.4470209 -0.68122977 -1.0085675
0000a0 89 63 27 be 12 7e 90 bf b8 ae 9b bf 71 59 5f bf
       -0.16346563 -1.1288474 -1.2162695 -0.8724585
0000b0 ff 05 18 bf a8 07 a9 bf ec 7e a1 bf 6d f8 e9 be
       -0.5938415 -1.3205462 -1.2616858 -0.45697346
0000c0 e7 f9 bc bf 9d 30 b6 bf db df 84 bf c1 5b 42 bf
       -1.4763764 -1.4233586 -1.0380815 -0.75921255
0000d0 05 7b 54 bf 4b ff 5d bf 57 58 ff 3e 4f 87 1a bf
       -0.8300021 -0.8671767 0.49872085 -0.60362715
0000e0 4f a8 19 bf 24 60 d0 be b1 50 8a bf 34 b0 3e bf
       -0.60022444 -0.4069835 -1.0805875 -0.74487615
0000f0 fd 37 40 3e bb c1 31 bf 3b 45 4d bf 28 de 47 bf
       0.18771358 -0.69436234 -0.8018376 -0.7807336
000100 82 61 6c bf 66 0e b7 be 66 a6 48 bf fd 41 08 bf
       -0.92336285 -0.35753173 -0.78378904 -0.5322569
000110 fc a0 87 be 5c 8f 68 bf 98 c6 4f bf 76 d0 4c bf
       -0.2649001 -0.9084375 -0.81162405 -0.80005586
000120 81 03 3c bf fe ca 9f bf de 86 81 bf ca e3 8e bf
       -0.73442847 -1.2483823 -1.0119283 -1.1163266
000130 4d 3d d2 be 3b eb 70 bf 96 88 35 bf 0a c4 22 bf
       -0.41062394 -0.94108933 -0.7091154 -0.6358038
000140 21 8f 9d bf ee 4b 29 bf c2 82 4a bf a0 3a 70 bf
       -1.2309304 -0.66131485 -0.7910577 -0.93839455
000150 16 1f 3c bf 05 41 1f bf b6 f3 80 bf 96 a2 a4 bf
       -0.73484933 -0.62208587 -1.0074375 -1.2862117
000160 08 e1 17 bf 08 2f a5 bf 2c 41 e0 bd eb 4a 4a bf
       -0.59327745 -1.2904978 -0.109499305 -0.79020566
000170 19 b4 01 bf 99 ff 8b be b3 35 95 bf 4e fc db bf
       -0.5066543 -0.27343443 -1.1657013 -1.7186372
000180 5c 6d 4d bf 18 ef 45 bf c2 b5 fe be 9c 3d 2d bf
       -0.80244994 -0.77317953 -0.49748045 -0.67672133
000190 c1 c3 dd be d3 62 4d bf 8f 66 90 bf 09 ec d1 be
       -0.4331341 -0.8022892 -1.1281298 -0.41000393
0001a0 2e 46 3f be a9 ad b8 bf 86 3e af bf 5b 19 70 bf
       -0.18679115 -1.4427997 -1.3690956 -0.9378869
0001b0 42 d0 41 bf 9d c0 8e bf 2e 43 d0 be 6a e7 7c bf
       -0.757084 -1.1152531 -0.40676254 -0.9879061
0001c0 e8 63 68 bf 3b 8f 1d bf cd 4a ae bc 07 b9 4d bf
       -0.90777445 -0.6154668 -0.021275902 -0.80360454
0001d0 73 35 b5 bf a5 58 4f bf d4 aa af bf d8 64 a8 bf
       -1.4156936 -0.80994636 -1.3724008 -1.3155775
0001e0 39 44 db bf a2 46 40 bf e5 11 40 bf 05 fc 9d be
       -1.7130195 -0.7510778 -0.75027305 -0.30856338
0001f0 3d 3f 95 bf 83 29 07 bf 8c 17 95 bf ad 0b 84 bf
       -1.1659924 -0.52797717 -1.1647811 -1.0316063
000200 0d d5 88 bf 96 ba f8 be 52 df 88 bf 26 04 1c bf
       -1.0690018 -0.48579854 -1.0693152 -0.6094383
000210 94 66 35 bf d7 a4 c4 be d1 89 05 bf 85 6d 63 bf
       -0.70859647 -0.38407013 -0.52163416 -0.8883899
000220 7f a9 34 bf c6 21 a8 bf d0 fd 85 bf ea 4d 85 bf
       -0.7057113 -1.3135307 -1.0468082 -1.0414402
000230 54 aa 97 bf 04 1f 57 bf 60 78 25 bf 0f c6 27 bf
       -1.1848855 -0.840317 -0.646368 -0.6553659
000240 4a f6 9b be f0 1c 05 bf dc 6b 96 bf e9 b6 91 bf
       -0.3046134 -0.5199728 -1.1751666 -1.1383945
000250 c7 8d 81 bf 75 e8 fc be e2 7f 8f bf e0 7a bf bf
       -1.0121392 -0.493961 -1.1210902 -1.4959373
000260 bd 7d 61 bf f1 99 63 bf ba e5 37 bf 0d 0b aa bf
       -0.88082486 -0.8890677 -0.7183491 -1.3284622
000270 b3 ae 6d bd 41 d6 bb bf c5 45 2f bf b4 27 90 bf
       -0.058027934 -1.467476 -0.68465835 -1.1262116
000280 9a 15 42 bf 28 4f 37 bf e3 7e 4d bf a6 d9 d6 bd
       -0.7581421 -0.7160516 -0.8027174 -0.10490732
000290 01 2b 39 bf 38 3b c5 be 14 86 09 bf 5d b3 cf bf
       -0.72331244 -0.38521743 -0.5372021 -1.6226612
0002a0 de 91 a3 bf 7b c0 b2 bf 14 7e 15 bf a6 8f 4e bf
       -1.277889 -1.396499 -0.58395505 -0.8068794
0002b0 78 b8 f4 be 72 58 36 bf f7 38 60 bf fb a0 db be
       -0.47796988 -0.71228707 -0.8758692 -0.42896256
0002c0 3b e5 80 bf aa be 7a bf 26 98 1e bf 75 db 94 bf
       -1.0069956 -0.9794718 -0.6195091 -1.1629473
0002d0 5f d3 71 bf aa 05 ab bf 4e 15 34 bf 8b dc aa be
       -0.9446315 -1.3361104 -0.7034501 -0.33371386
0002e0 9a d2 e6 be dc 09 be bf ee 53 9f bf 17 fd 8e bf
       -0.4508255 -1.4846759 -1.2447488 -1.1170987
0002f0 42 bf be be 47 03 06 bf c5 14 89 bf a7 38 51 bf
       -0.37255293 -0.5234875 -1.0709463 -0.8172707
000300 1f 94 b1 bf d1 d6 1c bf 99 9d 94 bd 3a f0 b2 be
       -1.3873328 -0.61265284 -0.07256622 -0.34948903
000310 51 d7 a3 bf 22 f0 ad bf 84 3e 57 bf 30 d6 8c bf
       -1.2800084 -1.3588908 -0.84079766 -1.1002865
000320 88 f8 eb be 7f ec ac be 7d fd 5f bf 68 64 30 bf
       -0.46088052 -0.33774182 -0.8749617 -0.6890321
000330 9b c6 12 bf 45 09 b0 be 24 b4 48 bf ba a8 31 3a
       -0.573343 -0.34382072 -0.7839987 0.00067771564
000340 0f b8 7e bf 92 18 35 bf d8 8f f7 be 37 2e 71 bf
       -0.994996 -0.70740616 -0.48351932 -0.94211143
000350 9e c8 18 bf 01 5e 33 bf 81 8a a4 bf ba c5 a3 bf
       -0.5968112 -0.70065314 -1.2854768 -1.2794716
000360 eb ee ac bf 7b df 83 bf f5 43 75 be cd c7 51 bf
       -1.3510412 -1.0302576 -0.23951705 -0.81945497
000370 fa c6 4a bf 47 ab 0b bf d9 4a b7 bf 81 02 7b bf
       -0.79209864 -0.54558223 -1.4319717 -0.98050696
000380 0a 5c 53 bf dd 1e 44 bf 98 98 50 bf 5a 83 0d bf
       -0.82562315 -0.76609594 -0.8148284 -0.5527855
000390 5d bc 86 bf f3 7e 1d bf 06 42 39 bf 24 72 26 bf
       -1.0526234 -0.61521834 -0.7236637 -0.65017915
0003a0 2a 8a ae bf e3 cf 69 bf 7b b1 60 bf 1c b8 2c bf
       -1.3635914 -0.91332835 -0.87770814 -0.6746843
0003b0 12 8d 8d bf 79 ed a5 be f0 96 73 bf f9 83 12 bf
       -1.1058676 -0.3240774 -0.9515219 -0.57232624
0003c0 ef b8 2d bf 27 2a 14 bf cf ad ad bf 5c ad 6a bf
       -0.6786031 -0.5787682 -1.3568667 -0.91670775
0003d0 a1 e4 8e bf 89 bf 94 be b8 2e 84 bf 6f 21 47 bf
       -1.1163522 -0.2905238 -1.0326757 -0.7778539
0003e0 20 ad 4c bf e9 3d c1 be e2 e1 99 bf 0a 8d b4 bd
       -0.7995167 -0.37742546 -1.2022059 -0.088159636
0003f0 58 08 48 bf ad 5b 5b bf 97 1c 5b bf ba ed 82 bf
       -0.7813773 -0.8568676 -0.855905 -1.0228798

beta.weight f4 [706, 1]
000000 e4 f4 80 bf 49 81 7b 3f bc 2d 56 3f 21 80 89 bf
       -1.0074735 0.9824415 0.83663535 -1.0742227
000010 39 54 ef be f8 66 71 3f 92 b3 16 bf 7c 74 99 3e
       -0.46743944 0.9429774 -0.5886775 0.29971683
000020 42 f3 81 be 9e e0 18 3f 91 bc 6d 3f 95 52 0c bf
       -0.25380903 0.5971774 0.92865855 -0.5481351
000030 5a 8e 07 40 e1 55 13 3e 12 00 93 3f fc 18 35 3f
       2.1180634 0.14388229 1.1484396 0.7074125
000040 7c 1d fb 3d cb ed 1d c0 14 a3 00 3e 90 e3 92 bf
       0.12261483 -2.4676387 0.1256221 -1.1475697
000050 c6 e8 2b bf a6 22 ef 3f 54 04 79 be ec 9d f5 3f
       -0.6715206 1.8682449 -0.24318057 1.9188819
000060 41 d8 f2 be c0 d7 81 3f d3 c7 d3 3f f9 78 9e 3e
       -0.47430614 1.0143967 1.6545357 0.3095167
000070 f8 cc 37 c0 c8 c4 82 bf fd 83 bd bf 61 ca 45 3f
       -2.8718853 -1.0216303 -1.4805905 0.7726193
000080 0a 2e 18 bf d1 b3 3e 3e 42 23 62 bf b1 77 00 bf
       -0.5944525 0.18623282 -0.8833505 -0.50182635
000090 cb 0c d6 bf 11 94 a6 3f c3 89 3d bf a9 a8 aa 3e
       -1.6722654 1.3013936 -0.7403833 0.33331802
0000a0 56 b4 06 bf 6c 34 24 c0 e5 dc 80 bf de 39 47 bf
       -0.5261892 -2.5656996 -1.0067412 -0.77822673
0000b0 57 a3 94 3e 02 3e 99 bf c0 28 b1 bc 50 2f 3c 40
       0.29030868 -1.1972048 -0.021625876 2.9403877
0000c0 a4 b9 61 be fe 79 5d 3e 08 11 1a bf 4e b2 ae 3f
       -0.22043473 0.21628568 -0.6018224 1.3648164
0000d0 35 67 57 be 7e 82 74 be 91 90 0b 3f 20 9d 01 c0
       -0.21035464 -0.23877904 0.54517466 -2.0252151
0000e0 66 4d 79 3f 9b fa 0c bf bc e6 d7 3f df ee 00 40
       0.97383726 -0.55069894 1.686729 2.0145795
0000f0 29 78 d6 3d bc 8d 35 be cc 0b 9c 3e 9f 0c 84 bf
       0.104721375 -0.17729849 0.3047775 -1.0316352
000100 d6 74 26 3e e9 c7 dc be df fd 0d 40 2c a7 8f bf
       0.16255507 -0.4312127 2.21862 -1.1222892
000110 6c 65 7d bf 55 88 7c 3f 44 75 f5 be 25 2a 28 3f
       -0.9898288 0.98645526 -0.4794103 0.6568931
000120 66 d9 81 bf e6 a9 8a 3e e2 68 82 bf ac 35 9e 3e
       -1.014447 0.27082747 -1.0188258 0.30900323
000130 60 88 c0 be 5d 76 e4 3f 12 a9 53 3f 9b e0 29 40
       -0.37604046 1.7848622 0.82679856 2.6543338
000140 35 82 55 3f 42 f1 1b 3f 25 4b 91 3f 0c f2 2b bf
       0.83401805 0.60915005 1.1351057 -0.6716621
000150 19 54 04 40 9f 3b 14 c0 7a 25 1c bf 31 50 65 bf
       2.067633 -2.316139 -0.60994685 -0.8957549
000160 0c 71 95 3f 03 17 b8 3d 62 a7 d2 bf cc 8e 20 c0
       1.1675124 0.08988764 -1.6457331 -2.5087156
000170 71 4a 1a 40 af 1a 6b be 88 fe 4c 40 d0 74 cd 3e
       2.4107935 -0.22959398 3.2030354 0.40128183
000180 43 1f cd 3e 01 89 41 40 8a 13 14 3f b3 f0 a4 be
       0.40062913 3.023987 0.57842314 -0.3221489
000190 dd 1c fa 3f 59 cf 5a bf 62 52 cc bc 9a b5 f0 bf
       1.9540058 -0.8547264 -0.024941627 -1.880542
0001a0 8a 7e 9d be 32 b0 fb 3e 3e 66 e2 bf a9 b5 ae bd
       -0.30760604 0.49157864 -1.7687452 -0.08530743
0001b0 83 9e 19 3c 96 49 40 3f c2 8c f9 3f db e6 03 be
       0.009376171 0.75112283 1.9496081 -0.12881033
0001c0 29 be 3f 3f 76 9f 98 3f 22 e3 b1 bf 93 5e 35 be
       0.74899536 1.1923664 -1.389744 -0.17711858
0001d0 96 57 02 3f 94 38 b2 3f 93 94 33 c0 73 4a b0 be
       0.50914896 1.3923516 -2.8059433 -0.344318
0001e0 79 95 45 3f 5c eb 89 3f 0d ce 8c 3c 38 bf 8c 3f
       0.771812 1.0774951 0.017188096 1.0995855
0001f0 65 64 8e be 3f b3 f8 3f be d3 43 bf 27 dc 75 3f
       -0.2781097 1.9429702 -0.7649497 0.9603905
000200 92 c6 12 3f c4 3a cd be 09 22 13 bf 0c 45 a8 3e
       0.57334244 -0.40083897 -0.5747381 0.3286518
000210 34 ff 50 bf 4d 34 4d 40 bd a0 49 40 a1 b4 b9 be
       -0.8163941 3.2063172 3.1504357 -0.3627062
000220 21 4b 8d 3e 55 2b b6 3f 8f d1 1d 3f b9 6b 92 3f
       0.2759638 1.4231974 0.61647886 1.1439124
000230 7d 57 96 bf c5 b4 07 3e b1 0f 2c c0 fd 45 e3 be
       -1.1745449 0.13252552 -2.6884577 -0.44389334
000240 7e 25 32 40 b2 4c 3d bf 9a 97 df 3e 2f 61 70 3e
       2.7835383 -0.7394515 0.4367035 0.23474573
000250 92 69 e7 3e d9 52 a8 bf 15 96 af 3e 5c 90 93 3f
       0.4519773 -1.3150283 0.3429419 1.152843
000260 b3 b8 0a be 57 2d db be e8 01 0d be 3e a0 12 bf
       -0.1354702 -0.4280803 -0.13770258 -0.5727576
000270 fb 7f 80 be 6a 01 cc bf d9 6f 1e bf 00 2f 3e 3e
       -0.2509764 -1.5937932 -0.61889416 0.18572617
000280 c4 68 0f 3e 3b f8 79 3e dd 17 ef be 12 e0 44 be
       0.14004809 0.24411099 -0.46697894 -0.19226101
000290 5e f6 2d bf 95 05 da 3e 09 a8 85 bf c1 23 f7 3f
       -0.6795405 0.42582384 -1.0441905 1.9307786
0002a0 43 08 6a 3f 1c ab a5 bf bd f9 43 40 d9 43 04 c0
       0.91418856 -1.2942843 3.0621178 -2.066641
0002b0 b7 01 59 3f 06 72 45 bf b0 9c 3c 40 8b ef ec 3c
       0.8476824 -0.7712711 2.9470634 0.028922817
0002c0 17 37 cf bd 05 64 82 be f1 1a 8c be 62 f2 93 3d
       -0.101179294 -0.25466934 -0.27364305 0.07223965
0002d0 d6 51 e1 3e f2 7c 3c bf 95 ba 14 40 65 34 83 bf
       0.44007748 -0.7362815 2.323888 -1.0250365
0002e0 49 4c bb be bd 97 e7 bf d5 75 44 3f f2 c6 1d 40
       -0.36581638 -1.8093182 0.767423 2.4652677
0002f0 8c 1f 22 bf ca 7f dc 3f 95 89 c1 3f f3 b4 ef 3e
       -0.63329387 1.7226498 1.5120112 0.4681774
000300 6a c8 03 bf fa fd 79 bf d8 81 3e 3f b6 f4 ec be
       -0.5147768 -0.9765316 0.74416876 -0.4628045
000310 12 90 1b bf e8 10 95 bd 08 30 66 bf 06 a5 e0 3c
       -0.6076671 -0.07278615 -0.8991704 0.02742244
000320 e5 1d 50 40 4e 35 9b 3f 54 00 e3 bf 7e 51 73 bf
       3.2518246 1.2125642 -1.7734475 -0.9504622
000330 97 fd 03 40 de d6 94 3f 55 de 97 be e2 cb 1b c0
       2.062353 1.1628072 -0.29661813 -2.434319
000340 86 ce 14 bf 1e c5 42 3f 02 7a 06 bf 7e 83 69 3e
       -0.5812763 0.76082027 -0.5252992 0.22804067
000350 9f 3e 56 bf cd 03 2f 40 07 36 c4 3f 82 a7 bb 3e
       -0.836893 2.734607 1.5328988 0.36651236
000360 ad 3e 88 3f 36 9f 74 3e f9 3b 32 bc b6 e4 38 bf
       1.0644127 0.23888859 -0.010878556 -0.72223985
000370 b4 a2 7d 3e 74 eb 6f 40 ea 33 8a 3f 90 47 f7 3e
       0.24769098 3.748746 1.0797093 0.48296785
000380 78 fa 3c bf fa 8f 36 3f 5f de 52 be 48 34 73 bf
       -0.73819685 0.7131344 -0.2059264 -0.9500165
000390 e7 e8 6e 3f e8 b0 11 40 5c de 88 3f 97 2c 43 be
       0.9332413 2.2764225 1.0692859 -0.19059978
0003a0 18 ae 38 bf 85 48 3e 3f 1a cf 18 c0 e6 97 dc 3e
       -0.72140646 0.74329406 -2.3876405 0.4308464
0003b0 4d 8e 9e bf a0 0f db 3e 9e fd 60 3f 8d 17 61 40
       -1.2387177 0.42785358 0.8788699 3.5170624
0003c0 dc 77 9c be 8e be d5 be c5 2a 9f bf 7f 5b 13 3e
       -0.30560195 -0.41746944 -1.2434927 0.14390372
0003d0 c5 38 21 40 0f 13 08 bf eb e8 c8 3d 39 09 11 3f
       2.51909 -0.5315408 0.098100506 0.566547
0003e0 f6 59 35 bf 05 e5 a3 bd 63 b3 3d 40 11 d9 ce be
       -0.70840394 -0.080026664 2.964074 -0.40399984
0003f0 c3 fb 14 bf ac 8e 6c 3f 8d 15 e7 bd c0 1a d0 be
       -0.5819666 0.924052 -0.11283407 -0.4064541
