ckpt/junyi/irt_ip.pt (torch, 286913 bytes, 12 tensors)

utn.0.weight f4 [256, 1]
2.5471249 1.9991407 -1.3182979 -1.3291376 -0.46879902 2.1015365 1.6870948 2.0969336
1.3319818 1.6443716 0.44533202 0.6914644 0.49850753 -1.8065484 0.015893986 2.0648115
2.1741276 2.2105775 -0.97986597 -0.69508946 1.8829283 1.1893978 1.7336074 2.1100054
0.6718736 2.2551599 1.1761837 0.59537894 0.21345247 0.8812957 0.4979604 1.738014
-1.4977133 0.40196097 -0.6728745 -1.4685421 0.5495194 1.524884 1.0773036 1.827681
2.1857715 -0.5161478 0.93175924 -0.7179565 -1.3441213 0.48209542 1.5149144 0.9931586
2.4076712 2.269767 0.9854687 1.988299 1.0691062 1.6639328 1.319356 0.19568416
1.485014 -0.9331827 -1.6261071 0.7857618 1.818894 0.89074874 0.42931318 1.0831637
2.2118328 0.7024713 2.2972956 0.9959175 2.0456705 2.166888 0.35668355 2.6432114
2.2620766 1.917006 1.9613442 1.997055 1.1334952 0.5383664 2.313992 0.7088374
0.8302337 2.0239801 1.9771465 -2.1861641 1.6604637 2.1705182 0.82862955 0.5840143
1.6473674 2.2605462 1.2880024 2.0250335 1.7049242 2.3030858 -1.1575795 0.5829992
1.160722 0.92127055 0.19385903 0.41390464 1.3728329 1.9710284 -0.98886985 1.6248171
-1.3126748 2.5041142 -1.0563619 0.51105887 1.0320481 2.0785117 0.7983447 1.2599336
-1.2413063 1.8817732 1.1793197 0.44287395 0.29971653 2.1134877 2.4179962 1.9662893
2.7872732 1.084924 2.146961 1.5886682 0.43313605 -0.7227174 2.2983305 0.64686626
2.3581665 0.4856412 0.8481915 1.0019639 -0.4115623 1.7661579 1.1536335 1.6775101
2.1801672 0.6568303 2.1617877 1.9781222 2.0723891 1.96917 1.4847615 1.2665793
-1.9159843 0.504793 1.6291039 1.0405738 0.5147197 -0.9685829 -1.772054 0.49756315
1.999656 1.47518 1.3307458 -0.73478436 2.033014 -0.008251689 0.5844707 0.34743643
2.5075967 0.8618405 -0.08748648 -2.228449 0.74263656 2.0134816 0.32112172 0.9387821
0.35103947 2.777452 1.9937621 -1.13623 1.9722183 0.9009084 -1.0483782 2.4846256
0.8561666 0.70791936 1.9550904 -0.77525234 1.0962735 1.824651 1.8685107 2.2709188
2.1725178 2.2267716 2.2405465 0.7253871 -1.3425887 2.041644 1.1948873 1.0868012
-1.729294 2.372509 0.68487704 0.40502217 1.8331126 1.1109998 -0.5178305 1.2332314
0.7924754 2.023852 -1.2913599 -0.12828714 -0.8978021 2.0434744 0.7209425 1.975819
0.91307896 1.5869048 1.9817214 2.3235552 2.400319 1.7567462 0.8883257 1.0642214
0.8252648 -1.1165476 1.676869 -1.2993538 1.1913302 2.1084058 1.6196276 0.7546412
-1.2010213 1.816306 -1.1698703 0.69903356 0.4409341 2.2981706 0.85090023 2.26885
1.2176331 1.9318827 1.0334073 0.3298074 2.0837944 -0.80687743 0.9714332 1.2208049
2.2041075 1.6699055 1.3958132 1.243809 1.7114139 -2.067117 1.3183804 0.36523104
0.9546726 1.8404351 2.5767612 1.1386591 1.2132354 0.6199515 -0.6651959 2.6014104
00000000: 1804 2340 d8e3 ff3f fcbd a8bf 2e21 aabf
00000010: 6d06 f0be 937f 0640 b9f2 d73f 2934 0640
00000020: 617e aa3f c57a d23f 8f02 e43e d003 313f
00000030: 613c ff3e fa3c e7bf 1b34 823c df25 0440
00000040: e824 0b40 1a7a 0d40 7fd8 7abf 62f1 31bf
00000050: cb03 f13f 303e 983f d9e6 dd3f 540a 0740
00000060: e9ff 2b3f 8a54 1040 308d 963f c16a 183f
00000070: 4993 5a3e 989c 613f aaf4 fe3e 3e77 de3f
00000080: 12b5 bfbf d4cd cd3e 8141 2cbf 30f9 bbbf
00000090: 4ead 0c3f 662f c33f 16e5 893f 73f1 e93f
000000a0: aee3 0b40 4322 04bf c687 6e3f ffcb 37bf
000000b0: 2b0c acbf 36d5 f63e b7e8 c13f a43f 7e3f
000000c0: 4917 1a40 dd43 1140 ad47 7c3f 9580 fe3f
000000d0: 79d8 883f c0fb d43f a8e0 a83f 6e61 483e
000000e0: f014 be3f 10e5 6ebf 4724 d0bf af27 493f
000000f0: 85d1 e83f 1c08 643f f0ce db3e 1ca5 8a3f
00000100: ab8e 0d40 29d5 333f e406 1340 73f4 7e3f
00000110: 44ec 0240 4bae 0a40 3a9f b63e 602a 2940
00000120: ddc5 1040 7460 f53f 540d fb3f 809f ff3f
00000130: 5f16 913f 61d2 093f 7218 1440 5e76 353f
00000140: 328a 543f e488 0140 2313 fd3f 1dea 0bc0
00000150: 138a d43f c5e9 0a40 1121 543f f681 153f
00000160: efdc d23f caac 1040 43dd a43f 269a 0140
00000170: f53a da3f c265 1340 912b 94bf 703f 153f
00000180: 8a92 943f 63d8 6b3f fb82 463e 4feb d33e
00000190: fdb8 af3f a94a fc3f 9326 7dbf 02fa cf3f
000001a0: ba05 a8bf 6843 2040 de36 87bf c1d4 023f
000001b0: 271a 843f 5606 0540 5160 4c3f 8145 a13f
000001c0: 20e3 9ebf f2dd f03f f3f3 963f 60c0 e23e
000001d0: 7274 993e 6243 0740 73c0 1a40 5eaf fb3f
000001e0: af62 3240 cade 8a3f cf67 0940 7b59 cb3f
000001f0: 02c4 dd3e 0204 39bf d917 1340 0799 253f
00000200: 33ec 1640 f7a5 f83e 1423 593f 5a40 803f
00000210: 4bb8 d2be 7611 e23f 43aa 933f a7b8 d63f
00000220: dc87 0b40 0826 283f bb5a 0a40 1c33 fd3f
00000230: 06a2 0440 c30d fc3f aa0c be3f 451f a23f
00000240: f93e f5bf 1d3a 013f 7a86 d03f 8631 853f
00000250: acc4 033f 0df5 77bf aad2 e2bf 99c0 fe3e
00000260: baf4 ff3f b3d2 bc3f e155 aa3f d41a 3cbf
00000270: e71c 0240 1832 07bc df9f 153f 30e3 b13e
00000280: 777c 2040 94a1 5c3f 1d2c b3bd e99e 0ec0
00000290: 6e1d 3e3f e2dc 0040 116a a43e 0654 703f
000002a0: 72bb b33e c6c1 3140 9933 ff3f fc6f 91bf
000002b0: a671 fc3f efa1 663f 4231 86bf 1b04 1f40
000002c0: bc2d 5b3f 343a 353f 6740 fa3f f076 46bf
000002d0: b152 8c3f 2a8e e93f 5c2b ef3f bc56 1140
000002e0: 880a 0b40 6d83 0e40 1d65 0f40 f8b2 393f
000002f0: f2d9 abbf 4caa 0240 11f2 983f 4d1c 8b3f
00000300: 8159 ddbf 30d7 1740 1a54 2f3f 115f cf3e
00000310: 6fa3 ea3f 3e35 8e3f 8a90 04bf 87da 9d3f
00000320: abdf 4a3f cb86 0140 484b a5bf b45d 03be
00000330: 5cd6 65bf 49c8 0240 b08f 383f a3e7 fc3f
00000340: 8bbf 693f b21f cb3f 0ca9 fd3f 21b5 1440
00000350: d49e 1940 0fdd e03f 5069 633f 6838 883f
00000360: 8e44 533f 08eb 8ebf a5a3 d63f 3a51 a6bf
00000370: 827d 983f 1ff0 0640 f54f cf3f 2a30 413f
00000380: 11bb 99bf b77c e83f 4fbe 95bf ddf3 323f
00000390: 1dc2 e13e 3a15 1340 99d4 593f d734 1140
000003a0: 67db 9b3f ef47 f73f b146 843f 84dc a83e
000003b0: e35c 0540 858f 4ebf d9af 783f 5643 9c3f
000003c0: 1910 0d40 77bf d53f 02aa b23f 2235 9f3f
000003d0: 9c0f db3f a54b 04c0 b0c0 a83f 90ff ba3e
000003e0: 6c65 743f 6193 eb3f a8e9 2440 95bf 913f
000003f0: 4c4b 9b3f 24b5 1e3f 474a 2abf 827d 2640

utn.0.bias f4 [256]
-4.3244243 1.8328366 0.61393625 0.60391074 -2.5633335 0.5634602 -4.041427 0.51342773
-3.9461925 -3.9813254 -5.8381224 -5.9882517 -7.182218 2.1019893 -3.749321 -4.0170903
-3.945781 0.09438034 -2.1618826 -1.2211307 -0.23043875 -3.0611742 -4.316023 0.42624316
-6.0111732 -4.0537305 -3.3606462 -7.555875 -3.775629 -2.8104827 -6.7970414 -1.6347915
1.218278 -6.045789 -1.5368879 0.99976516 -6.3689556 -2.096422 -4.1922445 -3.8050716
-0.008067454 -2.2846363 -4.35321 -1.4330434 0.52240163 -5.6157494 -3.7692776 -3.3344686
-4.333998 -4.1790595 -3.308317 2.136117 -3.5426252 -4.041266 -2.1517274 -3.852257
-4.086336 -2.471045 1.6849222 -5.5370884 -3.8990538 -4.364207 -5.567847 -4.1262684
-0.8052702 -5.423857 -4.0786414 -4.1056857 0.86189634 3.107155 -5.8897867 -4.4631534
-0.62870705 1.6476622 -3.7945933 -3.8300798 -2.824671 -6.68735 -4.1166134 -6.632021
-5.813363 2.057991 1.4639367 2.9476378 -4.1223335 -4.12572 -3.5571585 -6.3357487
-3.8547504 -4.3087316 -2.5677168 2.1473918 -3.7644103 -0.009501423 -0.0061231125 -7.7538404
-4.041738 -3.9298773 -4.5087237 -5.2107697 -3.6547525 -0.87535846 -2.4838524 -4.3750596
-2.317103 -4.2371407 -0.16818413 -5.294426 -4.4467893 1.0833143 -2.789926 -3.405174
0.4195496 -1.2989273 -3.1574996 -5.736063 -5.6627674 -4.0180826 -4.1579022 -0.39543396
-0.34749234 -4.317696 -4.1977425 -1.8606186 -5.005093 -0.4288098 -4.2342877 -5.4161696
-4.270845 -6.471239 -4.9485407 -3.2212915 -1.2674477 -4.0959215 -2.6624067 -4.174278
-4.066612 -6.721287 -3.9832442 -1.1830057 2.5531652 0.6882401 -3.695473 -2.982459
2.3672147 -6.562431 -3.7669673 -4.492859 -7.3084006 -0.4923671 1.9100459 -5.3550186
-4.250622 -2.020709 -4.0678973 -2.3176677 -0.9688195 -2.8800666 -7.12326 -5.6380167
-4.3278494 -5.120109 -3.7598522 3.0768878 -5.469137 -4.1684422 -4.5716605 -3.434522
-5.898797 -4.4579306 0.86227405 -0.04839789 0.86894834 -3.8740067 -1.4390626 -0.5094861
-3.687626 -6.006401 -0.59735787 -1.9833711 -3.4474058 -4.298856 -0.66644424 -4.0202374
-4.020519 -4.02225 -4.1681905 -4.609276 0.28377712 1.9382277 -3.6463227 -3.1200867
2.02759 -4.1348567 -6.3791757 -4.9467216 -4.309465 -3.3930008 -1.7451069 -3.5602908
-4.9826193 2.2154958 -1.7391498 -2.415518 -0.4543945 -0.87029463 -6.082124 -3.7903175
-3.9424884 -4.175375 -4.0649433 -4.2762866 -4.1808753 -4.2662816 -4.6618857 -3.4563215
-5.880186 0.28286695 -1.4864467 -0.06748161 -4.852792 2.9085565 -4.025732 -4.539955
-2.0461981 -3.8181486 -1.97456 -4.573208 -5.5213284 -4.2744603 -4.4740295 -0.21658453
-3.4246926 1.6814884 -4.1162653 -5.2697263 -0.0011834406 -1.4115591 -2.2809465 -2.852143
-4.0335817 -1.5841628 -4.24047 -4.0817547 -3.690594 2.7162213 -2.4230554 -5.281423
-4.0661182 -4.1684723 -4.420432 -4.321526 -3.371143 -5.407724 -2.562384 -4.4649625
00000000: af61 8ac0 649a ea3f ed2a 1d3f e599 1a3f
00000010: a80d 24c0 ed3e 103f 5f53 81c0 0070 033f
00000020: 6b8e 7cc0 09ce 7ec0 e6d1 bac0 c29f bfc0
00000030: bbd4 e5c0 fe86 0640 e0f4 6fc0 018c 80c0
00000040: ad87 7cc0 7b4a c13d 495c 0ac0 034e 9cbf
00000050: 23f8 6bbe 47ea 43c0 dc1c 8ac0 8b3c da3e
00000060: 885b c0c0 29b8 81c0 d414 57c0 bac9 f1c0
00000070: e8a3 71c0 f3de 33c0 5d81 d9c0 d940 d1bf
00000080: 89f0 9b3f 1a77 c1c0 beb8 c4bf 9cf0 7f3f
00000090: 7cce cbc0 c72b 06c0 de26 86c0 4b86 73c0
000000a0: 5b2d 04bc 7b37 12c0 7f4d 8bc0 f76d b7bf
000000b0: 1dbc 053f 38b4 b3c0 d83b 71c0 ef67 55c0
000000c0: 1db0 8ac0 dbba 85c0 77bb 53c0 24b6 0840
000000d0: 5fba 62c0 0d52 81c0 e7b5 09c0 618b 76c0
000000e0: 44c3 82c0 9a25 1ec0 88ab d73f d42f b1c0
000000f0: 198a 79c0 95a7 8bc0 cd2b b2c0 640a 84c0
00000100: 3026 4ebf 3d90 adc0 3b84 82c0 c761 83c0
00000110: 3da5 5c3f a1db 4640 2279 bcc0 27d2 8ec0
00000120: f2f2 20bf 98e6 d23f 9eda 72c0 0720 75c0
00000130: 69c7 34c0 c5fe d5c0 4cbb 83c0 8439 d4c0
00000140: 1207 bac0 20b6 0340 4762 bb3f 19a6 3c40
00000150: 28ea 83c0 e605 84c0 7ca8 63c0 74be cac0
00000160: 3bb4 76c0 21e1 89c0 7955 24c0 de6e 0940
00000170: 19ec 70c0 dbab 1bbc 64a4 c8bb 761f f8c0
00000180: eb55 81c0 1c83 7bc0 7747 90c0 a0be a6c0
00000190: 77e7 69c0 7e17 60bf 70f7 1ec0 7d00 8cc0
000001a0: 6a4b 14c0 a896 87c0 7638 2cbe f06b a9c0
000001b0: 194c 8ec0 0baa 8a3f 268e 32c0 5fee 59c0
000001c0: 35cf d63e 4043 a6bf 7914 4ac0 d48d b7c0
000001d0: 6435 b5c0 2294 80c0 890d 85c0 5276 cabe
000001e0: 84ea b1be 912a 8ac0 e853 86c0 c028 eebf
000001f0: b929 a0c0 f58c dbbe 497f 87c0 4351 adc0
00000200: c3aa 88c0 6414 cfc0 725a 9ec0 a429 4ec0
00000210: ba3b a2bf ca11 83c0 df64 2ac0 af93 85c0
00000220: af21 82c0 c814 d7c0 79ed 7ec0 bb6c 97bf
00000230: 0f67 2340 8130 303f a182 6cc0 9ce0 3ec0
00000240: 7280 1740 6fff d1c0 fe15 71c0 80c5 8fc0
00000250: 6bde e9c0 8a17 fcbe 627c f43f 505c abc0
00000260: 1805 88c0 4c53 01c0 372c 82c0 ab54 14c0
00000270: 8e04 78bf 0353 38c0 bff1 e3c0 a26a b4c0
00000280: be7d 8ac0 efd7 a3c0 6ba1 70c0 bbeb 4440
00000290: 2c03 afc0 e163 85c0 0b4b 92c0 35cf 5bc0
000002a0: f2c2 bcc0 5ea7 8ec0 febd 5c3f de3c 46bd
000002b0: 6673 5e3f baef 77c0 3433 b8bf ae6d 02bf
000002c0: 1002 6cc0 7034 c0c0 72ec 18bf 1bdf fdbf
000002d0: 4ca2 5cc0 3a90 89c0 179c 2abf c9a5 80c0
000002e0: 17a8 80c0 46b6 80c0 d161 85c0 307f 93c0
000002f0: 3c4b 913e d817 f83f 5a5d 69c0 80af 47c0
00000300: 09c4 0140 bf50 84c0 3522 ccc0 8b4b 9ec0
00000310: 23e7 89c0 ed26 59c0 aa5f dfbf cedb 63c0
00000320: 9e71 9fc0 afca 0d40 769c debf d997 1ac0
00000330: 65a6 e8be a1cb 5ebf c3a0 c2c0 9094 72c0
00000340: bb51 7cc0 ac9c 85c0 0414 82c0 57d7 88c0
00000350: bbc9 85c0 6185 88c0 2b2e 95c0 5f34 5dc0
00000360: 7c2a bcc0 f0d3 903e e343 bebf cc33 8abd
00000370: 124a 9bc0 ca25 3a40 ccd2 80c0 5047 91c0
00000380: e9f4 02c0 8c5c 74c0 62be fcbf b857 92c0
00000390: b9ae b0c0 61c8 88c0 402b 8fc0 56c8 5dbe
000003a0: 2a2e 5bc0 033b d73f 72b8 83c0 99a1 a8c0
000003b0: ad1d 9bba f8ad b4bf 07fb 11c0 8389 36c0
000003c0: 1a13 81c0 d9c5 cabf eeb1 87c0 bc9d 82c0
000003d0: b132 6cc0 92d6 2d40 5713 1bc0 6b01 a9c0
000003e0: a41d 82c0 2064 85c0 2e74 8dc0 f149 8ac0
000003f0: cfc0 57c0 130c adc0 19fe 23c0 f9e0 8ec0

utn.2.weight f4 [128, 256]
-0.116743736 -0.54935205 -0.34421957 -0.32961103 -0.18061212 -0.36558157 -0.07898545 -0.3941798
-0.12666422 -0.1708003 -0.19035874 -0.20818757 -0.17462254 -0.4657839 -0.05356414 -0.13769156
-0.13938625 -0.41338405 -0.14783432 -0.17112416 -0.42403817 -0.3895037 -0.16860518 -0.41428414
-0.20500734 -0.15362944 -0.36079445 -0.10984783 -0.20691495 -0.30159202 -0.2026487 -0.329626
-0.37658268 -0.122696295 -0.29333943 -0.3939713 -0.21774693 -0.2359687 -0.27127543 -0.22980426
-0.26001045 -0.21410424 -0.16997232 -0.2904226 -0.37094134 -0.22238676 -0.16726126 -0.26775542
-0.14015977 -0.14721781 -0.31013054 -0.5844398 -0.24558724 -0.08408288 -0.44863486 -0.17524618
-0.08820622 -0.16244926 -0.3642548 -0.09701036 -0.17888899 -0.26954928 -0.19824468 -0.1331807
-0.34604412 -0.2707001 -0.08495031 -0.14119351 -0.42339432 -0.69590557 -0.18528485 -0.05675332
-0.30654746 -0.76454604 -0.1674532 -0.15138204 -0.1601194 -0.10807453 -0.11987232 -0.17140195
-0.16108744 -0.4506856 -0.44255468 -0.44191322 -0.20143305 -0.046444334 -0.21683799 -0.13804352
-0.23100396 -0.10400075 -0.27792454 -0.48544234 -0.22170308 -0.37232557 -0.31648734 -0.15003699
-0.24328035 -0.21733294 -0.12790844 -0.24543938 -0.17236903 -0.35580522 -0.12576073 -0.062295515
-0.19915187 -0.0903975 -0.25789884 -0.21035458 -0.181668 -0.3098129 -0.314121 -0.37286732
-0.3550096 -0.4035804 -0.26556504 -0.18289371 -0.22045366 -0.122424364 -0.06941015 -0.4534472
-0.23446414 -0.13439982 -0.06359533 -0.26833546 -0.2265541 -0.39915186 -0.1302164 -0.18791583
-0.11845852 -0.13940392 -0.13712001 -0.2287894 -0.32912144 -0.049957156 -0.34282643 -0.08345847
-0.16107005 -0.1973388 -0.09382687 -0.31135622 -0.55097437 -0.55654436 -0.28144553 -0.20616817
-0.43375632 -0.118156895 -0.21624969 -0.115288354 -0.16386905 -0.32106432 -0.38350606 -0.25973478
-0.10833029 -0.20539154 -0.22733815 -0.17266329 -0.3065143 -0.13060889 -0.26973554 -0.17220141
-0.09306132 -0.14315352 -0.09071452 -0.4224579 -0.20349361 -0.12875375 -0.15570267 -0.2656012
-0.081565134 -0.12246552 -0.5632414 -0.31077865 -0.5830345 -0.19373299 -0.28985208 -0.35921398
-0.20706837 -0.13718052 -0.49428925 -0.27328682 -0.16243714 -0.07583452 -0.3801047 -0.18367587
-0.101477765 -0.18070143 -0.08134671 -0.2355339 -0.35564202 -0.4420636 -0.31093797 -0.2403409
-0.4675264 -0.11545008 -0.14029242 -0.14437023 -0.12612498 -0.168211 -0.23092297 -0.18443897
-0.2671378 -0.6296231 -0.2005755 -0.2185638 -0.2762717 -0.3899379 -0.10066035 -0.12214581
-0.18519495 -0.16762178 -0.117562465 -0.13904805 -0.14059032 -0.11137083 -0.11142636 -0.22975712
-0.06746139 -0.395836 -0.34434217 -0.26860756 -0.18711095 -0.69237363 -0.21839431 -0.18914442
-0.24701414 -0.2081748 -0.20093371 -0.31349203 -0.27024788 -0.07645173 -0.13345356 -0.36105657
-0.1709552 -0.63543326 -0.19915284 -0.18884867 -0.37230682 -0.2781118 -0.38331547 -0.25612587
-0.08449241 -0.3484484 -0.112791084 -0.12483993 -0.24106887 -0.41283566 -0.28850013 -0.21258236
-0.16104753 -0.096458584 -0.12991884 -0.09788732 -0.24536921 -0.27663344 -0.19019642 -0.018490875
00000000: 5717 efbd 56a2 0cbf 8c3d b0be c7c2 a8be
00000010: 62f2 38be 822d bbbe 20c3 a1bd efd1 c9be
00000020: 44b4 01be 46e6 2ebe 67ed 42be 1f2f 55be
00000030: 40d0 32be 3a7b eebe 1266 5bbd 04ff 0cbe
00000040: 45bb 0ebe 13a7 d3be e161 17be 2c3b 2fbe
00000050: 881b d9be 076d c7be d6a6 2cbe 0d1d d4be
00000060: 72ed 51be 0951 1dbe 0dba b8be e6f7 e0bd
00000070: 83e1 53be 456a 9abe 2483 4fbe bdc4 a8be
00000080: 72cf c0be 3248 fbbd 9630 96be 9bb6 c9be
00000090: 0df9 5ebe c7a1 71be 9de4 8abe cf51 6bbe
000000a0: 1720 85be 243e 5bbe 390d 2ebe 45b2 94be
000000b0: 06ec bdbe 5bb9 63be 8946 2bbe 3d17 89be
000000c0: 0b86 0fbe 44c0 16be 6ec9 9ebe d99d 15bf
000000d0: 397b 7bbe a533 acbd 78b3 e5be bc73 33be
000000e0: 76a5 b4bd 1959 26be 9b7f babe 5ead c6bd
000000f0: ad2e 37be 5d02 8abe a700 4bbe 8560 08be
00000100: b22c b1be 3499 8abe 6efa adbd 0895 10be
00000110: 24c7 d8be de26 32bf 50bb 3dbe 2b76 68bd
00000120: caf3 9cbe 4ab9 43bf da78 2bbe e503 1bbe
00000130: 57f6 23be 2e56 ddbd 9e7f f5bd fe83 2fbe
00000140: 1bf4 24be 43c0 e6be 8796 e2be 7342 e2be
00000150: 7744 4ebe 6a3c 3ebd c70a 5ebe 485b 0dbe
00000160: 4d8c 6cbe 58fe d4bd 204c 8ebe e68b f8be
00000170: 2206 63be 75a1 bebe a10a a2be 4ca3 19be
00000180: 7c1e 79be 878c 5ebe 6efa 02be 7654 7bbe
00000190: 8281 30be 1a2c b6be 6cc7 00be 9529 7fbd
000001a0: 78ee 4bbe 5322 b9bd 510b 84be 3167 57be
000001b0: 2d07 3abe cc9f 9ebe 78d4 a0be 77e8 bebe
000001c0: d1c3 b5be 17a2 cebe 24f8 87be 7d48 3bbe
000001d0: 9bbe 61be a0b9 fabd e926 8ebd 3b2a e8be
000001e0: 5e17 70be 1ba0 09be 453e 82bd 4463 89be
000001f0: ccfd 67be a25d ccbe 7357 05be 026d 40be
00000200: 619a f2bd e7bf 0ebe 3069 0cbe c547 6abe
00000210: 9b82 a8be e09f 4cbd f286 afbe 46ec aabd
00000220: 8cef 24be 2f13 4abe 4d28 c0bd 156a 9fbe
00000230: a80c 0dbf b179 0ebf a119 90be c01d 53be
00000240: 4f15 debe 3efc f1bd 8f70 5dbe 4d1c ecbd
00000250: 4acd 27be 8b62 a4be e85a c4be f5fb 84be
00000260: 45dc ddbd 2952 52be 55cb 68be a5ce 30be
00000270: 71ef 9cbe 56be 05be c71a 8abe 9155 30be
00000280: ef96 bebd d696 12be 89c8 b9bd 674c d8be
00000290: a160 50be 06d8 03be 8570 1fbe e1fc 87be
000002a0: 9f0b a7bd 34cf fabd 9730 10bf 611e 9fbe
000002b0: c041 15bf f161 46be 7e67 94be e5ea b7be
000002c0: bb09 54be 0d79 0cbe 7b13 fdbe 40ec 8bbe
000002d0: ec55 26be 214f 9bbd 159d c2be 8715 3cbe
000002e0: 93d3 cfbd cc09 39be 1b99 a6bd cc2f 71be
000002f0: b616 b6be 2956 e2be 4333 9fbe ed1b 76be
00000300: 9f5f efbe 1771 ecbd d1a8 0fbe cad5 13be
00000310: e826 01be 813f 2cbe 1277 6cbe 92dd 3cbe
00000320: 49c6 88be fb2e 21bf aa63 4dbe 30cf 5fbe
00000330: 7c73 8dbe f1a5 c7be 0327 cebd 9527 fabd
00000340: bfa3 3dbe 0ba5 2bbe 97c4 f0bd 9d62 0ebe
00000350: e9f6 0fbe 6416 e4bd 8133 e4bd 7345 6bbe
00000360: 3229 8abd 04ab cabe 9e4d b0be ee86 89be
00000370: 039a 3fbe 663f 31bf c2a2 5fbe 13af 41be
00000380: 46f1 7cbe c62b 55be 91c1 4dbe 0782 a0be
00000390: ee5d 8abe ba92 9cbd 0da8 08be 68dc b8be
000003a0: e10e 2fbe c1ab 22bf b9ee 4bbe 8c61 41be
000003b0: 009f bebe ab64 8ebe ed41 c4be ee22 83be
000003c0: 5b0a adbd d467 b2be 03ff e6bd 14ac ffbd
000003d0: c2da 76be 325f d3be 4ab6 93be 31af 59be
000003e0: a5e9 24be 148c c5bd 7209 05be 2679 c8bd
000003f0: 1142 7bbe e6a2 8dbe dac2 42be 2d7a 97bc

utn.2.bias f4 [128]
-0.4916106 -0.9004922 -0.111154236 -0.42683843 -0.28613317 -0.41701534 -0.45045337 -0.5032339
-0.54716325 -0.8951672 -1.1597884 -0.5265332 -1.3958641 -1.276296 -0.846191 -0.6198027
0.5419755 -0.6415661 -0.38384613 0.42999783 -0.39115173 -0.016557157 -0.4641692 -0.6149933
1.078216 -0.45174265 -0.44032753 -0.78235954 -0.42741862 -0.55315113 0.06247764 -0.29370093
-0.37749615 -0.38961187 -1.1381767 -0.41249716 -0.34813926 -0.48694167 -0.41953966 -0.42014328
-0.7233909 -0.45851153 -0.5308212 -0.47132945 -0.4072356 -0.46459618 -0.45933253 -0.7604138
-0.5172755 -0.74025005 -0.36850637 -0.5819915 -0.4071817 -0.26690257 -0.15741496 -0.29487672
-0.42536655 -0.34924912 -0.39301744 -0.63117427 -0.49466968 -0.3708076 -0.56294215 -0.3498869
-0.8737397 -0.6734793 -0.46637595 -0.50881994 -0.13832289 -1.013776 -0.32663196 -0.32132635
-0.37593114 -0.74744326 -0.37080052 -1.2083904 0.7398014 -0.5265982 -0.47124732 -0.413431
-0.36516985 -0.3152194 -0.39476794 0.43230015 0.5714448 -0.57665175 -0.6699191 0.41215262
-0.5208811 -1.1729625 -0.5206088 -0.4927212 -0.6130159 -0.35969678 -0.048054647 -0.4609593
-0.5564165 -0.4032901 -0.56268364 -0.30704853 -0.5839228 0.119273074 -0.6966117 -0.483232
0.6617068 -0.3389228 -0.30647185 -0.42991456 -0.5099167 -0.3152149 -0.11700803 -1.1360801
-0.46782166 -0.30405065 -0.4845261 -0.6358988 0.42675787 -0.4261605 -0.6445096 -0.5752957
-1.08281 -0.42706928 -0.47672322 -0.5637022 -1.0048534 0.79988295 -0.47234687 -0.5050533
00000000: 62b4 fbbe a886 66bf d5a4 e3bd 918a dabe
00000010: 0c80 92be 0983 d5be d3a1 e6be f0d3 00bf
00000020: e412 0cbf ad29 65bf f273 94bf e1ca 06bf
00000030: adab b2bf ab5d a3bf f99f 58bf 64ab 1ebf
00000040: e8be 0a3f ad3d 24bf 7b87 c4be ad28 dc3e
00000050: 0a45 c8be e0a2 87bc 96a7 edbe 3370 1dbf
00000060: fb02 8a3f d04a e7be 9c72 e1be b748 48bf
00000070: 9dd6 dabe 509b 0dbf 8ee8 7f3d f85f 96be
00000080: 2d47 c1be 357b c7be c6af 91bf d432 d3be
00000090: 4f3f b2be 6b50 f9be e7cd d6be 051d d7be
000000a0: 2530 39bf 06c2 eabe e6e3 07bf 1852 f1be
000000b0: 2f81 d0be 8ddf edbe a22d ebbe 7baa 42bf
000000c0: 2b6c 04bf 0781 3dbf deac bcbe 65fd 14bf
000000d0: 1f7a d0be 74a7 88be 6331 21be 15fa 96be
000000e0: a5c9 d9be c8d0 b2be 9539 c9be a394 21bf
000000f0: 5845 fdbe 7eda bdbe fa1c 10bf 6024 b3be
00000100: 68ad 5fbf 2469 2cbf d4c8 eebe 0642 02bf
00000110: 84a4 0dbe 69c3 81bf 4e3c a7be e384 a4be
00000120: 0c7a c0be 7158 3fbf 91d9 bdbe 89ac 9abf
00000130: a063 3d3f 24cf 06bf 5447 f1be 3aad d3be
00000140: 8bf7 babe 7064 a1be 061f cabe 7256 dd3e
00000150: 354a 123f 739f 13bf d17f 2bbf ab05 d33e
00000160: 7758 05bf a323 96bf 9e46 05bf f445 fcbe
00000170: 9cee 1cbf 2d2a b8be f3d4 44bd db02 ecbe
00000180: 5071 0ebf 0a7c cebe 090c 10bf 7735 9dbe
00000190: f77b 15bf 7145 f43d 2555 32bf 2f6a f7be
000001a0: 9e65 293f 4a87 adbe e1e9 9cbe c31d dcbe
000001b0: e789 02bf d963 a1be e8a1 efbd 136b 91bf
000001c0: 5286 efbe 87ac 9bbe ce13 f8be 44ca 22bf
000001d0: 0280 da3e b631 dabe 95fe 24bf 9446 13bf
000001e0: 8599 8abf d3a8 dabe 1115 f4be ca4e 10bf
000001f0: 099f 80bf 21c5 4c3f 73d7 f1be 2c4b 01bf

utn.4.weight f4 [15, 128]
0.088249974 -0.4933485 -0.28341177 0.08696947 -2.7780664 -0.05376349 0.00725341 0.44753483
-0.13975167 -1.0555495 -0.15217707 -0.16942266 -0.32306027 -0.84105873 -0.1664356 -0.12914279
-0.30072963 -0.010087592 0.14589913 -0.36333436 0.043642 1.691667 0.0073116706 -0.033386163
-0.08361514 -1.3012168 0.11158674 -0.36745736 0.094153926 -0.00828219 -0.70090723 1.0289326
0.3099524 -0.06003504 -0.26347363 0.08762154 -0.012557904 0.032456283 0.14946495 -0.07418737
-0.11946134 0.10530179 0.14318477 0.074534364 -0.1679854 -0.046742763 0.050463 0.2476721
0.2741726 -0.5267 0.41821647 0.5311695 0.004897051 1.1597254 1.0082175 0.079929814
0.19643968 0.02427947 0.035553522 -0.065029606 0.07405608 0.11076485 0.4649956 1.5500205
-0.20014715 0.8330672 -0.061199743 -0.10238664 0.7400468 -0.32512292 -0.14072166 0.04221712
0.15394643 0.16311754 -0.027781675 -0.49950692 -0.23918317 -0.13585615 1.4242963 0.043405723
0.14721763 0.22838974 0.203944 -0.44388494 0.7170623 0.6639073 -0.17297544 -0.15868974
0.15513073 -0.20514701 0.013052426 -0.21366824 -0.16898443 0.11259779 -3.0726476 0.13677429
0.41808975 0.11477702 0.43005615 -0.09099815 -0.01683146 0.9889091 -0.24208704 0.121448666
1.108538 0.02534336 0.029168978 -0.021333003 -0.13834682 -0.010721778 0.89614975 -0.7161895
0.029438633 1.4231579 0.35347265 0.024390671 -0.4366138 0.0149223115 -0.35437873 0.55902
-0.28192413 0.016007978 0.34780315 -0.13349657 -0.15672746 -0.46513146 -0.009323211 -0.051546846
-0.052737527 -0.3597833 -1.5856227 -0.14728758 -1.6054925 -0.12144716 -0.17363109 0.07229655
-0.05328239 -1.8370671 -0.3134862 -0.08328584 -0.56375545 -1.644876 -0.29206178 -0.14350319
0.18468726 -0.27759713 0.04001453 -0.10726099 -0.035239317 -1.1055007 -0.09084871 -0.063896716
0.3751597 -1.8389665 0.17562495 -1.710249 -0.05352757 0.045139458 -1.6236662 -1.6200202
-0.4373537 -0.06982058 -0.5077876 -0.23975283 -0.071582064 -0.109860316 -0.18670462 -0.039750714
-0.19133441 -0.058723193 0.0016471023 -0.15259056 -0.07564205 0.020914393 -0.66049343 0.24769856
0.018872892 -0.8850971 -0.43260196 -0.97306556 -0.1430705 -1.5114813 -0.86950827 -0.0021875366
-0.24378407 -0.040246762 -0.005000482 -0.098187014 -0.022426853 -0.18959802 -0.14685905 -1.8195562
-0.22759114 -0.60129315 -0.07135209 -0.17988232 0.8609438 -1.5949068 -0.10751353 -0.11121329
-0.05600504 0.021769568 0.01757266 0.054155793 0.31148443 -0.14581597 -1.2554351 -0.08263236
-0.24727295 -0.21698225 -0.14852628 0.18979907 1.5650798 -0.40584105 0.009766507 0.24767296
-0.19230606 -0.22971034 -0.12489072 -0.029351851 0.0023983128 -0.2057258 -1.5102545 0.06008718
0.015264463 -0.09907656 0.010129379 0.36669463 -0.03968805 -0.8668597 -0.28698152 -0.040419016
1.4352349 -0.0468793 -0.14836071 -0.3523517 -0.08944672 -0.0894126 -0.33374834 -1.0589463
-0.21993925 -1.5861297 -0.43287665 -0.08914114 0.24389732 -0.11902044 -1.1018041 -1.1426587
-1.1685255 -0.117698066 0.17668797 -0.2114106 -0.29477218 0.14574236 -0.06127623 -0.016197288
00000000: 67bc b43d 2d98 fcbe 591b 91be 0d1d b23d
00000010: d7cb 31c0 1b37 5cbd 03ae ed3b 4923 e53e
00000020: 101b 0fbe 3f1c 87bf 4ed4 1bbe 227d 2dbe
00000030: 2868 a5be a04f 57bf 186e 2abe 023e 04be
00000040: 3cf9 99be 6d46 25bc 9566 153e f606 babe
00000050: f4c1 323d 8b88 d83f bd96 ef3b eebf 08bd
00000060: 6a3e abbd 468e a6bf 9787 e43d 5f23 bcbe
00000070: c6d3 c03d 06b2 07bc a86e 33bf 10b4 833f
00000080: 15b2 9e3e 4de7 75bd 04e6 86be ec72 b33d
00000090: abbf 4dbc e1f0 043d 570d 193e 8cef 97bd
000000a0: 26a8 f4bd 77a8 d73d 079f 123e 79a5 983d
000000b0: 5d04 2cbe 5775 3fbd 4ab2 4e3d c19d 7d3e
000000c0: 5a60 8c3e d0d5 06bf 7820 d63e b9fa 073f
000000d0: 7177 a03b e271 943f 450d 813f 3eb2 a33d
000000e0: 7c27 493e bde5 c63c 92a0 113d 3e2e 85bd
000000f0: b7aa 973d afd8 e23d e713 ee3e 1267 c63f
00000100: 60f3 4cbe e443 553f 95ac 7abd 16b0 d1bd
00000110: b573 3d3f 8376 a6be 5719 10be dceb 2c3d
00000120: 22a4 1d3e 4908 273e 6596 e3bc 5fbf ffbe
00000130: 6fec 74be e01d 0bbe 574f b63f 33ca 313d
00000140: 38c0 163e 00df 693e b2d6 503e e344 e3be
00000150: 6591 373f d4f5 293f 7920 31be 907f 22be
00000160: 97da 1e3e 0f12 52be d8d9 553c d9cb 5abe
00000170: 410a 2dbe ac99 e63d 42a6 44c0 8f0e 0c3e
00000180: dc0f d63e 3710 eb3d 5230 dc3e 3d5d babd
00000190: 21e2 89bc 2629 7d3f aae5 77be 14ba f83d
000001a0: 93e4 8d3f e19c cf3c c8f3 ee3c 8dc2 aebc
000001b0: caaa 0dbe 65aa 2fbc 126a 653f 3258 37bf
000001c0: 4a29 f13c 0a2a b63f 5efa b43e f2ce c73c
000001d0: d88b dfbe b67c 743c 2171 b5be ef1b 0f3f
000001e0: 5c58 90be 2a23 833c 4113 b23e 53b3 08be
000001f0: 2a7d 20be b625 eebe 62c0 18bc c922 53bd
00000200: 4e03 58bd 8435 b8be aff5 cabf 8ed2 16be
00000210: c780 cdbf 4ab9 f8bd 59cc 31be 3710 943d
00000220: a33e 5abd 0425 ebbf 4381 a0be c491 aabd
00000230: 4752 10bf 4c8b d2bf 1f89 95be 80f2 12be
00000240: a81e 3d3e 3621 8ebe 47e6 233d a6ab dbbd
00000250: 1a57 10bd 0c81 8dbf e30e babd 48dc 82bd
00000260: ef14 c03e 4163 ebbf 07d7 333e 70e9 dabf
00000270: ba3f 5bbd 27e4 383d 4bd4 cfbf d25c cfbf
00000280: d3ec dfbe 18fe 8ebd 5efe 01bf c481 75be
00000290: 9e99 92bd 72fe e0bd 7f2f 3fbe a5d1 22bd
000002a0: 2bed 43be bb87 70bd 95e3 d73a b340 1cbe
000002b0: 38ea 9abd a954 ab3c 1916 29bf b1a4 7d3e
000002c0: 539b 9a3c b995 62bf 017e ddbe d31a 79bf
000002d0: 1381 12be 3878 c1bf 1898 5ebf c65c 0fbb
000002e0: 88a2 79be cad9 24bd 15db a3bb 4616 c9bd
000002f0: 85b8 b7bc fc25 42be 3862 16be 38e7 e8bf
00000300: a70d 69be 59ee 19bf 0b21 92bd 1233 38be
00000310: d066 5c3f e825 ccbf 0e30 dcbd cbc3 e3bd
00000320: 8a65 65bd 1856 b23c 8af4 8f3c 77d2 5d3d
00000330: e37a 9f3e c850 15be 19b2 a0bf 283b a9bd
00000340: 1f35 7dbe 9830 5ebe 4617 18be b05a 423e
00000350: 8954 c83f 66ca cfbe b303 203c fb9d 7d3e
00000360: e1eb 44be 3039 6bbe b5c6 ffbd 4b73 f0bc
00000370: 032d 1d3b c9a9 52be 0550 c1bf fa1d 763d
00000380: cc17 7a3c a7e8 cabd b2f5 253c 66bf bb3e
00000390: f08f 22bd 84ea 5dbf 3eef 92be 698e 25bd
000003a0: c7b5 b73f 8204 40bd dfeb 17be 7167 b4be
000003b0: d82f b7bd f41d b7bd 10e1 aabe 8d8b 87bf
000003c0: c137 61be 4c06 cbbf 02a2 ddbe a18f b6bd
000003d0: 38c0 793e fdc0 f3bd eb07 8dbf a442 92bf
000003e0: 3e92 95bf af0b f1bd b1ed 343e 057c 58be
000003f0: 61ec 96be 7c3d 153e c9fc 7abd 2db0 84bc

utn.4.bias f4 [15]
-0.42737105 0.1897489 -0.26810893 0.25695544 -0.117582835 0.3227622 -0.26790395 -0.8114069
0.07832863 -0.7144893 -0.64192027 0.13469018 0.0037382802 -0.0073402184 -0.3767865
00000000: 61d0 dabe 894d 423e 9345 89be aa8f 833e
00000010: 45cf f0bd 1641 a53e b52a 89be 5db8 4fbf
00000020: c36a a03d c5e8 36bf e354 24bf 39ec 093e
00000030: effd 743b 3786 f0bb 29ea c0be

itn.0.weight f4 [256, 2]
-0.1496417 0.02255158 2.8874981 0.039265726 2.8267498 0.81883514 2.4062266 -1.9669951
3.3952978 0.04259618 0.9065149 2.2570155 -0.7538939 -0.14067072 2.9283416 0.42229
2.7530222 0.16141406 3.7068424 -1.1068069 2.7536533 -0.0016106962 2.9256864 0.022406219
2.996382 -0.526981 2.9246368 1.1896912 2.646651 -2.0045369 3.4477725 -0.36745757
3.3721383 -0.19630511 -2.2255013 -1.362256 2.8960347 1.05153 1.3811187 -0.4723255
-0.376813 -0.9253547 3.0949397 -0.08598397 3.1777115 -0.08389432 2.98098 1.0165796
0.05626431 3.3213637 2.8981776 -1.8119841 2.9944615 1.2895277 1.2436361 1.8596941
3.2739418 -0.19416021 2.7247982 0.1776955 3.4487493 -0.14922369 3.1293645 -0.16385664
-0.22464103 -1.154129 3.023296 -0.30649737 3.3295524 -1.4638495 3.2568212 -0.08562661
2.8848095 0.18610536 2.946991 0.04250927 2.941604 -0.11777776 2.9449964 -0.12937179
3.069617 0.31020728 3.3650072 0.14258295 2.7800994 1.3383495 2.8844252 0.19232781
3.1209695 1.4151511 2.9273815 1.3903776 3.405496 -0.9136852 2.8802621 0.054747477
2.9818754 -0.026973026 2.818459 -0.9406765 3.2921767 0.0065728496 3.2812402 -0.096583985
3.181725 -0.079695396 3.667087 -1.1054628 2.890743 -1.0341051 0.9318579 -0.3876204
2.8885884 -0.021158677 2.7742834 0.07225555 1.7564101 -0.15053312 -1.0372005 -1.309391
3.0355325 -0.0049362597 3.2204866 -0.04077158 3.066708 -1.0934345 -0.7531125 -1.3325784
2.7326994 -0.0174587 0.18724985 2.3064032 3.3753936 -0.08118976 3.7864368 -1.1780045
2.9333205 -0.37106085 2.827813 -0.03070653 2.8404543 -0.030925218 3.4538095 -0.16869147
2.760841 -1.6550485 2.9150732 -0.027811568 3.1724102 -0.088677585 2.8357592 0.02389188
2.8021698 0.047611173 -1.257387 -1.875688 2.9605985 0.05026035 0.5071775 2.0771978
3.5343049 -0.23789006 2.9809148 0.07174289 3.4422455 -0.17778513 3.1532683 -0.5198373
2.9262557 0.88791484 2.8406398 -2.2793922 0.5000524 2.6691012 3.466603 -0.16116698
2.779878 0.056048073 0.08679055 1.2999251 2.862748 0.015608523 3.2430196 -0.049159814
-0.84580046 -2.0733292 3.414486 -0.23039737 2.8674378 -1.3723438 2.8655777 -1.8357251
2.8838325 -0.19955686 2.200223 -0.17561579 3.1747618 -0.06045205 2.8131428 0.08575242
2.9147828 -0.039143346 0.3161519 -1.0032179 -1.2872268 0.08588259 3.2607515 -0.17894372
-0.6183084 -1.3732759 2.8748033 -0.50751346 2.7084563 0.28021306 2.8991127 0.1645948
2.791362 0.36228633 1.4863272 -0.32299688 2.8579726 -1.5961466 2.5125809 -2.3113942
2.5371654 -0.10134112 1.1192563 1.1461351 2.8541815 -0.0056678266 0.805669 -0.10021345
2.8014817 0.68408006 -0.62185204 -0.035767395 -0.21312107 1.2168021 3.090719 0.16051067
1.9458766 -0.14070062 2.650936 -2.1495533 2.9672296 -0.0349307 2.7599714 -0.07246473
0.59910345 -1.3601111 3.1770036 -0.427534 3.6569476 -1.1843554 -0.038803477 2.4888773
00000000: ac3b 19be 17be b83c c5cc 3840 19d5 203d
00000010: 78e9 3440 2e9f 513f 9eff 1940 7fc6 fbbf
00000020: 8f4c 5940 5579 2e3d 5c11 683f f172 1040
00000030: 31ff 40bf fc0b 10be f369 3b40 6536 d83e
00000040: 8431 3040 ba49 253e e83c 6d40 d9ab 8dbf
00000050: db3b 3040 ff1d d3ba 723e 3b40 3f8d b73c
00000060: b9c4 3f40 3ae8 06bf 402d 3b40 cd47 983f
00000070: bb62 2940 554a 00c0 4ea8 5c40 6623 bcbe
00000080: 1dd1 5740 3504 49be 9d6e 0ec0 685e aebf
00000090: a258 3940 8998 863f 7fc8 b03f a6d4 f1be
000000a0: a2ed c0be 0ce4 6cbf 7e13 4640 5d18 b0bd
000000b0: a05f 4b40 c9d0 abbd 60c8 3e40 481f 823f
000000c0: 6875 663d 3991 5440 be7b 3940 18ef e7bf
000000d0: 42a5 3f40 3e0f a53f 782f 9f3f 750a ee3f
000000e0: 4388 5140 efd1 46be 1863 2e40 cff5 353e
000000f0: 4fb8 5c40 18ce 18be 8247 4840 09ca 27be
00000100: 4c08 66be 80ba 93bf af7d 4140 39ed 9cbe
00000110: 6317 5540 6c5f bbbf c26f 5040 015d afbd
00000120: b8a0 3840 6792 3e3e 809b 3c40 331e 2e3d
00000130: 3d43 3c40 7735 f1bd d27a 3c40 0a7a 04be
00000140: 9b74 4440 7dd3 9e3e 475c 5740 4401 123e
00000150: 26ed 3140 094f ab3f 6c9a 3840 95f1 443e
00000160: f7bd 4740 ac23 b53f 385a 3b40 e5f7 b13f
00000170: a5f3 5940 46e7 69bf 3756 3840 e43e 603d
00000180: 0cd7 3e40 89f6 dcbc a261 3440 2dd0 70bf
00000190: 06b3 5240 0f61 d73b d7ff 5140 d3cd c5bd
000001a0: 62a1 4b40 5737 a3bd 8eb1 6a40 ce7f 8dbf
000001b0: ef01 3940 8e5d 84bf 3d8e 6e3f 2e76 c6be
000001c0: a2de 3840 f654 adbc dc8d 3140 b8fa 933d
000001d0: 0cd2 e03f 5b25 1abe fcc2 84bf 209a a7bf
000001e0: 2a46 4240 59c0 a1bb 741c 4e40 1a00 27bd
000001f0: f244 4440 a9f5 8bbf fbcb 40bf ee91 aabf
00000200: 8ce4 2e40 8c05 8fbc 6dbe 3f3e 1c9c 1340
00000210: 7306 5840 d146 a6bd fb54 7240 dac8 96bf
00000220: 86bb 3b40 b0fb bdbe e3fa 3440 438c fbbc
00000230: 01ca 3540 e256 fdbc 370b 5d40 75bd 2cbe
00000240: 9eb1 3040 a1d8 d3bf 8f90 3a40 16d5 e3bc
00000250: c508 4b40 989c b5bd 147d 3540 e7b8 c33c
00000260: c056 3340 ef03 433d 0ff2 a0bf 8b16 f0bf
00000270: 727a 3d40 ccdd 4d3d 62d6 013f cff0 0440
00000280: 0d32 6240 7499 73be 4fc7 3e40 f0ed 923d
00000290: c04d 5c40 4e0d 36be 26cf 4940 0f14 05bf
000002a0: c647 3b40 634e 633f 0bcd 3540 90e1 11c0
000002b0: 6f03 003f 8ed2 2a40 d3dc 5d40 f508 25be
000002c0: 85e9 3140 aa92 653d 3ebf b13d f263 a63f
000002d0: 4337 3740 e4ba 7f3c a28d 4f40 cd5b 49bd
000002e0: 6186 58bf 6db1 04c0 f086 5a40 4aed 6bbe
000002f0: 1a84 3740 f6a8 afbf a065 3740 0af9 eabf
00000300: b690 3840 a258 4cbe 74d0 0c40 a0d4 33be
00000310: 4c2f 4b40 929c 77bd 880a 3440 f79e af3d
00000320: cd8b 3a40 c654 20bd a9de a13e 7269 80bf
00000330: d9c3 a4bf 36e3 af3d 27b0 5040 063d 37be
00000340: 7649 1ebf 81c7 afbf c7fc 3740 67ec 01bf
00000350: 5957 2d40 1678 8f3e 108b 3940 8a8b 283e
00000360: ada5 3240 987d b93e f83f be3f d95f a5be
00000370: 06e9 3640 884e ccbf 20ce 2040 e2ed 13c0
00000380: eb60 2240 ef8b cfbd ca43 8f3f 8eb4 923f
00000390: e9aa 3640 2db9 b9bb 5340 4e3f b63c cdbd
000003a0: 7a4b 3340 df1f 2f3f b231 1fbf d580 12bd
000003b0: 693c 5abe 2cc0 9b3f 57ce 4540 e95c 243e
000003c0: 7c12 f93f d313 10be efa8 2940 4892 09c0
000003d0: 17e7 3d40 7e13 0fbd 5fa3 3040 6368 94bd
000003e0: d85e 193f 1f18 aebf 0754 4b40 bde5 dabe
000003f0: 6e0b 6a40 f598 97bf 65f0 1ebd c449 1f40

itn.0.bias f4 [256]
-3.4196405 -0.87437654 -0.54959697 -1.3070121 -2.5124652 -1.9348564 -2.6675594 -0.9039662
-0.5359036 -2.034163 0.13661331 0.54633176 -0.6288831 -0.7597769 -0.81714135 -1.4824222
-1.6231402 -1.0224215 -1.5535903 -2.1648104 -2.0638368 -1.3011423 -1.1770818 -0.3650026
-1.5841566 -1.5871978 -0.4844348 -3.1500983 -1.0709718 -0.6101229 -2.980347 -1.472078
-1.9856757 -1.4939665 -1.153598 -1.4860562 0.11868148 -0.6485844 0.14246866 0.45618305
-1.0771306 -2.1821 -1.4955189 -0.4851574 -1.4319484 -1.1144742 -0.5067228 -1.3944011
-1.1392379 -0.5937074 -1.4864167 -2.1080499 -4.365207 -1.3596201 -0.7164526 -2.8371227
0.5335842 -0.58281386 -4.4964476 -1.8169353 -0.6648216 -1.9967959 -0.86402994 -1.6933057
-0.13330281 -2.374914 -2.1538982 -2.155838 0.0039605196 -0.12655257 0.07674301 -3.406348
-0.8055776 0.25250432 -1.5775795 0.17129385 -0.21992628 -0.8684987 -0.43356696 -2.52653
-2.4404635 -2.0135791 -2.2647593 -0.083141215 -0.8335951 0.16060059 -1.6783885 -3.5093977
-0.28239024 -3.0395935 0.65640515 -3.1331413 0.2319835 -1.6567813 -0.7830074 -0.6736714
-0.5531455 -3.509149 -2.3967702 -0.7952498 -0.25825828 -1.8855479 -2.7338018 -1.2853687
-1.7666032 -0.15645815 -0.3951597 0.6836879 -0.13121167 -2.9345927 -1.8019725 -1.2146449
-5.042893 -3.6999862 0.296646 -3.7308133 -1.160292 -2.7719746 -2.733498 -2.4385974
-4.4723854 -1.198094 0.9890506 -5.164094 -2.340928 0.21098353 -1.8128337 -2.1152287
-2.3006368 -1.3439345 -0.09262043 -2.3119652 -4.1664753 -0.49842238 -0.5199022 -0.43516144
-0.19006307 -0.22740558 -3.0940485 -4.18394 -1.1280323 -0.78781074 -1.5696448 -2.7501068
-2.5199451 -0.45076734 -0.75942326 -0.8284497 -0.24787617 -1.4276584 -3.490635 -4.694894
-0.5323033 -0.7167517 -2.8870757 -2.1850796 -2.1435938 -2.0551882 -0.9788554 -2.6908355
-0.26674595 -3.986796 -1.3923117 -2.4166667 -2.4057136 -0.9270696 -1.9352125 -0.504487
-1.542726 -0.40554672 -1.2831193 -1.6236386 -1.5571953 -0.43563542 -3.961445 -2.4844117
-1.2163303 0.041188464 -1.615817 -2.9918044 -0.26724723 -1.985963 -5.191781 -0.97032475
-2.0688148 -1.8726182 -0.034154933 -0.33309492 -1.9168242 -1.8632039 -2.3431396 -1.7015462
-0.6348341 -3.1779206 -1.4628513 -2.1517866 -0.42817536 -1.3669996 -2.6827288 -0.64808255
0.34932256 -1.8214173 -0.7768667 -0.6542114 -3.8785756 -0.49575567 -2.3932226 -2.414512
-2.384287 -2.1157546 -1.3391249 -1.4462126 -3.1212945 -0.8387418 0.032623358 -1.4367862
-1.3354852 -1.7101558 -2.354811 -0.7964878 -0.06029343 -1.5877144 -2.2208385 -1.6592196
0.017283702 -1.3231702 -2.5875018 -3.6410413 -1.9489307 -1.9708492 -1.126291 -0.2217756
0.10138945 -4.429138 -4.1961894 -3.102059 -2.503359 -3.672424 -1.6400696 -1.2965783
0.37930477 0.76436985 -1.4616879 -1.0360453 -1.587468 -0.67307836 -2.1936657 -2.4982069
-3.5621634 -3.982404 -4.156072 -2.879091 -1.3719819 0.13158117 -2.5936852 -0.95256925
00000000: 64db 5ac0 24d7 5fbf 63b2 0cbf 2c4c a7bf
00000010: 3bcc 20c0 60a9 f7bf 4bb9 2ac0 546a 67bf
00000020: fa30 09bf ba2f 02c0 5ce4 0b3e 66dc 0b3f
00000030: 7cfe 20bf bd80 42bf 2d30 51bf 03c0 bdbf
00000040: 0fc3 cfbf b5de 82bf 0cdc c6bf 418c 0ac0
00000050: e715 04c0 d58b a6bf 9eaa 96bf 9fe1 babe
00000060: a5c5 cabf 4c29 cbbf d707 f8be 369b 49c0
00000070: 9b15 89bf 0431 1cbf 01be 3ec0 0d6d bcbf
00000080: 9f2a febf 4b3a bfbf 19a9 93bf 1737 bebf
00000090: 470f f33d a109 26bf 4ee3 113e d390 e93e
000000a0: 6adf 89bf 87a7 0bc0 2a6d bfbf 8d66 f8be
000000b0: 164a b7bf 17a7 8ebf 96b8 01bf bc7b b2bf
000000c0: 8cd2 91bf 35fd 17bf e742 bebf 4aea 06c0
000000d0: c7af 8bc0 0808 aebf 7069 37bf 6b93 35c0
000000e0: f998 083f 4a33 15bf e6e2 8fc0 5691 e8bf
000000f0: c031 2abf 0297 ffbf 1131 5dbf 3ebe d8bf
00000100: 8880 08be 97fe 17c0 78d9 09c0 40f9 09c0
00000110: 3fc7 813b ff96 01be 702b 9d3d 9b01 5ac0
00000120: 553a 4ebf 3f48 813e 20ee c9bf a867 2f3e
00000130: 5b34 61be ee55 5ebf 7dfc ddbe abb2 21c0
00000140: 8e30 1cc0 7bde 00c0 d1f1 10c0 f145 aabd
00000150: 7d66 55bf 7b74 243e 6fd5 d6bf f999 60c0
00000160: 7495 90be b388 42c0 2b0a 283f 6385 48c0
00000170: 158d 6d3e 6911 d4bf 2c73 48bf bb75 2cbf
00000180: f29a 0dbf e695 60c0 af64 19c0 7e95 4bbf
00000190: 6e3a 84be a259 f1bf 9cf6 2ec0 f686 a4bf
000001a0: 0e20 e2bf 9136 20be 5f52 cabe 2c06 2f3f
000001b0: 5a5c 06be 5ed0 3bc0 09a7 e6bf 7c79 9bbf
000001c0: 615f a1c0 93cc 6cc0 fce1 973e a5c5 6ec0
000001d0: 7384 94bf 0868 31c0 a2f1 2ec0 fb11 1cc0
000001e0: c81d 8fc0 255b 99bf 6c32 7d3f 4240 a5c0
000001f0: c4d1 15c0 110c 583e ef0a e8bf e85f 07c0
00000200: a23d 13c0 0c06 acbf c8af bdbd 3df7 13c0
00000210: c453 85c0 3831 ffbe 5018 05bf 7bcd debe
00000220: e59f 42be 02dd 68be e404 46c0 d6e2 85c0
00000230: 5d63 90bf f7ad 49bf 1fea c8bf c001 30c0
00000240: c846 21c0 faca e6be 9069 42bf 4815 54bf
00000250: 40d3 7dbe 83bd b6bf 9066 5fc0 923c 96c0
00000260: 0745 08bf 0a7d 37bf d9c5 38c0 58d8 0bc0
00000270: a430 09c0 3488 03c0 4496 7abf a636 2cc0
00000280: ed92 88be aa27 7fc0 4537 b2bf abaa 1ac0
00000290: 36f7 19c0 6f54 6dbf 0bb5 f7bf 0f26 01bf
000002a0: 0c78 c5bf d2a3 cfbe 413d a4bf 64d3 cfbf
000002b0: 2d52 c7bf 9b0b dfbe 5188 7dc0 9a00 1fc0
000002c0: b6b0 9bbf 3cb5 283d 17d3 cebf b979 3fc0
000002d0: a1d4 88be 0934 febf 1223 a6c0 3467 78bf
000002e0: 7667 04c0 f4b1 efbf 0be6 0bbd 6b8b aabe
000002f0: 7f5a f5bf 777d eebf 00f6 15c0 44cc d9bf
00000300: 7d84 22bf 0d63 4bc0 b63e bbbf dfb6 09c0
00000310: cd39 dbbe d8f9 aebf d4b1 2bc0 bde8 25bf
00000320: 68da b23e 3424 e9bf bce0 46bf 667a 27bf
00000330: 953a 78c0 b0d3 fdbe 8f2a 19c0 5d87 1ac0
00000340: 2998 18c0 8668 07c0 7268 abbf 7f1d b9bf
00000350: 4ac3 47c0 c8b7 56bf 12a0 053d 9ce8 b7bf
00000360: 2ef1 aabf 63e6 dabf 39b5 16c0 a0e6 4bbf
00000370: 3ef6 76bd 3a3a cbbf 3822 0ec0 4f61 d4bf
00000380: 8d96 8d3c a45d a9bf a199 25c0 d206 69c0
00000390: 9076 f9bf c944 fcbf 4e2a 90bf 2519 63be
000003a0: 46a5 cf3d 80bb 8dc0 2f47 86c0 2288 46c0
000003b0: 0937 20c0 ff08 6bc0 cded d1bf 47f6 a5bf
000003c0: 3c34 c23e bead 433f 9718 bbbf 229d 84bf
000003d0: 2732 cbbf dd4e 2cbf 0565 0cc0 9fe2 1fc0
000003e0: 7cfa 63c0 b5df 7ec0 8bfe 84c0 0743 38c0
000003f0: 1a9d afbf 37bd 063e f0fe 25c0 94db 73bf

itn.2.weight f4 [128, 256]
-0.43286416 -0.16987467 -0.53355175 -0.25798455 -0.13285923 -0.94854355 -0.77407485 -0.31394204
-0.28190824 -0.09635856 -0.41110626 -0.3295099 -0.22567974 -0.60318214 -0.1443919 -0.13747378
-0.056719407 -1.2398434 -0.34392923 -0.36012363 -0.65077275 -0.13226359 -0.075999066 -0.572698
-1.0607622 -0.1468938 -0.8191138 -0.57608813 -0.16220026 -0.34018436 -0.048474297 -0.13316466
-0.6063644 -0.12363112 -0.13812356 -0.1361805 -0.30794716 -0.22637299 -0.26195633 -0.35525253
-0.11454885 -0.13303074 -0.5199124 -0.30981225 -0.40120107 -0.54500115 -0.10638052 -0.15201011
-0.18911965 -0.21165998 -0.14710382 -0.102317415 -0.1036575 -0.11426612 -0.28980803 -0.34404317
-0.31174085 -0.3231481 -0.24289663 -0.7473302 -0.19029365 -0.15109015 -0.15731633 -0.7698641
-0.31661722 -0.94748765 -0.060933817 -0.052242845 -0.26420736 -0.2796988 -0.38900426 -0.04144573
-0.22573191 -0.25346273 -0.11247661 -0.3386208 -0.28854147 -1.149284 -0.25788325 -0.9312412
-0.13310763 -0.08455272 -0.14374761 -0.23165223 -0.43548563 -0.20314918 -1.0555632 -0.11299578
-0.36050716 -0.91177064 -0.5469182 -0.09087349 -0.91436285 -0.12095788 -0.20201229 -0.24375634
-0.18681727 -0.26539496 -0.15030509 -0.25468874 -0.19888946 -0.5495038 -0.9172775 -0.10316877
-0.6950799 -0.34943685 -0.34002367 -0.5156047 -0.4995961 -0.29955676 -0.18728447 -0.1846967
-0.15410641 -0.38309836 -0.37215045 -0.29044434 -0.41844627 -0.7394765 -0.941231 -0.121175334
-0.2009855 -0.16815625 -0.42985827 -0.048306 -0.43598956 -0.24459465 -0.11431586 -1.1582763
-0.094344474 -0.51817125 -0.2941506 -0.15593305 -0.20669168 -0.15902732 -0.2189524 -0.22652088
-0.28242967 -0.38641024 -0.33924687 -0.29536176 -0.095731705 -0.08954556 -0.19077139 -0.15046759
-0.31086794 -0.53202975 -0.23727354 -0.1411049 -0.15888308 -0.13809931 -0.35979292 -0.20501454
-0.75314385 -0.6119424 -0.27227795 -0.09460892 -0.12026598 -0.07077882 -0.21660812 -0.3477743
-0.19615488 -0.11955264 -0.7204476 -0.91322416 -0.17812228 -0.14647497 -0.15381022 -0.42186952
-0.14018962 -0.24943826 -0.12199403 -0.048358787 -0.30213496 -0.09277973 -0.05846634 -0.6037658
-0.17652214 -1.0064315 -0.16308738 -0.048781075 -0.5502272 -0.31798172 -0.075893484 -0.14715841
-0.15063395 -0.22084244 -0.3199055 -0.30273247 -0.3988658 -0.14157486 -0.17348616 -0.8673673
-0.20337425 -0.07899297 -0.15373757 -0.052073997 -0.16793035 -0.2978471 -0.5227729 -0.21448666
-0.3202372 -0.12763686 -0.2358568 -0.28526613 -0.3038061 -0.25402093 -0.06360788 -0.08224436
-0.9250998 -0.32970726 -0.5117987 -0.926827 -0.32436565 -0.7238155 -0.2919296 -0.09750328
-0.29347643 -1.029187 -1.1886276 -1.049392 -0.24759401 -0.6927689 -0.166992 -0.4846696
-0.3175969 -0.16306318 -0.14629357 -0.12375237 -0.08189655 -1.0781399 -0.0754804 -0.38428566
-0.28750286 -0.20287982 -0.07888922 -0.49568415 -0.14107037 -0.12827088 -0.039214503 -0.07406632
-0.74316764 -0.29269397 -0.1291037 -0.22742659 -1.0986618 -1.1771455 -0.44758168 -0.066071175
-0.27202865 -0.16122545 -0.22512092 -0.5726709 -0.38549793 -0.3458589 -0.121824116 -0.24966949
00000000: 5fa0 ddbe a0f3 2dbe d996 08bf 8d16 84be
00000010: 400c 08be c0d3 72bf c529 46bf 03bd a0be
00000020: 4756 90be a357 c5bd 857c d2be 86b5 a8be
00000030: 9718 67be 256a 1abf 78db 13be edc5 0cbe
00000040: 9c52 68bd 30b3 9ebf 7e17 b0be 2062 b8be
00000050: 0b99 26bf 1b70 07be 66a5 9bbd 569c 12bf
00000060: 0ec7 87bf 546b 16be 71b1 51bf 837a 13bf
00000070: d317 26be a52c aebe fc8c 46bd 515c 08be
00000080: b33a 1bbf 5032 fdbd 4370 0dbe e772 0bbe
00000090: 40ab 9dbe 52ce 67be 241f 86be a9e3 b5be
000000a0: 9698 eabd 3639 08be fb18 05bf b69f 9ebe
000000b0: 3a6a cdbe 3285 0bbf 08de d9bd 8aa8 1bbe
000000c0: 95a8 41be 65bd 58be 62a2 16be cb8b d1bd
000000d0: 624a d4bd 5b04 eabd b861 94be 6d26 b0be
000000e0: 7f9c 9fbe ab73 a5be e5b9 78be 0851 3fbf
000000f0: 57dc 42be 60b7 1abe 8817 21be d015 45bf
00000100: a71b a2be 8d8e 72bf bd95 79bd 98fc 55bd
00000110: 3046 87be ae34 8fbe 912b c7be ffc2 29bd
00000120: 4426 67be dec5 81be 235a e6bd b55f adbe
00000130: b5bb 93be bd1b 93bf 4609 84be d365 6ebf
00000140: 5e4d 08be fa29 adbd 9332 13be 3e36 6dbe
00000150: f9f7 debe 5706 50be b21c 87bf 556a e7bd
00000160: 6594 b8be cd69 69bf d502 0cbf e11b babd
00000170: af13 6abf c4b8 f7bd 4fdc 4ebe 439b 79be
00000180: 074d 3fbe d9e1 87be 94e9 19be 9066 82be
00000190: aea9 4bbe 48ac 0cbf b3d2 6abf 264a d3bd
000001a0: c2f0 31bf 63e9 b2be 9517 aebe abfe 03bf
000001b0: 0fcb ffbe 815f 99be 80c7 3fbe 2221 3dbe
000001c0: 12ce 1dbe 7825 c4be 818a bebe 1fb5 94be
000001d0: 973e d6be 554e 3dbf 84f4 70bf c62a f8bd
000001e0: 25cf 4dbe 2731 2cbe 6216 dcbe 83dc 45bd
000001f0: 063a dfbe 0577 7abe 6f1e eabd 6642 94bf
00000200: ad37 c1bd dfa6 04bf e89a 96be eaac 1fbe
00000210: fca6 53be 0fd8 22be 0f35 60be 17f5 67be
00000220: 9f9a 90be 90d7 c5be c4b1 adbe a839 97be
00000230: fc0e c4bd aa63 b7bd 9359 43be 2d14 1abe
00000240: 152a 9fbe 1a33 08bf d6f7 72be ce7d 10be
00000250: 3fb2 22be e869 0dbe c736 b8be 55ef 51be
00000260: 09ce 40bf 42a8 1cbf 0468 8bbe 52c2 c1bd
00000270: 034e f6bd 7cf4 90bd 85ce 5dbe 790f b2be
00000280: d3dc 48be 04d8 f4bd 416f 38bf 0fc9 69bf
00000290: b065 36be 89fd 15be 6d80 1dbe 48ff d7be
000002a0: de8d 0fbe be6c 7fbe 02d8 f9bd dd13 46bd
000002b0: 6fb1 9abe 4d03 bebd 677a 6fbd 6590 1abf
000002c0: 38c2 34be bfd2 80bf 6100 27be aace 47bd
000002d0: b1db 0cbf 80ce a2be 0b6e 9bbd b2b0 16be
000002e0: c93f 1abe 8524 62be a7ca a3be c0ff 9abe
000002f0: 2338 ccbe 00f9 10be 5ba6 31be c90b 5ebf
00000300: 5741 50be 11c7 a1bd 626d 1dbe 8b4b 55bd
00000310: eff5 2bbe 6a7f 98be 72d4 05bf 64a2 5bbe
00000320: 21f6 a3be 3db3 02be 7284 71be 670e 92be
00000330: 798c 9bbe 080f 82be d944 82bd bb6f a8bd
00000340: 57d3 6cbf 64cf a8be 3d05 03bf 8944 6dbf
00000350: 4113 a6be f94b 39bf cc77 95be cdaf c7bd
00000360: 8b42 96be 66bc 83bf f324 98bf 7a52 86bf
00000370: 4989 7dbe 4d59 31bf f3ff 2abe 9d26 f8be
00000380: 109c a2be 09fa 26be fbcd 15be e271 fdbd
00000390: 61b9 a7bd 7d00 8abf 7895 9abd 17c1 c4be
000003a0: 9333 93be babf 4fbe ac90 a1bd 50ca fdbe
000003b0: c074 10be 7159 03be 639f 20bd 15b0 97bd
000003c0: 3c40 3ebf fcdb 95be c333 04be 84e2 68be
000003d0: f3a0 8cbf b4ac 96bf 6d29 e5be 5350 87bd
000003e0: 5747 8bbe 4918 25be 1986 66be 8f9a 12bf
000003f0: fc5f c5be 6b14 b1be ec7e f9bd 5ca9 7fbe

itn.2.bias f4 [128]
-1.1647953 -0.6348552 0.2915572 0.5080672 -1.0752345 -1.0976865 -1.1251714 -0.9720082
-0.9280206 -1.1759608 -1.1734258 -1.0803187 -1.0347934 -1.0451341 -1.1502899 -0.9706813
-2.2693918 -0.9643428 0.5688311 -1.1438092 -0.9936504 -1.0219578 -1.2544199 -1.0613267
-1.2402445 -0.7700084 -2.1975121 -1.178559 -1.1454128 -1.1929479 -1.1848575 -1.1131715
0.11935377 -1.2101017 -1.1211566 -1.2162316 0.57616067 -1.4933441 -1.1428114 -1.2083879
-1.0345033 -1.246613 -1.1831592 -1.1682837 -1.1778685 -0.26033726 -1.1473571 -1.158971
-1.1309599 0.50760883 -1.1040035 -1.4155375 -1.115323 -1.0443754 -1.5062482 -1.9454201
-0.55923814 -1.0516798 -1.0260795 -1.1002313 -2.285172 -0.18854517 -1.9081331 -2.5920208
-1.1280172 -1.5492644 -1.0453764 -1.605557 -1.0723287 -1.4463478 0.33747423 -1.1281705
0.5261893 -1.145524 -2.0045526 -1.1409359 0.19151996 -1.0821152 -1.2209342 -1.0841918
-1.6474645 -2.1899836 0.5383994 -1.0283504 -1.0515137 -1.0817938 -1.0152847 -1.1001039
-1.1466289 -1.2041954 -1.2072577 -1.1837432 -1.3123825 -1.3149685 -1.178607 0.74658155
-2.0972168 -1.1097637 -1.1203396 0.53220445 -1.017707 -0.49261543 -1.1268781 -1.6093712
-1.0135248 -1.8554159 -1.1133721 0.46583676 0.17220832 -1.2316045 -1.145615 -1.0463922
0.53406304 -1.1686076 -1.1004153 -1.1678591 -0.8273869 0.5549355 -2.2136989 -1.046523
-0.05310719 -1.2675204 -1.2349102 -1.025959 -2.2586374 -1.1419146 0.5477938 -1.1308875
00000000: 0318 95bf df85 22bf fc46 953e b110 023f
00000010: 49a1 89bf fe80 8cbf 9e05 90bf 88d5 78bf
00000020: c292 6dbf e285 96bf d132 96bf e247 8abf
00000030: 1c74 84bf f4c6 85bf b33c 93bf 927e 78bf
00000040: b73d 11c0 2bdf 76bf ea9e 113f 5768 92bf
00000050: df5f 7ebf 83cf 82bf d590 a0bf 8ed9 87bf
00000060: 55c0 9ebf 451f 45bf 0aa4 0cc0 05db 96bf
00000070: e39c 92bf 84b2 98bf 69a9 97bf 677c 8ebf
00000080: c06f f43d 9de4 9abf 0f82 8fbf 7aad 9bbf
00000090: 447f 133f e625 bfbf a547 92bf 74ac 9abf
000000a0: 9b6a 84bf 0491 9fbf c371 97bf 528a 95bf
000000b0: 65c4 96bf ed4a 85be 99dc 92bf 2959 94bf
000000c0: 4bc3 90bf a7f2 013f fd4f 8dbf 5530 b5bf
000000d0: e7c2 8ebf 18ae 85bf becc c0bf 8703 f9bf
000000e0: 3b2a 0fbf 729d 86bf 9356 83bf 61d4 8cbf
000000f0: 4240 12c0 fc11 41be b53d f4bf abe3 25c0
00000100: de62 90bf 4c4e c6bf e5ce 85bf e482 cdbf
00000110: 1142 89bf ed21 b9bf 6cc9 ac3e e467 90bf
00000120: 58b4 063f 88a0 92bf 974a 00c0 300a 92bf
00000130: cf1d 443e c082 8abf 9247 9cbf ccc6 8abf
00000140: 1ee0 d2bf b128 0cc0 8bd4 093f fca0 83bf
00000150: 0098 86bf 3878 8abf d9f4 81bf 34d0 8cbf
00000160: bcc4 92bf 1323 9abf 6c87 9abf e684 97bf
00000170: 26fc a7bf e350 a8bf 98dc 96bf f81f 3f3f
00000180: cd38 06c0 bd0c 8ebf 4a67 8fbf 8d3e 083f
00000190: 3944 82bf 1738 fcbe 8b3d 90bf e0ff cdbf
000001a0: 2ebb 81bf 457e edbf fa82 8ebf 2882 ee3e
000001b0: 6157 303e 37a5 9dbf 83a3 92bf 2ef0 85bf
000001c0: 5bb8 083f ef94 95bf 69da 8cbf 687c 95bf
000001d0: a1cf 53bf 4110 0e3f 3ead 0dc0 77f4 85bf
000001e0: ed86 59bd 1c3e a2bf 8a11 9ebf a052 83bf
000001f0: 848d 10c0 422a 92bf 373c 0c3f ecc0 90bf
