ckpt/junyi/irt_KLI_ip.pt (torch, 287937 bytes, 12 tensors)

utn.0.weight f4 [256, 2]
00000000: ae79 123e 02f2 d0c0 4679 913e 29f2 d8c0
00000010: 00a4 243e cf09 dbc0 d318 0d3f 3baf d7c0
00000020: 9b43 c9bc 2825 d0c0 c390 7b3e c2dc dcc0
00000030: 62c0 943e 2847 f8c0 4061 ea3e a308 e5c0
00000040: d211 2f3e ba3b d9c0 702a a53e c520 d9c0
00000050: dac2 d33e 1162 e0c0 c3f0 9c3e 4b3e c2c0
00000060: fe42 a33e ee72 d0c0 88e8 903e 658a acc0
00000070: c98e 3a3f 5be0 eec0 f397 f83e ad3c cec0
00000080: dfac 993e 15f3 ebc0 626c 893e f691 9fc0
00000090: 0388 db3e 72ba dac0 5ed3 6c3e 8775 efc0
000000a0: 6039 903e db07 efc0 e597 8f3e 8add 9fc0
000000b0: 2e7b 943e 77eb e7c0 405e ca3e 018a e2c0
000000c0: 9d4a 953e 0ab8 cec0 c477 3a3f be8f 5440
000000d0: 3ea2 3940 3227 2b3f ec4b 973e 674e f0c0
000000e0: 0aad 923e 9a58 c1c0 79ef b83e eb7a c6c0
000000f0: 0fef a63e 4c17 b1c0 5192 d8be 264a cec0
00000100: cbfc d93e 02b2 cec0 8ee9 543e 16b3 e3c0
00000110: 4986 753e f68f ad40 b630 873e 62ab fac0
00000120: 9a21 403f e3fb c3c0 4b25 d63e 0799 e1c0
00000130: dae8 8c3e 41f5 a6c0 8699 903e 1fd8 d6c0
00000140: 470f 643e cb23 eac0 a9fb 8b3e 8a32 9ac0
00000150: cee7 8b3e 199e c6c0 a536 a83e 0b8b d2c0
00000160: cc10 903e bb3f e6c0 a249 df3e d64f b2c0
00000170: cb1f 983f be85 edc0 d0ea 8d3e 9659 d0c0
00000180: 89d3 6040 c610 253e 3042 903e acf0 e6c0
00000190: 4b25 9840 747a 153e e518 a03e 0d24 e6c0
000001a0: 2f03 54c0 c74a 3bc0 0da6 8f3e 092c e0c0
000001b0: d1b9 363e 2660 d0c0 08c9 1b3f dc6a d3c0
000001c0: 9d7d f03e edee dfc0 3130 923e eb24 c7c0
000001d0: 6fbe 123f 6ca3 efc0 3fe5 623e e493 d4c0
000001e0: 4ba4 ae3f ed5f dac0 c089 8b3d a53c d5c0
000001f0: 7966 8c3e bde6 f0c0 d2cd 283f 6be5 cebf
00000200: 2b23 943e d2ed b8c0 54f0 20bf 704d 79c0
00000210: 6a4a ad3e 262b ccc0 4f55 4540 7520 7bc0
00000220: b3e0 323f f1ff e5c0 9434 d43e f229 c5c0
00000230: da1f a33f 538c 1340 dfc9 8d40 a0f5 f6be
00000240: 2516 ae3e 35e7 ccc0 b93e 1140 7867 52c0
00000250: 5c38 953e 7ec2 cac0 ba23 903e 9d86 d8c0
00000260: f450 073f d18c e4c0 675d 933e 67ee aec0
00000270: a867 953e 17a2 c2c0 b151 8f3e aad8 f3c0
00000280: 71dc c93e 2aba c4c0 5723 963e b135 c7c0
00000290: dcbf a23d ab9f e0c0 8bec 303e f87b dac0
000002a0: e9a4 86bf 0453 99c0 0f5a e53f 68f0 8ebf
000002b0: 593a 783f f2f4 f6c0 f018 f63e c651 e5c0
000002c0: 98a2 9e3e 455b dbc0 79c2 903e 3caa b8c0
000002d0: bb64 5b3e f4ed c9c0 bd0c 223f 818a ecc0
000002e0: d470 ebbf 2693 193f e38f b93e 7564 c8c0
000002f0: 9dcf 713e 1d84 e5c0 c053 a53f 3926 a3c0
00000300: d1be b53e 7127 d5c0 398f 943e 2de8 f0c0
00000310: e9ea 35be 27a1 dbc0 cde3 bc3e 9d72 dcc0
00000320: 9b17 073f 6375 e2c0 00ef 923e b41e dbc0
00000330: c649 d43e 45cf d9c0 033f 2b3f 368d e3c0
00000340: 9f61 b53f 89ec d0c0 617d d73e 9ee5 d1c0
00000350: 1810 fc3e 537a dbc0 2f59 673e bbe8 c7c0
00000360: 72d2 923e 1f64 f2c0 7db2 9a3e 38b3 e0c0
00000370: 8ede 123f 9d02 d4c0 7f56 4040 316d 5f3f
00000380: 590a e4be 9cc0 d9c0 ddc6 af3e 208a dcc0
00000390: 4213 313f 5852 f0c0 a916 2c3f 5ca0 cfc0
000003a0: 6fa7 a33f efb1 b63f 1169 943e 34fa ecc0
000003b0: 6190 8c3e 63b0 e7c0 2cc4 203e 5a23 d9c0
000003c0: a758 173f a993 d6c0 ca06 1dbd bd2b dbc0
000003d0: d95e 8d3e c511 a6c0 fca0 903e cf6d c5c0
000003e0: 30b5 cc3e 19d6 c8c0 1709 a6bf b354 edbf
000003f0: dbea 1340 3439 93c0 5743 983e 71dc f1c0
0.1430423 -6.529542 0.28412837 -6.7795606 0.16078186 -6.8449473 0.55116004 -6.7401404
-0.02456837 -6.5045357 0.24566941 -6.901948 0.29053026 -7.758686 0.4577732 -7.1573043
0.17096642 -6.788541 0.3225894 -6.78525 0.41359597 -7.011971 0.30652437 -6.070104
0.31887048 -6.5140295 0.28302407 -5.391894 0.7287412 -7.464887 0.48553428 -6.4449067
0.30014703 -7.373423 0.26840502 -4.9865675 0.42877206 -6.8352594 0.23127505 -7.4830966
0.28168774 -7.469709 0.28045574 -4.9957933 0.2900023 -7.2474933 0.39525032 -7.079346
0.29158488 -6.4599657 0.72839 3.3212733 2.9005275 0.6685668 0.2955011 -7.5095706
0.28647643 -6.0420656 0.36120203 -6.2025046 0.32604262 -5.534094 -0.4229913 -6.4465513
0.42575678 -6.4592295 0.20792219 -7.115611 0.23977007 5.4238234 0.2640435 -7.8334208
0.7505127 -6.124498 0.41825327 -7.04993 0.27521402 -5.217438 0.2824213 -6.713882
0.22271453 -7.3168693 0.2734044 -4.8186693 0.2732529 -6.206799 0.3285419 -6.579473
0.28137815 -7.1952796 0.43610865 -5.5722456 1.1884702 -7.422576 0.2771821 -6.510936
3.512911 0.1611968 0.28175497 -7.216879 4.7545524 0.14597493 0.31268993 -7.1919007
-3.3126943 -2.926439 0.28056374 -7.0053754 0.17844321 -6.511737 0.60853624 -6.6067944
0.46970835 -6.9979157 0.28552392 -6.2232566 0.5732183 -7.488699 0.22157763 -6.643053
1.3643888 -6.8242097 0.06813383 -6.663653 0.2742193 -7.5281663 0.65939057 -1.6163763
0.2893308 -5.779031 -0.6286671 -3.8953514 0.33845836 -6.380267 3.0833318 -3.923856
0.69874114 -7.187493 0.41446364 -6.1613703 1.2744095 2.3054397 4.4308925 -0.48234272
0.3400127 -6.4032235 2.2694533 -3.2875652 0.2914456 -6.3362417 0.28152257 -6.7664323
0.528579 -7.1421895 0.28782198 -5.466602 0.29180646 -6.0822864 0.27992013 -7.6201982
0.39425996 -6.147725 0.29323837 -6.225304 0.079467505 -7.0194907 0.17277734 -6.827633
-1.0519077 -4.7913837 1.7918109 -1.1167116 0.9696403 -7.7174006 0.480659 -7.166232
0.30983424 -6.8548913 0.2827337 -5.7707806 0.21425144 -6.310297 0.6330069 -7.391907
-1.8393807 0.59990156 0.3624259 -6.262263 0.23614354 -7.172377 1.2916183 -5.098416
0.35497144 -6.6610646 0.2901552 -7.528342 -0.17765392 -6.863422 0.36892548 -6.888991
0.52770394 -7.0768294 0.28697968 -6.847498 0.41462535 -6.8065515 0.66893023 -7.1109877
1.4170417 -6.528874 0.42087844 -6.5592794 0.4923103 -6.858682 0.22592615 -6.2471595
0.28676182 -7.574722 0.302143 -7.0218773 0.5737084 -6.625319 3.0052793 0.8727599
-0.44539145 -6.804762 0.34331408 -6.891861 0.6917001 -7.5100517 0.67222077 -6.488325
1.2785472 1.4273051 0.2898641 -7.4055424 0.27453902 -7.2402816 0.15699834 -6.7855654
0.5911965 -6.705525 -0.038336553 -6.849089 0.27611426 -5.189669 0.2824782 -6.1696544
0.39981985 -6.276135 -1.2971524 -1.8541473 2.3112094 -4.600733 0.29738876 -7.5581594

utn.0.bias f4 [256]
00000000: 2f12 0ac1 d564 adc0 ff58 07c1 534e 07c1
00000010: 7a9a 0dc1 1b44 04c1 14b4 bfc0 f694 fdc0
00000020: 01a9 0ac1 34cb edc0 6657 04c1 ce6d 16c1
00000030: 12ff 0cc1 dd34 71c0 75e4 cac0 1d75 0ec1
00000040: 0420 e4c0 4838 40c0 48a7 07c1 c697 fdc0
00000050: 4fb4 cfc0 4e97 76c0 aa32 d3c0 7136 03c1
00000060: 6c48 0dc1 ffff dcc0 dac2 dfc0 bff8 d0c0
00000070: 61f7 98c0 9ea2 c9c0 b924 1fc1 684a 14c1
00000080: 78cc 05c1 2d18 05c1 5c9f 06c1 0e0a ddc0
00000090: 8bc7 16c1 a26b 03c1 8677 7dc0 b22e bcc0
000000a0: 23e9 01c1 6cd7 47c0 157f 11c1 4329 e7c0
000000b0: 1a01 aec0 5e14 1fc1 96f6 cec0 a0ad 76c0
000000c0: afe3 c5c0 cac1 cec0 8ad3 6ec0 73c8 fec0
000000d0: 3611 9fc0 1a3d 92c0 4123 09c1 341d 0ac1
000000e0: 7686 03c1 51c3 81c0 b50a e7c0 bc3d 0cc1
000000f0: 8e07 c9c0 3c32 07c1 bdc4 afc0 7dde 5740
00000100: 4f26 96c0 2f31 04c1 7876 0dc1 53b8 60c0
00000110: 2e2e eec0 8882 14c1 b859 bec0 d415 353f
00000120: f1fa e3c0 b37a a8c0 2571 9fc0 d6c2 a4c0
00000130: 4d32 fdc0 13a4 3dc0 580d a7c0 4f74 dcc0
00000140: 8620 0bc1 0002 96c0 2889 04c1 f64f 08c1
00000150: 0bf1 c4c0 6c88 7740 5af9 d1c0 540b ffc0
00000160: 01f9 edc0 10c3 84c0 f7a9 0fc1 087a e7c0
00000170: be21 19c1 91af 0ac1 4730 04c1 ff12 f1c0
00000180: 6b9b 09c1 5958 d3c0 5756 05c1 1dfc 04c1
00000190: a23a 00c1 3d7c b6c0 bfc0 07c1 1a3e f5c0
000001a0: 2b5c d0c0 1b4a 02c1 92d4 cbc0 fce6 0fc1
000001b0: 3878 ccc0 905f a5c0 2478 0ac1 2ce9 91c0
000001c0: 82d2 09c1 e69b 04c1 613f cfc0 3a86 0cc1
000001d0: 9864 cfc0 1b5e bbc0 f26e 9cc0 8541 09c1
000001e0: c32d 08c1 3228 03c1 acb0 33c0 06d8 92c0
000001f0: 0919 08c1 a7a9 e8c0 3548 24c0 3e2c eac0
00000200: 9165 05c1 5b95 b6c0 4511 06c1 6520 06c1
00000210: 8ff7 01c1 69f1 fdc0 0c1c 68c0 9c61 dec0
00000220: 808d bdc0 481a 58c0 39e1 c7c0 b534 0ec1
00000230: b20a b4c0 0c92 12c1 9839 13c1 9d94 0dc1
00000240: d33c 10c1 93da 04c1 7322 17c1 873d c7c0
00000250: 81ac a9c0 6550 01c1 bc69 04c1 a236 0dc1
00000260: 1c6e 9bc0 e717 04c1 19af 11c1 27cf e7c0
00000270: c06d f2c0 972c 05c1 643d 76c0 0448 0fc1
00000280: d023 0fc1 7ec8 0dc1 6844 0ec1 2ea9 0dc1
00000290: c5ab d5c0 e1ea 80c0 fc93 01c1 d060 06c1
000002a0: 0290 07c1 354d 0ac1 2889 f4c0 0ed8 10c1
000002b0: 3425 04c1 0188 02c1 ff08 05c1 f110 18c1
000002c0: 6e66 02c1 a11a f5c0 bc1b 06c1 53c6 0fc1
000002d0: 2d10 dc3f 2191 05c1 2ea7 09c1 371c 87c0
000002e0: 5541 d2c0 17f5 10c1 3eeb cec0 f081 dac0
000002f0: 7dc4 0dc1 63bc 02c1 70a6 59c0 1958 07c1
00000300: aebb 23c1 7ba5 0bc1 5324 0bc1 0cb2 dec0
00000310: fc28 d5c0 4eb2 06c1 442a 98c0 183e 16c1
00000320: 54a0 f7c0 d14b 16c1 41df 94c0 ccf5 09c1
00000330: c01c 07c1 128f f7c0 cda3 dac0 5225 e1c0
00000340: 74bd f7c0 7312 20c1 a5b8 c7c0 eff4 0fc1
00000350: fc5e 37c0 2b3b aac0 7d9e 04c1 3304 ccc0
00000360: dcda 87c0 21b0 f7c0 a494 4bc0 336f 5fc0
00000370: 0421 65c0 92d4 06c1 7fc4 1dc1 dbe8 06c1
00000380: 99a8 64c0 2c86 15c1 5412 01c1 8f73 10c1
00000390: a751 0ec1 1ebf f1c0 28bd eabf 4ad2 a3c0
000003a0: 1950 05c1 e36b a0c0 11e1 97c0 d83e 12c1
000003b0: 7511 11c1 a127 38c0 a42d b1c0 bc78 0dc1
000003c0: bd74 afc0 d95b 02c1 3740 05c1 63a4 03c1
000003d0: 0f0e f9c0 e174 04c1 afc6 b5c0 01d9 80c0
000003e0: 13ca bbc0 455d 2ec1 2870 12c1 7028 03c1
000003f0: c4d1 cac0 0ac5 13c1 4dc5 07c1 f8de 02c1
-8.629439 -5.4185586 -8.459228 -8.456622 -8.850214 -8.266627 -5.990732 -7.9244337
-8.666261 -7.431055 -8.2713375 -9.401808 -8.812273 -3.7688515 -6.340388 -8.903592
-7.128908 -3.0034351 -8.47834 -7.924777 -6.4907603 -3.852985 -6.5999346 -8.200791
-8.830181 -6.9062495 -6.9925356 -6.5303645 -4.7801976 -6.3011007 -9.9464655 -9.268166
-8.362419 -8.318402 -8.413906 -6.9074774 -9.423717 -8.213778 -3.9604201 -5.8807
-8.119418 -3.1225233 -9.093526 -7.223787 -5.4376345 -9.942472 -6.467601 -3.8543472
-6.1840434 -6.461156 -3.7316613 -7.961969 -4.970851 -4.5699587 -8.571107 -8.63213
-8.220327 -4.0550923 -7.220057 -8.765072 -6.282172 -8.449764 -5.492766 3.3729546
-4.6921763 -8.262008 -8.841423 -3.5112503 -7.443137 -9.281868 -5.948452 0.7073643
-7.1243825 -5.264978 -4.9825616 -5.1487837 -7.91239 -2.9631393 -5.220379 -6.889198
-8.69544 -4.687744 -8.283485 -8.519522 -6.154424 3.8677015 -6.5616884 -7.970133
-7.436646 -4.1488113 -8.978995 -7.2336464 -9.570738 -8.667863 -8.261786 -7.533569
-8.600444 -6.6045346 -8.333579 -8.311551 -8.014315 -5.702666 -8.484557 -7.6638308
-6.511251 -8.143092 -6.3696985 -8.993893 -6.389675 -5.1679153 -8.654331 -4.5597134
-8.6138935 -8.288061 -6.4764867 -8.78277 -6.4810295 -5.8552375 -4.888543 -8.578496
-8.511172 -8.197313 -2.8076582 -4.58887 -8.506112 -7.2707095 -2.5669072 -7.3179007
-8.3372965 -5.705732 -8.379216 -8.382909 -8.122939 -7.935719 -3.6267118 -6.949415
-5.923523 -3.376604 -6.246243 -8.887868 -5.6263056 -9.160656 -9.201561 -8.848783
-9.01485 -8.303363 -9.44591 -6.2262607 -5.3023076 -8.082128 -8.275814 -8.825838
-4.857191 -8.255836 -9.105248 -7.244037 -7.575897 -8.323386 -3.847497 -8.955082
-8.946243 -8.861448 -8.891701 -8.853804 -6.677218 -4.0286717 -8.098629 -8.398636
-8.472658 -8.643849 -7.6417427 -9.052748 -8.259083 -8.158204 -8.314696 -9.504136
-8.150007 -7.6595006 -8.381771 -8.985919 1.7192436 -8.347932 -8.603315 -4.222194
-6.570475 -9.059836 -6.466216 -6.8283615 -8.860471 -8.170993 -3.4007835 -8.459008
-10.23332 -8.7279005 -8.696368 -6.959234 -6.661253 -8.418531 -4.7551594 -9.39016
-7.7383213 -9.39351 -4.6522527 -8.622509 -8.444519 -7.7362146 -6.832495 -7.0358057
-7.7418766 -10.004504 -6.2412896 -8.997298 -2.8651724 -5.3197227 -8.288693 -6.3755126
-4.245466 -7.74025 -3.1809473 -3.491162 -3.58014 -8.426897 -9.860473 -8.4318495
-3.5727904 -9.345257 -8.066975 -9.028213 -8.894935 -7.5545797 -1.8338976 -5.11942
-8.332055 -5.01317 -4.746224 -9.140343 -9.066762 -2.8774188 -5.5368214 -8.841976
-5.4830003 -8.147424 -8.328177 -8.227633 -7.782966 -8.278535 -5.6805034 -4.0264897
-5.8684173 -10.897771 -9.152382 -8.197372 -6.338106 -9.235605 -8.485669 -8.179436

utn.2.weight f4 [128, 256]
00000000: 8090 20be c943 f0be c489 84bd c358 1ebe
00000010: 85ae f8bd ae31 a0bd 51be 58be 4e28 01be
00000020: 195a 68bc 4582 92be 9c45 14bd 8ccc 2dbe
00000030: 6904 0dbe fde2 b1bf cebe 0abf 8177 c6bd
00000040: f0ce 73be d953 afbf 7762 0abe b92f 0bbe
00000050: f34c 87be 60c7 c2bf 87f2 76be 4331 9abd
00000060: 1c19 0ebd 37a5 86c0 e6d0 e1be b1d0 aebe
00000070: abd4 4cbf 1bab 82bf ea00 febd 839b a9be
00000080: 47e0 8fbe d088 c9bd e24c 9bc0 3722 2fbe
00000090: 7bd7 5dbe cbec 3cbd 3cc9 9fbf a4a0 02bf
000000a0: b6d3 72bd de7c eebf 5e64 20be d489 bfbe
000000b0: 9189 d0be 8fdb 16be 7283 5dbd 48a8 06bf
000000c0: 4f1e 03be 9c70 6abe 9514 5bbe fc3d c5bd
000000d0: b1d7 acbf 0072 dbbe bc02 d1bd 7141 09be
000000e0: 78fb eabd d0dd 55bf 133e b4bd 775c c9bd
000000f0: 0e2d 5fbd 1407 e0bd f455 81be d387 b8c0
00000100: a721 42bf a915 a0bf 0e40 4fbe 038b 6abc
00000110: 285a c4bd a8cc 0fbe 15a3 40c0 f9d1 2e3f
00000120: 1e30 00bf 72de 92bc e541 05bf 7509 debe
00000130: 282f 86bd 3831 9cbf 9d7b 46bf ddfd 06be
00000140: c3da 8fbe 7b7c 11bf df3d a7bd 3bbe 1ebd
00000150: 49e9 2ebf f378 b4c0 0339 1abd 0f49 13be
00000160: 4677 89be 4c65 8fbf b79e 61bd b253 02be
00000170: 39e3 ffbe 9d2d 18be 915a 89bd 934d a8bd
00000180: 29eb 0abd 8577 84be 7cce dcbd be75 eabd
00000190: 5606 d7bd 2ee0 c0be 1c61 a8bd 0a1e d4bd
000001a0: 6c3a 07be 2ffc a1be 131c 91bf f846 c3bd
000001b0: efce 31be 2f2c 0dbf 3a20 23be 0bff e7bf
000001c0: eb24 4bbe fd37 6cbe fe09 48be 9b67 7dbd
000001d0: 25a5 18c0 a16a b8be a63e dfbe 6189 f6bd
000001e0: edd9 dbbd 9b0e c9bd 0469 b2bf 793a 56bf
000001f0: 986b 81be 28c5 f4bf e1e8 99bd d258 01be
00000200: 4343 9abe 1981 b9be 8ef5 7fbd e37e b0bd
00000210: 19ae 3dbf d25e 91bc 252e 8c3c 26ea 46be
00000220: f4b0 e8be 85d8 8ebf 91e6 3bbf b7cf 26be
00000230: 8d8c 0ebf 2de5 20be 9b95 acbd 553f 19be
00000240: 2ed8 d5bd e2c7 58bd 9136 26bd 7bb7 abbe
00000250: d27e 3cbf b81a 4dbf a70b 59bd 3a2a 6fbf
00000260: a05e 0fbf dce9 12be ea87 5fbe 6e41 65be
00000270: 2f95 26bf 8515 10be 429a 67c0 bfa3 29be
00000280: 0440 d4bd 9535 7ebd 3995 d2bd 3691 18be
00000290: 272e 93be d5db 30bf 5b1e 03bd edc5 8cbd
000002a0: 269d 95bd 5b86 1bbe 67a1 53bf ebbd 5bbe
000002b0: 4ce7 88bd c22e f3bd 9e14 02be 6dd7 eabd
000002c0: 4c44 dfbd 1cb6 e7bf 4a62 12be dec9 a6be
000002d0: d101 2ac0 2e7a d4bd f0f0 08be 930a b1bf
000002e0: e2b9 66be f41e 2bbe 3855 13be d24a 75be
000002f0: 5149 e3bd cf86 00be 04dc 8d3d 25a1 dfbd
00000300: a5e3 5fbf b8cf aebd 12fb 08bd 2255 1ebf
00000310: 03cf cdbe c604 98bd 6eef bc3c c15a 1dbe
00000320: f235 d0bd 18d6 90bd 2378 f9be b78e c7bd
00000330: 84e4 b0bc 3464 d5bd ba79 fabd b368 f1bd
00000340: 3198 a1bd 9dd7 9ebe 4409 e0be d7c1 bebd
00000350: ce6c eabf 9ea3 13bf 14c0 6bbd ad87 d8be
00000360: 337f 0fbd 2fae 5fbe f872 9bbf 4a5a 70bf
00000370: b4d7 7cbf a497 8fbd 0036 f9bd 725a abbc
00000380: 4765 a0bf 51e4 1dbe 26ca 1fbd eb85 f5bd
00000390: 17d5 dbbd fc9a 9bbe 51b8 7fc0 a3f0 3cbf
000003a0: ac46 c3bd ceec d1be 0799 e4bf b526 61be
000003b0: 6295 d6bd 5365 dabf 9a03 51bf db6a 19be
000003c0: 241f 99bf 148b bdbd d233 b5bd e97f babd
000003d0: a2d7 41bf 5fbc e6bd 42be 34bf 2e06 1f3d
000003e0: 198f 21be 1285 b4bf 5315 31be 7340 64bd
000003f0: dfdb 60be d482 3bbe aa40 13be c566 92bd
-0.15680122 -0.46926716 -0.06471589 -0.15463547 -0.12142662 -0.07821976 -0.2116635 -0.12613031
-0.014181637 -0.28615013 -0.036199197 -0.1697256 -0.13771214 -1.3897396 -0.54197395 -0.09690762
-0.23809409 -1.3697463 -0.13514124 -0.13592423 -0.26425895 -1.5217094 -0.24115954 -0.07528927
-0.034691915 -4.207668 -0.4410469 -0.34143594 -0.80012006 -1.0208467 -0.12402518 -0.3312646
-0.28100798 -0.09840548 -4.853135 -0.17102896 -0.2166423 -0.04612426 -1.2483287 -0.5102637
-0.059283935 -1.8631856 -0.15663287 -0.37409842 -0.40729955 -0.14732192 -0.054080434 -0.52600527
-0.1280453 -0.2289452 -0.2139457 -0.09630963 -1.3503324 -0.42860413 -0.102056 -0.1340387
-0.11473745 -0.83541584 -0.08800902 -0.098320894 -0.054486327 -0.1093885 -0.2526089 -5.76658
-0.758326 -1.250661 -0.20239279 -0.01431537 -0.095875084 -0.14042914 -3.0099537 0.6828914
-0.5007342 -0.017928336 -0.5205367 -0.4336659 -0.06551963 -1.220252 -0.7753237 -0.13182779
-0.2809659 -0.5683057 -0.08166098 -0.038755637 -0.68324715 -5.6397643 -0.037652027 -0.14383338
-0.2684881 -1.1202788 -0.055083003 -0.1272724 -0.49978045 -0.1486115 -0.06706727 -0.08217921
-0.033915672 -0.25872436 -0.10781571 -0.11448239 -0.10499255 -0.37671036 -0.08221647 -0.10357292
-0.1320588 -0.31637713 -1.1336693 -0.095350206 -0.17364095 -0.55145544 -0.15930262 -1.8124708
-0.19838302 -0.23068233 -0.19535062 -0.061866384 -2.3850796 -0.3601885 -0.43602484 -0.12037922
-0.107349254 -0.09817239 -1.3938298 -0.8368297 -0.252774 -1.9122667 -0.07515121 -0.12631539
-0.30129442 -0.36231306 -0.06249004 -0.08617952 -0.74093777 -0.01774541 0.017111847 -0.19425258
-0.45447505 -1.1159827 -0.7339869 -0.16290174 -0.55683213 -0.15712424 -0.084269725 -0.14965566
-0.10441624 -0.052924998 -0.040579382 -0.33538422 -0.7363101 -0.80118895 -0.05298963 -0.9342381
-0.5600376 -0.14347023 -0.21829191 -0.2238824 -0.65071386 -0.14070709 -3.6187901 -0.1656637
-0.103637725 -0.06206282 -0.10282368 -0.14899144 -0.2874615 -0.6908544 -0.03201137 -0.06873689
-0.07305364 -0.15187971 -0.82668155 -0.21459167 -0.066847414 -0.11874153 -0.12703177 -0.114668705
-0.109016985 -1.810245 -0.14295307 -0.32575887 -2.6563609 -0.103748664 -0.1337316 -1.3831352
-0.22531846 -0.16711026 -0.14387977 -0.23954323 -0.11097968 -0.12551425 0.0692673 -0.10919408
-0.87456733 -0.08535713 -0.033442564 -0.6184865 -0.40197 -0.074227855 0.023063388 -0.15366651
-0.10166539 -0.07072085 -0.4872447 -0.097440176 -0.02159334 -0.10419503 -0.12230249 -0.11787548
-0.07890356 -0.31023875 -0.4375707 -0.09314316 -1.8314455 -0.57671535 -0.057556227 -0.42291012
-0.035033416 -0.2184379 -1.2144461 -0.9388777 -0.98766637 -0.07011345 -0.12168503 -0.020917151
-1.2530907 -0.15419127 -0.039011143 -0.119884335 -0.10734003 -0.3039168 -3.9956248 -0.7380468
-0.09534964 -0.4100098 -1.78592 -0.21987422 -0.10477711 -1.7062172 -0.8164612 -0.14982168
-1.1962628 -0.09255043 -0.088477746 -0.09106428 -0.75719655 -0.11266398 -0.7060281 0.038824253
-0.15777244 -1.410311 -0.17293291 -0.055725526 -0.21958874 -0.18311626 -0.14380136 -0.07148508

utn.2.bias f4 [128]
00000000: b637 98c0 5604 95c0 e95b 93c0 17c7 50be
00000010: b089 94c0 2439 eb3e c99b 97c0 ac4c 99c0
00000020: 12fe 84c0 58df ccbf d262 a2c0 9b71 97c0
00000030: ff95 3740 7b99 adc0 bad1 9bc0 0eb5 87be
00000040: 9bfc 7340 760b 8dc0 ab71 84c0 1cf3 41c0
00000050: 7cc5 88c0 10c9 95c0 29b6 96c0 5a79 22c0
00000060: 0c0a a4c0 8410 9ac0 182f 95c0 3560 a0bf
00000070: 22aa 9ec0 0721 97c0 d807 88c0 629a 96c0
00000080: 3529 9dc0 52d1 95c0 fce7 96c0 9d55 98c0
00000090: 9f5e cfbf 898b 94c0 a1e0 96c0 9e02 1cc0
000000a0: 7133 1140 79d9 923f d4b6 24c0 20e7 93c0
000000b0: 2192 96c0 2f71 9ac0 3b87 a4c0 cfe0 a0c0
000000c0: 9295 9ac0 459c 94c0 2199 92c0 569a 91c0
000000d0: 8c6f 11c0 befe 97c0 1044 a6bf ecf8 8ac0
000000e0: 2cc8 94c0 3447 1340 569c 64c0 7dee 80c0
000000f0: d59c 97c0 d75a 99c0 7a50 f1bf aa7f 99c0
00000100: 38af 99c0 863f 92c0 69d0 93c0 fe2f 99c0
00000110: 5a43 95c0 7e99 25bf f663 9cc0 f67d a0c0
00000120: 62e8 96c0 6387 8f40 7806 8bbf 7af4 96c0
00000130: 47aa 41c0 291b 9bc0 cfe2 94c0 a5b6 92c0
00000140: dd77 91c0 3ab9 8ec0 affa 90c0 b5c5 89c0
00000150: 7c85 9cc0 47ec 91c0 203e 30c0 232e 9dc0
00000160: 76c8 95c0 429e 9dc0 76a6 1fc0 afbe 95c0
00000170: 0527 92c0 f7d2 a0c0 7d27 9bc0 7316 95c0
00000180: 932d 90c0 4b16 92c0 e3a6 9cc0 7d86 93c0
00000190: a7df 9f3f 0fa0 9dc0 aa8d 99c0 049e 90c0
000001a0: c734 47c0 88e1 a7c0 5db0 90c0 f25e 93c0
000001b0: 9b1b a3c0 4c8f a7c0 675d 853e af3b a4c0
000001c0: 6028 94c0 3e1b 96c0 d065 99c0 1123 8fc0
000001d0: 5c88 81bf 0235 98c0 1bb9 9cc0 fde7 c1c0
000001e0: f018 933f 8ece 9bc0 4e14 95c0 97c0 98c0
000001f0: b5c8 133f 0777 19c0 ff2a 99c0 d0dc 91c0
-4.7568007 -4.6567793 -4.6049695 -0.20388447 -4.6418076 0.45942032 -4.7377667 -4.7906094
-4.1560144 -1.6005659 -5.074563 -4.732618 2.86853 -5.4249854 -4.8693514 -0.2650532
3.8122928 -4.407649 -4.1388755 -3.0304632 -4.274107 -4.680794 -4.7097363 -2.5386567
-5.1262264 -4.814516 -4.6619987 -1.252936 -4.958268 -4.7227817 -4.2509575 -4.7063456
-4.91128 -4.681802 -4.7158184 -4.760451 -1.6200751 -4.642033 -4.7149205 -2.4376597
2.2687647 1.1472617 -2.573659 -4.6219635 -4.705338 -4.8263164 -5.1415076 -5.0274425
-4.830758 -4.644076 -4.5811925 -4.55009 -2.2724333 -4.7498465 -1.2989521 -4.342886
-4.649435 2.301221 -3.572042 -4.0291123 -4.7378945 -4.792339 -1.8852684 -4.796834
-4.802639 -4.5702543 -4.6191907 -4.7871084 -4.6644716 -0.64687335 -4.8872023 -5.015376
-4.715867 4.4852767 -1.0861349 -4.7173433 -3.026018 -4.8470654 -4.6526866 -4.5847955
-4.5458817 -4.4601107 -4.530601 -4.305384 -4.8912945 -4.5600924 -2.7537918 -4.911882
-4.6807203 -4.9255686 -2.494535 -4.679527 -4.567263 -5.0257525 -4.8485703 -4.6589904
-4.5055633 -4.5652213 -4.895372 -4.610167 1.2490128 -4.9257884 -4.798543 -4.519289
-3.1125963 -5.2462807 -4.5215287 -4.60534 -5.09712 -5.2362423 0.26047823 -5.1322856
-4.6299286 -4.6908255 -4.7936783 -4.4730306 -1.0119739 -4.7564707 -4.897596 -6.059569
1.1491985 -4.868964 -4.6587286 -4.7735095 0.5772813 -2.3978899 -4.7864985 -4.5582047

utn.4.weight f4 [15, 128]
00000000: e8f3 2b3e 410d a83d 2488 5f3d dc4a 42bf
00000010: b3b2 d2bd 8893 3e3a 52ea 133e d399 9c3d
00000020: d202 9dc0 c10b 09bf f9a8 933e f8c6 aa3d
00000030: 16bf 653d 9f2d 93bf 1ff6 22be 1f47 8bbd
00000040: 92bb b03d 03e3 4a3d 5487 34c1 57f6 a6c1
00000050: 8c99 e4c0 f3a2 e63d bcce 3c3e 2da0 d5c0
00000060: f8f0 8e3e 1d52 693e 627d b63d eacf 36bd
00000070: ba51 5a3e 5c10 263e 7e9b 113e 0a12 d23d
00000080: 4195 5a3e 1d93 8c3d cda7 753e bd01 683e
00000090: 158a 42bf dced b43d 2ec2 fb3d 1782 2abf
000000a0: b686 28bd 78f4 873f 8533 32bf 5fdd 893d
000000b0: 8632 91c1 f841 6fbe 37d4 003e bb75 8ebf
000000c0: 1668 ab3d ef94 1b3e 03b3 7c3f 0cf7 2b3d
000000d0: ec89 0abf 3bfe 413e c71b d5bf a62a a93d
000000e0: bc4f 5f3e cf4f d63e 4acb 99be 23ef 05c0
000000f0: 2763 1b3e 35ac 153e 4ab3 2ac0 739f 1d3e
00000100: 7b12 093e dfa3 d23d 8c73 3e3e ec45 783e
00000110: 990e 543d ef4a d440 bb4c 103e 4f53 103e
00000120: 7803 06bf 46c5 ef3d ef36 58bf b26d f13d
00000130: 66c5 083f 52ef 1d3e 625d 4d3d fd35 bb3c
00000140: 1a25 263e c04d b73c 159a 0c3e 658c bfbe
00000150: 82e0 273e d447 f23d 669e 61c1 b9d8 493e
00000160: cb07 cf3d 720a 703d 9be9 a4bf d98e 3a3e
00000170: cf88 f2bc 01b7 4d3e 0a0a 6a3e 33ef 153e
00000180: 83d2 023e a0bf 1a3e 932d 2a3e bbce 873c
00000190: 7e2b a9bc 77b0 ff3d b5a6 433e 9237 d2be
000001a0: 67ec 75c2 c777 123e 0c6b 94be ded1 9b3d
000001b0: cdd7 a03e 10f5 113e 9916 3dbf e60a 8a3d
000001c0: 158e 063e 545e 003e 5ccb 433e 20ec c4be
000001d0: eb22 0c3f 4a38 323e 2bbb a63d 3a77 51c0
000001e0: 0fb4 273f 94f4 b3bc 738f ee3d 90ec 793e
000001f0: 5156 5cbf 7931 5dbf 908e 473e 5699 ea3c
00000200: ac21 7abd a786 09be 9055 19be b9bd 0fbe
00000210: 62c6 f3bc b33f 4dbe 64ba 6bbc d026 25bd
00000220: 6f38 12bf 6f3b 8bbf c32a 0bbe df36 e4bd
00000230: a94d 6ebd db7a 3fbd 3d6e 41be 0d2e 28be
00000240: 8a34 d7bd dd92 39be a0f3 bebf 00d6 9bbf
00000250: 091b 603f 718d 6fbc 4920 16be 6ca3 46bf
00000260: 475a 06be 9a6c ddbc 15f2 8abc 8173 00bf
00000270: 2f07 84bd 3674 11be 10d6 13be eb55 4dbb
00000280: 2529 e0bd 59b9 9ebf 70ac 2bbe f56f 3bbd
00000290: 5cf2 90bf 0f18 803a f92e 02be f98c f13f
000002a0: e15a 14bc 411c 0c3e 2ba8 eabf 1e20 91bb
000002b0: d71f 74be 146b a53c 0d93 40be 5a02 bdbd
000002c0: 4170 95bc bf8f 22be 2ba1 d8be 1b41 1cbd
000002d0: 2cd4 17c0 2d9e ac3b 8b67 983f ffff 0abe
000002e0: fb51 a63a 6d32 1cbe 4874 debd 3980 63be
000002f0: 4dc6 0ebd 20a4 17bc 1414 4c40 65a5 03be
00000300: 73cf cebc 723e 8fbc ff2c 0abe a31e 98bd
00000310: d146 07be 4974 6f3f 7635 05be 9aeb d5bd
00000320: 1871 28be d97c 353b eb9c bb3c 2e7a f7bd
00000330: 308b 31be 833e 323b 9a59 f1bc 3c98 9cbd
00000340: 35b8 fcbd 7a9e b8bd bde8 7d3c 785e e1bd
00000350: 49ed 383a f3bd 5dbc fdf8 0540 d2ef 08be
00000360: b859 fe3b b09a f8bd 7bfb 6c40 cc47 28be
00000370: 4728 82bd 8b6e cdbd d26e 1ebe 9018 443c
00000380: bf3f 17be aedb f8bd 3394 19be 4274 823c
00000390: d3fd 0cbe d164 853c 622f 733c a468 47be
000003a0: 51fe e8bf 884e dabd f616 4fbe 76b9 b7bd
000003b0: eb7a 89bd 935f 1fbe 2839 e3be 9f60 85be
000003c0: 7535 30bc 58ce 893c 939e 25bd 948d 42be
000003d0: 8aad 7ebf 6744 a0bd 2c01 21bd 3194 23be
000003e0: b07b 2140 a9aa eebe 1647 f8bd 3352 3fbe
000003f0: 9269 c2c0 7027 16c0 d997 edbd 5510 2fbe
0.16792262 0.08205653 0.054573193 -0.75895476 -0.102879904 0.00072699087 0.14444855 0.07646527
-4.9065943 -0.5353356 0.28839853 0.083387315 0.056090437 -1.1498297 -0.159142 -0.06800675
0.08629526 0.0495329 -11.283039 -20.870283 -7.1437435 0.11261549 0.18438238 -6.6758027
0.2791822 0.2278523 0.089106336 -0.044631876 0.21320239 0.16217178 0.14219472 0.10257347
0.21345998 0.06863997 0.23989792 0.22656913 -0.75991946 0.088344306 0.12292896 -0.6660475
-0.041144095 1.0621481 -0.6960986 0.06731676 -18.14967 -0.23365009 0.12580954 -1.1129678
0.08369462 0.15193532 0.9871065 0.04198365 -0.541167 0.18944637 -1.6649102 0.08260088
0.2180776 0.41857764 -0.3003791 -2.0927207 0.15174542 0.14616473 -2.667193 0.15392856
0.13385956 0.10285162 0.18598765 0.24245423 0.051771734 6.634147 0.1409177 0.1409428
-0.5234904 0.11707549 -0.8445882 0.11788501 0.53426206 0.15423325 0.050137885 0.022852892
0.1622509 0.022375941 0.13730653 -0.374118 0.16394237 0.118301064 -14.1011715 0.1971158
0.10108908 0.05860371 -1.2883791 0.18218555 -0.029606251 0.20089342 0.22855392 0.14642029
0.12775616 0.15112162 0.16618948 0.016578069 -0.020650622 0.1248483 0.19106562 -0.41058022
-61.48086 0.14303504 -0.2898792 0.07608388 0.31414643 0.1425364 -0.73862606 0.0674036
0.13140137 0.12535983 0.19120544 -0.384614 0.5474078 0.17404285 0.08141168 -3.272902
0.6550912 -0.02196721 0.116484545 0.24406648 -0.8606921 -0.86403614 0.19487977 0.02863757
-0.06106727 -0.13430272 -0.14974046 -0.14037217 -0.029757682 -0.2004383 -0.014387701 -0.040320218
-0.5711736 -1.0877513 -0.13590531 -0.11143278 -0.05817953 -0.046748023 -0.18889709 -0.16423817
-0.10508068 -0.1812243 -1.4918098 -1.2174683 0.8754125 -0.014621125 -0.14660753 -0.7759311
-0.13120376 -0.027029324 -0.016961137 -0.50176245 -0.06446683 -0.14204487 -0.14437127 -0.0031331729
-0.10945348 -1.2400314 -0.16764998 -0.045761067 -1.1323962 0.0009772795 -0.12713231 1.8871146
-0.00905487 0.13682653 -1.8332571 -0.0044288775 -0.23840271 0.02019266 -0.18806095 -0.09228964
-0.018242003 -0.15875147 -0.4231046 -0.038148027 -2.372325 0.0052678795 1.1906599 -0.13574217
0.0012689227 -0.15253611 -0.10862023 -0.22216882 -0.034857083 -0.009255439 3.1887255 -0.12856062
-0.025245404 -0.017485831 -0.13493727 -0.074277185 -0.13210608 0.9353681 -0.13008675 -0.10445328
-0.16449392 0.0027692823 0.022901973 -0.12083851 -0.17338252 0.0027197904 -0.02946167 -0.07646224
-0.12339822 -0.09014602 0.015497384 -0.110043466 0.0007054401 -0.013534057 2.093322 -0.13372734
0.00776216 -0.12138879 3.7028491 -0.16433638 -0.063553385 -0.1003085 -0.15471962 0.011968747
-0.14770411 -0.121512756 -0.1499794 0.015924577 -0.13768701 0.016283425 0.01484284 -0.19473511
-1.8202611 -0.1065951 -0.20223603 -0.08970921 -0.06712898 -0.15563802 -0.44379544 -0.2605028
-0.010754933 0.016822025 -0.04043443 -0.1899932 -0.9948355 -0.07825547 -0.03930776 -0.159745
2.5231743 -0.46614578 -0.121229336 -0.186837 -6.075387 -2.346157 -0.11601228 -0.17096074

utn.4.bias f4 [15]
00000000: b9d9 c03d 8fcc 19bc a220 0c3d 76d2 3ebf
00000010: b8c7 a93d 033d c5bf 5531 4dbd 6656 bebe
00000020: 881a 28be b3f7 7ebe ffa4 abbe 6246 cebf
00000030: e548 57bf 3749 9e3e 104b 833e
0.09416527 -0.0093871495 0.03421081 -0.7453989 0.082900465 -1.5409244 -0.050095875 -0.37175292
-0.16416371 -0.24899177 -0.3352432 -1.6115229 -0.84095603 0.30915233 0.25643206

itn.0.weight f4 [256, 2]
00000000: fac8 8740 6942 d1bd 7b5f 7740 b34e 87bd
00000010: 57f7 8d40 a04e 0c3e 3373 3b40 d760 27be
00000020: 09e2 8d40 b11c 1b3e 32e1 9440 c54b e03e
00000030: 4973 8240 bcdb 8fbe e859 7640 39d0 06c0
00000040: 3307 8940 71b0 f13d 8e6c 9040 3cb3 1c3f
00000050: a7c6 8840 57c5 28be 5ffe 7140 35ca bbbe
00000060: fbe9 9440 f87b 9a3e 89a2 8140 587b dbbf
00000070: f888 6440 e64e ee3b e017 a240 ff08 3b3f
00000080: ca8a 8540 c8ec 413e 1d26 9440 d900 ba3e
00000090: e3b2 8640 308b 3d3e 411f 9740 eae2 ec3e
000000a0: 7e33 7f40 58e3 afbe 3fe8 a73f da68 8440
000000b0: 2494 8e40 f598 dcbe a042 6440 63c3 40be
000000c0: 1e25 8940 d169 163f d598 8840 94d8 003f
000000d0: 3e0d 9340 b12b 913e 8da6 a040 08c6 213f
000000e0: 466f ac40 a97a 853f 9851 8e40 0d19 28be
000000f0: 2ab2 8240 607e 9fbc 7952 9340 0c36 a93e
00000100: 27da 9640 6d50 dd3e 7383 863f 0314 4f40
00000110: 7446 8640 ca86 af3e 3576 a040 bae5 453f
00000120: e8bd 8340 9e0c 533b 53a8 9140 8f1f 943e
00000130: a65b 1f40 5514 6c40 e2dd 9540 6073 943e
00000140: 2eab 9040 c9c3 b23d 4cb9 8340 1ffc 2c3f
00000150: 7f20 9640 2559 fe3e 87d9 c240 b678 3340
00000160: ce35 8f40 72f6 de3d 6fa9 8340 c4bf 91bf
00000170: 6d5a 7f40 a1b6 56be 58b4 9940 10a0 053f
00000180: f3e3 8e40 c2c5 103e 0ae8 9140 9a48 9e3e
00000190: 9add 7f40 44c5 963e 9cf9 8040 bbb6 47be
000001a0: 0126 8440 731e 443e fe42 4b40 c3a5 ae3f
000001b0: 4acf 5940 1ca5 41bf bcec 8140 29bb f23c
000001c0: 566e 8a40 d220 90bd 20e2 9740 0fa8 003f
000001d0: ce5e 9540 38ae 163f 4467 8e40 4b6d 073f
000001e0: 240a 4d40 ad97 10bf 744d 9a40 6f69 163f
000001f0: edeb 8340 a6f7 46be e2ff cd40 45ee 3740
00000200: 7bb8 a740 20f9 523f 212e 8740 7ae2 b6be
00000210: ab21 8640 3496 be3c dcd1 8840 5390 52bc
00000220: d5a3 9540 98ad a13e d1d2 8f40 8cd3 803e
00000230: 7722 7440 f3af 9f3a bdef 9c40 8a57 383d
00000240: a7a5 9040 e2e2 f63e edc3 8240 81d1 2abe
00000250: 8fb8 9640 7da6 a23e 1788 8340 1938 183e
00000260: a88c ba40 2243 0040 df86 9e40 4257 833f
00000270: f314 6a40 86f4 cfbd 9099 4440 9092 9abe
00000280: caf3 6a40 7fb8 4cbd 94ca 9340 eaf3 e53e
00000290: fc9f 9c40 3d2f 5a3f e3e6 69bf aa2c 8b3e
000002a0: 6b63 9740 6dc6 0b3f 5293 8140 715a 5c3e
000002b0: c648 9c40 7d2c 823f a4dc 5b40 9d25 a2be
000002c0: 9b1b c6bf 493e b43e 1739 5840 1c95 a4be
000002d0: 5623 7640 f4a8 f3bd 8569 a140 aba6 3e3f
000002e0: f307 8740 1cd8 8b3e 5b25 9b40 e615 083f
000002f0: 08ef c040 c47c ce3f fc16 29c0 5399 0340
00000300: 5a6a 6d40 5c68 aa3e 904f 8840 e759 58be
00000310: 843d 9f40 c28f 483f a184 1d40 40e3 4640
00000320: 1250 8b40 e672 76bd 7aa6 8740 53a8 a03e
00000330: 6af9 ae40 2b80 ce3f 34fc 8340 d916 133e
00000340: 00f1 9640 6bdd 503f 434c 5b40 2680 6abe
00000350: 6a73 8f40 f172 a4bd 8b9a 4340 f7a9 a0be
00000360: c1c5 6d40 3b1e 3f3d 3ca8 9340 0def 8b3e
00000370: 9014 9540 841e df3e 082d 8840 50ac 8e3e
00000380: 5918 7440 204b babc 53ca 7740 fd74 ec3b
00000390: d2b9 9a40 1437 103f fadc 8d40 d493 7cbd
000003a0: 1ae1 6040 0647 0abe 7c12 9940 2c2c 0c3f
000003b0: 12bb 9540 cb4f d53e 2002 8940 430a cf3e
000003c0: 903d a040 54c0 2a3f 38c2 a940 9b36 793f
000003d0: b400 7440 6e5b 38bc 1ef6 ac40 8269 9a3f
000003e0: ce2d ed3f cebe 283e d694 9440 0d77 e23e
000003f0: c01f 9940 2dab 113f ef7e 5a40 79d7 25c0
4.2432833 -0.10217745 3.8652027 -0.066068076 4.436443 0.13701868 2.9289062 -0.16345535
4.433842 0.15147664 4.6524897 0.43807808 4.076573 -0.28097332 3.8492374 -2.106459
4.282129 0.11801232 4.5132513 0.6121099 4.2742496 -0.16481529 3.7811506 -0.3667771
4.653562 0.30172706 4.0510907 -1.7147017 3.57086 0.007272589 5.0654144 0.730606
4.173192 0.18937981 4.6296525 0.36328772 4.2093368 0.18510127 4.722565 0.46266872
3.9875178 -0.34353137 1.3117751 4.1377993 4.4555836 -0.43085447 3.5665665 -0.18824534
4.285781 0.58755213 4.2686563 0.5033047 4.5953665 0.28353646 5.020331 0.63192797
5.388583 1.0428058 4.44746 -0.16415806 4.0842485 -0.01946944 4.6038175 0.33049047
4.71413 0.43225423 1.0508865 3.2355964 4.1961 0.34282523 5.0144296 0.7730366
4.116932 0.0032203565 4.5517974 0.28930327 2.4899688 3.688741 4.6833353 0.28994274
4.520896 0.08728749 4.1163692 0.67572206 4.691467 0.49677387 6.0890536 2.8042426
4.475318 0.108868495 4.114433 -1.1386647 3.9898942 -0.20968105 4.8032646 0.5219736
4.465326 0.14137939 4.559575 0.30914766 3.9979005 0.29447377 4.03047 -0.195033
4.129639 0.1915224 3.1759639 1.3644336 3.403277 -0.7564256 4.0601482 0.02963026
4.3259687 -0.0703751 4.746353 0.5025644 4.667823 0.58859587 4.4501057 0.5290114
3.203744 -0.5648144 4.8219547 0.5875463 4.1225495 -0.19430408 6.4374857 2.8739178
5.2412696 0.82411385 4.224381 -0.35719663 4.19161 0.023264982 4.2756176 -0.012851792
4.676249 0.31577754 4.4944844 0.25161397 3.8146036 0.0012183174 4.904265 0.04500536
4.520221 0.48219973 4.0864167 -0.16681482 4.710029 0.31767645 4.1103625 0.1486515
5.82967 2.0040975 4.9539638 1.0261004 3.6575286 -0.10154061 3.0718727 -0.30189943
3.6711297 -0.049980637 4.618479 0.44912654 4.8945293 0.8522833 -0.9136793 0.27182513
4.730886 0.5459965 4.0492334 0.21518876 4.8838835 1.0169827 3.4353418 -0.31669322
-1.5477175 0.3520377 3.3784845 -0.3214501 3.8459067 -0.118974596 5.044131 0.74473065
4.2197204 0.27313316 4.84831 0.53158414 6.0291786 1.6131825 -2.6420279 2.0562332
3.7096162 0.33282745 4.259712 -0.21128045 4.976259 0.78344357 2.46122 3.1076202
4.353524 -0.06016817 4.239072 0.3137842 5.467946 1.6132864 4.1245365 0.14364184
4.716919 0.81587857 3.4265296 -0.22900447 4.4828386 -0.08029736 3.0563076 -0.31379673
3.715195 0.04665969 4.6142864 0.2733082 4.65876 0.4357797 4.255497 0.2786584
3.813986 -0.0227409 3.871724 0.0072160945 4.835183 0.5633404 4.4332247 -0.061664417
3.513739 -0.13503656 4.7835064 0.547549 4.6790857 0.4166244 4.2815094 0.40437517
5.007515 0.6669972 5.3049583 0.97348946 3.812543 -0.011252267 5.4050436 1.2063448
1.8529603 0.16479036 4.6431684 0.44231454 4.7851257 0.5690182 3.4139974 -2.5912764

itn.0.bias f4 [256]
00000000: 56eb f6bf 9451 04c1 2f78 17c0 6719 1bc1
00000010: c45b 4ac0 893c c5bf 73a9 04c0 fe19 e6bf
00000020: 4f23 a4bf 9355 1bbf d5fb 04c1 5f35 14c1
00000030: 9ee3 22c0 2e6d c3bf 02d3 0c40 caea e1c0
00000040: 1664 14c1 1434 00c0 7821 fcbe b521 57c0
00000050: cee5 893e e04c 84c0 e788 e4c0 7ebb 2ac1
00000060: 4c08 ba3e 64fa 9abc 4f2c 66c0 d62d 4cc0
00000070: 072c 80c0 0e4b e4c0 b28e 34bf 497d 59c0
00000080: ce71 e1bf 0fe5 2fc0 762f 24c1 c157 c7c0
00000090: b948 37bf f03e f0bf 886c a4c0 4003 28c0
000000a0: 0ecc 13c0 1417 7a3f 25af 86c0 37fa 82c0
000000b0: f190 3cc0 c790 14c0 cf85 0ec1 adfc 5fc0
000000c0: 03b5 52c0 f05a 6ac0 3e95 af3e 19ac 0ac1
000000d0: 41fc 00bf 1c8a d5c0 bb9c 36c1 7150 96be
000000e0: cb76 0cc0 da9d 73c0 c755 ccbf 57d9 ffbe
000000f0: a8ae 38c1 9bac 64c0 2364 0fc1 1527 26c0
00000100: 9a4e b6c0 e85f 06c1 1f05 80bf 8c92 f8bf
00000110: 9473 0dc0 81cc a9bf 7dce 2ac1 21e9 a8c0
00000120: 28a1 53bf 1774 21bf a5f1 03c0 22b6 bebe
00000130: 84d5 4fc0 2767 a2bf 474a 2cc1 d178 2ec1
00000140: 1a91 2dc1 2324 adc0 56ca dbbf 2410 adc0
00000150: 3ed8 f8c0 b416 d93c 2d62 37bf 7c88 2ac1
00000160: dd53 96c0 e97b 2ec1 03b6 19c1 8f2d c1c0
00000170: f19a 05bf ab76 eac0 2801 6ec0 551e 56c0
00000180: 559d f83f 3ce9 44c0 04b0 a5c0 088a bbc0
00000190: af57 24c0 5f73 19c1 3bf6 3dc0 417b b8be
000001a0: 0e85 14bf 6645 32c1 8ee0 e1c0 e017 31c1
000001b0: 2d1c 2fc1 0547 53c0 d519 72c0 4bfd 9fbe
000001c0: ca2f 2dc1 a92f 293f b891 52c0 8d0d 40c0
000001d0: d16b 32c1 ecc0 6dc0 0fe1 7bc0 5d26 d0c0
000001e0: 5dd3 ddc0 c1cf 2ec0 00ed 2ac1 7a14 35c0
000001f0: 9eed cec0 2d53 e2bf 6204 7cc0 e1cf 66bf
00000200: 3322 74c0 10d6 1ac1 537b 30c1 1370 2fc1
00000210: 5370 863f ca11 45c0 14f2 eabf e486 b4c0
00000220: cdf0 9f3d cf56 20c1 a8ef 71c0 f6dd 9abf
00000230: ad56 0640 bae2 0ec1 1e1f 68bf c68c 55c0
00000240: b22b 60c0 daaa 0cc1 36fe 43c0 2435 97bf
00000250: e112 e1bf e740 1dc1 c816 01c1 adda cebf
00000260: 78db 4cc0 8552 50bf 7fa6 17c0 01df 77c0
00000270: 44e1 8bbf 1a4d 66c0 929e 38bf dd34 75c0
00000280: ffb4 2bc0 3327 44c0 c826 0bbe 4313 67c0
00000290: ba99 39c1 e854 93bf f0df d8be dcd7 19bf
000002a0: cf5a 89bf 7485 a1bf dd08 4ec0 c36b f6be
000002b0: bbb1 273f 6dba 3ac0 d981 9a3e 3293 2bc1
000002c0: 8dbe 45c0 e176 38c1 ff08 363e 18d3 4ac0
000002d0: 2569 1bc1 2517 05c0 0e67 3ec0 ae73 80c0
000002e0: 1cc8 34c1 958a 2ebf 4bb5 dabf e21d 38c1
000002f0: 3ad4 84c0 6386 f5bd 14e7 51c0 4eca 5bc0
00000300: 56a3 15c1 10aa 1abe 650f 38c0 0cd8 86c0
00000310: 7dd8 6ebc 664f 20bf 9f65 abbe be39 1bbe
00000320: 8826 34c0 70c9 50c0 b8b7 5d3f faf3 4ec0
00000330: a6e9 f9c0 8b7d 1ac0 45c5 e33d 2c59 81c0
00000340: 0c8f 59c0 1827 44c0 4f94 2fc1 8e86 71c0
00000350: f5f7 42bf b4ce 03c0 7963 1fc1 9edb 4bbf
00000360: bcd3 54c0 6a6c 86c0 771c bec0 01fc 2bc1
00000370: be89 0cc0 edd2 bdbf 0a01 a4bf 3d05 51c0
00000380: 1593 d8bf c2fc 4dc0 b84e 8a3f c01c 10c1
00000390: a884 1c3f 610e e3bf 8876 8cc0 e2ba 09c1
000003a0: b703 13c1 4419 efc0 9d0e b83e 0ba1 d3bf
000003b0: 69f0 1ec1 a8a5 31c1 56c1 0c3f 8605 6fc0
000003c0: 8961 33c0 9938 bec0 9a9c 80c0 d3d7 1cc0
000003d0: 0ec4 3bc0 f272 1c3f 3c4b 80c0 235c 5dbe
000003e0: b866 d7bf 3bc1 43c0 ca63 02c1 eca9 72bf
000003f0: b039 ac3f fd3b 2fc1 e37f e5bf 5cfe 5ac0
-1.9290569 -8.269917 -2.3667104 -9.693702 -3.161851 -1.5409099 -2.0728424 -1.7976682
-1.2823275 -0.6067745 -8.311482 -9.26303 -2.5451427 -1.5267694 2.200379 -7.059911
-9.274435 -2.0031786 -0.49244285 -3.3614323 0.2693314 -4.134384 -7.1417117 -10.670774
0.36334455 -0.018918224 -3.5964544 -3.1902976 -4.0053744 -7.134162 -0.70530236 -3.3982718
-1.7612855 -2.7483556 -10.261587 -6.229462 -0.7159534 -1.8769207 -5.1382484 -2.6251984
-2.3093295 0.97691464 -4.20888 -4.093044 -2.9463465 -2.3213365 -8.907668 -3.499797
-3.292298 -3.6618004 0.3429355 -8.667016 -0.5038491 -6.673109 -11.413264 -0.29358247
-2.1947505 -3.8065095 -1.5963677 -0.49970505 -11.542641 -3.573035 -8.961947 -2.5961354
-5.697095 -8.398415 -1.0001563 -1.9419723 -2.2101793 -1.3265535 -10.675412 -5.278458
-0.8266778 -0.63067764 -2.0616238 -0.3724833 -3.247407 -1.268773 -10.768134 -10.904496
-10.847925 -5.410661 -1.7171123 -5.4082203 -7.7763968 0.026500084 -0.7163418 -10.658321
-4.697737 -10.9052515 -9.606936 -6.0368114 -0.52189547 -7.326986 -3.7188206 -3.3456013
1.9423014 -3.0767355 -5.1777363 -5.8605995 -2.5678518 -9.590667 -2.9681537 -0.36031535
-0.58015525 -11.141943 -7.0586615 -11.068329 -10.944379 -3.3012097 -3.7828267 -0.31247935
-10.824167 0.6608835 -3.290144 -3.000827 -11.151322 -3.7149 -3.9356115 -6.504683
-6.932051 -2.7314303 -10.682861 -2.8293748 -6.466506 -1.7681633 -3.9377675 -0.9016095
-3.8145874 -9.677261 -11.030108 -10.964862 1.0503029 -3.0792108 -1.8355126 -5.641466
0.07809601 -10.0211935 -3.7802525 -1.2098987 2.0990403 -8.930353 -0.9067248 -3.3367171
-3.502667 -8.791712 -3.0623908 -1.1813092 -1.7583886 -9.828345 -8.068062 -1.6160485
-3.2008953 -0.81375915 -2.369537 -3.872986 -1.0928121 -3.598456 -0.7211696 -3.8313515
-2.6829221 -3.0648925 -0.13589013 -3.6105506 -11.600031 -1.1510286 -0.4235835 -0.60095
-1.0730838 -1.2618852 -3.219291 -0.4812909 0.6550557 -2.9176285 0.3017719 -10.723436
-3.0897553 -11.529023 0.17776869 -3.1691341 -9.71317 -2.0795376 -2.97504 -4.014121
-11.298855 -0.6818021 -1.7086576 -11.507296 -4.1509066 -0.11988523 -3.279729 -3.4342227
-9.352377 -0.15103936 -2.8759396 -4.213873 -0.014577982 -0.6262115 -0.33475968 -0.15158746
-2.8148518 -3.2622948 0.8660846 -3.2336411 -7.8097715 -2.4139125 0.111216106 -4.0421352
-3.399356 -3.064886 -10.973708 -3.7738376 -0.761596 -2.0594912 -9.961785 -0.79631984
-3.3254232 -4.200734 -5.9409747 -10.749024 -2.195907 -1.4829994 -1.2812817 -3.2659447
-1.6919886 -3.218552 1.0805273 -9.007019 0.6113992 -1.7738763 -4.389469 -8.608126
-9.188407 -7.471834 0.3594865 -1.6533521 -9.933694 -11.102943 0.5498251 -3.7347121
-2.802828 -5.944409 -4.0191164 -2.4506729 -2.9338412 0.6111289 -4.009184 -0.21617179
-1.6828222 -3.0586689 -8.149363 -0.9479053 1.3455105 -10.952146 -1.7929653 -3.4217749

itn.2.weight f4 [128, 256]
00000000: d5ae fdbe cfc1 a1be e180 abbe 2654 d2bf
00000010: 8699 3cbe 6cff d1be a486 42bf f0b9 d5be
00000020: c7a5 24bf faf3 42bf e2fe 5bbe 8ac0 d3be
00000030: 15e9 88be cbc1 25bd 73c9 fcbf 0350 8bbd
00000040: 8bf1 25be e9ae b2be d6c0 80bf 8fdb f2bd
00000050: 4efc 36c0 457e 11be e4a1 85be f2eb 8abe
00000060: 5567 a5bf 9e2e 9bbf 30ac 00be bd26 39be
00000070: 25ba 19be 6d7f 16be 686d 90bf 320d 04be
00000080: f737 c4be 23b5 08c0 c41a d3bd c53a 79bd
00000090: 0bb7 84bf 788a afbe a2b5 c1bd 1759 62be
000000a0: f058 8bbe 20a1 e9bf a5fe d9bd 0f6f efbd
000000b0: d647 71be 464a 24c0 8f89 55be ba37 1dbe
000000c0: 81e3 58be 5c01 ccbd a416 c9bf 8784 5cbe
000000d0: a1ed 8cbf c0a0 7fbe 29af 41bf 3ffc 97bf
000000e0: d51e c9be 9d93 dbbd f722 c3be 6ae7 55bf
000000f0: f5ed 0fbf 023c 07be ca0a 75be 11d4 2dbd
00000100: bf4e 40be 9ab1 69be 83ac 43bf ed52 dfbe
00000110: a460 99be a6f5 f5be 399f 85be 4e45 6ebe
00000120: dca0 33bf cdf1 22c0 3a1d 9dbe 386b 91bf
00000130: fde1 60bd e84b 85be 9360 8abe 9115 8fbf
00000140: 27b3 fdbd 5fc2 84bd 46f6 8cbe fb7b 04c0
00000150: 08ac 64bd a9e7 afbf f5b7 febe b643 f4be
00000160: 4113 3bc0 3fdd b0be cdec 49be 99ef bcbd
00000170: 7e4d 79bf ff58 e2bd ef2b 07be 26fd 8bc0
00000180: 6cc5 09c0 211f a6be c29e 51bd 2735 48be
00000190: 19f7 9bbe 1471 d0bd ca7f 00be d153 8dbf
000001a0: b58a 13bf ad9b 66be 06d9 debd c0b7 89bf
000001b0: 542e edbd bae3 4fbe 73f5 16be 43b9 83bf
000001c0: 40d8 31be 1676 f4bf 7ab6 19be 62a9 7dbe
000001d0: 371c 77be 9c44 8bbd ac16 03be 5c23 65be
000001e0: 5042 e7bc 0df9 21be 9a58 efbd 8b12 d9bd
000001f0: a326 0ec0 c2d5 cdbe 2d13 08be 3a39 32c0
00000200: 5b40 96bd 1823 74be 786f 73bf f01e 8cbe
00000210: 27ed 1cc0 277c 6abe fd11 c2be 9703 c3bd
00000220: 55a9 b2bf 73b3 22be a696 3cbe 31f1 26bf
00000230: 06ca 0dc0 64eb 33be 5c78 52bf a400 74bd
00000240: 2280 67be aa03 9dbe cccf b0be 8cfb 2abf
00000250: afd2 b4be 6651 86be 514b 4dbe b0d9 c3be
00000260: 6539 2bbe 662e 3fbf 2afb d4be dfc8 d4bd
00000270: 6e26 febe 8574 23be 724a cbbe e10d b4bd
00000280: 3420 3abe f6a3 0ebe 8560 9dbf ce8c cfbd
00000290: dae4 25bf cd36 29bf 9d37 9bbf 7577 8bbf
000002a0: 8c62 dfbf eecb 04bf 500f 4bbe 096b e9be
000002b0: 94c9 ebbf 887a 91be d537 a7bf cb07 8dbe
000002c0: c61c 28bd 150c 2abf bb8d afbf 853d 23bf
000002d0: fcab 5ebe 75cd a8be 2307 5bbe 5b7f e0bd
000002e0: 2b36 ebbe d14d 18c0 9518 d3be e086 47bf
000002f0: 87c3 6bbd 1aab 53c0 7c25 1fbe ffc2 00be
00000300: 64fe 9abe 9516 8cbf d164 40be b843 98bd
00000310: 1d0b b6bf 02ae b8bf f58f 84bf 9817 c5c0
00000320: d84e 43be 08b7 12be b4a4 ddbf 0525 5cbe
00000330: c850 20be 330f adbe a331 b4bf a9c5 a9bd
00000340: 98a8 51bd adef 3dbe eace 7cbe aba0 1ebe
00000350: 3c74 1bbf 3526 ebbe f7f3 94be 2111 36bf
00000360: abd9 7fc0 90f8 81bd cd32 26be a97d 87be
00000370: 8bc0 e2be a978 efbe 190c fabe 60b4 e2bd
00000380: c25a 01c0 ea8a dfbd 23bd 13c0 16b9 cabf
00000390: 3b93 d7bf bd52 4bbf 4e61 52bd b939 82be
000003a0: 6195 8ebf 31e8 e8bf 8f59 babf f1d7 8fbe
000003b0: 682d 9cbf 580d a0be 1b02 4ec0 3a41 13be
000003c0: b5f1 97be 4d0a 26be 59be 76bd 0b97 4dbe
000003d0: 344b 2bbd c171 88c0 dc2d bdbd 48d3 93bf
000003e0: 052f 83be cef3 f2bd cee1 cfbe fc71 6abf
000003f0: 51b8 f2bf f845 00bf e321 38be a2b5 0bbe
-0.4954745 -0.31593177 -0.33496764 -1.643193 -0.1841794 -0.41015184 -0.75986695 -0.41743422
-0.64315456 -0.7615353 -0.21483949 -0.41357833 -0.26740327 -0.04046802 -1.9748977 -0.068023704
-0.16205423 -0.3489907 -1.0058849 -0.11858284 -2.8591495 -0.14208324 -0.26100075 -0.27133137
-1.292216 -1.2123601 -0.12565684 -0.18081184 -0.15012415 -0.14697047 -1.1283388 -0.12895659
-0.38323948 -2.1360557 -0.103078395 -0.060847063 -1.036836 -0.3428533 -0.09458472 -0.22104298
-0.2721629 -1.8252296 -0.10644273 -0.116911046 -0.2356256 -2.5670333 -0.20853256 -0.15353289
-0.21180536 -0.09961197 -1.5710034 -0.2153493 -1.1010019 -0.24963665 -0.756579 -1.1873854
-0.39281335 -0.107215144 -0.38112614 -0.83556235 -0.5622247 -0.13206485 -0.23929897 -0.04243857
-0.18780039 -0.22821656 -0.76435107 -0.43617955 -0.29956543 -0.48038977 -0.2609804 -0.23268625
-0.70167327 -2.5460083 -0.3068636 -1.1360846 -0.05490302 -0.26034474 -0.27026805 -1.1178457
-0.12387686 -0.06482386 -0.27531642 -2.0700672 -0.055828124 -1.3742572 -0.49749723 -0.4770791
-2.9230502 -0.34543797 -0.19719239 -0.09225387 -0.9738387 -0.11052131 -0.13200353 -4.374652
-2.1526747 -0.32445624 -0.051176794 -0.19551526 -0.30461958 -0.10177818 -0.12548748 -1.1041204
-0.57633525 -0.22520323 -0.10881238 -1.0759201 -0.11581102 -0.20301715 -0.14742069 -1.0290912
-0.17367649 -1.9098537 -0.15011016 -0.24771646 -0.24131857 -0.068001956 -0.12801617 -0.2237677
-0.028229862 -0.15817662 -0.11686821 -0.1059924 -2.2211082 -0.40202147 -0.13288565 -2.7847428
-0.073364936 -0.23841512 -0.9509196 -0.27367353 -2.4519746 -0.22898923 -0.3790435 -0.09522169
-1.3957926 -0.15888767 -0.18416843 -0.6521178 -2.2154555 -0.17570263 -0.82214904 -0.059570923
-0.22607473 -0.30666858 -0.34533536 -0.6679008 -0.3531699 -0.26233977 -0.20048262 -0.3825202
-0.16721113 -0.74680173 -0.41597873 -0.103898756 -0.49638695 -0.15962417 -0.39705235 -0.0879171
-0.18176347 -0.13929734 -1.229508 -0.10134278 -0.64802325 -0.66099244 -1.2126347 -1.089583
-1.7451949 -0.5187367 -0.1983006 -0.45589474 -1.8420892 -0.28413796 -1.3063914 -0.27545008
-0.041043065 -0.66424686 -1.3715128 -0.63765746 -0.21745294 -0.3296925 -0.21389441 -0.10961791
-0.45939764 -2.3797495 -0.41229692 -0.7794018 -0.057559516 -3.3073182 -0.15541643 -0.12574385
-0.3027221 -1.0944391 -0.18788458 -0.07434791 -1.4222142 -1.4428103 -1.0356432 -6.15913
-0.19073045 -0.14327633 -1.7315888 -0.21498497 -0.15655816 -0.3380066 -1.4077648 -0.08289654
-0.051186174 -0.1854846 -0.24688306 -0.15490977 -0.60724235 -0.45927587 -0.2909238 -0.71119887
-3.9976604 -0.06346238 -0.16230316 -0.2646306 -0.44287524 -0.46771744 -0.48837355 -0.1106956
-2.0211644 -0.10915168 -2.308419 -1.5837734 -1.6841806 -0.79423124 -0.05136233 -0.25434664
-1.1139337 -1.8195859 -1.4558581 -0.28094438 -1.2201357 -0.3126018 -3.2188785 -0.1438035
-0.29676595 -0.16214867 -0.060240123 -0.2007715 -0.041819766 -4.263886 -0.092372626 -1.1548853
-0.2562181 -0.11862908 -0.40601963 -0.91580176 -1.8962499 -0.50106764 -0.17981677 -0.13643506

itn.2.bias f4 [128]
00000000: 0760 1bc0 ddf6 ffbe 16c5 1ec0 92db 26c0
00000010: 1b98 31c0 532d 1bbf a3a5 3dc0 d08b 2640
00000020: 7dce 22c0 24f0 22c0 63d4 20c0 a287 fdbf
00000030: 998b 2cc0 2ae6 b8bf 59b6 7fc0 6da1 c5bf
00000040: 37c3 28c0 872f a9bf ba2a 9e3f 4a3e adc0
00000050: fcfd 80c0 cb75 28c0 7518 20c0 d994 00bf
00000060: 8065 d4bf 0a42 2040 3c3f 33c0 cb3b 31c0
00000070: d4c8 4ec0 f704 4dc0 ea87 aebf d97c 63c0
00000080: e911 4dc0 8238 4ec0 5402 1cc0 3c37 143e
00000090: a3c4 64c0 618c 39c0 fcab 35c0 80a7 a6bf
000000a0: bc8b 16c0 e51d 34c0 fbb9 27c0 a9c6 3bc0
000000b0: 7305 bcbf fad0 90bf 2770 343f f18e 23c0
000000c0: de6e 51c0 6a3c 16c0 721e 0ec0 c096 58c0
000000d0: d2ea 20bf 1e8d 20c0 a3ef 76c0 a372 82bf
000000e0: 0440 27c0 7399 22c0 fe85 20bf e63d 2fc0
000000f0: a021 2cc0 385b d2be 970b 23c0 6240 2fc0
00000100: a498 36bf 6af0 1ac0 6757 0dc0 a51e e03f
00000110: d413 68c0 b969 17c0 9a1a 4fc0 98d7 06c0
00000120: 2f7a 01bf ba7d 8ec0 8b1e 6fbf 8f7a 5dc0
00000130: 132d edbf b8a8 2bc0 b932 a4c0 6da3 b2c0
00000140: 1144 883d a2f6 1dc0 38b8 21c0 2902 2ac0
00000150: 748f 78bf d2d8 23c0 1630 27c0 4621 1dc0
00000160: 512b 32c0 495a 59c0 3f29 9dbf 03e7 5ebf
00000170: 0235 40bc a92a 28c0 1bce 37c0 f7ca 90c0
00000180: debf 23c0 a507 a2bf f6eb 21c0 83f4 3ec0
00000190: 6ccb 29c0 3d91 3ec0 bdc0 62c0 a0d4 46c0
000001a0: 716f 1fc0 5109 2ec0 4f55 c9bf 1b2e 26c0
000001b0: ba51 98c0 6638 a8bf eabb 8c3e d404 5ebf
000001c0: 5039 0dc0 86ab 39c0 b792 35c0 7f5f 8cc0
000001d0: 2d13 24c0 1b5b 52c0 701a d8bf 79e3 1ac0
000001e0: 1a9a 21c0 e4f0 75bf fa91 24c0 26f9 23c0
000001f0: d6c5 20c0 8e7e 25c0 f0e2 0dc0 eee5 15bf
-2.427736 -0.4999303 -2.4807792 -2.6071515 -2.7749088 -0.60616034 -2.9632347 2.6022835
-2.543853 -2.545907 -2.512963 -1.9807017 -2.6960204 -1.444524 -3.9955046 -1.5439888
-2.636915 -1.3217629 1.2356789 -5.4138536 -4.031004 -2.6321895 -2.5014927 -0.50227123
-1.6593475 2.5040307 -2.8007345 -2.7692745 -3.2310076 -3.203428 -1.3635228 -3.554495
-3.2042181 -3.222199 -2.437642 0.14474195 -3.5745018 -2.899193 -2.838622 -1.3019867
-2.3522787 -2.8143246 -2.6207263 -2.9340003 -1.4689163 -1.1313775 0.7048363 -2.5555995
-3.2723918 -2.3474374 -2.2206082 -3.384201 -0.6285831 -2.508613 -3.8583763 -1.0191234
-2.6132822 -2.5406158 -0.62704456 -2.738153 -2.6895523 -0.4108522 -2.5475824 -2.7383046
-0.7132666 -2.4209237 -2.2084596 1.7509352 -3.6262102 -2.3658278 -3.2359986 -2.1069088
-0.5057706 -4.4528475 -0.9340598 -3.4606054 -1.852938 -2.6821728 -5.1311917 -5.5824494
0.06653608 -2.4681783 -2.5268688 -2.6563818 -0.9709389 -2.5601087 -2.61231 -2.4551558
-2.7838938 -3.3961356 -1.2278212 -0.87071246 -0.011731388 -2.6276038 -2.8719547 -4.524776
-2.5585856 -1.2658583 -2.530027 -2.9836738 -2.653041 -2.9776146 -3.5430138 -3.1067276
-2.4911768 -2.7193186 -1.5729159 -2.596564 -4.7599764 -1.3142211 0.27487117 -0.8672612
-2.206623 -2.901094 -2.8370798 -4.386657 -2.5636704 -3.2868106 -1.6883068 -2.4201338
-2.5250306 -0.96070695 -2.5714097 -2.5620818 -2.512075 -2.5858493 -2.2169762 -0.5855397
