ckpt/junyi/ncd.pt (torch, 60161 bytes, 10 tensors)

k_difficulty.weight f4 [706, 6]
-0.07630946 0.042982653 0.038024496 -0.06285942 -0.031372435 0.42457905 -0.0023990106 -0.014771451
0.036843255 0.08175384 0.087846875 -0.0041459254 0.08997084 -0.02199982 0.43944535 0.01194795
0.02396321 -0.012605702 -0.007668938 0.012736207 0.44098672 0.06330596 0.03180763 0.042782832
-0.016632892 0.16753513 -0.063718684 -0.080802426 0.08433919 0.045808084 0.024396492 -0.055702787
-0.11553845 0.0050304797 0.007984936 -0.12611438 0.028687134 -0.03489754 0.06307101 -0.022421956
0.025597598 0.36736688 -0.040127963 0.043304455 0.037985966 0.042475984 0.6643851 0.020468479
-0.0047984105 -0.0043889773 0.15760864 0.029060576 0.07477789 -0.031569645 0.050259024 -0.067365445
0.46190378 -0.08621208 0.047261525 0.018701015 0.0077108466 -0.092255436 -0.036989942 0.04969714
-0.025757344 0.62858975 -0.09876202 0.122677684 0.02887619 0.054171804 0.06863496 0.018699741
-0.09544257 0.0144492965 -0.10118949 -0.08456167 -0.055613507 0.639078 0.0018563782 0.087825045
0.0385603 -0.10186797 -0.035942193 -0.06658659 0.033170063 0.8618788 -0.0022141866 -0.020391375
0.03756861 -0.0148649905 0.021532252 -0.043506723 -0.010481005 0.040703528 -0.007385526 0.01076336
-0.08328206 -0.00762077 0.97660077 -0.04902608 0.07016969 -0.049109917 -0.06610058 -0.029250419
-0.078288235 -0.018877292 0.44171524 -0.07463704 -0.00519063 -0.054072544 0.08941193 -0.074338146
-0.012110259 0.054009583 0.04471832 -0.035852972 0.0060233795 -0.061285354 -0.0019445049 -0.59079504
-0.08471259 0.090129904 0.013749018 0.012181606 0.17475034 -0.08215036 -0.023535809 0.45509136
0.0038558673 0.035683453 0.04773426 -0.04648679 0.003706462 -0.015212283 0.23486894 -0.028630408
-0.018165108 -0.06512742 0.045859903 0.019731574 -0.10775283 0.038634773 -0.023620352 -0.23490322
-0.026458375 0.0036439535 -0.070313 -0.030185191 0.073700644 0.0995568 0.02531914 0.07139103
0.006954923 0.018472785 0.043942206 -0.0018862487 0.022149784 0.070573516 -0.021081999 -0.09353786
-0.03773536 0.4475983 0.052662585 0.4533831 -0.0065583778 0.019393018 -0.03136097 0.0006536804
0.054071713 -0.010731995 0.025929464 -0.02480369 0.012087385 0.1710794 -0.038384937 -1.2717464
0.023762625 0.063493945 0.058542732 -0.00163069 0.06866472 0.13013497 -0.015730126 -0.0397946
0.007827357 0.7239804 0.013700993 0.086931765 -0.027770156 -0.010545141 0.019302448 0.51976866
-0.0069370177 -0.19146167 -0.022211382 0.008572565 -0.0073907436 0.050711267 -0.058896843 0.04304367
0.03331467 -0.097385496 0.027987717 0.6867249 0.05328295 0.00911386 0.052388977 -0.09478409
0.019561555 0.032016944 0.09083894 0.009570915 0.20466499 -0.069758184 0.028082317 0.03564192
-0.0052889846 0.06958206 0.04071556 0.049165662 0.044876825 0.2368461 -0.04757758 -0.01525198
0.09666383 -0.07581211 -0.05755151 -0.006914612 0.23706782 0.07033665 0.082243375 -0.104415976
0.071969114 0.051341813 0.00447796 0.0111262 0.05581618 0.007193679 0.061176553 0.3504124
-0.059072636 0.11751404 -0.07605453 -0.053609293 -0.019454218 0.1765837 0.050355922 -0.049444266
-0.023885379 0.014240663 0.0008737251 0.043065324 0.013188698 0.029229749 0.51587456 0.0069877994
00000000: 2248 9cbd 940e 303d 93bf 1b3d 71bc 80bd
00000010: 6280 00bd 6d62 d93e b838 1dbb f503 72bc
00000020: f4e8 163d 8f6e a73d 10e9 b33d 8bda 87bb
00000030: a242 b83d f738 b4bc fbfe e03e 56c1 433c
00000040: 7e4e c43c 2588 4ebc b74b fbbb 86ab 503c
00000050: 03c9 e13e 8ea6 813d b848 023d 0d3d 2f3d
00000060: b441 88bc 548e 2b3e f17e 82bd be7b a5bd
00000070: 06ba ac3d 42a1 3b3d 27db c73c 9b28 64bd
00000080: 6c9f ecbd b9d6 a43b 40d3 023c 2124 01be
00000090: 4801 eb3c b9f0 0ebd 602b 813d 40ae b7bc
000000a0: 0eb2 d13c 8317 bc3e 385d 24bd 0360 313d
000000b0: 2c97 1b3d 4cfb 2d3d 2415 2a3f 83ad a73c
000000c0: fc3b 9dbb 69d1 8fbb 2964 213e 7210 ee3c
000000d0: 2725 993d 2c4f 01bd 68dc 4d3d e5f6 89bd
000000e0: a77e ec3e f68f b0bd 4d95 413d df32 993c
000000f0: 45ab fc3b 6bf0 bcbd c482 17bd 3a8f 4b3d
00000100: 1101 d3bc 42eb 203f be43 cabd 703e fb3d
00000110: c28d ec3c 41e3 5d3d 7c90 8c3d 3330 993c
00000120: 6577 c3bd bebc 6c3c 6f3c cfbd ab2e adbd
00000130: fdca 63bd 9e9a 233f b751 f33a 9edd b33d
00000140: 68f1 1d3d 27a0 d0bd 1f38 13bd 8d5e 88bd
00000150: 55dd 073d 17a4 5c3f e31b 11bb d00b a7bc
00000160: 8be1 193d 4a8c 73bc 6864 b03c 1b34 32bd
00000170: 85b8 2bbc beb8 263d 4802 f2bb ce58 303c
00000180: c98f aabd a7b7 f9bb 8202 7a3f 92cf 48bd
00000190: 20b5 8f3d 7b27 49bd be5f 87bd 939e efbc
000001a0: 9555 a0bd 8da4 9abc 8028 e23e 4edb 98bd
000001b0: 2916 aabb 2c7b 5dbd 9a1d b73d 993e 98bd
000001c0: 1c6a 46bc 2739 5d3d 8f2a 373d 91da 12bd
000001d0: c55f c53b 5a06 7bbd c2de feba 583e 17bf
000001e0: cb7d adbd 0796 b83d 9043 613c 5c95 473c
000001f0: c1f1 323e 733e a8bd 2bce c0bc bc01 e93e
00000200: b8b2 7c3b d028 123d 0085 433d ef68 3ebd
00000210: 1de8 723b f03c 79bc 7c81 703e 518a eabc
00000220: fece 94bc 8661 85bd 98d7 3b3d 1ca4 a13c
00000230: 84ad dcbd 7f3f 1e3d 787f c1bc 788a 70be
00000240: 3cbf d8bc 65cf 6e3b 4300 90bd ef46 f7bc
00000250: 5df0 963d 70e4 cb3d 166a cf3c 7635 923d
00000260: 1fe6 e33b 3d54 973c befc 333d 013c f7ba
00000270: 7773 b53c d988 903d 28b4 acbc c790 bfbd
00000280: 6590 1abd 9b2b e53e b9b4 573d d421 e83e
00000290: a9e7 d6bb 1bde 9e3c 5c74 00bd c05b 2b3a
000002a0: 4d7a 5d3d 40d5 2fbc 076a d43c 1c31 cbbc
000002b0: 2b0a 463c 702f 2f3e 8639 1dbd 96c8 a2bf
000002c0: d6a9 c23c 1d09 823d 81ca 6f3d e0bc d5ba
000002d0: 17a0 8c3d 1a42 053e 77dc 80bc aaff 22bd
000002e0: 513e 003c c856 393f 217a 603c 4809 b23d
000002f0: 3d7e e3bc 87c5 2cbc 2b20 9e3c 8f0f 053f
00000300: ec4f e3bb 870e 44be a5f4 b5bc f273 0c3c
00000310: 0d2e f2bb 9eb6 4f3d d13d 71bd 8f4e 303d
00000320: f774 083d 0c72 c7bd 7f46 e53c 34cd 2f3f
00000330: 393f 5a3d 4d52 153c d395 563d 291e c2bd
00000340: 8e3f a03c 3324 033d c409 ba3d 54cf 1c3c
00000350: b393 513e 61dd 8ebd e30c e63c 43fd 113d
00000360: 384f adbb 0a81 8e3d 5cc5 263d ef61 493d
00000370: c3d0 373d c987 723e b5e0 42bd 71e3 79bc
00000380: b0f7 c53d 6143 9bbd 22bb 6bbd f893 e2bb
00000390: e8c1 723e a90c 903d 376f a83d 0bd8 d5bd
000003a0: 8b64 933d cb4b 523d dabb 923b aa4a 363c
000003b0: 829f 643d f4b8 eb3b 4494 7a3d 4169 b33e
000003c0: 26f6 71bd 33ab f03d 7ac2 9bbd 6b95 5bbd
000003d0: 745e 9fbc 5cd2 343e 0342 4e3d 1286 4abd
000003e0: 45ab c3bc ab51 693c b30a 653a 4465 303d
000003f0: 6915 583c 3a73 ef3c 5b10 043f e9f9 e43b

e_discrimination.weight f4 [706, 1]
0.7786588 0.7458715 0.46137947 0.42492238 0.13583852 1.0076859 0.5274416 0.8872327
0.8611024 0.9648639 0.6416345 1.2288871 0.80284995 0.32811067 1.2075602 -0.02710988
1.2277799 0.58285695 0.72602695 0.8053676 0.39379647 1.1046438 0.7446965 0.459469
0.5938931 0.8243182 0.5897314 0.789342 0.16631089 1.3344346 0.867331 0.6275876
0.66600776 0.85642165 0.61126864 0.9903258 0.41850013 -0.16554952 1.21099 0.95381624
0.76147413 0.06870371 0.45472324 1.2646316 0.60089195 0.41792452 0.30407193 0.9879475
0.5412894 1.2216429 0.64033884 1.6037545 0.5209313 0.4866541 1.3928641 1.0880258
0.79078484 0.9905638 -0.06363118 0.32038018 1.2411773 0.8010429 0.77396494 1.0300099
0.9801114 0.08422556 0.90133446 0.77248716 0.88528377 1.3102527 0.28026906 2.1609597
0.28798792 0.87076443 1.3072377 1.1505793 0.5457127 0.82444996 0.21183522 1.3543309
0.5571626 0.8523131 0.40298787 0.9631825 0.8604371 0.58060384 0.8815398 1.1388999
0.47408098 1.0579432 0.75994754 0.5841947 0.29147804 1.4795953 1.2131653 0.28262696
0.53860635 1.0287117 1.2995257 1.0632458 1.1616801 0.8308651 0.5082555 1.1459209
1.298011 1.0843216 1.0097365 0.6920708 0.6070505 1.3621284 1.481823 0.8723481
0.28384462 0.29855397 1.1275502 1.0724634 1.3491423 0.7749568 1.4226134 0.48102507
0.55439216 0.93220073 0.9807667 0.96469295 0.97761863 0.7090657 0.99972886 0.6664605
0.43872878 1.0112941 0.42577127 0.85775584 0.8460357 1.1470836 1.1040812 0.577977
0.14380983 1.1152736 1.0548705 0.9228464 0.67453575 1.0958297 0.13299961 1.122278
1.0038371 1.5279852 0.1200216 0.74942446 0.39226347 0.2682276 0.9104429 0.5483018
0.38878515 1.171892 0.6885443 1.3308816 0.5780334 0.42119 1.167802 0.6083803
1.5588698 1.1048534 0.6482272 1.360047 0.5269307 0.5818126 0.68514496 1.3675405
0.95396924 0.2734501 0.6729777 0.85830545 1.2121916 0.99652475 0.41946542 0.66090244
1.3173696 0.46795222 1.3276428 0.35609454 1.1320089 0.8572886 0.53120375 -0.011909763
0.4686409 0.5968015 0.69531363 0.944201 0.23669578 0.9807221 0.98267853 0.5137853
0.7695568 1.4387215 0.33373836 0.6410646 0.5796709 0.6278565 1.193317 0.6948543
0.5984992 0.8627735 1.2834663 0.4295476 0.5790642 0.025788758 0.95179623 0.16602655
0.58989674 0.88172466 0.7877335 0.44625428 0.9737869 1.4730924 0.7162266 0.7839432
1.0581002 1.2159237 0.37277135 0.7189629 1.0364947 0.9429742 0.579475 0.55599505
1.3582029 1.2014333 0.61369765 0.4549954 1.3060839 0.26137355 0.5950407 0.3934061
0.45017153 0.67080134 1.2891674 0.7020186 0.8318986 0.41231564 1.6170462 0.8137372
0.3522633 1.190148 0.9384505 1.6748545 -0.029407376 1.2910533 0.7643872 1.1941241
1.0673803 0.11515435 0.48461598 1.285579 0.39509 1.1718817 1.2657902 1.3816894
00000000: 2f56 473f 6ff1 3e3f ee39 ec3e 6d8f d93e
00000010: 4119 0b3e dafb 803f 6a06 073f af21 633f
00000020: 3571 5c3f 5201 773f 2942 243f 2c4c 9d3f
00000030: 9387 4d3f 1ffe a73e 5591 9a3f 8a15 debc
00000040: e427 9d3f 1d36 153f e7dc 393f 922c 4e3f
00000050: b19f c93e f864 8d3f 6ea4 3e3f 853f eb3e
00000060: 6109 183f 8406 533f a3f8 163f 5112 4a3f
00000070: 674d 2a3e c1ce aa3f 6809 5e3f 95a9 203f
00000080: 7c7f 2a3f 733e 5b3f 1a7c 1c3f fe85 7d3f
00000090: a645 d63e d085 29be b801 9b3f 4d2d 743f
000000a0: f8ef 423f 88b4 8c3d 7cd1 e83e 73df a13f
000000b0: 0ed4 193f 34fa d53e 51af 9b3e 21ea 7c3f
000000c0: f191 0a3f cb5e 9c3f 3fed 233f d447 cd3f
000000d0: c15b 053f ba2a f93e 5f49 b23f 6e44 8b3f
000000e0: e070 4a3f 9795 7d3f 1051 82bd df08 a43e
000000f0: e6de 9e3f 2611 4d3f 9122 463f 5dd7 833f
00000100: 95e8 7a3f 737e ac3d dbbd 663f b8c1 453f
00000110: f5a1 623f 5cb6 a73f 6d7f 8f3e 2a4d 0a40
00000120: 2773 933e 6bea 5e3f 9153 a73f 2f46 933f
00000130: d4b3 0b3f 270f 533f 55eb 583e b75a ad3f
00000140: 35a2 0e3f 3131 5a3f 6d54 ce3e 2193 763f
00000150: 9b45 5c3f 74a2 143f 98ac 613f 79c7 913f
00000160: beba f23e af6a 873f ec8b 423f c98d 153f
00000170: 9c3c 953e 6163 bd3f 0049 9b3f 7bb4 903e
00000180: 1be2 093f d3ac 833f dc56 a63f 7018 883f
00000190: efb1 943f 93b3 543f 081d 023f 89ad 923f
000001a0: 3925 a63f 0dcb 8a3f 0c3f 813f 8d2b 313f
000001b0: a967 1b3f 395a ae3f 60ac bd3f 3552 5f3f
000001c0: 1554 913e 11dc 983e 9153 903f 7b46 893f
000001d0: b2b0 ac3f 9263 463f 3218 b63f eb48 f63e
000001e0: a5ec 0d3f b5a4 6e3f 8713 7b3f 1ef6 763f
000001f0: 3745 7a3f 5485 353f 3bee 7f3f 289d 2a3f
00000200: 0fa1 e03e 1672 813f b1fe d93e e395 5b3f
00000210: cc95 583f a3d3 923f 8852 8d3f 4df6 133f
00000220: e242 133e 49c1 8e3f ff05 873f a93f 6c3f
00000230: 60ae 2c3f 2644 8c3f 0d31 083e cea6 8f3f
00000240: bc7d 803f 0595 c33f e2cd f53d 48da 3f3f
00000250: c2d6 c83e 2155 893e c912 693f 825d 0c3f
00000260: d90e c73e 8f00 963f 7044 303f 545a aa3f
00000270: fff9 133f 37a6 d73e 897a 953f d0be 1b3f
00000280: 0c89 c73f d66b 8d3f 38f2 253f 0516 ae3f
00000290: eee4 063f acf1 143f a965 2f3f 910b af3f
000002a0: 5437 743f a701 8c3e 4448 2c3f e8b9 5b3f
000002b0: 1829 9b3f 3f1c 7f3f 2cc4 d63e e730 293f
000002c0: 919f a83f 6f97 ef3e 33f0 a93f 0652 b63e
000002d0: abe5 903f 4477 5b3f f8fc 073f 2b21 43bc
000002e0: b3f1 ef3e fcc7 183f 1300 323f 28b7 713f
000002f0: 6160 723e 9b10 7b3f d290 7b3f 6f87 033f
00000300: ad01 453f 0728 b83f c1df aa3e cf1c 243f
00000310: 5065 143f 34bb 203f 9dbe 983f f9e1 313f
00000320: 3e37 193f b9de 5c3f a048 a43f aaed db3e
00000330: 8d3d 143f f242 d33c eba8 733f dd02 2a3e
00000340: 7903 173f b5b8 613f e7a8 493f 717b e43e
00000350: 194a 793f 4b8e bc3f a05a 373f 80b0 483f
00000360: d46f 873f 63a3 9b3f e3db be3e f40d 383f
00000370: dcab 843f c266 713f 7958 143f b155 0e3f
00000380: 98d9 ad3f 91c8 993f 4a1b 1d3f 28f5 e83e
00000390: c22d a73f c1d2 853e 9654 183f 866c c93e
000003a0: e27c e63e a3b9 2b3f 7003 a53f 7eb7 333f
000003b0: 4ff7 543f 091b d33e 5ffb ce3f 1551 503f
000003c0: db5b b43e c556 983f 4b3e 703f a261 d63f
000003d0: bde7 f0bc 3c41 a53f e1ae 433f 0fd9 983f
000003e0: eb9f 883f 0bd6 eb3d 961f f83e da8d a43f
000003f0: 3d49 ca3e 3800 963f 6a05 a23f 33db b03f

prednet_full1.weight f4 [128, 6]
1.9148089 1.583248 1.8233104 1.5444394 1.8317537 1.9906527 2.298637 2.1167858
2.3790443 1.9808196 2.553353 2.6978493 1.4210479 1.3759263 1.5187775 1.2751901
1.4370743 1.6297077 1.345076 1.2643547 1.4464345 1.2941377 1.3103862 1.4938003
2.3488128 2.0901177 2.4464436 1.966203 2.4204009 2.7452946 2.366966 2.1552188
2.3898988 1.9707164 2.4371328 2.621394 2.13009 1.9586643 2.290303 1.8774453
2.3376133 2.5670657 2.1109936 1.9808544 2.2371447 1.8583298 2.2485592 2.4371464
2.3733633 2.144182 2.7408636 1.9947915 2.5419414 2.799679 1.5290647 1.3647075
1.6320875 1.4060427 1.6238291 1.8200114 2.2151966 2.0722804 2.3951015 2.0739088
2.4844418 2.7248619 2.3304362 2.154158 2.474875 1.9865603 2.5003514 2.761925
1.5295069 1.1930618 1.437996 1.3130697 1.4178917 1.6566021 2.2395797 2.098769
2.4155025 1.9814135 2.3093834 2.636484 1.8751507 1.7754256 1.9852897 1.7441964
2.0029972 2.198793 2.155755 2.2237692 2.3921618 1.9490548 2.5706115 2.5656936
2.4134974 2.245095 2.6187623 2.087034 2.5807161 2.8952744 1.4871259 1.3336695
1.6912363 1.4276887 1.4867443 1.765318 1.162033 1.1295924 1.2749565 1.1981425
1.3266793 1.4317595 1.2587142 1.142918 1.4328839 1.307259 1.3194535 1.6299014
2.0468624 1.607765 1.9606719 1.5942594 1.961521 2.2956262 2.077322 2.247182
2.3129761 2.2382045 2.3616207 2.610644 1.7198542 1.3865967 1.8386045 1.5179735
1.7447197 2.013751 2.278948 2.323057 2.6063392 2.1469262 2.762369 3.1488614
1.2512703 1.2292686 1.4063509 1.2452675 1.3411174 1.536395 1.3412052 1.2877591
1.541809 1.3527385 1.480465 1.745568 2.2692587 2.298492 2.44849 2.1336677
2.3868196 2.7741694 2.208251 2.141113 2.4924798 2.03837 2.5477676 2.5274851
2.1529315 2.2732406 2.4022367 2.0749626 2.3615954 2.5885358 1.737594 1.6448271
1.7526735 1.5644299 1.6887051 1.9866 2.034967 1.7634643 1.9868158 1.6539555
2.0042918 2.4907863 2.3225665 2.043348 2.402128 1.9239433 2.4621043 2.7392614
1.6950759 1.3785409 1.7927624 1.5898849 1.7342812 2.0903115 2.213198 1.9210157
2.32543 1.8024361 2.3072774 2.5122354 1.6661731 1.3944039 1.8315187 1.4298272
1.7030003 1.8771585 1.214193 1.2614137 1.5435536 1.2735721 1.3676474 1.4720299
1.551252 1.3925632 1.7096288 1.430986 1.580279 1.8657737 1.5184094 1.2479212
1.6040648 1.3970015 1.5704949 1.9040251 1.8077099 1.3937082 1.8702275 1.5898892
1.8458349 2.0975986 1.700413 1.638263 1.7769394 1.5859357 1.8369929 1.9866743
1.2936591 1.1920485 1.3243933 1.2268181 1.3332838 1.5145174 2.1767988 2.016422
2.2777097 1.8547562 2.284014 2.5439296 1.3760229 1.1311442 1.4597337 1.2295078
00000000: 7518 f53f dfa7 ca3f 3c62 e93f 31b0 c53f
00000010: e876 ea3f b5cd fe3f de1c 1340 6b79 0740
00000020: 4342 1840 7f8b fd3f 236a 2340 90a9 2c40
00000030: e6e4 b53f 5a1e b03f 4d67 c23f 6e39 a33f
00000040: 0df2 b73f 439a d03f 732b ac3f 60d6 a13f
00000050: c424 b93f 4ea6 a53f bcba a73f d934 bf3f
00000060: f352 1640 7dc4 0540 8892 1c40 8aac fb3f
00000070: d9e7 1a40 e8b2 2f40 5f7c 1740 1bef 0940
00000080: 1af4 1840 6f40 fc3f fcf9 1b40 ebc4 2740
00000090: 6553 0840 83b5 fa3f 5394 1240 2150 f03f
000000a0: 759b 1540 ce4a 2440 851a 0740 a38c fd3f
000000b0: 612d 0f40 c0dd ed3f 65e8 0f40 35fa 1b40
000000c0: 2fe5 1740 473a 0940 4f6a 2f40 5455 ff3f
000000d0: 2baf 2240 f12d 3340 64b8 c33f bcae ae3f
000000e0: 3ee8 d03f 35f9 b33f a2d9 cf3f 22f6 e83f
000000f0: c8c5 0d40 3ea0 0440 5849 1940 ecba 0440
00000100: 1801 1f40 2364 2e40 de25 1540 badd 0940
00000110: 5a64 1e40 9c47 fe3f c205 2040 61c3 3040
00000120: e2c6 c33f 40b6 983f 4110 b83f ab12 a83f
00000130: 7a7d b53f 8a0b d43f 4655 0f40 3b52 0640
00000140: 9897 1a40 f59e fd3f f0cc 1340 27bc 2840
00000150: f004 f03f 2541 e33f f91d fe3f d441 df3f
00000160: 1b31 0040 06b9 0c40 e4f7 0940 3c52 0e40
00000170: 2e19 1940 a17a f93f e684 2440 5334 2440
00000180: be76 1a40 a3af 0f40 cd99 2740 f791 0540
00000190: 742a 2540 2d4c 3940 245a be3f afb5 aa3f
000001a0: 6e7a d83f 81be b63f a34d be3f f1f5 e13f
000001b0: 7fbd 943f 7c96 903f c631 a33f bc5c 993f
000001c0: a1d0 a93f e543 b73f 8c1d a13f 234b 923f
000001d0: bd68 b73f 4354 a73f dae3 a83f 9ca0 d03f
000001e0: cbff 0240 3ecb cd3f 4cf7 fa3f b110 cc3f
000001f0: 1f13 fb3f 8aeb 1240 d8f2 0440 d4d1 0f40
00000200: cd07 1440 be3e 0f40 cb24 1740 cb14 2740
00000210: 2f24 dc3f 007c b13f 6457 eb3f f54c c23f
00000220: fa52 df3f 4ce1 0040 49da 1140 f7ac 1440
00000230: 43ce 2640 3d67 0940 a7ca 3040 f286 4940
00000240: a029 a03f ac58 9d3f 4e03 b43f ed64 9f3f
00000250: bca9 ab3f 97a8 c43f 9dac ab3f 4ad5 a43f
00000260: ff59 c53f 8926 ad3f e17f bd3f c66e df3f
00000270: 893b 1140 7e1a 1340 0fb4 1c40 038e 0840
00000280: a7c1 1840 fe8b 3140 fc53 0d40 ff07 0940
00000290: ca84 1f40 a774 0240 a00e 2340 51c2 2140
000002a0: a1c9 0940 c67c 1140 3fbe 1940 30cc 0440
000002b0: 6124 1740 92aa 2540 7b69 de3f b289 d23f
000002c0: 9b57 e03f 3d3f c83f 7d27 d83f e948 fe3f
000002d0: e63c 0240 33b9 e13f fb4f fe3f d0b4 d33f
000002e0: 5146 0040 0b69 1f40 eea4 1440 37c6 0240
000002f0: 77bc 1940 c643 f63f 1e93 1d40 0f50 2f40
00000300: 3ff8 d83f 0774 b03f 3d79 e53f 5981 cb3f
00000310: edfc dd3f aac7 0540 09a5 0d40 d8e3 f53f
00000320: d8d3 1440 3ab6 e63f 6faa 1340 77c8 2040
00000330: 2945 d53f d47b b23f 346f ea3f 9404 b73f
00000340: eafb d93f bb46 f03f ad6a 9b3f 0176 a13f
00000350: 2a93 c53f 6904 a33f 120f af3f 7a6b bc3f
00000360: 6d8f c63f 833f b23f 1ed5 da3f 8d2a b73f
00000370: 9546 ca3f acd1 ee3f 3d5b c23f e2bb 9f3f
00000380: ff51 cd3f f2d0 b23f fa05 c93f 18b7 f33f
00000390: 0a63 e73f 0865 b23f 9d63 ef3f 7d81 cb3f
000003a0: 5144 ec3f 0e3f 0640 22a7 d93f 9ab2 d13f
000003b0: c072 e33f f1ff ca3f 9522 eb3f 584b fe3f
000003c0: 9f96 a53f 0c95 983f b885 a93f 6008 9d3f
000003d0: 0ba9 aa3f b5db c13f ac50 0b40 0f0d 0140
000003e0: ffc5 1140 a768 ed3f 492d 1240 becf 2240
000003f0: 8521 b03f 55c9 903f 8ed8 ba3f 8360 9d3f

prednet_full1.bias f4 [128]
-0.26218078 -0.90186405 0.034576993 -0.22399227 -0.9864988 -1.1126447 -1.1006087 -1.0151055
-0.86419165 -0.23374173 -1.2271594 -1.0594424 -0.05076433 -1.3601243 -0.9829529 -1.0928329
-0.84812486 -0.10058158 0.06570325 0.07841866 -0.28798544 -1.6293948 -0.1290607 -1.3790846
-0.025863513 0.04856247 -1.2305317 -1.6482743 -1.0910348 -0.4544491 -0.25592512 -0.71758294
-0.21557096 -0.19154108 -0.32845762 0.011159185 -0.121550426 0.057851534 -0.28299776 -0.3514626
0.08579874 -0.62816656 0.11252672 -0.12005613 -0.8667492 -0.3187066 -0.23626252 -0.2065052
0.1718147 -0.17646275 -1.5309645 -0.17725852 -1.085417 -0.14002429 -1.3322629 0.09804597
-1.6644328 -0.3023357 -0.13516167 -1.6117177 0.15794173 -0.17969745 -0.2175243 -1.5104116
-1.2256132 -0.3875538 -0.6314846 -0.16210784 -0.895829 -0.4791962 -0.018669676 -0.27321306
-0.12557808 -0.07879421 -0.25307465 -0.9941309 -1.0610499 0.015924541 -0.49207032 0.19274956
-0.35624078 -0.117327765 -1.593963 -0.23391187 -0.41987374 -1.2598666 0.18197407 -0.2557494
-1.5423039 -0.4210758 -0.19622707 0.15577102 -0.08066123 -1.612917 -1.1964892 -1.1549032
-0.04373885 0.030530415 -0.883931 -1.2269717 -0.7540141 0.008423572 -0.3770181 -0.97609836
-0.7400335 -0.25124627 -1.1314363 -1.0968649 0.022328686 -0.3776779 -0.5004695 -0.6596895
-1.1198198 0.09372169 -0.87308395 -1.4095409 -1.062071 0.22385143 -0.101208925 -0.35463333
0.021583626 0.11473603 -0.6172193 -1.5717943 -0.48380354 -0.8037459 -0.40492126 -1.5406415
00000000: 8f3c 86be 90e0 66bf 9ba0 0d3d 3b5e 65be
00000010: 2f8b 7cbf 246b 8ebf bfe0 8cbf faee 81bf
00000020: aa3b 5dbf fe59 6fbe 8f13 9dbf cf9b 87bf
00000030: 42ee 4fbd 8e18 aebf cda2 7bbf f3e1 8bbf
00000040: b61e 59bf b7fd cdbd 6d8f 863d f699 a03d
00000050: d472 93be 0290 d0bf 7d28 04be d885 b0bf
00000060: b8df d3bc 71e9 463d 1082 9dbf a7fa d2bf
00000070: 07a7 8bbf 8dad e8be 9e08 83be 84b3 37bf
00000080: a2be 5cbe 5823 44be 992b a8be 04d5 363c
00000090: 6eef f8bd bbf5 6c3d 15e5 90be e8f2 b3be
000000a0: 40b7 af3d 86cf 20bf 6974 e63d fddf f5bd
000000b0: 47e3 5dbf 832d a3be cdee 71be 1976 53be
000000c0: 31f0 2f3e a7b2 34be a5f6 c3bf 4283 35be
000000d0: f2ee 8abf 8762 0fbe 9787 aabf 53cc c83d
000000e0: 220c d5bf bfcb 9abe d267 0abe c44c cebf
000000f0: 7abb 213e 9c02 38be b1be 5ebe 2b55 c1bf
00000100: e5e0 9cbf 746d c6be faa8 21bf 99ff 25be
00000110: 0d55 65bf 3459 f5be 26f1 98bc 95e2 8bbe
00000120: 8a97 00be dc5e a1bd 0093 81be 5d7f 7ebf
00000130: 7cd0 87bf 2f74 823c a4f0 fbbe 2460 453e
00000140: 3165 b6be 8a49 f0bd fb06 ccbf 9886 6fbe
00000150: b1f9 d6be 4f43 a1bf 6957 3a3e 96f1 82be
00000160: 376a c5bf 3f97 d7be c0ef 48be 7082 1f3e
00000170: b731 a5bd 1074 cebf 8f26 99bf ded3 93bf
00000180: 8227 33bd ec1a fa3c 4d49 62bf 690d 9dbf
00000190: 1107 41bf 0603 0a3c 8408 c1be 95e1 79bf
000001a0: d672 3dbf 5aa3 80be e8d2 90bf 1266 8cbf
000001b0: a6ea b63c ff5e c1be c51e 00bf 69e1 28bf
000001c0: 4156 8fbf 28f1 bf3d 6e82 5fbf d66b b4bf
000001d0: f1f1 87bf 4f39 653e a046 cfbd 8092 b5be
000001e0: 25d0 b03c b9fa ea3d 1602 1ebf 8e30 c9bf
000001f0: 19b5 f7be 4bc2 4dbf d751 cfbe be33 c5bf

prednet_full2.weight f4 [64, 128]
0.012362484 0.092861325 0.004638511 0.001092688 0.086086355 0.09241895 0.09875803 0.09350256
0.08062623 0.006748523 0.10993185 0.10456061 0.007616795 0.12296431 0.15411912 0.1511813
0.07126433 0.0043556113 0.0008782945 0.0016515754 0.018166833 0.16100566 0.0069510858 0.11239469
0.0025388887 0.0043920684 0.12104899 0.15680169 0.103734255 0.025556847 0.01875598 0.06564361
0.00734072 0.013098717 0.007436242 0.004931021 0.008052379 0.0032637352 0.009733222 0.02225954
0.0032425183 0.05143504 0.0047905333 0.0003110626 0.06554498 0.008476024 0.0032354693 0.011521018
0.0014289165 0.007528424 0.14257728 0.019953953 0.07613903 0.005578251 0.13058466 0.0008294943
0.19149263 0.011408108 0.0033731863 0.13491157 0.0018622366 0.010966945 0.013377507 0.15514793
0.10794386 0.021558573 0.050728064 0.011132932 0.07807407 0.02399457 0.002730093 0.008449752
0.0043301214 0.0072748596 0.015206869 0.089464806 0.08603 0.002737735 0.025446305 0.0083444035
0.015718916 0.007995704 0.16978876 0.005836402 0.013908134 0.119415954 0.0012082469 0.001919306
0.13031226 0.01747119 0.009920569 0.002321424 0.0018257411 0.13043536 0.12918888 0.09697191
0.010187294 0.0028396407 0.08497265 0.10406725 0.058705837 0.0028176152 0.013219223 0.08051753
0.0768626 0.014662511 0.08957276 0.10409804 0.0031380653 0.010740387 0.014755129 0.047671698
0.0895725 0.0012079864 0.08696974 0.124538 0.07111139 0.0006967986 0.0016185209 0.02415764
0.007235188 0.002877663 0.07085361 0.18600021 0.106498435 0.100210264 0.02236707 0.13628039
0.00045171136 0.010067534 0.0031495448 0.03747928 0.009234147 0.010906459 0.011304596 0.014649438
0.009603742 0.037567653 0.058559164 0.01424677 0.0021492126 0.020666491 0.03978265 0.014369884
0.011284419 0.0024487197 0.0013434865 5.584392e-05 0.0055782706 0.046582814 0.0025557855 0.020904616
0.17800044 0.03503934 0.0128540285 0.0984901 0.01499165 0.0024053461 0.034302875 0.010501955
0.026575953 0.0019262873 0.0034636266 0.0 0.002052382 0.0010721589 0.0014610366 0.028050328
0.0 0.0076314737 3.462075e-05 0.0 0.010622964 0.0011537911 0.03190969 0.0056650448
0.0 0.16083404 0.018645322 0.003163079 0.00989111 0.0017233143 0.017368559 0.07199096
0.045596067 0.014044314 0.023662865 0.020540247 2.4525077e-06 0.0037721223 0.0052215382 0.02623289
0.017715488 0.0030908154 0.021247946 0.060832467 0.08324527 0.0075106965 0.0004393948 0.0022640838
0.00043858873 0.002484979 0.005460663 0.009822922 0.010763711 0.027953826 0.007572209 0.106231734
0.09441127 0.1144482 0.02630505 0.0011702388 0.0012883351 0.013754078 0.0 0.0
0.018917901 0.0038199634 0.0009814681 0.00072994153 0.0015481634 0.017981376 0.018334294 0.014918006
0.0020758326 0.00067296444 0.010134542 0.06333455 0.008894934 0.072137155 0.0951135 0.011785085
0.07470334 0.0045503266 0.19664662 0.049124278 6.0824157e-05 0.065470785 0.0068851155 0.029847423
0.120185144 0.0 0.00914257 0.08735646 0.010205101 0.0 0.00066706014 0.0036201843
0.0021076007 0.0 0.08148474 0.21056576 0.0060026576 0.12862368 0.0034329013 0.10747899
00000000: 048c 4a3c 142e be3d a7fe 973b 8638 8f3a
00000010: 0b4e b03d 2546 bd3d a641 ca3d 457e bf3d
00000020: 5d1f a53d b722 dd3b f323 e13d e023 d63d
00000030: 4f96 f93b b6d4 fb3d 67d1 1d3e 45cf 1a3e
00000040: 08f3 913d 84b9 8e3b 593d 663a ad79 d83a
00000050: 9cd2 943c abde 243e efc5 e33b 302f e63d
00000060: 7c63 263b 57eb 8f3b 88e8 f73d 9f90 203e
00000070: a072 d43d 985c d13c 24a6 993c 2870 863d
00000080: 6c8a f03b 009c 563c b8ab f33b 6794 a13b
00000090: 20ee 033c 64e4 553b 1878 1f3c a459 b63c
000000a0: 6e80 543b 8cad 523d e8f9 9c3b 1e16 a339
000000b0: 723c 863d 05df 0a3c 2b0a 543b a7c2 3c3c
000000c0: 7b4a bb3a ffb0 f63b c7ff 113e 7976 a33c
000000d0: c8ee 9b3d c3c9 b63b fcb7 053e 6c72 593a
000000e0: a516 443e 13e9 3a3c ad10 5d3b 4226 0a3e
000000f0: 4b16 f43a b4ae 333c 552d 5b3c 19df 1e3e
00000100: ac11 dd3d 9b9b b03c 3bc8 4f3d e766 363c
00000110: 4ce5 9f3d 4390 c43c 5ceb 323b d470 0a3c
00000120: b1e3 8d3b f261 ee3b 3b26 793c 5339 b73d
00000130: 7f30 b03d 926b 333b c574 d03c f7b6 083c
00000140: f5c4 803c 6a00 033c 1bdd 2d3e 4a3f bf3b
00000150: f1de 633c 5a90 f43d 0a5e 9e3a 3991 fb3a
00000160: 9470 053e be1f 8f3c e289 223c 0823 183b
00000170: b54d ef3a d990 053e 174a 043e 3599 c63d
00000180: 9ce8 263c 4419 3a3b 2406 ae3d 3621 d53d
00000190: 8875 703d bda7 383b 7195 583c 60e6 a43d
000001a0: 246a 9d3d 073b 703c ec71 b73d 5a31 d53d
000001b0: 00a8 4d3b 73f8 2f3c 7fbf 713c 6643 433d
000001c0: c971 b73d 4c55 9e3a 311d b23d c70d ff3d
000001d0: d9a2 913d 5da9 363a 8d24 d43a 3ee6 c53c
000001e0: 2815 ed3b 2c97 3c3b b31b 913d d776 3e3e
000001f0: da1b da3d 0a3b cd3d 253b b73c 168d 0b3e
00000200: acd3 ec39 4cf2 243c 9868 4e3b e083 193d
00000210: d24a 173c 01b1 323c ea36 393c 3204 703c
00000220: 0359 1d3c 8ae0 193d bcdb 6f3d 496b 693c
00000230: ced9 0c3b c64c a93c 22f3 223d a96f 6b3c
00000240: 49e2 383c b37a 203b ed17 b03a f439 6a38
00000250: edc9 b63b 9fcd 3e3d f77e 273b 2840 ab3c
00000260: bf45 363e 6985 0f3d b499 523c 2db5 c93d
00000270: 8a9f 753c 03a3 1d3b 2c81 0c3d 6410 2c3c
00000280: d0b5 d93c 7a7b fc3a 03fe 623b 0000 0000
00000290: 4281 063b af87 8c3a 4180 bf3a cdc9 e53c
000002a0: 0000 0000 7111 fa3b bf35 1138 0000 0000
000002b0: f10b 2e3c ce3a 973a bcb3 023d d7a1 b93b
000002c0: 0000 0000 aeb1 243e 13be 983c a94b 4f3b
000002d0: 520e 223c d5e0 e13a 8248 8e3c ff6f 933d
000002e0: f1c2 3a3d 1f1a 663c a0d8 c13c 0544 a83c
000002f0: c395 2436 b635 773b 7019 ab3b 5ce6 d63c
00000300: 1220 913c 478f 4a3b 2c10 ae3c 772b 793d
00000310: 7f7c aa3d 4a1c f63b 925e e639 0661 143b
00000320: 62f2 e539 08db 223b 5cef b23b 52f0 203c
00000330: 475a 303c 6cff e43c 4b20 f83b 0690 d93d
00000340: b25a c13d d163 ea3d b07d d73c b362 993a
00000350: 5add a83a c958 613c 0000 0000 0000 0000
00000360: b7f9 9a3c 5a58 7a3b 9ba4 803a 8c59 3f3a
00000370: beeb ca3a ae4d 933c cd31 963c a76a 743c
00000380: b10a 083b e169 303a 5a0b 263c 8bb5 813d
00000390: 0fbc 113c a5bc 933d deca c23d 3b16 413c
000003a0: 11fe 983d e81a 953b bb5d 493e 8a36 493d
000003b0: 711d 7f38 8c15 863d 899c e13b 9582 f43c
000003c0: a123 f63d 0000 0000 b8ca 153c f2e7 b23d
000003d0: 4c33 273c 0000 0000 a6dd 2e3a 9d40 6d3b
000003e0: ac1f 0a3b 0000 0000 79e1 a63d 8d9e 573e
000003f0: f1b1 c43b edb5 033e 87fa 603b f21d dc3d

prednet_full2.bias f4 [64]
-0.96701455 -0.10806353 -2.832561 -0.109394096 -0.28983334 -2.549779 -2.6921282 -0.26820526
-0.50725895 -0.50424725 -0.3642977 -2.7196863 -0.1591319 -2.8772635 -0.34182563 -0.60377526
-2.8600936 -0.9750582 -2.7007806 -0.33809498 -0.6663585 -1.3738625 -0.62240976 -2.6437945
-1.1100409 -1.9901303 -0.04065471 -2.8653986 -2.797411 -1.3022671 0.00855796 -1.3442669
-0.8824921 -0.09756895 -0.33548924 -1.4606607 -2.6427572 -1.0198615 -1.9505758 -2.5817041
-0.017361958 -2.6866772 -2.6252422 -2.695893 -0.5006246 -0.646553 -2.7561162 -2.6914513
-2.637571 0.037628394 -2.818276 -0.19409308 -2.2653677 -0.012368322 -2.6552536 -2.4782648
-2.8832064 -2.5745313 -2.6580853 -0.029233277 -2.6383438 -1.0052344 -0.15103672 -0.05938963
00000000: 448e 77bf 6950 ddbd ae48 35c0 030a e0bd
00000010: 0965 94be 942f 23c0 d44b 2cc0 3352 89be
00000020: b9db 01bf 5916 01bf 3a85 babe 570f 2ec0
00000030: 79f3 22be 1625 38c0 c503 afbe 0491 1abf
00000040: c60b 37c0 6a9d 79bf 97d9 2cc0 c91a adbe
00000050: 7896 2abf bada afbf 3f56 1fbf ee33 29c0
00000060: d215 8ebf 97bc febf 8e85 26bd b162 37c0
00000070: c808 33c0 b0b0 a6bf b036 0c3c f010 acbf
00000080: 01eb 61bf 3bd2 c7bd 3fc5 abbe eef6 babf
00000090: ef22 29c0 d28a 82bf 78ac f9bf a43a 25c0
000000a0: aa3a 8ebc 85f2 2bc0 f803 28c0 8389 2cc0
000000b0: ef28 00bf 7f84 25bf 3564 30c0 bd40 2cc0
000000c0: f7cd 28c0 3b20 1a3d a25e 34c0 56c0 46be
000000d0: c9fb 10c0 81a4 4abc adef 29c0 e49b 1ec0
000000e0: 7486 38c0 1fc5 24c0 121e 2ac0 a07a efbc
000000f0: a0da 28c0 85ab 80bf 5fa9 1abe 8a42 73bd

prednet_full3.weight f4 [1, 64]
0.044343308 0.0 0.16757137 0.0027264636 0.007761127 0.10478012 0.11046854 0.0045581628
0.0007841405 0.015987186 0.009538253 0.12162665 0.0022814653 0.17133066 0.015495008 0.028993074
0.1462522 0.041734546 0.13779716 0.0 0.026289277 0.051714614 0.022345489 0.10778066
0.045518816 0.072335176 0.0037647549 0.16182607 0.150203 0.044958808 0.00024635575 0.0611178
0.029008443 0.0 0.0065004705 0.050592456 0.13420269 0.037583753 0.09154391 0.11496786
0.0046284976 0.12251114 0.13049157 0.11621527 0.0118326945 0.029341018 0.167018 0.102915764
0.13890284 0.0010345163 0.14687063 0.0009496672 0.09869873 0.0003878579 0.12664674 0.10275263
0.16795507 0.11465049 0.11946728 0.0013723968 0.11832561 0.041878782 0.0 0.0012813375
00000000: 54a1 353d 0000 0000 d497 2b3e 78ae 323b
00000010: 0d51 fe3b f696 d63d 543d e23d a45c 953b
00000020: c78e 4d3a 8ff7 823c 5546 1c3c 6517 f93d
00000030: a384 153b 4e71 2f3e c6de 7d3c e282 ed3c
00000040: 23c3 153e d8f1 2a3d b31a 0d3e 0000 0000
00000050: 9c5c d73c b4d2 533d e30d b73c 1bbc dc3d
00000060: f071 3a3d 7724 943d 1bba 763b bcb5 253e
00000070: d1ce 193e ba26 383d 4f29 8139 a956 7a3d
00000080: 1da3 ed3c 0000 0000 e601 d53b 093a 4f3d
00000090: 6e6c 093e 6cf1 193d 607b bb3d 4574 eb3d
000000a0: a7aa 973b 1fe7 fa3d 959f 053e 4502 ee3d
000000b0: ebdd 413c 935c f03c c406 2b3e 80c5 d23d
000000c0: 8c3c 0e3e 9b98 873a 4165 163e 16f3 783a
000000d0: 8f22 ca3d 6859 cb39 afaf 013e f96f d23d
000000e0: 6afc 2b3e e0cd ea3d 43ab f43d ffe1 b33a
000000f0: b354 f23d 1689 2b3d 0000 0000 8df2 a73a

layers.0.weight f4 [3, 6]
-0.34495425 0.28158018 0.40414742 0.994276 0.33401427 0.21958649 -0.368807 -0.64104784
-0.47915602 0.44540176 0.030089296 -0.5203249 -0.056996606 -0.40700492 0.8822437 0.28939036
0.13935909 0.30119023
00000000: d89d b0be 472b 903e 69ec ce3e df88 7e3f
00000010: eb03 ab3e 48db 603e 45d4 bcbe b61b 24bf
00000020: f053 f5be b30b e43e d47d f63c 0334 05bf
00000030: 4675 69bd f362 d0be b9da 613f f92a 943e
00000040: 26b4 0e3e 9b35 9a3e

layers.0.bias f4 [3]
0.07672619 0.14734189 -0.3907077
00000000: 9f22 9d3d cbe0 163e d70a c8be

output_layer.weight f4 [1, 3]
-0.4373778 -0.13364825 0.16603544
00000000: fcef dfbe 16db 08be 3205 2a3e
