ckpt/sim/irt.pt (torch, 18983 bytes, 2 tensors)

alpha.weight f4 [2248, 1]
000000 3f 1c e2 bf 08 9b 39 3f 79 3c 0e 3e 71 9b d4 bf
       -1.766487 0.72502184 0.13890256 -1.6609937
000010 83 fe 26 bf e7 19 9d 3e 3d 10 c4 3f b8 9a a0 bf
       -0.65232104 0.30683824 1.5317456 -1.2547216
000020 38 04 b5 bf 5c 57 d7 bd ce d4 eb be 21 ba 68 bf
       -1.4141912 -0.10514709 -0.46060795 -0.9090901
000030 3d da 7b bf 3c d8 18 3f aa 65 1d 3e a7 2d 78 3f
       -0.9837988 0.5970495 0.15370813 0.9694466
000040 de bf d5 bf 4a ca a1 3f 18 76 f6 bf 0b 1a e8 3d
       -1.6699178 1.2639859 -1.9254789 0.11333092
000050 3b 86 3a 3e 73 40 e0 bf de 66 e7 be 5b 79 b5 be
       0.18215267 -1.7519668 -0.4519567 -0.3544415
000060 3e 3a 38 c0 85 92 be bf 08 fe 85 bd 19 82 e1 3f
       -2.8785548 -1.4888464 -0.06542593 1.7617828
000070 49 f0 3d c0 db 18 1b 3d 51 5e ad bf be 04 3b bf
       -2.9677908 0.0378655 -1.3544408 -0.7305411
000080 86 e9 fa bf f3 98 52 3f b0 7c 89 3f b6 4e 9e 3d
       -1.9602516 0.8226463 1.0741177 0.07729857
000090 87 5c 28 c0 ac 6b 1d bf ea 3c 81 bf 05 15 ca be
       -2.6306474 -0.6149242 -1.0096714 -0.39469162
0000a0 fc 31 5f bf 37 0c da 3f 75 e6 40 3e 9f 66 0c c0
       -0.87185645 1.7034978 0.18837912 -2.1937635
0000b0 be 1d 0c c0 4a 77 0a c0 1f fc bd bf 9d 18 eb be
       -2.1893153 -2.1635308 -1.4842566 -0.45917216
0000c0 24 72 ed 3f 82 aa b0 bf 29 1f 63 3f f3 dd b6 bf
       1.8550458 -1.3802035 0.8871942 -1.4286484
0000d0 de c9 ce bf c0 44 e2 be 28 27 bb bf 67 17 af bf
       -1.6155355 -0.44193077 -1.4621325 -1.3679017
0000e0 34 5b 1c bd 99 0b b1 3f 94 9b d2 3f 71 26 b7 3f
       -0.038172916 1.3831664 1.6453729 1.4308606
0000f0 d2 8e 98 3f cf 12 ad bf b4 75 46 bd 5a 1a 0c c0
       1.1918585 -1.3521365 -0.048452094 -2.1891084
000100 ca 6b 92 3f 6e ca b7 bf 31 ba 03 3e 74 9e cc bf
       1.1439145 -1.4358652 0.12863995 -1.5985856
000110 71 86 40 be 31 f0 e0 bf b4 95 04 bf 36 a0 6e 3e
       -0.18801285 -1.7573301 -0.5179093 0.23303303
000120 21 e5 b7 3f 4f de 0d 3f 73 61 44 3f 36 f6 06 3e
       1.43668 0.5541734 0.76711196 0.1317986
000130 d3 0e 12 c0 0f b4 7a bf 76 b4 a4 3e cc c4 07 c0
       -2.2821548 -0.97931 0.3216893 -2.1213865
000140 5d be b0 3f 9a 06 18 c0 a9 da 04 c0 41 49 ba 3e
       1.3808094 -2.375403 -2.075846 0.36384013
000150 86 17 1b c0 e4 11 07 c0 03 d6 e5 bf 94 db 30 c0
       -2.4233108 -2.110467 -1.7955936 -2.763402
000160 76 2c 8b bf 31 72 2d 3e 9b 98 06 c0 3b fc 2b bd
       -1.0872943 0.16938092 -2.1030643 -0.041988593
000170 01 1c 22 c0 6a 27 f1 bf 1b 4d 14 3f a2 01 9a bf
       -2.5329592 -1.8840153 0.57930154 -1.2031748
000180 4d 12 25 3f 76 5b 3a 3f fa 9c 9c bf a1 39 53 bf
       0.6448105 0.7279581 -1.2235405 -0.8250981
000190 56 8d 78 3f 0c 1e 75 bf 23 ff b5 3f a2 8d 02 c0
       0.9709066 -0.9574897 1.4218487 -2.0398946
0001a0 13 5f 94 bf 3c 68 7c bf ab 81 2b 3f f3 f8 1c 40
       -1.1591514 -0.9859655 0.6699473 2.4526947
0001b0 8f cb b4 bf 31 28 0c c0 f3 06 67 be 80 57 c0 3f
       -1.4124621 -2.189953 -0.22561245 1.5026703
0001c0 35 f5 ce bf e3 c2 ab be 04 7b 03 3e c1 0f af 3f
       -1.6168581 -0.33547124 0.12839895 1.3676683
0001d0 91 cb 77 3f 43 a1 8b 3f 07 2d 30 bf ff c2 0e c0
       0.9679499 1.0908588 -0.68818706 -2.2306516
0001e0 cf 5e 00 3f 81 4d a3 3e d8 56 02 bf be ee 1d c0
       0.50144666 0.31895068 -0.50913763 -2.4676967
0001f0 8e 40 30 3f f8 32 21 c0 c8 4c 0b 40 a7 88 01 c0
       0.688485 -2.518736 2.1765614 -2.0239656
000200 53 52 c8 bf a3 45 9b be 1e e5 51 be 0c be c7 3e
       -1.5650123 -0.30326566 -0.20497558 0.39012182
000210 fc 2b 2b 3f 3e 16 0b 40 70 5e 29 3f d9 69 b7 bf
       0.6686399 2.1732326 0.66159725 -1.4329177
000220 60 95 dd 3e 95 1a 6d bf 8c e4 08 c0 91 ce 3d bf
       0.43278027 -0.92618686 -2.1389494 -0.7414332
000230 5f 90 8b be e4 d8 09 c0 13 f3 9e 3e 1c 58 a1 bf
       -0.27258584 -2.153863 0.31044826 -1.2605014
000240 fb 8b 87 bf 69 ee f3 be df 46 80 be 3f 3f 93 bf
       -1.0589594 -0.4764283 -0.2505407 -1.1503676
000250 10 a0 c6 bf 6e 4d 8f be e8 7b 45 bf d4 5b c5 3e
       -1.5517597 -0.27988762 -0.7714219 0.38546622
000260 70 5f 10 3d c1 3c 20 bf 00 d9 a1 be 22 e8 98 bf
       0.035247266 -0.62592703 -0.3161087 -1.1945841
000270 16 bb 6d bd 3d f4 2f bf 6a 5a 1f bf e2 7a 79 bf
       -0.058039747 -0.68732053 -0.62247336 -0.9745313
000280 81 83 fc bf aa 9e 0d c0 3c 1e f2 3e 73 18 2b 3f
       -1.9727632 -2.212809 0.47288692 0.6683418
000290 03 3b fd bc 23 b9 2e 3e 3e e5 12 c0 db 97 8b 3e
       -0.030911928 0.17062812 -2.2952418 0.27264294
0002a0 ed 23 fd 3d 50 ce eb 3d 2c a9 07 c0 d6 ab 35 bf
       0.12360368 0.1151396 -2.1197004 -0.70965326
0002b0 53 19 05 c0 cd ba 1d 3f 63 69 00 40 6f b3 01 c0
       -2.0796707 0.6161316 2.0064323 -2.0265768
0002c0 8a 5a 1b 3e 6d 41 b1 bf d2 8d c2 bf 30 46 b8 bf
       0.15171257 -1.3848091 -1.519953 -1.439642
0002d0 1b f6 17 bf 26 3d 12 3f f6 6e cb bf 7b 76 1f c0
       -0.593599 0.57124555 -1.5893238 -2.4916065
0002e0 50 b6 e3 bf ab 4a 1a 3f 84 00 14 3f 4f e5 0b 3e
       -1.7790012 0.60270184 0.57813287 0.13661693
0002f0 42 ee 9a be f5 bd a9 3f 3c e4 84 3f 88 bb 6b 3f
       -0.302599 1.3261095 1.0382152 0.92083025
000300 1a d1 42 bf 11 41 a6 bf 48 c4 ad bf 24 73 b0 be
       -0.76100314 -1.2988607 -1.3575525 -0.34462845
000310 7b da 95 be d5 38 10 3f 36 48 11 c0 8c 8c e4 3e
       -0.2926825 0.5633672 -2.2700324 0.4463848
000320 99 84 4e bf b3 30 be bf 0a dd e4 3e 6d f0 a8 bf
       -0.8067108 -1.4858612 0.4469989 -1.3198372
000330 b7 73 79 bf 34 4b de 3e 40 77 bd bf a8 0e 58 be
       -0.9744219 0.4341675 -1.4802017 -0.21099341
000340 ef 67 15 c0 0f e8 a0 bf bc e7 9a 3e 14 ff ef bf
       -2.3344686 -1.2570819 0.30254924 -1.8749719
000350 5f 2c bf be 2a a4 d9 3f d2 bd be 3f 45 10 cb 3f
       -0.3733854 1.7003224 1.4901679 1.586434
000360 e0 d1 0f c0 45 d4 20 3f b3 be 4b bf d0 37 17 c0
       -2.2471848 0.628239 -0.7958786 -2.3627815
000370 13 67 3f bf de 9d 27 be 2a 07 69 bf 81 c0 d8 3f
       -0.74766654 -0.16368815 -0.91026556 1.6933748
000380 49 43 2d c0 ff f0 2d 3e 62 eb c1 bf 7d 0e bd bf
       -2.7072318 0.16986464 -1.5149958 -1.4770046
000390 39 ef a9 bf 92 e5 92 bf 20 42 c5 bf 76 e3 d1 bf
       -1.327613 -1.1476309 -1.5410805 -1.639754
0003a0 c7 54 f7 be 99 c4 07 40 38 d0 b4 bd 3e fa ac bf
       -0.48306867 2.1213744 -0.08828777 -1.3513868
0003b0 b6 d1 cf bf 32 6c 67 be 51 34 c0 bf 77 cb 7b bf
       -1.6235874 -0.22599867 -1.5015966 -0.9835734
0003c0 53 ba 4c 3f ae 2e 3b bf 87 6c 11 bf 47 87 c9 3f
       0.7997181 -0.731181 -0.56806225 1.5744408
0003d0 d3 0c 56 bf 60 ef 7d 3f d6 0d ba bf 9f 90 28 3f
       -0.8361332 0.9919338 -1.4535472 0.65845674
0003e0 a5 1c 35 bf b7 45 97 bf 41 3a bb 3f d4 62 d2 3e
       -0.70746833 -1.181815 1.4627153 0.41091025
0003f0 82 29 87 3f 0b 85 21 c0 39 2e 8c bf 83 d5 8e bf
       1.0559542 -2.5237453 -1.0951606 -1.1158909

beta.weight f4 [2248, 1]
000000 cf 63 28 c0 74 26 9e bf d0 97 c8 be f7 e0 8f c0
       -2.6310918 -1.2355485 -0.39178324 -4.4962115
000010 19 f3 c8 3e 87 88 a9 be f6 78 ae c0 03 52 ad bf
       0.3924797 -0.33111975 -5.4522657 -1.3540653
000020 ea bc 7c 3e a9 96 c8 3e fd 56 85 3f fb e0 22 3e
       0.2468144 0.39177445 1.0417172 0.15906136
000030 15 b0 eb be 7c ed ca bf 84 c7 4e be 76 7e d5 c0
       -0.46032777 -1.5853724 -0.20193297 -6.671687
000040 6a 4b c9 3e 7c 17 b9 c0 02 38 87 bf e6 75 42 be
       0.3931535 -5.7841167 -1.0563967 -0.18990287
000050 ea 09 8b 3e b4 89 c3 bf 7d 4d e4 be 9c e9 49 3d
       0.27156 -1.5276399 -0.4459037 0.049295053
000060 7a ce 11 bf 84 8f 48 c0 e1 b1 e3 3e ad 08 1e c0
       -0.56955683 -3.1337595 0.44471648 -2.4692795
000070 36 48 41 c0 3f 41 de 3c f2 6e d4 bf 86 bc a5 be
       -3.0200324 0.027130721 -1.6596358 -0.32370394
000080 bf a5 3d c0 3f 7e 74 bf f7 ab 9f bf 0d ca e0 bd
       -2.9632413 -0.95505136 -1.2474355 -0.10976038
000090 cf 99 16 c0 19 e4 9f 3e 00 fa 72 bd 05 bc 65 bf
       -2.3531377 0.31228712 -0.05932045 -0.8974002
0000a0 9c c4 83 be 14 c5 b4 c0 a8 6f 5c be 73 de 3b c0
       -0.2573594 -5.6490574 -0.21526968 -2.9354522
0000b0 d0 d2 16 c0 a2 36 8b c0 5e 79 94 be 60 c1 8a be
       -2.356617 -4.350419 -0.28998846 -0.27100658
0000c0 f4 3f 80 c0 c2 3e 13 3f 81 c5 07 bf 81 60 be bf
       -4.007807 0.57517636 -0.5303574 -1.4873201
0000d0 6e 6f 78 3f 7a 89 ee 3d 74 6f 32 bf 58 a2 7a c0
       0.9704503 0.11647315 -0.69701314 -3.9161587
0000e0 a8 c3 7e be 39 38 99 c0 7d 6a d2 c0 c8 de 85 c0
       -0.24879324 -4.788113 -6.575499 -4.183445
0000f0 67 d7 9f bf 5b f6 15 3f 11 19 4a be 99 47 88 bf
       -1.248761 0.58579034 -0.19736125 -1.064685
000100 db e1 1b c0 78 56 92 be ca 53 f1 be 66 45 20 c0
       -2.4356601 -0.28581595 -0.47134238 -2.5042357
000110 5e 74 df 3d db 63 77 3c 81 a8 2f 3e 52 0f 10 be
       0.10910867 0.015099491 0.17154123 -0.14068344
000120 1d 64 73 c0 3d 33 ab bd 06 8b 45 bf ba 89 23 be
       -3.8029854 -0.08359382 -0.7716526 -0.15970507
000130 96 ee 19 c0 ab 51 da 3e 40 d2 7a bf b2 94 c7 bf
       -2.4051871 0.42640433 -0.97977066 -1.5592253
000140 5f ee 43 c0 c9 0c 4f c0 53 ec 1c c0 81 2b c0 be
       -3.061424 -3.2351553 -2.451924 -0.3753319
000150 1e 27 cb c0 6b 18 27 c0 62 e2 87 c0 82 4e d0 c0
       -6.348525 -2.6108654 -4.2463846 -6.5095835
000160 3f 57 a8 be f8 e9 a4 bc 86 58 87 bf 71 0a ec be
       -0.32879063 -0.020131096 -1.057389 -0.46101716
000170 08 77 d5 bf 10 f2 53 bf 2a c1 98 bf e8 60 3b 3f
       -1.667695 -0.82791233 -1.1933949 0.7319474
000180 8d b6 b4 bc 99 99 b6 bf 5c 6d 9c 3f 1e fd 37 3f
       -0.022059703 -1.4265624 1.2220874 0.718706
000190 33 46 27 c0 38 fb 71 bf e8 1c d6 bf 25 76 22 c0
       -2.6136596 -0.94523954 -1.6727571 -2.538461
0001a0 84 6b bc bf 78 b4 df be 45 32 1c bf 34 04 a5 c0
       -1.4720311 -0.43692374 -0.61014205 -5.156763
0001b0 77 b3 3e c0 7e c3 68 3e 67 4a d4 3e 75 b0 90 c0
       -2.9797037 0.22730824 0.41463014 -4.52154
0001c0 98 20 7e 3e 69 0a 8f 3d 04 a4 14 3c 24 be 9f bf
       0.24817121 0.069844075 0.0090723075 -1.2479901
0001d0 88 c9 1f c0 da 20 36 c0 6a c3 53 bd a8 78 70 c0
       -2.4966755 -2.845755 -0.051700033 -3.7573643
0001e0 ea 1b 84 bf f0 6a 86 be 44 db 8a be 3d 0c 87 c0
       -1.0321019 -0.26253462 -0.2712041 -4.220244
0001f0 38 a3 4e bf 4b 0c fd bf 07 cf ae c0 01 3e 19 c0
       -0.807178 -1.9769377 -5.462772 -2.3944094
000200 7b 3c 1d bf 28 d9 a1 3e 58 7b 1d 3f d0 71 45 be
       -0.6142041 0.3161099 0.6151633 -0.19281697
000210 52 b6 d3 be b6 fb 7e c0 ea b8 24 c0 ae f5 98 bf
       -0.41350037 -3.9841132 -2.5737863 -1.1949975
000220 57 f7 6c bf 6c 56 79 bf 24 c9 a9 c0 28 ee 5b 3f
       -0.9256491 -0.97397494 -5.3058033 0.8591027
000230 1a 0a 1c 3d 58 b8 34 3e 0f 04 ef be 8d 05 b7 bf
       0.03809557 0.17648447 -0.46682784 -1.4298569
000240 ef 4c 0d 3e 3b e9 69 3e dc e9 89 bd c6 42 01 c0
       0.13798879 0.22842877 -0.06734058 -2.0197005
000250 8c c9 f4 bf 3b 80 c8 3e f5 ed 53 3d b3 04 2d bf
       -1.9124007 0.39160332 0.051740605 -0.67585295
000260 45 36 fd 3e 4a 80 e0 be 74 47 bc 3e 44 de 44 be
       0.49455467 -0.43847877 0.36773264 -0.19225413
000270 3b e8 a9 bc 02 90 10 3f 93 f4 e0 3e 41 0c d9 bf
       -0.020740619 0.5646974 0.43936595 -1.6956865
000280 fb 7d 4e c0 45 54 cd c0 44 7b a9 be ef 98 39 bf
       -3.2264392 -6.416537 -0.33101857 -0.72498983
000290 16 31 0c 3c b6 8f 56 be bc bb b8 c0 b7 27 be be
       0.008556625 -0.20953259 -5.772917 -0.37139675
0002a0 fe 04 27 3e 9d c3 85 be 39 48 5d c0 c0 2c f5 3e
       0.16310498 -0.26125804 -3.4575331 0.47885704
0002b0 3c 78 5c c0 a7 0d 9d bf 38 24 a7 c0 0d c0 db bf
       -3.4448385 -1.2269791 -5.223171 -1.7167984
0002c0 56 f3 f9 be 2e a7 a8 3e 6c cf 10 c0 fe c1 06 c0
       -0.48818463 0.32940048 -2.26266 -2.1055903
0002d0 18 d8 71 be ae 79 97 3e 41 93 2e c0 12 a0 a6 c0
       -0.2361759 0.29585022 -2.7277377 -5.20704
0002e0 58 68 ad bf a7 3b 56 bf 39 54 af bf 61 03 13 bd
       -1.3547468 -0.8368477 -1.3697578 -0.035891894
0002f0 fe 87 48 bd 5d 8c 85 c0 72 5d 96 bf 1e 02 e0 bf
       -0.048957817 -4.173384 -1.1747267 -1.7500646
000300 64 6d 34 3e 71 bf e4 c0 7e d7 eb bf f7 14 c5 bc
       0.17619854 -7.1483693 -1.8425138 -0.024057848
000310 f4 9a e1 3e 04 65 46 bf d7 e4 a6 bf 49 5f fd be
       0.44063532 -0.7749789 -1.3038586 -0.4948676
000320 91 ba d7 3e 5f 98 42 bf d6 49 08 3d 33 2c ad bf
       0.42134526 -0.7601375 0.03327354 -1.3529114
000330 f0 c2 e0 bf 3b 64 2a bf 72 95 41 bf 8c a8 b6 3d
       -1.755949 -0.6655919 -0.7561866 0.089188665
000340 5c 35 0d bf e9 1d 63 be c9 7e 07 be d1 e6 67 3f
       -0.55159545 -0.22179379 -0.13231958 0.9058657
000350 05 e1 b9 bd 6b 22 dc c0 03 21 8f c0 32 5d cc c0
       -0.09076122 -6.8792014 -4.4727798 -6.3863764
000360 01 f1 21 c0 e8 94 68 be d0 be 5e bf 83 30 15 c0
       -2.5303347 -0.22713053 -0.87009907 -2.331086
000370 7a 01 13 3e 5a b6 08 3f f8 71 88 3f fc 7f 65 c0
       0.14356032 0.53403246 1.065978 -3.5859365
000380 c1 38 d0 c0 89 1d 86 3e 84 65 c1 bf 37 bc b9 3d
       -6.506928 0.2619441 -1.5109105 0.09069102
000390 f1 8a 36 bf 78 e8 c4 be ed fe 39 bf c6 96 32 c0
       -0.7130576 -0.3845861 -0.7265461 -2.7904525
0003a0 2f 9f 85 bd 49 7b 92 c0 3f 26 c7 bd 58 9d 09 3f
       -0.065245025 -4.5775495 -0.09724092 0.5375571
0003b0 74 7e 36 c0 05 54 69 3e 9d f5 91 bf 7a 87 ca bd
       -2.851468 0.22785957 -1.140308 -0.09889121
0003c0 be 4e 78 bf ee 16 38 3f ca 58 dc 3d 67 29 4b c0
       -0.9699515 0.7190999 0.10759123 -3.174402
0003d0 57 1f 59 3f 37 9e df bf 72 24 34 c0 27 dd b5 bf
       0.84813446 -1.7470158 -2.8147244 -1.4208115
0003e0 8c 4c 8c 3e d1 32 90 bf 01 9b e4 c0 44 00 7c be
       0.2740215 -1.1265508 -7.1439214 -0.24609476
0003f0 8d b4 56 c0 ff 1f b5 c0 3f 56 c1 3f 46 4a a2 bf
       -3.35477 -5.660156 1.5104445 -1.2678916
