ckpt/sim/ncd.pt (torch, 68353 bytes, 10 tensors)

k_difficulty.weight f4 [1000, 6]
-0.05099473 0.22707205 -0.0069542127 -0.038346805 -0.105914295 0.025779633 0.017827768 0.04501976
0.03101512 -0.022334956 0.02676771 0.028347455 0.11727664 -0.032005403 -0.031015825 0.058297005
-0.047541622 0.072866224 -0.009884667 0.3477939 0.05623987 -0.07738958 0.26548985 -0.022207987
-0.025759518 0.034818374 -0.02208799 -0.05210395 0.138878 0.067748025 0.39411107 0.33049455
-0.12498559 0.30878767 -0.009836651 0.034785602 0.017367583 0.06689133 -0.018551419 -0.055675484
0.072467454 0.022789642 0.013777611 0.016910894 0.020101156 0.0070046377 -0.028588902 0.27062577
0.043058775 -0.019076688 -0.0061147586 0.026365306 0.10056646 0.06660957 0.008174376 -0.025760164
-0.08665078 0.13529284 0.112771034 0.22837271 -0.005012528 -0.0726099 -0.06697075 0.022652602
0.0039601824 -0.0072095823 -0.028431159 0.16510554 -0.026232256 -0.024495916 -0.057716046 0.32459342
-0.035639923 0.014685447 -0.035020728 0.009898065 -0.0029971618 -0.14677928 -0.08691184 -0.07111194
0.093036406 0.0008433019 -0.014118949 0.030159414 -0.050708883 0.04739072 0.020471396 -0.004938137
0.31715864 -0.02140133 -0.0023192128 0.020249704 0.17886868 0.011323335 0.067895755 0.26944575
-0.056478053 0.11782269 -0.038263932 0.06121688 -0.028333059 0.14132942 -0.030614326 0.02381178
0.080005005 -0.06120316 -0.02190176 0.008890258 0.044232115 0.05499856 0.30413353 0.09963725
-0.0049077533 0.2989795 -0.005923025 0.0021343322 -0.017660966 -0.023955433 0.16392522 0.10315936
-0.00094600214 0.12687154 -0.05454192 -0.067331575 0.11168973 0.028516244 -0.043689862 0.0021956754
0.030064138 -0.012364477 -0.044982634 0.3797253 0.06688171 -0.112051584 0.54031694 0.0017004343
0.44477627 -0.055975202 0.030605579 -0.048935816 0.02174889 -0.0014615466 0.06949987 -0.014104931
0.027193934 0.08600994 -0.04333918 0.0030508789 0.14296149 -0.0507704 0.02033527 0.061512522
-0.06729909 0.050610956 0.16181822 0.24003811 -0.021872504 -0.17800714 -0.064948134 0.034904372
0.115314975 0.009251034 -0.01757196 0.1198286 -0.050976746 -0.009414539 0.025007593 0.011798377
0.06002189 0.016648332 -0.05060671 0.29130206 -0.0019206421 0.026816232 0.008653756 0.0054367767
0.07443287 -0.027855264 -0.06974666 0.06328899 -0.0016396777 0.0072411657 -0.011759989 -0.03941166
0.08224905 0.0619439 -0.0593469 0.32143602 0.40304765 -0.03871339 -0.036288984 0.0054557067
0.35167295 0.08956036 -0.067018375 -0.026047284 0.053806633 -0.07165551 -0.043466277 0.01180328
0.19635737 -0.07950195 0.026088418 0.11310355 0.043489143 -0.07075156 0.08977074 -0.0054226643
0.011779195 0.2218359 1.182633 0.006284439 0.04816839 0.012248802 1.1835743 0.026295861
0.122713506 0.07724633 0.01983204 -0.026968362 0.1762667 -0.020174619 0.032043852 0.3530394
-0.06671424 0.046957646 -0.019391699 0.017219864 -0.10253291 0.010019172 -0.043680627 0.051694594
0.10107427 -0.07654084 0.03032148 -0.025850322 -0.0007479101 -0.021907648 0.037741464 0.08994055
0.039284695 0.010360683 0.01307125 0.053100675 0.1265315 0.102604344 -0.016928196 -0.038884647
-0.10794673 -0.019526131 0.015752176 -0.013881898 0.0049747787 -0.008037393 0.115053646 0.061060775
00000000: dadf 50bd 9385 683e 2ae0 e3bb 8a11 1dbd
00000010: 98e9 d8bd cf2f d33c 8a0b 923c a466 383d
00000020: 6c13 fe3c ccf7 b6bc f547 db3c ec38 e83c
00000030: bc2e f03d 1918 03bd e614 febc d7c8 6e3d
00000040: 01bb 42bd e33a 953d 4cf3 21bc 0b12 b23e
00000050: c75b 663d 6e7e 9ebd 49ee 873e 86ed b5bc
00000060: a005 d3bc b69d 0e3d dff1 b4bc f46a 55bd
00000070: 0936 0e3e 7abf 8a3d edc8 c93e 9536 a93e
00000080: 72f8 ffbd 6b19 9e3e e829 21bc 597b 0e3d
00000090: 7646 8e3c 52fe 883d 25f9 97bc fa0b 64bd
000000a0: d169 943d 58b1 ba3c 7dbb 613c b788 8a3c
000000b0: 2eab a43c 2987 e53b 4633 eabc 768f 8a3e
000000c0: 665e 303d b746 9cbc 505e c8bb 0efc d73c
000000d0: caf5 cd3d 996a 883d d1ed 053c fb06 d3bc
000000e0: f775 b1bd 358a 0a3e 80f4 e63d 89da 693e
000000f0: 2240 a4bb 80b4 94bd f627 89bd f391 b93c
00000100: 6bc4 813b 5c3e ecbb 76e8 e8bc 6d11 293e
00000110: 07e5 d6bc a9ab c8bc a967 6cbd 1c31 a63e
00000120: 2bfb 11bd 3b9b 703c e571 0fbd 7e2b 223c
00000130: 086c 44bb 4f4d 16be d6fe b1bd 23a3 91bd
00000140: df89 be3d 0811 5d3a 2a53 67bc e010 f73c
00000150: 1eb4 4fbd c61c 423d a1b3 a73c 18d0 a1bb
00000160: 9e62 a23e d851 afbc effd 17bb b5e2 a53c
00000170: 5a29 373e 8285 393c ee0c 8b3d cbf4 893e
00000180: 8855 67bd 064d f13d a4ba 1cbd 8dbe 7a3d
00000190: bb1a e8bc a9b8 103e e5ca fabc ec10 c33c
000001a0: aad9 a33d 2ab0 7abd 526b b3bc 72a8 113c
000001b0: bc2c 353d 2c46 613d 64b7 9b3e 9d0e cc3d
000001c0: 38d1 a0bb d713 993e ef15 c2bb 27e0 0b3b
000001d0: bbad 90bc 2f3e c4bc 03dc 273e 3745 d33d
000001e0: 21fd 77ba 9dea 013e 5967 5fbd 23e5 89bd
000001f0: 96bd e43d e69a e93c 24f4 32bd 52e5 0f3b
00000200: 1149 f63c 6094 4abc b63f 38bd 5b6b c23e
00000210: 47f9 883d 4d7b e5bd 3652 0a3f 1be1 de3a
00000220: b7b9 e33e 4146 65bd 8db8 fa3c ec70 48bd
00000230: ba2a b23c 5e91 bfba f355 8e3d 5e18 67bc
00000240: d0c5 de3c fb25 b03d 6d84 31bd 41f1 473b
00000250: 7f64 123e 9ff4 4fbd 2796 a63c 8ef4 7b3d
00000260: 1bd4 89bd 6f4d 4f3d adb3 253e 8dcc 753e
00000270: f72d b3bc 8147 36be 8703 85bd e3f7 0e3d
00000280: 422a ec3d a691 173c 12f3 8fbc b268 f53d
00000290: fecc 50bd 703f 1abc b9dc cc3c fb4d 413c
000002a0: 83d9 753d 1562 883c fb48 4fbd 8b25 953e
000002b0: 0ebe fbba b7ad db3c 7cc8 0d3c fd26 b23b
000002c0: 4370 983d b930 e4bc 56d7 8ebd a89d 813d
000002d0: 74ea d6ba 4d47 ed3b f8ac 40bc 1f6e 21bd
000002e0: 3172 a83d e3b8 7d3d bc15 73bd 4393 a43e
000002f0: 435c ce3e ee91 1ebd c2a3 14bd c9c5 b23b
00000300: 7a0e b43e 6c6b b73d ee40 89bd 1d61 d5bc
00000310: 5864 5c3d 20c0 92bd b209 32bd 8b62 413c
00000320: e811 493e ebd1 a2bd 61b7 d53c d6a2 e73d
00000330: ac21 323d 32e6 90bd b9d9 b73d 9bb0 b1bb
00000340: 86fd 403c f328 633e 8560 973f b2ed cd3b
00000350: 384c 453d 33af 483c 5d7f 973f 6b6a d73c
00000360: 3851 fb3d 5333 9e3d cd76 a23c c1ec dcbc
00000370: 427f 343e 3e45 a5bc 6a40 033d 95c1 b43e
00000380: 7aa1 88bd a956 403d 57db 9ebc ac10 8d3c
00000390: c6fc d1bd 7427 243c 75ea 32bd b6bd 533d
000003a0: 0700 cf3d 72c1 9cbd c164 f83c 0ec4 d3bc
000003b0: 660f 44ba ab77 b3bc cb96 1a3d c032 b83d
000003c0: fde8 203d dbbf 293c cc28 563c 1880 593d
000003d0: 7991 013e 3a22 d23d 00ad 8abc 8245 1fbd
000003e0: 2d13 ddbd 44f5 9fbc b50a 813c e670 63bc
000003f0: 7803 a33b 45af 03bc 3fa1 eb3d dd1a 7a3d

e_discrimination.weight f4 [1000, 1]
3.6658773 1.0333376 0.8227631 2.977586 0.4966394 -0.01000618 1.2910873 -0.8898213
-0.26576763 0.615709 2.397465 1.2425994 1.7020262 -1.0409298 3.779046 -1.4793704
0.10626313 0.7788934 -1.5666378 1.9240409 -0.5752562 0.42628974 -2.4638298 -1.4643143
-0.91419697 1.0659949 4.623866 -1.198035 2.3564034 -0.1294073 1.7654033 1.180285
-1.3419684 -0.50987893 -0.48057163 -0.8176204 2.428711 3.7887316 -0.75884986 0.10356987
2.7983778 -0.5494725 0.010274813 2.4688196 -0.16842516 3.3061547 0.6673437 2.2023711
0.45976067 0.9637076 -1.1077617 0.50766355 -1.1897293 3.3627467 -0.65392566 -0.96926767
-0.5436178 -1.4340619 -0.14299145 2.1424372 3.177607 3.7608757 2.47723 2.1698518
3.4972475 1.8600733 3.0448647 0.71670175 2.3365273 1.9408222 1.1302857 0.1151549
0.07252751 3.666409 0.8762107 -0.9515313 0.19423696 0.1618932 0.61900634 -0.12081161
1.4370314 0.9440414 -0.28253198 0.24688981 0.26106128 3.1601033 0.011630044 2.2200506
0.57359904 -0.070643194 -0.79426473 -1.0001513 1.1042595 2.2314558 0.65658075 0.24998201
0.7245914 0.82881373 -1.0141141 0.6545105 2.3053238 -2.78294 0.015356631 -0.097299844
2.5637789 0.72834176 -0.35987592 -0.015281194 -1.518539 2.8676527 0.63100505 -0.008880721
-1.0123222 -2.0393264 1.420407 -0.24838848 -2.0075185 3.1432226 0.40488905 1.0753139
-0.62584394 -0.06216676 0.1297704 2.1931574 1.3950775 2.1510568 -1.4657558 1.6336432
1.5228554 -0.6967537 1.4584903 1.9095619 -1.4382406 1.9273555 -0.82226115 0.27505296
1.7171081 1.3164141 0.59225506 1.2444698 0.28257945 0.9685584 0.8445713 0.2988186
-0.66890854 0.71482044 4.292492e-06 3.840774 -2.6388402 3.6556034 1.4421322 1.7396461
2.727976 2.211831 2.795178 -0.058983862 0.78712046 -0.8490289 2.6519382 -0.31692877
-3.295885 1.5055878 0.94199926 2.103983 3.5373788 1.3510072 1.2549753 3.2507598
-2.5385826 2.8686237 -0.6460265 -0.6333338 -0.99280083 0.36303443 0.062008027 1.7326906
-1.0169181 1.1505003 2.780047 1.4562299 0.65232325 -1.1590979 1.8878052 0.62177277
3.3719869 -0.8764013 0.8239405 1.283429 0.09939187 0.32152212 0.087569945 0.16773586
1.1504735 0.18862116 1.0735672 0.3062836 2.0824673 2.7782505 1.1492723 -0.84170216
0.3690798 2.1846125 1.0127192 -0.18810889 -1.0897701 -0.060748316 0.2601495 0.9960964
2.4572945 1.7460215 3.6035283 1.4574479 1.9516482 1.4045981 -0.23988664 1.869981
-2.098994 1.8223923 1.0880935 1.7508732 1.3351985 0.36050907 1.634941 0.43838012
1.1434636 2.4449217 1.812231 0.80331177 1.8939569 0.7469378 1.6374632 2.573319
3.6452537 2.7504277 0.47250438 -0.08410612 2.8502176 0.6381695 3.4513261 1.7780237
0.6803144 -0.49730766 -0.4756224 3.174303 0.03872406 3.5726128 2.1171157 1.3757491
1.4608963 1.9101071 2.4761598 -0.7054002 -3.4356482 0.62133396 0.48069245 0.87058383
00000000: bc9d 6a40 6844 843f 9aa0 523f c590 3e40
00000010: 8547 fe3e f6f0 23bc 5942 a53f 54cb 63bf
00000020: b212 88be 1b9f 1d3f 1170 1940 7f0d 9f3f
00000030: ffdb d93f 303d 85bf e4db 7140 025c bdbf
00000040: 7ca0 d93d 8f65 473f 9687 c8bf f946 f63f
00000050: fe43 13bf a642 da3e 63af 1dc0 a76e bbbf
00000060: d008 6abf 8572 883f b6f6 9340 3659 99bf
00000070: 50cf 1640 5983 04be bcf8 e13f 9413 973f
00000080: 9fc5 abbf 6d87 02bf 7c0d f6be 924f 51bf
00000090: 0070 1b40 947a 7240 fc43 42bf 711c d43d
000000a0: 9f18 3340 3baa 0cbf b057 283c 2401 1e40
000000b0: a577 2cbe 0a98 5340 09d7 2a3f a6f3 0c40
000000c0: c065 eb3e 8bb5 763f 23cb 8dbf 3df6 013f
000000d0: 0d49 98bf 3e37 5740 ac67 27bf ed21 78bf
000000e0: 892a 0bbf 578f b7bf 5a6c 12be b11d 0940
000000f0: ea5d 4b40 30b2 7040 f08a 1e40 dade 0a40
00000100: e7d2 5f40 e216 ee3f 10df 4240 c479 373f
00000110: aa89 1540 dd6c f83f 34ad 903f 55d6 eb3d
00000120: 4e89 943d 72a6 6a40 584f 603f 8e97 73bf
00000130: 0ee6 463e 55c7 253e 3377 1e3f 146c f7bd
00000140: a5f0 b73f b2ac 713f 08a8 90be afd0 7c3e
00000150: d3a9 853e 223f 4a40 f18b 3e3c 4f15 0e40
00000160: 63d7 123f 61ad 90bd ef54 4bbf f504 80bf
00000170: 6058 8d3f 2cd0 0e40 ad15 283f 49fb 7f3e
00000180: d27e 393f 232d 543f 7ece 81bf 008e 273f
00000190: 6d8a 1340 b01b 32c0 619a 7b3c 2445 c7bd
000001a0: f414 2440 9b74 3a3f a841 b8be f95d 7abc
000001b0: 7c5f c2bf 9f87 3740 8c89 213f 7280 11bc
000001c0: c693 81bf 5384 02c0 e6cf b53f 8d59 7ebe
000001d0: 2f7b 00c0 8f2a 4940 9e4d cf3e e3a3 893f
000001e0: 4f37 20bf 93a2 7ebd 88e2 043e b15c 0c40
000001f0: e691 b23f eaaa 0940 e39d bbbf 381b d13f
00000200: edec c23f 735e 32bf cfaf ba3f 866c f43f
00000210: 4518 b8bf 96b3 f63f b57f 52bf bed3 8c3e
00000220: 33ca db3f 4280 a83f 079e 173f c94a 9f3f
00000230: 41ae 903e 71f3 773f d335 583f c0fe 983e
00000240: 973d 2bbf 79fe 363f 3a08 9036 3ecf 7540
00000250: c2e2 28c0 68f5 6940 ca97 b83f b9ac de3f
00000260: 2997 2e40 a48e 0d40 32e4 3240 1099 71bd
00000270: ba80 493f f559 59bf 5bb9 2940 7d44 a2be
00000280: c8ef 52c0 1ab7 c03f dd26 713f a8a7 0640
00000290: 6a64 6240 ceed ac3f 08a3 a03f 730c 5040
000002a0: 2378 22c0 8897 3740 fe61 25bf 2a22 22bf
000002b0: 3228 7ebf a6df b93e 21fc 7d3d cec8 dd3f
000002c0: 5f2a 82bf 9843 933f 4aec 3140 be65 ba3f
000002d0: a8fe 263f 525d 94bf 9aa3 f13f 802c 1f3f
000002e0: a2ce 5740 d65b 60bf c4ed 523f 6747 a43f
000002f0: f78d cb3d 8c9e a43e df57 b33d f3c2 2b3e
00000300: b742 933f e825 413e a66a 893f 34d1 9c3e
00000310: 2547 0540 dbce 3140 5b1b 933f cb79 57bf
00000320: 07f8 bc3e b1d0 0b40 c8a0 813f 9e9f 40be
00000330: 967d 8bbf 3ad3 78bd 5132 853e 2c00 7f3f
00000340: 5044 1d40 a27d df3f 35a0 6640 a78d ba3f
00000350: 9ccf f93f dfc9 b33f d8a4 75be 8a5b ef3f
00000360: eb55 06c0 2744 e93f a646 8b3f 9d1c e03f
00000370: c9e7 aa3f a594 b83e bf45 d13f 5c73 e03e
00000380: 045d 923f 9979 1c40 2ff7 e73f d7a5 4d3f
00000390: 2e6d f23f 5137 3f3f 6598 d13f 42b1 2440
000003a0: d64b 6940 0207 3040 18ec f13e d43f acbd
000003b0: f769 3640 145f 233f 87e2 5c40 4896 e33f
000003c0: 1629 2e3f 1c9f febe c784 f3be c827 4b40
000003d0: 1f9d 1e3d b0a5 6440 d37e 0740 8c18 b03f
000003e0: a6fe ba3f 647e f43f 6779 1e40 1c95 34bf
000003f0: a9e1 5bc0 be0f 1f3f 521d f63e 95de 5e3f

prednet_full1.weight f4 [128, 6]
1.5647135 1.585646 1.4907523 1.589662 1.5642357 1.6257092 2.0881324 2.1697786
1.9986188 2.3234203 2.0268698 2.006696 1.9969885 2.037962 2.0200417 2.0648365
1.9255015 1.8706181 1.6018711 1.6572772 1.6816013 1.7152774 1.7347713 1.6252611
1.5079421 1.6667426 1.602613 1.5070276 1.5325044 1.6309775 1.6396456 1.8256185
1.6177224 1.601204 1.626183 1.6657559 1.1394856 1.4263424 1.4042501 0.7842345
1.1706238 1.4401551 1.7526083 1.8875244 1.7318355 1.9114846 1.6791377 1.6827462
1.6511328 1.9696635 1.831753 2.0110996 1.8179005 1.8071624 1.579229 1.6652743
1.523608 1.7620574 1.6004882 1.6188917 1.4116696 1.627749 1.5026541 1.184686
1.4261134 1.6340972 1.6443843 1.9530606 2.2881446 1.9061924 2.1793108 1.8041819
2.0413759 2.1160018 2.068202 2.2577486 1.9477516 1.97036 1.4503368 1.6059694
1.586635 1.3955439 1.448813 1.5991942 1.4329946 1.4765577 1.474447 1.3509716
1.4763132 1.4351863 1.6340207 1.7842276 1.5836388 1.6033652 1.6866785 1.6658559
1.3794847 1.4544125 1.4723246 0.98858154 1.166511 1.4357233 1.223279 1.371605
1.3266269 1.06764 1.3434668 1.4771287 1.4736369 1.6446182 1.581548 1.3840004
1.5286471 1.7140161 1.5167491 1.6972442 1.581463 1.6393665 1.6116507 1.5910581
1.9498183 1.9847083 1.7963941 1.9881315 1.82033 1.8430666 1.6095102 1.6465302
1.6758599 1.6654513 1.5881553 1.6583071 1.69693 1.848003 1.8914895 1.8617548
1.6482353 1.6409385 1.5101464 1.6706486 1.60943 1.5128686 1.6297835 1.5670987
1.9733384 1.9606026 1.8084973 2.0368195 1.9939631 1.8536398 1.7069045 1.6059442
1.8648785 1.7025243 1.5390775 1.5778736 1.646664 1.696828 1.6518028 1.761049
1.5975554 1.6266966 1.6264033 1.7979022 1.8862954 1.8268046 1.7141161 1.6418283
1.46542 1.611499 1.8276409 1.8142729 1.6560142 1.5685256 1.7770061 1.8630517
1.7387531 1.8957783 1.7962635 1.7240314 2.0414584 2.1318746 2.0043316 2.2613509
2.1165085 1.9496179 1.2054545 1.5369837 1.4360497 0.96553826 1.3294119 1.4716431
1.6157359 1.603487 1.566319 1.4820217 1.636445 1.4352493 1.9131912 2.0653088
1.9175862 2.125078 1.9956897 1.9973077 1.3545958 1.5552406 1.4730663 1.3408244
1.3454856 1.5193957 1.458549 1.6903261 1.4817382 1.1903975 1.3475615 1.5797567
1.6312444 1.6488156 1.6954222 1.6899809 1.5361495 1.6612916 1.9953071 2.035948
1.9533046 2.1597478 1.9452745 1.8973382 1.9732811 2.0199044 1.9238018 1.7932096
1.9649185 1.9037541 2.0312269 2.1263483 2.1263509 2.2995608 2.2432199 2.0700245
1.5370736 1.7848241 1.8175952 1.828654 1.6156301 1.7747967 2.07824 2.1654322
2.2315335 2.3747873 2.19695 2.0012734 1.4325199 1.5098037 1.6751728 1.523577
00000000: 8848 c83f 73f6 ca3f f9d0 be3f 0b7a cb3f
00000010: e038 c83f 3d17 d03f f6a3 0540 a7dd 0a40
00000020: bed2 ff3f ebb2 1440 3cb8 0140 b56d 0040
00000030: 529d ff3f f86d 0240 5d48 0140 4826 0440
00000040: d576 f63f 6a70 ef3f 1d0a cd3f a921 d43f
00000050: b63e d73f 368e db3f fc0c de3f 8e08 d03f
00000060: 3f04 c13f d257 d53f 6c22 cd3f 48e6 c03f
00000070: 1b29 c43f dfc3 d03f e8df d13f dead e93f
00000080: 8711 cf3f 41f4 cc3f c426 d03f 7d37 d53f
00000090: aada 913f 6392 b63f 78be b33f 98c3 483f
000000a0: 00d7 953f 0157 b83f 7855 e03f 669a f13f
000000b0: c9ac dd3f 87ab f43f fced d63f 3a64 d73f
000000c0: 5258 d33f ef1d fc3f e276 ea3f dbb5 0040
000000d0: f7b0 e83f 1951 e73f 2d24 ca3f b527 d53f
000000e0: 9605 c33f 198b e13f ccdc cc3f d837 cf3f
000000f0: 97b1 b43f 145a d03f f856 c03f caa3 973f
00000100: e28a b63f 192a d13f 2f7b d23f e4fd f93f
00000110: f670 1240 1dfe f33f d479 0b40 6fef e63f
00000120: e7a5 0240 936c 0740 6c5d 0440 f47e 1040
00000130: ed4f f93f c234 fc3f a3a4 b93f 6890 cd3f
00000140: db16 cb3f 2fa1 b23f b472 b93f 65b2 cc3f
00000150: 5e6c b73f d8ff bc3f aeba bc3f a3ec ac3f
00000160: d5f7 bc3f 2fb4 b73f 9727 d13f 9261 e43f
00000170: adb4 ca3f 123b cd3f 15e5 d73f c43a d53f
00000180: f492 b03f 302a ba3f 2275 bc3f ae13 7d3f
00000190: 3c50 953f c8c5 b73f 6894 9c3f c190 af3f
000001a0: e9ce a93f 6da8 883f b8f6 ab3f 8e12 bd3f
000001b0: 22a0 bc3f d982 d23f 2a70 ca3f ed26 b13f
000001c0: b5aa c33f e164 db3f d624 c23f 4c3f d93f
000001d0: 616d ca3f c3d6 d13f 924a ce3f cba7 cb3f
000001e0: a593 f93f ec0a fe3f 3ef0 e53f 187b fe3f
000001f0: 9300 e93f 9be9 eb3f 6e04 ce3f 80c1 d23f
00000200: 9482 d63f 822d d53f ac48 cb3f 6843 d43f
00000210: 0135 d93f 5d8b ec3f 541c f23f fb4d ee3f
00000220: 60f9 d23f 460a d23f 7a4c c13f d0d7 d53f
00000230: cd01 ce3f aea5 c13f bf9c d03f b196 c83f
00000240: 5a96 fc3f 07f5 fa3f d77c e73f 405b 0240
00000250: 2f3a ff3f 1244 ed3f d97b da3f 948f cd3f
00000260: 57b4 ee3f 51ec d93f 7e00 c53f c3f7 c93f
00000270: e3c5 d23f a931 d93f 466e d33f 0e6a e13f
00000280: b27c cc3f 9837 d03f fc2d d03f a921 e63f
00000290: 2172 f13f bcd4 e93f 2868 db3f 6e27 d23f
000002a0: e292 bb3f 9945 ce3f 23f0 e93f 183a e83f
000002b0: 46f8 d33f 72c5 c83f f074 e33f 7a78 ee3f
000002c0: 768f de3f dda8 f23f f6eb e53f 10ad dc3f
000002d0: 41a7 0240 a270 0840 f846 0040 f9b9 1040
000002e0: e074 0740 148d f93f 554c 9a3f e2bb c43f
000002f0: 7ad0 b73f 842d 773f 2b2a aa3f cd5e bc3f
00000300: 6fd0 ce3f 103f cd3f 247d c83f e3b2 bd3f
00000310: 0877 d13f 40b6 b73f 73e3 f43f 052e 0440
00000320: 7773 f53f 4701 0840 c372 ff3f c7a7 ff3f
00000330: 6563 ad3f 2012 c73f 708d bc3f 22a0 ab3f
00000340: df38 ac3f 8f7b c23f bcb1 ba3f 9b5c d83f
00000350: 99a9 bd3f f25e 983f e57c ac3f 7835 ca3f
00000360: 9ecc d03f 640c d33f 9803 d93f 4b51 d83f
00000370: 8ca0 c43f 34a5 d43f 3966 ff3f f94c 0240
00000380: e305 fa3f 4f39 0a40 c1fe f83f fadb f23f
00000390: 7a94 fc3f 1d46 0140 233f f63f e487 e53f
000003a0: 7382 fb3f 37ae f33f 9fff 0140 1716 0840
000003b0: 2216 0840 012c 1340 ea90 0f40 487b 0440
000003c0: d4be c43f 1e75 e43f f6a6 e83f 5611 ea3f
000003d0: f8cc ce3f 8a2c e33f e201 0540 7196 0a40
000003e0: 72d1 0e40 84fc 1740 d49a 0c40 dd14 0040
000003f0: d05c b73f 3f41 c13f 106c d63f 9204 c33f

prednet_full1.bias f4 [128]
-0.4623237 0.6440934 -0.7446709 -0.9967101 -0.33526102 0.047802333 -0.81050634 -0.32064444
-0.15034232 -1.241172 -0.07252699 -2.5938416 0.70572364 0.16318144 -0.84518355 0.09690036
-0.29905924 -0.8680341 0.10444338 -0.29477867 0.3563743 -0.5304035 -2.576203 -0.8711009
0.14866559 -2.5077236 -0.20684023 -2.0788567 -1.8669052 -0.12946269 -0.047859084 -0.0058680004
-0.5921322 0.56331277 -0.54014224 0.008596313 -0.5463625 -0.098342665 0.45986938 -0.3741346
-0.4666035 -0.18199602 -1.5637007 -1.10596 -0.3200223 -0.17237546 -2.3721638 -0.47522828
-2.2544768 0.09623589 0.2590229 -0.9483141 -0.64680225 -1.1023835 -2.658676 -0.23587954
0.26660857 -0.24287765 -1.227407 -0.020291701 -0.06391872 -0.35889062 -1.7000234 -0.6065692
-2.2021666 -0.7747904 0.16912629 0.5789018 -1.9267778 0.31458476 -0.20149185 -2.4720051
-0.6961515 0.18440624 -1.5107859 -0.4162234 -1.9035335 -0.2268055 0.1530724 0.27268282
-2.2097936 -1.3213356 -0.8944713 0.010213425 -0.78570825 0.084462166 -0.008085401 0.21112837
-0.17847677 0.6082585 -1.1149545 0.08959623 -0.9158235 -2.6666405 -0.4746251 0.103995614
-0.11016429 -0.066474356 -0.004322054 -0.40404624 -1.1534694 -2.0604823 -1.0885062 -0.9874241
-0.7363392 -0.71796876 0.46425787 -2.996479 0.33433026 0.2723568 -2.818663 -2.6854727
-2.261277 0.7052083 -1.4261062 -1.5877655 0.1922497 0.13309044 -2.2851608 -1.0859475
-1.2798129 -0.43199232 -0.6090432 0.7343511 -0.18794829 0.153746 0.16984412 0.48673686
00000000: b1b5 ecbe 4ee3 243f c1a2 3ebf 6528 7fbf
00000010: 55a7 abbe 61cc 433d 587d 4fbf 822b a4be
00000020: 56f3 19be b9de 9ebf 0889 94bd 8001 26c0
00000030: 4eaa 343f 0919 273e f35d 58bf b273 c63d
00000040: 4b1e 99be 7c37 5ebf 69e6 d53d 3bed 96be
00000050: b176 b63e 86c8 07bf 83e0 24c0 7800 5fbf
00000060: cb3b 183e 8b7e 20c0 edcd 53be fd0b 05c0
00000070: c0f6 eebf de91 04be e307 44bd 5b48 c0bb
00000080: fa95 17bf 4435 103f c346 0abf 8dd7 0c3c
00000090: 6ade 0bbf e167 c9bd 0074 eb3e 928e bfbe
000000a0: a7e6 eebe 2a5d 3abe 5827 c8bf 1990 8dbf
000000b0: f7d9 a3be 3183 30be 88d1 17c0 1f51 f3be
000000c0: 5949 10c0 5317 c53d a69e 843e b6c4 72bf
000000d0: d594 25bf e71a 8dbf bf27 2ac0 688a 71be
000000e0: eb80 883e ebb4 78be ac1b 9dbf c83a a6bc
000000f0: d1e7 82bd 83c0 b7be 5e9a d9bf 1e48 1bbf
00000100: 4cf0 0cc0 aa58 46bf 712f 2d3e e932 143f
00000110: a8a0 f6bf 4111 a13e e153 4ebe 5535 1ec0
00000120: fc36 32bf fdd4 3c3e 6f61 c1bf 3c1b d5be
00000130: fca6 f3bf b33f 68be 03bf 1c3e 159d 8b3e
00000140: 426d 0dc0 8621 a9bf 12fc 64bf 3656 273c
00000150: 2d24 49bf 80fa ac3d a178 04bc 0932 583e
00000160: 9dc2 36be d4b6 1b3f d4b6 8ebf 3a7e b73d
00000170: 6973 6abf 3daa 2ac0 1002 f3be a7fb d43d
00000180: d19d e1bd b523 88bd 04a0 8dbb 26df cebe
00000190: e3a4 93bf f1de 03c0 2c54 8bbf d3c7 7cbf
000001a0: ba80 3cbf cdcc 37bf 35b3 ed3e 50c6 3fc0
000001b0: 562d ab3e 5a72 8b3e f964 34c0 c9de 2bc0
000001c0: c3b8 10c0 8888 343f a68a b6bf e63b cbbf
000001d0: 1bdd 443e dc48 083e 1340 12c0 5400 8bbf
000001e0: e9d0 a3bf 192e ddbe 41ea 1bbf 6ffe 3b3f
000001f0: 8475 40be 976f 1d3e 9eeb 2d3e 9335 f93e

prednet_full2.weight f4 [64, 128]
0.56148046 0.51548284 0.340206 0.40455553 0.47988737 0.39750224 0.37816226 0.47866085
0.41217294 0.36874425 0.42565584 0.098675475 0.54675066 0.6334529 0.35310015 0.35830274
0.43612894 0.3329437 0.39445597 0.4441166 0.38915065 0.403938 0.18271635 0.3399336
0.40816423 0.18829067 0.4516997 0.22071588 0.28203732 0.3964728 0.43791413 0.26709464
0.40367264 0.5239346 0.4571423 0.39787498 0.36845836 0.563455 0.6539101 0.44611582
0.3892769 0.38957822 0.27621642 0.34770176 0.40846005 0.5251647 0.19178346 0.46629712
0.17214839 0.47575718 0.44434384 0.27986282 0.42627165 0.3215403 0.16806439 0.4871008
0.4688922 0.55661786 0.30933273 0.38685212 0.3024432 0.38205063 0.33020666 0.51359844
0.2409981 0.46538118 0.37287664 0.6444178 0.23602293 0.49307752 0.53372747 0.16948068
0.5043206 0.34118798 0.52994615 0.4369894 0.20351002 0.4059372 0.44099048 0.5464879
0.19488862 0.44215918 0.2898792 0.46969524 0.3553584 0.5419692 0.31382707 0.41551337
0.4486025 0.49015117 0.44418806 0.46426186 0.36125523 0.17802286 0.50337374 0.3479515
0.5835183 0.47383356 0.6188454 0.40074348 0.38935477 0.30704054 0.31773147 0.28661555
0.307628 0.3958525 0.51541287 0.11639953 0.48365048 0.5121842 0.15923204 0.18355615
0.25309235 0.40960735 0.4068894 0.42718855 0.32385013 0.42370716 0.2570641 0.42677346
0.29299623 0.37397215 0.4176559 0.45514423 0.54178107 0.54024136 0.30915874 0.52639174
0.28165814 0.30256242 0.3075951 0.24331918 0.41171658 0.27422336 0.1375055 0.17843725
0.20658013 0.20892668 0.26009297 0.1205626 0.33124378 0.23251137 0.25306883 0.24024865
0.23008677 0.27292323 0.18811665 0.25302875 0.30934894 0.22545372 0.2985188 0.19371833
0.29879403 0.122038975 0.30410987 0.17006887 0.16974466 0.2953423 0.1899207 0.12028254
0.18067689 0.35765833 0.2730821 0.22874928 0.21461962 0.21865201 0.29896078 0.29568323
0.19878808 0.21560453 0.23651858 0.17054099 0.23359236 0.34850305 0.11820919 0.31275788
0.12709154 0.22631298 0.2585049 0.2252167 0.25033697 0.26783833 0.15062612 0.26880205
0.2232278 0.2742755 0.19806248 0.22994857 0.18511437 0.18599112 0.29159033 0.28747767
0.16101283 0.30288967 0.23473424 0.37903538 0.15930253 0.22003199 0.31283903 0.2753836
0.33107004 0.15147555 0.24276337 0.19351 0.1731626 0.26318756 0.2460686 0.28185013
0.13611549 0.25941175 0.3643173 0.24341214 0.33491486 0.30617303 0.19415028 0.22191034
0.26947397 0.27374813 0.23868072 0.27597794 0.19478258 0.14399521 0.29062974 0.2683149
0.3539566 0.2218199 0.41265544 0.30384585 0.28070527 0.23005979 0.3035164 0.2013394
0.13260716 0.19854815 0.22548108 0.10317742 0.20702662 0.42392638 0.13594618 0.15884846
0.24050301 0.49088803 0.22053091 0.29650596 0.20787153 0.3249501 0.27591106 0.26564223
0.25847015 0.21760449 0.30300495 0.28474805 0.14751944 0.2964407 0.21418963 0.2402147
00000000: 2fbd 0f3f aff6 033f 7b2f ae3e e721 cf3e
00000010: ccb3 f53e 6a85 cb3e 7c9e c13e 0913 f53e
00000020: 5508 d33e 0ccc bc3e 90ef d93e 5e16 ca3d
00000030: daf7 0b3f f829 223f 8bc9 b43e 7573 b73e
00000040: 4b4c df3e 9977 aa3e 22f6 c93e 4063 e33e
00000050: c13e c73e f6d0 ce3e ff19 3b3e c70b ae3e
00000060: e7fa d03e 45cf 403e 2f45 e73e 5803 623e
00000070: 3267 903e 7cfe ca3e 4836 e03e a1c0 883e
00000080: 2eae ce3e 9420 063f 8e0e ea3e 45b6 cb3e
00000090: 93a6 bc3e 963e 103f a766 273f 4b69 e43e
000000a0: 4d4f c73e cc76 c73e 3d6c 8d3e f705 b23e
000000b0: ad21 d13e 3271 063f e262 443e 7fbe ee3e
000000c0: ab47 303e 7296 f33e 0981 e33e 2e4a 8f3e
000000d0: 4740 da3e eea0 a43e 1219 2c3e 4765 f93e
000000e0: a312 f03e 827e 0e3f dc60 9e3e 7b11 c63e
000000f0: d6d9 9a3e 249c c33e d910 a93e 307b 033f
00000100: 35c8 763e 7146 ee3e b0e9 be3e 91f8 243f
00000110: ffaf 713e a874 fc3e 5da2 083f 588c 2d3e
00000120: 281b 013f 31b0 ae3e 8daa 073f 13bd df3e
00000130: ee64 503e 00d7 cf3e 81c9 e13e a2e6 0b3f
00000140: e290 473e b062 e23e 0c6b 943e e57b f03e
00000150: 89f1 b53e 7ebe 0a3f f1ad a03e 2bbe d43e
00000160: 3aaf e53e 18f5 fa3e 9e6c e33e bbb3 ed3e
00000170: 72f6 b83e a04b 363e 1add 003f b326 b23e
00000180: 7561 153f 509a f23e a76c 1e3f 402e cd3e
00000190: 8259 c73e 6b34 9d3e b3ad a23e 46bf 923e
000001a0: 6b81 9d3e 2ead ca3e 19f2 033f e062 ee3d
000001b0: 09a1 f73e 811e 033f b90d 233e 25f6 3b3e
000001c0: 5295 813e 0eb8 d13e cf53 d03e 75b8 da3e
000001d0: afcf a53e 25f0 d83e e89d 833e 0d82 da3e
000001e0: 9a03 963e 4779 bf3e fed6 d53e aa08 e93e
000001f0: 2ab2 0a3f 424d 0a3f 0e4a 9e3e 9cc1 063f
00000200: 7f35 903e 76e9 9a3e 1b7d 9d3e aa28 793e
00000210: 84cc d23e 0167 8c3e 3ece 0c3e 41b8 363e
00000220: be89 533e e0f0 553e e82a 853e 86e9 f63d
00000230: c998 a93e 7617 6e3e 3d92 813e be03 763e
00000240: de9b 6b3e 98bc 8b3e a7a1 403e fc8c 813e
00000250: fc62 9e3e 57dd 663e 75d7 983e 195e 463e
00000260: 88fb 983e 92ef f93d 4ab4 9b3e 8926 2e3e
00000270: 8bd1 2d3e 1b37 973e 927a 423e b156 f63d
00000280: 5d03 393e fe1e b73e 6bd1 8b3e 403d 6a3e
00000290: 3fc5 5b3e 50e6 5f3e 6311 993e cb63 973e
000002a0: 1a8f 4b3e 6fc7 5c3e ed31 723e 4ca2 2e3e
000002b0: d632 6f3e fe6e b23e a917 f23d cd21 a03e
000002c0: 4924 023e 97be 673e c15a 843e 359f 663e
000002d0: 2b2c 803e 1b22 893e bc3d 1a3e 6ca0 893e
000002e0: d495 643e d76d 8c3e e4d0 4a3e a377 6b3e
000002f0: 9f8e 3d3e 7574 3e3e 544b 953e 4630 933e
00000300: 8ce0 243e 5b14 9b3e 2c5e 703e ed10 c23e
00000310: 3420 233e 1150 613e 702c a03e 14ff 8c3e
00000320: 0382 a93e 681c 1b3e f696 783e 7c27 463e
00000330: 8951 313e 85c0 863e 68f9 7b3e a94e 903e
00000340: dc61 0b3e 9ed1 843e cc87 ba3e 0841 793e
00000350: f679 ab3e b6c2 9c3e 55cf 463e 773c 633e
00000360: 7ef8 893e b728 8c3e b868 743e fb4c 8d3e
00000370: 1675 473e 7b73 133e 6ccd 943e 9260 893e
00000380: cd39 b53e c224 633e 9347 d33e af91 9b3e
00000390: 9ab8 8f3e cb94 6b3e 8066 9b3e ea2b 4e3e
000003a0: 2cca 073e 3550 4b3e 83e4 663e af4e d33d
000003b0: c9fe 533e e10c d93e 7a35 0b3e 2ca9 223e
000003c0: 6c46 763e ad55 fb3e dbd2 613e a1cf 973e
000003d0: 46dc 543e dc5f a63e 3744 8d3e 4202 883e
000003e0: 3356 843e b6d3 5e3e 7723 9b3e 7fca 913e
000003f0: 560f 173e 13c7 973e 8754 5b3e d8fa 753e

prednet_full2.bias f4 [64]
-3.297519 -3.0318527 -3.2039082 -2.520772 -0.88701624 -3.4941504 -2.9515138 -3.9797692
-4.198778 -3.399075 -3.2704647 -4.0760717 -2.7132704 -4.0695686 -2.4870899 -3.382789
-3.9975455 -2.199423 -3.9204628 -1.786916 -2.957587 -1.9510995 -3.4498537 -2.6554184
-3.6378536 -3.9527957 -1.1503922 -3.6491995 -2.4172473 -2.079015 -0.33373567 -1.2007612
-2.457926 -3.0688617 -3.4826844 -3.0590796 -1.6186297 -2.056782 -1.3752698 -2.3780322
-3.2941568 -3.4495177 -2.2791426 -3.5342615 -1.5175962 -3.5109508 -3.554631 -4.150339
-2.326424 -4.121012 -3.4480684 -0.21480362 -1.4760939 -3.0439458 -2.674205 -2.3703218
-0.2897763 -4.0101647 -0.50356895 -0.936873 -2.2034695 -0.9024709 -2.0538645 -0.8650396
00000000: 8d0a 53c0 e009 42c0 d50c 4dc0 5454 21c0
00000010: 7f13 63bf 29a0 5fc0 9ae5 3cc0 8ab4 7ec0
00000020: 645c 86c0 728a 59c0 4b4f 51c0 2e6f 82c0
00000030: 39a6 2dc0 e839 82c0 7b2c 1fc0 9d7f 58c0
00000040: c9d7 7fc0 59c3 0cc0 dde8 7ac0 aab9 e4bf
00000050: 1b49 3dc0 a1bd f9bf 67ca 5cc0 60f2 29c0
00000060: 98d2 68c0 9bfa 7cc0 0d40 93bf 7c8c 69c0
00000070: 2eb4 1ac0 950e 05c0 67df aabe 8bb2 99bf
00000080: a94e 1dc0 3b68 44c0 4de4 5ec0 f6c7 43c0
00000090: 422f cfbf 51a2 03c0 d708 b0bf ae31 18c0
000000a0: 77d3 52c0 e6c4 5cc0 79dd 11c0 5731 62c0
000000b0: 9840 c2bf 6bb3 60c0 137f 63c0 94cf 84c0
000000c0: 21e4 14c0 55df 83c0 27ad 5cc0 7bf5 5bbe
000000d0: a5f0 bcbf 02d0 42c0 2d26 2bc0 5ab3 17c0
000000e0: 8f5d 94be 4553 80c0 e5e9 00bf e9d6 6fbf
000000f0: a505 0dc0 5508 67bf 8472 03c0 3c73 5dbf

prednet_full3.weight f4 [1, 64]
0.053305224 0.049359642 0.04044615 0.032093436 0.03809471 0.051364806 0.055957038 0.20752934
0.25322118 0.05376365 0.12011798 0.21942352 0.041917168 0.21222161 0.0442242 0.03556775
0.20391434 0.04867036 0.19224738 0.049839735 0.03757897 0.050040975 0.049828984 0.06871265
0.04368844 0.20611553 0.031881757 0.04750792 0.07358757 0.033435076 0.019172134 0.037642848
0.0835264 0.054487035 0.05267872 0.052015744 0.048507255 0.053298075 0.032788754 0.035818823
0.05037191 0.04851112 0.06518278 0.03417476 0.043593224 0.0450373 0.044755954 0.23332974
0.08055621 0.22084165 0.12804459 0.020858554 0.0347746 0.041191734 0.06870239 0.0470263
0.019926243 0.23031965 0.03562415 0.03012922 0.03773072 0.03121718 0.04284897 0.021469109
00000000: 9456 5a3d 562d 4a3d ddaa 253d 6874 033d
00000010: 3309 1c3d e763 523d 3533 653d 9282 543e
00000020: 35a6 813e 4637 5c3d 6a00 f63d 8fb0 603e
00000030: 56b1 2b3d 9f50 593e 6f24 353d 7daf 113d
00000040: ecce 503e 925a 473d 7fdc 443e c024 4c3d
00000050: 68ec 193d c4f7 4c3d 7a19 4c3d 38b9 8c3d
00000060: a6f2 323d f30f 533e 7296 023d aa97 423d
00000070: 14b5 963d 38f3 083d e10e 9d3c 632f 1a3d
00000080: e40f ab3d cc2d 5f3d a4c5 573d 760e 553d
00000090: 8baf 463d 154f 5a3d 804d 063d c2b6 123d
000000a0: c752 4e3d 99b3 463d 8d7e 853d d5fa 0b3d
000000b0: cf8e 323d 0879 383d 0552 373d feed 6e3e
000000c0: a7fa a43d 5024 623e 1f1e 033e 8fdf aa3c
000000d0: d06f 0e3d aab8 283d d7b3 8c3d a69e 403d
000000e0: 5c3c a33c ead8 6b3e a1ea 113d 8ed1 f63c
000000f0: 878b 1a3d 2cbb ff3c 6782 2f3d fcdf af3c

layers.0.weight f4 [3, 6]
-0.07790223 -0.30065605 0.20751859 0.27154225 0.40147427 -0.0837911 0.32658064 -0.13733204
0.28216287 -0.09237233 -0.22149995 0.010142331 0.3392211 0.16918905 0.30154335 -0.022922179
-0.31009632 0.90981674
00000000: 348b 9fbd 97ef 99be c17f 543e 9607 8b3e
00000010: 098e cd3e ab9a abbd 9435 a73e c5a0 0cbe
00000020: a777 903e b42d bdbd e2d0 62be 052c 263c
00000030: 63ae ad3e e53f 2d3e e463 9a3e 4bc7 bbbc
00000040: f2c4 9ebe c0e9 683f

layers.0.bias f4 [3]
-0.33469632 -0.1404014 0.059589274
00000000: 515d abbe 62c5 0fbe e213 743d

output_layer.weight f4 [1, 3]
-0.61079615 0.39046624 -0.59258175
00000000: 235d 1cbf 31eb c73e 70b3 17bf
