ckpt/ifytek/irt.pt (torch, 984615 bytes, 2 tensors)

alpha.weight f4 [122950, 1]
00000000: 2f98 2ebf 957f c43e 6b9a 1dc0 1bb8 d5bf
00000010: 5c27 d1bf 5d77 403f 595c 7cbf 54a7 f7bf
00000020: 3e7b 25c0 dd92 573f d814 3ec0 02d1 1e3c
00000030: 8f5e 3ebe 29c9 3cbf f13a babf 2e0f ecbf
00000040: 320b 91c0 aa87 b6bf 2b24 343e b9ac b93b
00000050: a7ff d8bf a286 3ec0 17eb 0abf 6761 19bf
00000060: 5027 103f 4d3f f2bf a1a3 573f 1bb8 2b3f
00000070: 0a3d dcbf 265a b8bf ad73 57c0 a94d 7bc0
00000080: ae57 d4bf 9e9f 28c0 0401 3ec0 f593 fcbf
00000090: bd8e d0bf c895 dfb9 017c a3be 57d1 73c0
000000a0: b10a 3ac0 83da 0dc0 12c7 4fbf 1bdf dcbf
000000b0: c8db cebf 43eb 29c0 4eb3 4dbe bb29 9bbf
000000c0: 1d7a 9d3e 05cd debf 606c 02c0 0215 76c0
000000d0: 7a6b 9cbe dfd5 26c0 b9b1 93bf c8b5 babf
000000e0: a15c c83f c284 22c0 cbfb 3bbf 4c1a 76bf
000000f0: 6f71 b1bf 7208 9dc0 8bef 4ec0 14d5 84bf
00000100: 532a c2bf d40f 17c0 3e3d 5cc0 5fca c0bf
00000110: 17c2 e2bf f8e5 8dbf 20fe 093f 2726 c9bf
00000120: 719a 11bb a76b d5be 6986 81bf 63a5 dcbf
00000130: 5fd2 cabf 7af2 99bf 00a9 c8bf 2949 fbbf
00000140: 81d6 4abf 61c2 90bf 560a 573e 46fa a0bf
00000150: 110f a5bf 7a3f dcc0 44d0 c6be c9ee 04c0
00000160: 937b d1c0 573d 85c0 0986 babd 4bf8 cabf
00000170: d9c3 bcbf 3794 9dbf b8c4 fd3e 4938 e7bf
00000180: 8663 883e 769d 80c0 a601 1f3f 431d 0fc0
00000190: 0d42 c33b 8798 90bf 75a0 31c0 9c80 edbf
000001a0: c4b1 35bf 43e9 d5bf 6892 d9be a7de 23bf
000001b0: 1c4a 4fbf 6585 13c0 80f8 b1bf c71e 323b
000001c0: f80b 61be af62 27c0 c75a 03bf 87b0 0cc0
000001d0: f836 92bf f703 09bf 889c 55bf d019 89c0
000001e0: dac1 4ebf 509e b7bf 3c23 dfbf 931f 1dc0
000001f0: 075f 8abf cd5c e8bf 07dc e33e 22da 2ec0
00000200: 4da3 8fbf 00de 8d3d 0a6a f6be a641 0fc0
00000210: 28f4 fdbf a8f0 2fc0 843d b3be ba03 d8bf
00000220: d94c b5bf a9fe 8bbe ab2d fbbd 108f 0ac0
00000230: 3ff6 22c0 4b38 47c0 7d15 bdbf adc8 02c0
00000240: 83a8 0ec0 f281 07c0 582c 96be be89 48bd
00000250: 81f4 913f 152a 62be 5f1d 97bf 79e0 a83f
00000260: 80cd d8bf fa5c 8abe df7c 83be b113 30be
00000270: f3b1 15c0 a066 5fc0 0686 b3bf a98b 14c0
00000280: ddb8 6cbf 2b56 acbf 2889 83bf b9d6 68bf
00000290: 8e39 36bf e148 e2be f18b a6bf 7c7c debf
000002a0: d8a8 bdbe 5784 5b40 a566 e2bf a680 8ebf
000002b0: cd77 5cbf b34f e1bf 24a4 89bf eb2d 12c0
000002c0: d360 ebbf e5f2 223f 3627 dfc0 9bcd 90bf
000002d0: 5e10 94bf fc68 33c0 ae70 9dbf 88ae 79bf
000002e0: 0ae6 d2bf b5c2 3ec0 67fa b2bf a3fb 9abf
000002f0: d8f7 be3e 4549 80c0 1b9a fabe 6094 bcbf
00000300: c898 e5bf fcba f1bf f7ca 58c0 a7f9 d6bf
00000310: 17af 7ebf 66d0 6ebe bbe7 d5bf 090f 0bc0
00000320: 884c 96bf 13f2 a7bf a759 bbbf febd e4bf
00000330: 23bb cbbf fc91 8fbf f70a 54bf cc5a 92bf
00000340: 7d6d f9bf e696 0e3b 37c1 b9bf f54d 5dbf
00000350: 224e 87bf d8b3 f0be 6107 6dbf bfbd 4fbf
00000360: c2e4 0bc0 1c26 3538 3190 8a3e 1805 9fbf
00000370: af24 ebbf 74ab 1cbf eaaa d4bf 3e59 3ec0
00000380: 8c7b 14bf 220a 083b 0533 0dc0 a501 13bf
00000390: 9ace d3bf 4e3c d7bf 4f57 aabf d87a 0bbf
000003a0: cbca 2cbf cba0 403b dca0 b1be 7cf3 5ebf
000003b0: 3b5c d4bf fc81 acbf 6ec1 99bf b09d c4bf
000003c0: 28e1 09c0 e545 bcbf 2ab3 5c3f cdaf c23e
000003d0: ff54 95bf 6214 9cbf 8027 c6be fe2c b33e
000003e0: e007 aebf 58a5 3abf 0bc4 07bf 6a29 693e
000003f0: c8ca 2840 42ea 55c0 cc85 ab3e ede0 9dbf
-0.68200964 0.38378587 -2.46255 -1.669681 -1.6340137 0.75182134 -0.9857841 -1.934794
-2.585647 0.8420847 -2.9700222 0.009693386 -0.18590759 -0.73744446 -1.4549237 -1.8442132
-4.5326166 -1.4260151 0.17591922 0.005666342 -1.6953019 -2.9769673 -0.5426497 -0.5991425
0.56309986 -1.8925568 0.8423405 0.670778 -1.7206128 -1.4402511 -3.3664353 -3.926615
-1.6589258 -2.6347423 -2.968812 -1.9732653 -1.629356 -0.0004264547 -0.31930545 -3.809652
-2.9069026 -2.216462 -0.8116313 -1.7255586 -1.6160822 -2.6549842 -0.2008793 -1.212211
0.30757228 -1.7406317 -2.0378647 -3.8450322 -0.30550748 -2.6068037 -1.1538612 -1.4586725
1.5653268 -2.539353 -0.7343108 -0.96133876 -1.3862742 -4.907281 -3.2333705 -1.0377526
-1.5169166 -2.360341 -3.441238 -1.5061759 -1.7715482 -1.1085806 0.5390339 -1.5714768
-0.0022217298 -0.41683695 -1.0119144 -1.7237972 -1.584545 -1.2027123 -1.5676575 -1.9631702
-0.79233557 -1.130932 0.21000037 -1.2576377 -1.2895223 -6.8827486 -0.3883077 -2.0770743
-6.5463347 -4.163738 -0.091075964 -1.5857023 -1.4747268 -1.2310857 0.49564147 -1.8064052
0.2663843 -4.0192213 0.6211189 -2.236161 0.0059588016 -1.1296548 -2.7754185 -1.8554873
-0.70974374 -1.6711811 -0.42494512 -0.64011616 -0.80972457 -2.3050168 -1.3903961 0.002717899
-0.21977222 -2.6153982 -0.5131039 -2.1982744 -1.1423025 -0.53521675 -0.8344197 -4.284401
-0.80764544 -1.4345188 -1.7432628 -2.4550521 -1.081025 -1.815332 0.44503805 -2.7320638
-1.122171 0.06927109 -0.48127776 -2.2383819 -1.9840136 -2.7490635 -0.3500787 -1.6876137
-1.4164077 -0.27342728 -0.1226457 -2.1649818 -2.5462797 -3.1128109 -1.4772183 -2.0434983
-2.2290351 -2.1173062 -0.29330707 -0.048959486 1.1402742 -0.22086366 -1.1805838 1.3193504
-1.6937714 -0.2702406 -0.25681207 -0.17195012 -2.3389862 -3.4906387 -1.4025276 -2.3210242
-0.9246958 -1.3463796 -1.0276232 -0.9095264 -0.7118157 -0.44196227 -1.3011457 -1.738174
-0.3704288 3.4299524 -1.7687575 -1.113301 -0.861203 -1.7602447 -1.0753217 -2.2840526
-1.8388923 0.6365188 -6.9735365 -1.1312746 -1.1567495 -2.8032827 -1.2300012 -0.9753194
-1.6476452 -2.980634 -1.3982667 -1.2108043 0.37298465 -4.008944 -0.48945698 -1.473278
-1.793725 -1.8885188 -3.387388 -1.6794938 -0.99485916 -0.23321685 -1.6711344 -2.1727927
-1.1742105 -1.312075 -1.4636735 -1.7870481 -1.5916485 -1.1216426 -0.8282923 -1.1433959
-1.9486538 0.0021757423 -1.451209 -0.8644708 -1.0570719 -0.4701221 -0.92589384 -0.81148905
-2.1858373 4.3189255e-05 0.27063134 -1.242343 -1.837057 -0.61199117 -1.6614659 -2.974197
-0.5800102 0.0020757993 -2.206239 -0.57424384 -1.6547425 -1.6815279 -1.3307894 -0.5448432
-0.6749694 0.0029392715 -0.34693038 -0.8709028 -1.6590647 -1.3477168 -1.2012155 -1.5360622
-2.1543674 -1.470883 0.8621088 0.3802475 -1.1666564 -1.219372 -0.3870201 0.34995264
-1.3596153 -0.72908545 -0.5303351 0.22769704 2.6373768 -3.342423 0.33500516 -1.2334267

beta.weight f4 [122950, 1]
00000000: 0231 1140 4cf3 bfbf 2ba6 643f d343 44c1
00000010: 865b 87c0 662f 50bf 9fbd 00be e1c0 99c0
00000020: 168d 483f 4ad9 a33f d454 c340 2d2e f2ba
00000030: 4f2a 0abf 4391 92be 9e49 57c0 9dc4 cd40
00000040: 42fb 0940 858d 55bf 07f0 f53f 967d a6ba
00000050: 58cb 5cbf ed3b 4740 8b26 ec3f 2ac2 ea40
00000060: 66d0 9140 72d9 31bf 963b ba40 fe9c b340
00000070: b49a 173f 9a34 49c0 5f8d afbf c54f f73f
00000080: 86ff 4cc1 77ae c13e 0be4 4c3e 15bd a83e
00000090: 49b5 94bf b7c4 163a 27f0 7c40 0a50 24c0
000000a0: d063 3340 d64d c73e 1da5 84be 6b3e 8240
000000b0: 25be bb3f 4d98 43be d407 bebe d209 7cbe
000000c0: 1b2c db3f 1f0a 6340 0408 7240 c43f 16c0
000000d0: 2207 4640 076f a040 a6f8 0c40 d045 fb3f
000000e0: 28da cabf fbd6 48c1 bfcc b93f eb14 b53e
000000f0: 1b58 bd40 9aee cebf 0f73 b63d 6c0a 48bf
00000100: eda8 a0bf e55d d33f 1847 c03d 83fa 90c0
00000110: 176c 2cbf 6bb7 2cc0 ebfa 90c0 5e16 e93f
00000120: 2127 8a3a 33be be3f 4ea8 8d3f 98ea 4640
00000130: 78b6 69be 2212 f940 f0f5 81c0 1f83 9740
00000140: 070b 88be dbf6 313f 6acb 3ec0 449c a93e
00000150: 7ec2 c0bf 139b b83b af2c 66bf 0459 4d40
00000160: ad6b d63e 1c5c 3640 de53 fe3d 0c89 47bf
00000170: f4a2 6f40 9f19 c0c0 b47c 5140 8709 61be
00000180: ddf8 db3e 31f9 d63e 0d61 3dc0 8519 82be
00000190: f25c 5339 d8d6 313e 1d21 9140 147c 1b3f
000001a0: 0f16 973f e3f1 1bbf 3c16 23c0 33db 2fc0
000001b0: 0d5a 4140 deac 61bf 654a 883f e6b8 f339
000001c0: 895a 88c0 9814 4cc1 2449 8e3f afd1 af3f
000001d0: 4725 bac0 5507 0ac0 4026 b740 903a b6c0
000001e0: 92e4 1ac0 f75c 1e3f d714 a6c0 5300 4541
000001f0: 651d 4240 8135 9cc0 91d5 94bf eecd b13e
00000200: bd42 8c3d 25a8 f93e cbdb 2fbf 28f3 64c0
00000210: 465b a53f 28de 053e 10e1 76c0 8bac 3e40
00000220: f24e 1bc0 da54 83bf b886 f2be 983f 1fc0
00000230: f1ac e4c0 300e b53e 6d54 c5bf 62b9 b13f
00000240: 7907 e8bf 513a a43f 9ff2 a43e 4139 6ac0
00000250: 7f75 04bf d036 1940 7721 33bf 4410 553f
00000260: 16a4 e83d 6395 08c1 8595 6640 d55e 173f
00000270: c4ba cf3e 258d 0cc1 8fa3 ea3f 0c85 703f
00000280: f2fc 813f dd6b b23f 68a2 923f b06b af3f
00000290: 8c7e f7be 0c60 39bf ac6a 1940 ebf1 9840
000002a0: def0 afbf 9260 aebf c1e4 f73e 37f8 cb3f
000002b0: 05ba 9abe bad8 61c0 bd08 8ec0 dc0f 32c0
000002c0: 79ef 5a3f 026f cb3f 4268 d5bd 21b2 513f
000002d0: 2039 5740 fc5d 843f ce81 29bf 9c60 1dc0
000002e0: 9827 a0bf c679 523e 1d18 ac3e cac0 ad3c
000002f0: 380f 9ebe 34ea 6dbd 35b5 fb3e 29f7 07c0
00000300: 5fb9 99bf 0207 47bf 9b6b 22c0 4948 0540
00000310: 97f3 ecbe 7cb6 0641 afcb 87bf cb36 b43e
00000320: 24b2 a63f f1ec 5e40 c330 98bf b6d1 a8bf
00000330: 73cd 32be 0285 90bf 4d36 4b40 52d5 323f
00000340: 7f97 5340 aaa7 753b 801e af3f c2a5 de3e
00000350: 4885 29bf fdf2 793f 02b5 7240 78c5 b4bf
00000360: da3d 14c1 2b47 dbbb 9c26 b9bf d348 2d40
00000370: 403b 46c1 8bbf c2bf e0be 18bf edb5 19bf
00000380: c985 f9bd a491 f13e 0e55 c13d 3ff0 b73f
00000390: 5b3b 88bf 9d76 43bf 8129 b9c0 f51b 3dc0
000003a0: 2cef 01be 54f0 983a 0408 30bf 027e 35c0
000003b0: 98f7 87bf 7d1a f9bf bf8b 833f 0167 2dc0
000003c0: 75db 7d3f 9b1f 193f facf ac40 00f6 22bd
000003d0: 79f7 f1bf e144 783e af5b c4bf 42c7 1cc1
000003e0: 7b72 143f 44d8 14bf c734 0140 4008 10bf
000003f0: 1307 f0c0 efad 41c1 55ad 37bf c977 2140
2.2686162 -1.4996123 0.8931605 -12.266559 -4.2299223 -0.81322324 -0.12572335 -4.804795
0.7834028 1.2800686 6.104105 -0.0018476896 -0.5397081 -0.2862645 -3.3638682 6.4302506
2.1559606 -0.83419067 1.9213876 -0.0012702222 -0.8624778 3.1130326 1.8449262 7.3362017
4.5566893 -0.6947242 5.8197737 5.612914 0.59220433 -3.1438355 -1.3715018 1.9321219
-12.812384 0.3782842 0.20008866 0.32956758 -1.1617824 0.00057513587 3.9521577 -2.5673852
2.802967 0.38926572 -0.2590722 4.0701194 1.4667403 -0.19101067 -0.37115347 -0.24613121
1.7122835 3.5474927 3.7817392 -2.347642 3.0941854 5.013553 2.2026763 1.963068
-1.5847826 -12.552485 1.4515609 0.35367522 5.917005 -1.6166565 0.089086644 -0.781409
-1.2551552 1.6513029 0.0938856 -4.53058 -0.6735243 -2.698695 -4.5306296 1.8209951
0.0010540226 1.4901794 1.1066988 3.1080685 -0.22823513 7.7834635 -4.0612717 4.734756
-0.26570913 0.69517297 -2.9811654 0.33127034 -1.5059354 0.0056337207 -0.8991193 3.208558
0.41879025 2.849372 0.1241834 -0.7794349 3.7443209 -6.0031276 3.2732363 -0.2197629
0.42963305 0.41986993 -2.9590485 -0.25410095 0.00020157153 0.17367113 4.535292 0.60736203
1.1803607 -0.60915965 -2.548232 -2.7477539 3.0211213 -0.881544 1.0647703 0.00046486332
-4.2610517 -12.755028 1.1116071 1.3735865 -5.8170505 -2.1566975 5.723419 -5.6946487
-2.4202008 0.61860603 -5.190044 12.312579 3.033044 -4.8815312 -1.1627675 0.34727424
0.06848667 0.48761097 -0.6869475 -3.577341 1.291848 0.13073027 -3.8574867 2.9792812
-2.4266934 -1.026027 -0.47368407 -2.4882565 -7.146111 0.35362387 -1.541639 1.3884699
-1.812728 1.2830297 0.32216355 -3.6597445 -0.51741785 2.3939705 -0.6997294 0.83227944
0.11359422 -8.536471 3.602876 0.5912908 0.40572178 -8.784459 1.8331164 0.93953013
1.0155318 1.3939167 1.1455812 1.3704739 -0.48338735 -0.7241218 2.3971357 4.779531
-1.3745382 -1.3623221 0.48416713 1.5935124 -0.30220047 -3.528853 -4.4385667 -2.782218
0.85521656 1.5893252 -0.10420276 0.8191243 3.3628616 1.0341182 -0.6621369 -2.4590216
-1.2512083 0.20554265 0.33612147 0.021210093 -0.30870986 -0.05808468 0.49161687 -2.1244605
-1.2009696 -0.7774507 -2.5378177 2.082537 -0.46279594 8.419552 -1.0609034 0.35198054
1.3023114 3.4832118 -1.1889881 -1.3188999 -0.17461185 -1.1290591 3.1751893 0.6985675
3.3061216 0.0037483969 1.3681183 0.43485838 -0.66218996 0.97636396 3.7922978 -1.4122763
-9.2651005 -0.0066918335 -1.4464908 2.7075698 -12.389465 -1.5214704 -0.5966625 -0.6004322
-0.121837206 0.47181427 0.09440051 1.4370192 -1.0643114 -0.76352865 -5.7863164 -2.9548314
-0.12688893 0.0011668303 -0.6876223 -2.835816 -1.0622435 -1.9461209 1.0277022 -2.7094119
0.9916299 0.5981385 5.400388 -0.039785385 -1.8903648 0.24245025 -1.534048 -9.798647
0.57987183 -0.58142495 2.0188463 -0.5626259 -7.5008636 -12.104964 -0.7174886 2.522936
