ckpt/assistment/irt.pt (torch, 8231 bytes, 2 tensors)

alpha.weight f4 [903, 1]
0	0x3f5c3ce9	0.8603044
1	0x40235f18	2.552679
2	0x3fd55f99	1.6669799
3	0x3f1c5d40	0.6107979
4	0x4005ed28	2.0925999
5	0x3f7cf92a	0.98817694
6	0x3f78e283	0.9722063
7	0x3f8ba909	1.091096
8	0x40178ce8	2.3679752
9	0x3fc5d200	1.5454712
10	0x3edb3649	0.42814854
11	0x3f8d2be4	1.1029019
12	0x3face570	1.3507519
13	0x3fa07099	1.2534362
14	0x3f5f3e4c	0.8720443
15	0x3ff6ddfb	1.9286493
16	0x3f66b2a7	0.9011635
17	0x4012e772	2.2953763
18	0x3fc92c1d	1.5716587
19	0x3f9cca66	1.2249267
20	0x3f9e45c6	1.2365043
21	0x3fafb7be	1.3727949
22	0x3f24b167	0.64333194
23	0x3f1601e5	0.5859664
24	0x3f9a0e35	1.2035586
25	0x3f017f4d	0.5058487
26	0xbe65e858	-0.22451913
27	0x3f9ede90	1.2411671
28	0x3fc30edb	1.5238909
29	0x3f9c2436	1.2198551
30	0x3fd2d6ee	1.6471841
31	0xbf0e2c53	-0.55536383
32	0x3dffccf2	0.12490262
33	0x3f2cba8e	0.6747216
34	0x3f929e52	1.1454566
35	0x3e30050a	0.17189422
36	0x3f961e93	1.172808
37	0x3fb0f33c	1.3824229
38	0x3f9e5ff3	1.2373031
39	0x3f50d799	0.81578976
40	0x3fe3c9a3	1.779591
41	0x3f42df47	0.76121944
42	0x3fb3eae7	1.4056062
43	0x3fae6596	1.3624752
44	0x3e087c21	0.13328601
45	0x3f94f43d	1.1637036
46	0x3fb36b66	1.401715
47	0x3f6aa815	0.9166272
48	0x3f6f7cf5	0.93550044
49	0x3f81a935	1.0129763
50	0x3fe38865	1.7775999
51	0x3f03726c	0.5134647
52	0x3faddfef	1.3583964
53	0x3f289068	0.65845346
54	0x400e3a17	2.2222955
55	0x402e65a7	2.7249544
56	0x40153c4f	2.331806
57	0x401582ea	2.3361154
58	0x3fe8475b	1.8146776
59	0x3f420d09	0.7580114
60	0x3faf1be0	1.3680382
61	0x3fd15a0b	1.6355604
62	0x3ed8c4a6	0.4233753
63	0x3ea015ed	0.31266728
64	0x3f9101a9	1.1328632
65	0x3fb0d2bb	1.381431
66	0x3f959e2d	1.1688896
67	0x3f80fa13	1.0076317
68	0x3f65442b	0.8955714
69	0x3f0ea407	0.55719036
70	0xbf7f5c4d	-0.99750215
71	0x3e86dad3	0.26338825
72	0x3f80c5df	1.0060385
73	0x3f46e8a1	0.77698714
74	0x3f4cb0d3	0.7995731
75	0x3fc28111	1.5195638
76	0x3ef5c47b	0.48001465
77	0x403e8ea0	2.9774551
78	0x3f689818	0.90857077
79	0x4010a9fb	2.2603748
80	0x3e596656	0.21230444
81	0x4006bff4	2.105466
82	0x404c94d3	3.1965835
83	0x3fcfe201	1.6240846
84	0x3f424b4d	0.7589615
85	0x3eb1eb62	0.34749895
86	0x3ee6a089	0.45044354
87	0x3fe6b8c7	1.802514
88	0x4040435a	3.0041108
89	0x3f9fe19b	1.2490724
90	0x3fc70749	1.5549098
91	0x3f83b160	1.0288506
92	0x3fcd4094	1.6035333
93	0x3f8f62f3	1.1202072
94	0x3f92fa10	1.1482563
95	0x3f63e635	0.89023143
96	0x3f427352	0.75957215
97	0x3f8da7ac	1.1066794
98	0x4038e5e9	2.8890326
99	0x3f8a5e10	1.0809956
100	0x3fac37c7	1.3454522
101	0x4019b891	2.40189
102	0x3f9a3602	1.2047732
103	0xbeabfe60	-0.3359251
104	0x3f3dd295	0.7414945
105	0x3f142478	0.57868147
106	0x4015675a	2.334433
107	0x400ed491	2.231724
108	0x3f9504a9	1.1642047
109	0x3f9a997f	1.2078093
110	0x3ff7a84b	1.9348234
111	0x3fe73ec6	1.8066032
112	0x3fc789d7	1.558894
113	0x3f2ff6b0	0.6873579
114	0x3f5a1cdc	0.85200286
115	0x402aebb2	2.6706357
116	0x3febd655	1.8424784
117	0x3ecb373e	0.39690584
118	0x3f6ed70c	0.93296885
119	0x3f0d89e9	0.5528856
120	0x3fccd846	1.6003501
121	0x3f76c0b2	0.9638778
122	0x3d0a7760	0.03380525
123	0x3f0c983c	0.5491979
124	0x3f9d2c9d	1.227924
125	0x3f7404df	0.9531993
126	0x3f09226f	0.53568166
127	0x3f03af92	0.51439774
128	0x3f440660	0.7657223
129	0x3f79d4f1	0.9759055
130	0x3f6a3e2f	0.91501135
131	0x3f0f9acd	0.5609558
132	0x3f40889b	0.75208443
133	0xbf846adb	-1.034511
134	0x3e8f9f31	0.2805114
135	0x3fcb38f9	1.5876762
136	0x3f4149ef	0.7550344
137	0x3f2712f9	0.65263325
138	0x3ed31520	0.41227055
139	0xbe29e473	-0.16591053
140	0x3ef3896d	0.47565785
141	0xbed82378	-0.4221456
142	0x3f5c1468	0.8596864
143	0x3f33b048	0.7019086
144	0x3fa4fc26	1.288945
145	0x3f1085cf	0.56454176
146	0x3f975e37	1.1825627
147	0x3fe24423	1.7677044
148	0x3f36399e	0.71181667
149	0x3f1546fe	0.5831145
150	0x3f3fcbda	0.7492043
151	0x3fea47a7	1.8303117
152	0x4003ebc1	2.0612643
153	0x3fa0c445	1.2559897
154	0x3fab7f98	1.3398314
155	0x3f35e67e	0.7105483
156	0x400011c5	2.0010846
157	0x3f73d50f	0.95246977
158	0x3fc6d163	1.553265
159	0x3f88dfe2	1.0693324
160	0x3f03e4e8	0.5152116
161	0x3fa66c05	1.3001715
162	0x3f8ed41d	1.1158482
163	0x3f7fc880	0.99915314
164	0x3f98a871	1.1926404
165	0x3f218afd	0.63102704
166	0x3f1b89fd	0.6075743
167	0x3d79148d	0.060810614
168	0x3fa62c7f	1.2982329
169	0x3e49726a	0.19672552
170	0x400ea92c	2.2290754
171	0x3fa4aba1	1.2864877
172	0x3fc1a25c	1.5127673
173	0x4014ef65	2.3271115
174	0x3f908e44	1.1293416
175	0x3fc3cb0f	1.5296344
176	0x3fdb15be	1.711601
177	0x400456b0	2.067791
178	0x3fc2daef	1.5223063
179	0x3fd9ead7	1.7024792
180	0x3ff633bf	1.9234542
181	0xbecde648	-0.40214753
182	0x4001fe6a	2.0311532
183	0x3fcb6696	1.5890682
184	0x3ff3a354	1.9034219
185	0x3f430171	0.76174074
186	0x3f815b8c	1.0106063
187	0x3f775173	0.96608657
188	0x3fb430a0	1.4077339
189	0x3f884974	1.0647416
190	0x3ea3b092	0.3197065
191	0x3f0162f4	0.50541615
192	0x40873d3f	4.2262263
193	0x3ef98e11	0.487412
194	0x4002ccf3	2.043759
195	0x3eae4a78	0.3404119
196	0x3f951d88	1.1649637
197	0x3f269373	0.6506874
198	0xbe8d4c9c	-0.2759751
199	0x3f3c4c18	0.7355361
200	0x40184e89	2.3797934
201	0x3fa19f27	1.2626694
202	0xbf5bdeaf	-0.85886663
203	0xbf3b96ad	-0.7327679
204	0x3f679ac6	0.9047054
205	0x3fdd8073	1.7304825
206	0x3f0d3942	0.55165493
207	0x3f9ea8c2	1.2395251
208	0x3f8f65c7	1.1202935
209	0x3fae481f	1.361576
210	0x3e9a7d4f	0.30173728
211	0x3f27e936	0.65590227
212	0x3f97fe93	1.1874565
213	0x3fc2cab9	1.5218116
214	0x402d7860	2.710472
215	0x3e9e16d1	0.30876783
216	0x3ec09feb	0.37622008
217	0x40168a28	2.3521824
218	0x3f74086a	0.9532534
219	0x3ff62e28	1.9232836
220	0x3fa05c1e	1.2528112
221	0x3f1545b4	0.58309484
222	0x3fefddb3	1.8739532
223	0x3e8ed660	0.2789793
224	0x3e18dedd	0.14928766
225	0x3fb4f6ef	1.4137858
226	0x3fd1d8f9	1.639434
227	0x3f63d69a	0.8899933
228	0x3f6d00fc	0.9257963
229	0x3f513cf0	0.8173361
230	0x3f83abb9	1.028678
231	0xbe1cd593	-0.15315847
232	0x3f86f508	1.0543528
233	0x403a7d30	2.9138908
234	0x3eec4d45	0.46152702
235	0x3f9ecd03	1.2406315
236	0x3f82e061	1.0224725
237	0x3f9db74a	1.232156
238	0x3f87eda7	1.0619401
239	0x3ee2f62e	0.44328445
240	0x3ea08781	0.3135338
241	0x3fbee285	1.4912878
242	0x3fa7eda9	1.3119403
243	0x3f61a88e	0.8814782
244	0x3d4028e1	0.046913985
245	0x3fbe8ccb	1.4886717
246	0x3fbf008f	1.4922045
247	0x3f3185e7	0.69344944
248	0x3f9d0719	1.2267791
249	0x40011408	2.0168476
250	0x3f71b590	0.9441767
251	0x3f8f77fb	1.120849
252	0x3f458474	0.7715523
253	0x3f076353	0.5288593
254	0x3f67d936	0.9056581
255	0x3f0fb776	0.56139314

beta.weight f4 [903, 1]
0	0x40151d0b	2.3298976
1	0x3fb3c3e1	1.4044152
2	0x3fa5c357	1.2950238
3	0x400773be	2.1164393
4	0x3fc50c61	1.5394403
5	0x3fc09a1d	1.5047032
6	0x3fb9f37e	1.4527433
7	0x3e048052	0.12939575
8	0x3f025851	0.5091601
9	0xbe40ade0	-0.18816328
10	0xbcb5c618	-0.022189185
11	0xbdb3538e	-0.08756171
12	0x3fa3f8a8	1.2810259
13	0x3eeb0a16	0.45906132
14	0x3fc1c995	1.5139643
15	0x3ed891e6	0.42298812
16	0x3e46ae17	0.19402348
17	0x3ebfc892	0.3745771
18	0xbe5a20e0	-0.21301603
19	0x3e86bd10	0.26316118
20	0x3e21ddf0	0.15807319
21	0x3f0c61e9	0.548369
22	0x3f1b49a3	0.60659236
23	0x3caf704c	0.021415852
24	0x400746b1	2.1136897
25	0x3f5cf1a8	0.8630624
26	0x3f8d2fd3	1.103022
27	0x3f95ba90	1.1697559
28	0xbfbb99c2	-1.4656298
29	0x3df077a5	0.117415704
30	0x3ec7c64a	0.3901847
31	0x3fe73ba3	1.8065075
32	0x3fe92551	1.8214513
33	0x3ebf05c7	0.37309095
34	0xbf003a17	-0.5008864
35	0x3db408a6	0.08790712
36	0xbf9d0cee	-1.2269571
37	0xbdd24d02	-0.10268594
38	0x3ed55e72	0.4167362
39	0x3f0195fe	0.50619495
40	0x3fc3fd1b	1.5311617
41	0x3fc112d6	1.5083873
42	0x3f9f83ea	1.2462132
43	0xbe7b65c7	-0.24550544
44	0xbdb94b1e	-0.090475306
45	0x3e2e5591	0.17024828
46	0xbf39038b	-0.7227103
47	0xbeaf4dd4	-0.34239066
48	0x3ecc09d8	0.3985126
49	0xbfac0abe	-1.3440778
50	0x3f110ed2	0.5666324
51	0xbf2be428	-0.67145014
52	0xbe2b252f	-0.16713403
53	0x400a5b2d	2.161815
54	0x3f54ab08	0.8307347
55	0x3fc15254	1.510325
56	0x400884bc	2.1331015
57	0x3fc82ebb	1.5639261
58	0x3e879afc	0.2648543
59	0xbec7ad7f	-0.38999555
60	0xbe3ab1f7	-0.1823195
61	0x3eac53e9	0.33657768
62	0x3f120899	0.5704437
63	0x3db01551	0.08597816
64	0x3d9090f6	0.07058899
65	0x3e0134c9	0.12617792
66	0x3f7805f6	0.96884096
67	0x3f06ce3d	0.52658445
68	0xbf4527d0	-0.77013874
69	0xbead47a5	-0.33843723
70	0x3fb32d85	1.3998266
71	0x3e6ae003	0.22937016
72	0x3d9d94ec	0.0769442
73	0xbeb6808a	-0.35644943
74	0xbf078181	-0.5293198
75	0xbf3ede7c	-0.74558234
76	0x3e0599d8	0.13046968
77	0x3f7a7793	0.97838706
78	0x3d8c0f4c	0.06838855
79	0x3ef7aeec	0.48375642
80	0x3f0353b8	0.5129962
81	0x3eb16cb6	0.34653252
82	0x4001a215	2.0255177
83	0x3fb60473	1.4220108
84	0x3fe369d2	1.7766669
85	0x3fc7a23d	1.5596386
86	0x3fc15863	1.5105098
87	0x400bc7c0	2.1840668
88	0x3f528dd9	0.8224769
89	0x3fb26d6e	1.3939645
90	0x40202c06	2.502687
91	0x3f8e52f8	1.111907
92	0xbdf5ac01	-0.11995698
93	0x3ea87c18	0.32907176
94	0x3f10e63a	0.566013
95	0x3edf79f7	0.4364774
96	0x3f401056	0.75024927
97	0x3f8c96a2	1.098347
98	0x3d9c5433	0.07633247
99	0x3f763ed0	0.96189594
100	0x3f5bcd96	0.85860574
101	0x3f45eedf	0.77317613
102	0x3ec7a450	0.38992548
103	0x3ef3227f	0.47487256
104	0x3f5f2ae0	0.871748
105	0x3e4446ea	0.19167677
106	0x3f27b052	0.6550342
107	0x3e81aebd	0.25328627
108	0x3f2b0c4a	0.66815627
109	0x3f35b93b	0.70985764
110	0x3f271183	0.65261096
111	0xbea88404	-0.3291322
112	0xbf20a4b2	-0.62751305
113	0x3fcfa58f	1.62224
114	0x3f8f32da	1.1187394
115	0x3e13f75f	0.14449833
116	0x3fe0f0fb	1.7573541
117	0xbc0a3a91	-0.008436815
118	0xbee6b2c6	-0.45058268
119	0x3f8e0585	1.1095434
120	0x3fb6e018	1.4287138
121	0xbe30bc96	-0.1725944
122	0xbeaeacc9	-0.341162
123	0xbe2aabff	-0.16667174
124	0xc012f58f	-2.2962377
125	0xbfc458a2	-1.5339549
126	0xbbcb5b9a	-0.006205988
127	0xbdc10df0	-0.094264865
128	0x3f12dd08	0.57368517
129	0x3f3f7771	0.7479163
130	0xbf137755	-0.5760396
131	0x3e68b688	0.2272588
132	0xbea4c326	-0.32180136
133	0x3e5d4750	0.21609235
134	0xbea85f79	-0.3288534
135	0xbf9386f9	-1.1525565
136	0x3d081726	0.0332252
137	0xbe6cefda	-0.23138371
138	0xbee43984	-0.4457513
139	0x3ecdafa0	0.40173054
140	0x3d5bcccf	0.053662118
141	0x3f594388	0.8486867
142	0xbf0f0154	-0.558614
143	0x3f88f24a	1.0698941
144	0xbe9eba8f	-0.31001708
145	0x3e871b98	0.2638824
146	0xbe6be26f	-0.23035596
147	0x3f2dea08	0.6793523
148	0x3eeca465	0.46219173
149	0x3f2a6e95	0.66574985
150	0x3f987ebc	1.1913676
151	0x3f870f7f	1.0551604
152	0x3f6af307	0.9177708
153	0x3fca6ba2	1.5814097
154	0x3e2a05db	0.16603796
155	0x3f889d3d	1.0672985
156	0x40026016	2.0371146
157	0x3f721290	0.94559574
158	0x3fc6a383	1.551865
159	0x3f0ee9fe	0.55825794
160	0x3fd757ca	1.6823666
161	0xbe2924dd	-0.16517968
162	0xbe415fc4	-0.18884188
163	0x3e9d7c55	0.3075892
164	0xbf496ddf	-0.78683275
165	0x3e0a98bf	0.1353483
166	0x3f6351f1	0.8879691
167	0x3f3140b5	0.6923936
168	0x3f89ae6f	1.0756358
169	0x3f0cd410	0.5501108
170	0xbed2e917	-0.41193458
171	0x3d69b962	0.05706156
172	0xbf7404f9	-0.9532009
173	0xbf768398	-0.96294546
174	0x3d71a0c7	0.05899122
175	0x3e356e2a	0.17717806
176	0xbe261103	-0.16217427
177	0x3e85f21c	0.26161277
178	0xbee711d5	-0.45130792
179	0xbeb9e71e	-0.3630914
180	0x3e6d438b	0.23170297
181	0x3fd5b996	1.6697261
182	0x3e61fc79	0.22068967
183	0xbf47c158	-0.78029394
184	0x3f95c8b1	1.1701871
185	0x3f3405ec	0.70321536
186	0xbe700b9b	-0.23441927
187	0x3e150c97	0.14555584
188	0x3f8bf09c	1.0932803
189	0x3fbe5aac	1.4871421
190	0x3fb1c566	1.3888366
191	0x3f9246a7	1.1427811
192	0x3dcd77d6	0.100326225
193	0x3e5dcb44	0.21659571
194	0x3fdaa474	1.7081437
195	0x3f61887a	0.8809887
196	0x3f9cfb9a	1.2264283
197	0x3e47dbaa	0.19517389
198	0x3f8746e6	1.0568511
199	0xbf301368	-0.6877961
200	0x3f256ee7	0.6462235
201	0x3fd7f6b5	1.6872164
202	0x3fbf1ab7	1.4930028
203	0x3fcc8b69	1.5980045
204	0xbd48f9f8	-0.049066514
205	0xbf2672e1	-0.6501904
206	0xbe2e5e59	-0.17028178
207	0xbe387715	-0.18014176
208	0xbf24bbeb	-0.6434924
209	0xbe4c08c3	-0.19925217
210	0x3e98f9a9	0.29877976
211	0xbec992e7	-0.3936989
212	0x3eff0417	0.49807808
213	0xbdce5332	-0.10074462
214	0xbee9ac4b	-0.45639262
215	0xbf15f3da	-0.5857521
216	0xbeb39b47	-0.35079405
217	0x3e6785e8	0.22609675
218	0xbdf32dbe	-0.11873959
219	0x3f7550af	0.9582624
220	0xbec32b4a	-0.38118964
221	0x3fc48b7f	1.5355071
222	0xbf0b2e86	-0.54367864
223	0x3e6fa719	0.23403586
224	0x3e8bea9e	0.27327436
225	0xbf1f3826	-0.6219505
226	0xbf1c2818	-0.6099868
227	0x3ed8fbcf	0.42379615
228	0x3f27fd42	0.65620816
229	0xbdf910e6	-0.12161426
230	0xbda75b37	-0.08171695
231	0x3fed5407	1.8541268
232	0x3f0b7810	0.54480076
233	0xbefba968	-0.49152684
234	0x3f32dbbe	0.6986655
235	0x3ff48031	1.9101621
236	0x400aab54	2.166707
237	0x3fa6da0e	1.3035295
238	0x3ed031ec	0.40663087
239	0x3f120181	0.57033545
240	0x3f22728b	0.6345603
241	0x3f8d0092	1.1015799
242	0x3fe19337	1.7623051
243	0x3f26e85a	0.6519829
244	0x3fe246d6	1.7677867
245	0x3fb3e1e2	1.4053309
246	0xbf8fbed5	-1.1230112
247	0x3eda940a	0.4269107
248	0x3f3bddc1	0.73385245
249	0x3e1f3fc4	0.15551668
250	0x3f583dd3	0.84469336
251	0x3f887457	1.0660504
252	0x3fbf7362	1.4957087
253	0x400632b0	2.0968437
254	0x3f824d9a	1.0179932
255	0x3f06073a	0.52354777
