ckpt/assistment/irt.pt (torch, 8231 bytes, 2 tensors)

alpha.weight f4 [903, 1]
000000 de f0 02 40 3e 24 ea 3f c8 6a 25 40 eb 01 8f 3f
       2.0459514 1.829231 2.5846424 1.117246
000010 5c b6 cf 3f 9a 5a 89 3f d4 57 b2 3f 13 b1 a4 3f
       1.6227527 1.0730774 1.3933053 1.2866539
000020 88 d9 91 3f 80 da 7c 3f e7 ab 96 be 76 ef 23 3f
       1.139451 0.98770905 -0.29428026 0.64037263
000030 dd e7 df 3f 52 20 95 3f b3 ec 62 3f 45 0d f4 3f
       1.7492634 1.1650488 0.88642424 1.906655
000040 b3 71 7c 3f 19 5d 1f 40 27 29 f2 3f b0 24 a9 3f
       0.9861099 2.4900572 1.8918809 1.3214321
000050 3b 4e 93 3f 87 1f a7 3f 06 99 b9 3e c2 8d d5 bd
       1.1508249 1.3056496 0.3624956 -0.10427429
000060 f1 6a b1 3f b5 82 26 3f cd f1 0b bf 30 f6 91 3f
       1.3860761 0.65043193 -0.54665834 1.1403255
000070 0a 50 a5 3f e6 47 6e 3f 70 5f aa 3f 90 bc 26 3f
       1.2915051 0.9307846 1.3310375 0.65131474
000080 b0 62 63 3f 7c 36 84 3f d8 cc b2 3f 45 13 ec 3e
       0.8882246 1.0329127 1.3968763 0.4610845
000090 af fb 88 3f 8d fe 8f 3f 35 ac 87 3f 27 3b cd 3f
       1.0701808 1.1249558 1.0599428 1.6033677
0000a0 4a 1c d8 3f 0e 94 cf 3e 81 32 a2 3f 85 dd 85 3f
       1.6883633 0.40542644 1.2671663 1.0458227
0000b0 d0 be a8 3e ba c0 b1 3f 83 18 a3 3f 21 f8 04 3f
       0.32958078 1.388694 1.2741855 0.51941115
0000c0 fe 84 6b 3f 55 19 b7 3f 6d 19 01 40 80 c8 7a 3d
       0.91999805 1.4304606 2.0171769 0.061226368
0000d0 57 08 a5 3f 4b 3d 9e 3f ee 0b f4 3f 29 c2 10 40
       1.289317 1.2362455 1.9066141 2.2618506
0000e0 ad 4a 15 40 63 b1 1a 40 69 48 bc 3f e8 cb 0b 3f
       2.3326828 2.4170768 1.4709598 0.5460801
0000f0 13 3a 9a 3f 97 8c b6 3f 0f 91 05 3e 16 a6 54 3e
       1.2048973 1.4261655 0.13043617 0.20766482
000100 f8 23 7d 3f d2 d3 84 3f 1c c6 dd 3f 1f da 81 3f
       0.9888301 1.0377142 1.7326083 1.014469
000110 45 34 f4 3d 0d c1 24 3f 31 1a 5a bf 18 02 9b 3e
       0.11924032 0.6435707 -0.85196215 0.30275035
000120 c7 81 68 3f 59 d5 58 be 21 a0 48 3d 1d ab b2 3e
       0.90823025 -0.21175136 0.048980836 0.34896174
000130 77 d6 8e 3e 33 43 e1 3f 67 34 4c 3f a9 16 10 40
       0.27898 1.7598633 0.7976746 2.251383
000140 36 46 93 be 5a 99 e4 3f 5e 76 1e 40 d3 d4 bf 3f
       -0.28764504 1.7859299 2.4759746 1.4986824
000150 4c 80 8e 3f 55 34 2b 3f 67 ab 6f 3f f1 d6 00 40
       1.1132903 0.6687673 0.93620914 2.013119
000160 0d 11 ee 3f 3e 2e c7 3f d3 71 f0 3f b2 4d c2 3f
       1.8598953 1.5560987 1.8784736 1.5179961
000170 2e a6 8f 3f 90 42 a0 3f 8a ca b0 3f 79 c8 9b 3f
       1.1222589 1.2520313 1.381181 1.2170554
000180 eb c6 6c 3f a8 bc b6 3f 17 96 13 40 ff 42 a0 3f
       0.92491025 1.4276323 2.3060358 1.2520446
000190 46 a7 a0 3f 51 e6 e3 3f ce 7b 97 3f fe ba 70 bf
       1.2551048 1.7804662 1.1834657 -0.9403533
0001a0 7d f9 53 3f 72 42 d0 3e 56 7a c4 3f 47 dd 03 40
       0.82802564 0.40675694 1.5349834 2.0603807
0001b0 38 1e 97 3f 76 5b a9 3f f5 ed e8 3f 1b 54 da 3f
       1.1806097 1.3231037 1.8197619 1.7056917
0001c0 d3 4e ca 3f 08 96 45 3f 0a 28 3c 3f 0a b6 8c 3f
       1.5805305 0.77182055 0.73498595 1.0993054
0001d0 72 36 e3 3f be 6f c3 bd b3 22 12 3f 8a 28 bc 3f
       1.775099 -0.095427975 0.57084197 1.4699872
0001e0 06 1d b2 3f 58 2f 0e 3f c6 bd 6a bf 97 0c 32 3e
       1.3915107 0.5554099 -0.9169582 0.17387615
0001f0 89 51 a1 3d c6 4d 4e 3e 8c 82 41 3e 71 73 ae 3e
       0.0787688 0.20146856 0.18897456 0.3407245
000200 f5 00 87 3f 0f 87 81 3f 46 39 23 3f e1 1f 20 3f
       1.0547167 1.0119342 0.6375927 0.62548643
000210 b7 41 e7 3e 28 93 a1 bf 9c 18 12 bf 63 ca cb 3e
       0.45167324 -1.2623034 -0.570688 0.39802846
000220 fb cc d4 3e 1d ab ef be 81 11 48 3e 72 6d 92 bf
       0.41562638 -0.46810237 0.19537927 -1.143965
000230 1c f9 b1 3d 98 59 11 bf 5e c7 eb 3e 8f 86 84 3f
       0.08690092 -0.56777334 0.46050543 1.0353564
000240 cf da 79 3f 33 9e 5c be 09 24 57 3f d8 70 16 40
       0.975995 -0.21544723 0.8403936 2.3506374
000250 a8 58 a2 3f 7b 3f 98 3f f5 71 64 3f 2d 09 c8 3f
       1.2683306 1.1894373 0.89236385 1.56278
000260 02 e3 cd 3f 37 11 94 3f 19 3d 3f 3f 07 7b b0 3f
       1.6084902 1.1567754 0.747026 1.3787545
000270 57 d3 d6 3f ca 0e f1 3f 1c 66 08 40 54 0f 87 3f
       1.6783246 1.8832638 2.1312323 1.0551553
000280 0b 97 2a 3f 81 eb 99 3f ab d7 94 3f 93 3a 92 3f
       0.66636723 1.2024995 1.1628317 1.1424125
000290 6d 4a 5e 3f 34 e4 4a 3e a1 f0 2c 3f 07 cf 94 be
       0.86832315 0.19813615 0.6755467 -0.290642
0002a0 3b d7 d7 3f fe 55 a4 3e 10 46 12 40 01 f6 9b 3f
       1.6862558 0.32096857 2.2855263 1.218445
0002b0 58 62 9d 3f 3f 36 04 40 ef 2f 6f 3f 1f b1 ac 3f
       1.2295637 2.065811 0.93432516 1.3491553
0002c0 89 fa d7 3f a1 3c ef 3f c4 6c b7 3f 18 81 7d 3f
       1.6873332 1.8690377 1.4330068 0.99025106
0002d0 0f 42 e9 3f af 5d 11 bb a5 3c 07 40 19 da d2 3f
       1.8223284 -0.0022181084 2.1130764 1.6472808
0002e0 8d 1e fb 3f b1 00 9a 3f a3 37 8a 3f 5e ac b1 3f
       1.9618698 1.2031461 1.0798229 1.3880727
0002f0 44 f4 b8 3f 74 88 85 3f 04 64 2a 3f a8 8d 4e 3f
       1.4449544 1.0432267 0.6655886 0.806849
000300 2d 70 43 40 2d 1f d3 3e 9f 98 fe 3f 9d 1a be 3f
       3.0537217 0.41234723 1.9890326 1.4851872
000310 4d f3 d1 3f ed c3 f9 3e 0f 25 50 3f 21 93 41 3f
       1.6402375 0.48782292 0.81306547 0.75615126
000320 80 9d 0a 40 f5 49 a1 3f 48 ff f1 be 62 47 17 bc
       2.165863 1.2600695 -0.47265077 -0.009233328
000330 6c 89 6e bd 0f 00 8c 3f bb 17 1e bf 08 12 61 3f
       -0.058236524 1.0937518 -0.6175496 0.8791814
000340 a5 a2 92 3e c7 b8 ac 3f e4 fb 34 3e 0c f5 0b 3e
       0.28639713 1.349389 0.17674214 0.13667697
000350 20 c3 b0 3f 67 e1 c9 3f 9c 18 d5 3f 86 77 7d 3d
       1.3809547 1.5771912 1.6648135 0.061881565
000360 82 57 10 3f 9a fb f7 3f 2d 5a 8f 3f 35 b9 fb 3f
       0.56383526 1.9373658 1.1199394 1.9665896
000370 4a bf 83 3f 9c c5 dd 3e 0a 4e df 3f d5 5c 33 3e
       1.0292752 0.43314826 1.7445691 0.17515881
000380 55 3f a5 be c6 41 9a 3f ff 00 ab 3f fd 4a 33 3f
       -0.3227488 1.2051322 1.3359679 0.700363
000390 64 1f 8d 3f a5 51 3d 3f 52 cf 79 3f 0d 19 16 3f
       1.1025205 0.73952705 0.9758197 0.58631974
0003a0 a8 f4 a4 3f 91 91 26 40 4d c3 4e 3d 49 3d c4 3f
       1.2887163 2.6026347 0.050479222 1.5331203
0003b0 39 63 7a 3f 28 de a4 3f 27 f8 9f 3e 1c 44 bc 3f
       0.9780765 1.2880297 0.31244013 1.4708285
0003c0 aa 86 68 3e e6 a8 a5 3f eb b2 96 3f 6e 7a b8 3f
       0.2270762 1.2942169 1.1773351 1.4412363
0003d0 39 d2 bc 3e fa 71 da 3f e4 3f c9 3f 7e 56 a2 3e
       0.36879137 1.7066033 1.5722623 0.31706613
0003e0 16 a5 a0 3f cc 6e fc 3f f8 9e 65 3f 83 7b a3 3f
       1.255038 1.9721313 0.8969569 1.2772068
0003f0 42 e5 8b 3f 06 3b aa 3f 11 f0 78 3f dd 1d 0b 3e
       1.0929339 1.3299263 0.9724131 0.1358561

beta.weight f4 [903, 1]
000000 51 18 c6 3f ed db 76 3f a9 13 6d 3f 3b cc c8 3f
       1.5476171 0.9642933 0.92608124 1.5687326
000010 8b 5c 8d 3f 00 9a 93 3f 6b 0d 88 3f 43 1a 93 3b
       1.1043867 1.1531372 1.0629095 0.0044892146
000020 0b c3 e5 3e 8a a2 b4 3c a5 8f 93 bd cf e5 8e bd
       0.44875368 0.02205016 -0.072051324 -0.06977426
000030 b0 db 7c 3f 68 b4 a2 3e fc bf 98 3f f9 0d 68 3e
       0.98772717 0.31778264 1.1933589 0.2266158
000040 5e 15 7d 3d e6 d9 25 3d 40 44 bb be ec 85 44 3d
       0.061787955 0.040491007 -0.36575508 0.04797928
000050 62 69 3a bd 12 e3 91 3e 90 a9 f9 3e 04 34 da bc
       -0.045510657 0.28493553 0.48762178 -0.026636131
000060 21 9e d1 3f ec 3c 0c 3f d9 33 65 3f 3a ec 6b 3f
       1.6376382 0.5478046 0.8953224 0.9215733
000070 e1 5f ab bf 96 cd ad bd 98 70 b8 3e d5 b1 53 3f
       -1.3388635 -0.08486478 0.36023402 0.82693225
000080 f5 0f 87 3f a6 47 6c 3e 52 5b 10 bf 02 61 2e 3e
       1.0551745 0.23074207 -0.56389344 0.17029193
000090 ad 98 96 bf 74 0c 36 be c0 b3 30 3e 67 14 c5 3e
       -1.1765343 -0.17778188 0.17256069 0.38492128
0000a0 2b 83 86 3f 9a 0b 8a 3f 42 88 7b 3f 19 bf 5f be
       1.0508779 1.078479 0.9825479 -0.21850242
0000b0 72 80 00 bf 64 14 68 3c 55 53 19 bf 9e 5d b7 be
       -0.5019599 0.014165018 -0.5989278 -0.35813612
0000c0 d6 c5 93 3e d2 01 9d bf 49 e5 a0 3e 86 f8 28 bf
       0.28861874 -1.226618 0.3142493 -0.66004217
0000d0 ab 85 83 be 9a 05 c5 3f 47 9c f6 3e a8 14 94 3f
       -0.25687918 1.5392334 0.48166105 1.1568804
0000e0 c6 e2 bb 3f 40 6f 86 3f cf 6c b0 3e d8 32 bf be
       1.4678581 1.0502701 0.34458014 -0.37343478
0000f0 d0 3e 52 bc 10 62 cb 3e d7 e7 d7 3e 16 12 4b be
       -0.0128323585 0.39723253 0.42169067 -0.19831118
000100 82 f0 bf 3d ea e9 62 3e 5d 85 12 3f 5a 5b a3 3e
       0.09372045 0.22159544 0.57234746 0.31905633
000110 d0 06 06 bf 24 61 11 bf 23 46 21 3f 2c a0 04 be
       -0.52354145 -0.5678885 0.62997645 -0.12951726
000120 87 2e 28 3c 0e 51 90 be 38 d3 c1 be 92 43 e0 be
       0.010264999 -0.2818684 -0.3785646 -0.43801552
000130 fe 09 69 bd b6 d1 6c 3f ef 08 73 3c 04 98 c6 3e
       -0.056894295 0.92507493 0.014833673 0.38787854
000140 03 f3 54 3e 31 8d 05 3f 9a 76 ba 3f ef c0 85 3f
       0.20795827 0.52168566 1.4567444 1.0449504
000150 ec d6 af 3f bc 68 92 3f bb 3e 8b 3f ce 6d c5 3f
       1.3737464 1.1438212 1.0878519 1.5424135
000160 e4 85 d9 3e 68 6d 7e 3f b6 1d e7 3f a7 a2 38 3f
       0.42484963 0.9938569 1.8055942 0.7212319
000170 59 81 fb 3c f2 6e 8b 3e b7 5f b8 3e 27 8f 13 3e
       0.030701326 0.27233082 0.36010525 0.14410077
000180 d2 6c 01 3f ba 77 4f 3f 91 7f 64 3e bd a3 31 3f
       0.5055667 0.81042063 0.22314288 0.6939047
000190 a9 c3 36 3f ee bd 38 3f d1 0f 83 3e cd 74 e2 bd
       0.71392304 0.7216481 0.25598004 -0.11057434
0001a0 e7 6d 23 3f bc 46 d7 3c 8d 62 02 3f ea 87 d3 bd
       0.6383957 0.026278846 0.50931627 -0.10328658
0001b0 ff eb 02 3f 8a 59 fd 3e f4 2c 55 3e 15 0b 05 bf
       0.5114135 0.49482375 0.2081793 -0.51970035
0001c0 92 da 32 bf f6 0b af 3f 6f bc 5d 3f 41 15 ae 3e
       -0.6986476 1.3675525 0.8661565 0.3400059
0001d0 b8 7d 97 3f d6 dc 2c bd 3e 35 da be 6c bf 44 3f
       1.1835241 -0.042202793 -0.42618746 0.76854587
0001e0 b1 57 88 3f 5a 58 21 be f9 3b 22 bf ef 7a 6e be
       1.0651761 -0.1575636 -0.6337276 -0.23289083
0001f0 17 78 b9 bf 33 6d a5 bf 95 cd 15 bd 66 2a 39 be
       -1.4489774 -1.292395 -0.03657301 -0.1808258
000200 50 79 bc 3e e4 a3 14 3f 5b a8 32 bf b9 aa 4b 3d
       0.36811304 0.5806258 -0.6978814 0.04972336
000210 ca 53 b3 be 4e 64 61 bf a0 80 16 bf 3b 3e 39 bf
       -0.35024863 -0.8804368 -0.58790016 -0.7236058
000220 47 d7 05 be 36 f8 5b bd 3f 08 22 bf b6 37 d5 3c
       -0.13070403 -0.05370351 -0.6329383 0.026027542
000230 4b c2 ca bd bb 68 4e 3e 3f 2b fd be e6 25 2d 3f
       -0.0990034 0.20157139 -0.49447057 0.67635953
000240 c5 b2 f5 be 00 76 50 3e 92 c0 88 be 9a 43 83 3e
       -0.47987953 0.20357513 -0.2670942 0.25637513
000250 99 0b dc 3e 3c 14 04 3f 08 8e 82 3f 7b 37 67 3f
       0.42977598 0.51593375 1.0199594 0.9031903
000260 00 7d 2f 3f 31 fc a5 3f da 33 12 3e 69 de 3c 3f
       0.6855011 1.2967588 0.14277592 0.7377687
000270 a5 51 b6 3f 68 02 30 3f b7 b8 9a 3f 6c 9c c4 3e
       1.4243666 0.6875367 1.208762 0.3840059
000280 d2 05 ad 3f 64 cf 96 bd 27 6e 67 be 10 3a 94 3d
       1.3517401 -0.07363775 -0.22600614 0.07237637
000290 6b 25 15 bf aa cb 1b bc 0e 03 26 3f f7 6f ba 3e
       -0.5826022 -0.0095090065 0.6484841 0.36413547
0002a0 55 52 58 3f c6 f0 65 3e 2a f3 c6 be 82 fa 8e bd
       0.8450063 0.22455129 -0.38857394 -0.06981374
0002b0 32 c7 5a bf 67 cf 55 bf d9 7f a4 bc 78 b3 f3 3d
       -0.854602 -0.83519596 -0.020080494 0.11899465
0002c0 b7 5f 92 be 82 cf 27 3e 25 ff f6 be 68 6f 6a be
       -0.2858865 0.16387752 -0.48241535 -0.2289406
0002d0 fc 16 ba 3d 0d af 9e 3f 49 c2 57 bd 68 38 4d bf
       0.09086415 1.2397171 -0.05267552 -0.80164194
0002e0 5b 61 46 3f d3 a2 0d 3f a1 35 bc be 16 12 ce bc
       0.774923 0.55326575 -0.36759666 -0.025155108
0002f0 d2 76 33 3f 6f 9a 8d 3f 71 a6 9f 3f 66 ef 87 3f
       0.7010318 1.1062754 1.2472669 1.0619934
000300 75 dd af be 4d 71 b7 3d f8 ce 83 3f c2 2d 2c 3f
       -0.34348646 0.08957157 1.0297537 0.6725732
000310 4d cc 6b 3f 03 68 aa 3d 3b d9 66 3d 65 5d 52 bf
       0.92108613 0.0832062 0.05635951 -0.8217376
000320 18 c3 9c 3e 6b 9f a9 3f ba 6e 0d 3f 65 7e 0b 3f
       0.30617595 1.3251776 0.5524708 0.5448974
000330 ba 1a 20 3d 3e 25 0b bf e8 0a 5f be 7a 5a 05 be
       0.03908799 -0.543537 -0.21781504 -0.13022795
000340 df c4 be be c6 e6 4d be a8 2c 3c 3e 19 23 9c be
       -0.37259576 -0.20107564 0.1837641 -0.30495527
000350 cb 59 d3 3e c9 2a 10 3d f9 d9 86 bd 36 22 49 bf
       0.41279444 0.035197053 -0.06584544 -0.78567827
000360 11 04 d2 be bb 77 66 3e 27 53 3b be d4 ee 33 3f
       -0.41018727 0.22506611 -0.18293439 0.702863
000370 3c 67 9c be 83 ed a0 3f 28 3f c1 be be 9d c2 bc
       -0.30547512 1.2572483 -0.37743497 -0.023756858
000380 d9 d7 c7 3d 06 74 f8 be a5 6b a7 be ae 47 c2 3e
       0.097579665 -0.4852602 -0.32699314 0.37945312
000390 3a a2 e5 3e 1b d3 38 be 04 f8 62 bd b5 67 ac 3f
       0.44850332 -0.1804928 -0.055412307 1.3469149
0003a0 e4 53 a9 3e 9f 3d 0b bf be f7 1a 3f 23 98 b1 3f
       0.33071816 -0.543909 0.60534275 1.3874553
0003b0 b0 de ce 3f 9e bd 85 3f 0b 4b 0f 3f b6 d4 10 3f
       1.6161709 1.0448492 0.5597388 0.5657457
0003c0 f3 3f 91 3e b6 9a 59 3f e5 39 ad 3f e7 51 b1 3e
       0.28369102 0.85001695 1.3533293 0.346328
0003d0 bd 3c aa 3f 08 87 82 3f 75 48 95 bf bb ab 47 3e
       1.3299786 1.0197458 -1.1662737 0.19499104
0003e0 79 91 fe 3e ca 02 45 be f9 1a 4f 3f e0 b3 43 3f
       0.49720362 -0.19239345 0.8090053 0.7644634
0003f0 8c 2a 8d 3f bc 0f c5 3f ae d9 49 3f 13 87 cc 3e
       1.1028609 1.5395427 0.7884778 0.39946803
