ckpt/assistment/irt_MFI_ip_with_tested_info.pt (torch, 289985 bytes, 12 tensors)

utn.0.weight f4 [256, 4]
00000000: 8580 41bc e6f2 87bf 0fe3 a3bf 0e2d 0abe
00000010: 474f 66bf ae76 a1bf c0c5 91bf 75ac e1be
00000020: 3860 96bd 06ab 2fbf 9745 a6be f339 73bf
00000030: 0f9c 13c0 40e6 90bf af10 b9bf 59ad 32be
00000040: 7ae5 e3bc 09ef 73bf 1fc4 71bf 0554 86be
00000050: 2809 27bf 9ce5 91bf 6efe 9abf e6f4 d7be
00000060: 57c5 cbbe a558 083d e79f 3c3f 8287 3ec0
00000070: e208 ccbf 1793 cdbf b9db d3bf b6c2 edba
00000080: d8f0 7ac0 49ab e0be 760a 1cbc c64d 8c3d
00000090: b2ad 80bf 3a7d 5cbf 0d3d 4abf 9b21 40bf
000000a0: 849e 2ac0 182d 7e3f 3909 4c3f ad5a c83d
000000b0: 5925 11be 82b8 c4bf c729 34bf 17fa 59bf
000000c0: 7bb2 88bf 2b4a ccbf e961 98bf 67e4 31be
000000d0: aab7 7abf 0bd8 833f 5686 ef3f 1a04 8abf
000000e0: 3ab9 2c3d 6755 a1bf a95a dbbf 8e73 03bd
000000f0: 7e33 82bf 5f9f a2bf 2537 bfbf 895f a2be
00000100: dd06 02be 421a 4dbf 0339 0fbf 07f4 2bbf
00000110: 0633 f33e 23d9 4cbf c3f9 90bf 6684 6dbf
00000120: f78e c1bd bc02 10bf 10f2 143c 4fc1 a0bf
00000130: 9171 debc be45 86c0 75c2 be3f efb0 85be
00000140: 98d0 56c0 7e58 663f b79d 8d3f a032 f4bd
00000150: 9cb6 89be d2f0 79bf 7ab2 1abf fcb3 fbbe
00000160: f95e 3abe d554 8ebf 4e2c 4bbf 8de1 23bf
00000170: 0f56 263f 932e 5cbf ba1b a2bf a832 01bf
00000180: dbb9 a3bd 4a7e 773f 8239 f7c0 2dbb 0dbe
00000190: 6298 3b40 b772 b2bd 25c3 3bbf 2f83 30bd
000001a0: 2191 73c0 9f6a 19bd 9780 ffbb a517 993c
000001b0: 6990 7fbf 0a74 a0bf 574b abbf 139f aebe
000001c0: 528b 20c0 2456 873f 5d4c 8a3f 4363 98be
000001d0: df7a 87be b570 4abf efed 15bf 5d52 3fbf
000001e0: 9a1a 43be aadd 80bf 942c 77bf 6b1a d7be
000001f0: 50a3 2ec0 8202 46bf 9830 86bf 575f 84bd
00000200: c44b f8bf 082e d5bf 8490 adbf 9fcd 7bbe
00000210: ae91 32bf bd46 a7bf 2a79 07bf 3b57 74bf
00000220: cdb4 84be 845d 6fbf 230a 45bf 1251 0dbf
00000230: 5b59 803f 5014 14bf a52a ba3e 99c7 0cbf
00000240: f627 20c0 9d0f 86bf 837f 13bf c645 07be
00000250: 8093 24c0 17b8 7dbf 9b66 bebf 471f 313c
00000260: 2442 32c0 e280 873f c1c7 893f fe7e 333d
00000270: f0b2 723d f24c b1bf c876 c0bf db9a 97bd
00000280: d9d8 3fc0 3967 f8be 41a6 59bf 88fc 1f3d
00000290: 106c babe bf64 7dbf eefb 75bf e618 05bf
000002a0: cbfd 82bf ee8f babe 6b63 a03f f9d2 b8be
000002b0: dd17 e03f feec a5bf 1009 a2bf 3c06 fcbd
000002c0: c3db 64bf c0e9 003f 353d d53f 7b5a dbbe
000002d0: 5862 07bc 27c8 5abf 351f c6bd 028f 8bbf
000002e0: 381b 8f3e 3301 6fbf c262 21bf 84dc 5bbf
000002f0: f264 aabf 51f5 94bf 8465 42bf 9d9b 20bf
00000300: 2d04 47c0 0486 79bf d95c 57bf 82c6 f4bc
00000310: 61eb a8bf 7990 74bf 2b5d b2bf 7ea0 b5be
00000320: 21c1 0ebd 6e05 91bf efdc 93bf 702a 2cbe
00000330: 361a 35c0 f55e 19bf b898 a1bf c7e8 8bbd
00000340: c0d3 863f 6a80 66bf f256 56bf ccd9 18bf
00000350: c1dd 83bf a5c1 b9bf 2304 9bbf 5538 a2be
00000360: b6c4 5ac0 5b12 74be 1327 693f 798e 60bd
00000370: 76b7 c4be 8fb1 84be 05be 98be 2437 9bbf
00000380: 8eca 20c0 32e2 e3be 007c d0bf a53a babe
00000390: 54a3 efbe 9998 a6bf 4df0 9dbf 7bf9 44be
000003a0: b13d 39bd 48ff 713f c585 de3f 664b 2dbe
000003b0: 0e2d 20be cff5 6dbf 2441 47bf 2f00 e8be
000003c0: fa2f 0dbf e604 63bf 34f7 3fbf 44c6 4cbf
000003d0: 17d4 403e 2ea4 89c0 2513 2840 37af 75be
000003e0: f469 17bf 972d 95bf 37be 9abf 44a0 cfbe
000003f0: d3b8 5a40 5276 c5be 799c f1be a68e 583d
-0.011810427 -1.0621002 -1.2803668 -0.1349375 -0.8996472 -1.2614343 -1.1388474 -0.44076887
-0.07342571 -0.68620336 -0.32474968 -0.950103 -2.3064 -1.1320267 -1.4458216 -0.1744894
-0.027819384 -0.95286614 -0.9443988 -0.26235977 -0.65248346 -1.1398196 -1.2108896 -0.4217903
-0.39798996 0.033287663 0.7368149 -2.9770207 -1.5940211 -1.6060513 -1.6551429 -0.0018139693
-3.92095 -0.4388068 -0.009523978 0.068507716 -1.0053008 -0.8612858 -0.78999406 -0.7505128
-2.665925 0.9928756 0.7970157 0.0978292 -0.14174403 -1.5368807 -0.7037625 -0.8514723
-1.0679468 -1.5960134 -1.190488 -0.17372285 -0.979365 1.0300306 1.8712871 -1.0782502
0.042168833 -1.2604188 -1.7137042 -0.032092623 -1.0171964 -1.2704886 -1.4938704 -0.31713513
-0.1269793 -0.8011819 -0.5594637 -0.6716923 0.47499865 -0.80018824 -1.1326221 -0.9278015
-0.094510965 -0.5625417 0.009090915 -1.2558993 -0.027153762 -4.1960135 1.4903094 -0.26111552
-3.3564816 0.8997878 1.1063756 -0.119237185 -0.26897132 -0.9763309 -0.60428584 -0.49160755
-0.18200292 -1.1119639 -0.7936448 -0.6401604 0.64975065 -0.86008567 -1.2664711 -0.5046792
-0.079944335 0.96677077 -7.72577 -0.13840933 2.9311757 -0.08713286 -0.7334464 -0.043093856
-3.805733 -0.037455197 -0.0077973115 0.018688032 -0.9982973 -1.2535412 -1.3382367 -0.3410574
-2.5085034 1.0573163 1.0804554 -0.2976323 -0.2646093 -0.7907823 -0.5856618 -0.7473505
-0.19053116 -1.0067647 -0.96552396 -0.42012343 -2.7287178 -0.77347577 -1.048358 -0.06463497
-1.9398122 -1.6654673 -1.3559728 -0.24590157 -0.6975354 -1.3068463 -0.52919257 -0.95445603
-0.2591919 -0.9350207 -0.7696859 -0.5520183 1.0027269 -0.57843494 0.3636066 -0.5499206
-2.502439 -1.0473515 -0.5761644 -0.1321021 -2.5715027 -0.99109024 -1.4875063 0.01081068
-2.785287 1.0586207 1.0764085 0.04382228 0.05925268 -1.3851607 -1.5036249 -0.07402583
-2.9976103 -0.48516253 -0.8501931 0.039059192 -0.3641057 -0.9898185 -0.9608754 -0.51991117
-1.0233701 -0.36437935 1.253034 -0.3609846 1.7507282 -1.2962949 -1.2659016 -0.123058766
-0.8939783 0.50356674 1.6659304 -0.4284247 -0.008263193 -0.8546166 -0.09673921 -1.0903018
0.27950454 -0.93361205 -0.6304132 -0.85883355 -1.3312056 -1.1637365 -0.7593615 -0.6273745
-3.1096299 -0.97470117 -0.8412605 -0.029879812 -1.3196832 -0.9553295 -1.3934683 -0.35474008
-0.03485215 -1.1329782 -1.1551799 -0.16813064 -2.8297248 -0.5991052 -1.2624731 -0.06831508
1.0533371 -0.90039694 -0.8372642 -0.5970733 -1.0302049 -1.4512221 -1.2110637 -0.31683603
-3.4182563 -0.23835127 0.9107525 -0.054823373 -0.3842122 -0.25916716 -0.29832473 -1.2126203
-2.512363 -0.4450851 -1.6287842 -0.36372867 -0.46804297 -1.3015319 -1.2338959 -0.19235794
-0.04522485 0.94530153 1.7384573 -0.16923293 -0.15642187 -0.929532 -0.7783377 -0.4531264
-0.5515133 -0.8867935 -0.7498658 -0.7999003 0.18830906 -4.3012915 2.6261685 -0.2399262
-0.59146047 -1.1654538 -1.2089299 -0.4055196 3.4175308 -0.38566834 -0.47189692 0.052870415

utn.0.bias f4 [256]
00000000: bb53 0440 6ee1 5fc0 1fad 25c0 ffee b3bf
00000010: a65a 7b3f 21c4 3fc0 ac1b eebe fd86 2cc0
00000020: 95f1 7f3f 2be3 63c0 03a4 ee3f 6df5 6dc0
00000030: b0ed 61c0 2e06 9bbf afb0 4240 0426 35c0
00000040: 1618 5abf e1a3 e23e 056c 76c0 5829 df3f
00000050: c6de 793f f63b 9f3f 026b 0bc0 0e57 6c3f
00000060: 7610 c03f a23f 223f 2ea5 5b3f 6173 4ac0
00000070: 52f8 8c3f 9404 88bf cf3f 12c0 8877 bebf
00000080: 0c85 e5bf 17fd 43c0 dd32 66bf 1428 2fc0
00000090: 27d0 1ec0 552e 2fbf 983f bb3f e00c 4c40
000000a0: 2bab fcbf 0573 35c0 ed15 1bc0 78fd 17c0
000000b0: b38b 11c0 8409 f4bf 39c7 a7be 4042 5ec0
000000c0: a05d 803f aa20 30c0 b51a 1340 3d7a 37c0
000000d0: cf8d babf 6869 47c0 57c0 953f 1ab7 56c0
000000e0: ff23 a9bf 9950 38c0 6aa6 09c0 36cc aebd
000000f0: 425c 5ac0 e20c 473f 0a41 0ec0 0720 3e3f
00000100: 339d 263f af43 45c0 7e56 07bf 57e4 0640
00000110: 659f 413f c0e6 7abf 5e06 2ec0 c3dd 29c0
00000120: b67d 37c0 7850 62c0 55e8 803f 446e 41c0
00000130: dc04 37c0 679d f43f a06e 5ebf 7a4f 58c0
00000140: 7031 3fc0 3c2e 1fc0 e28f 6040 7c82 24c0
00000150: 0b12 35c0 be9f 4fc0 7625 60c0 dc26 4fc0
00000160: 0f04 46c0 b8ee 15c0 3bd2 28c0 18d0 2cc0
00000170: 94a5 33c0 6efe a4bf 8bb3 3cc0 d3da c0bf
00000180: b09a 33c0 c59c 2fc0 191f 35c0 ca76 f6bd
00000190: 9ead eebf b1ef 4bc0 83c2 52c0 892e b0bd
000001a0: e07e 4fc0 648c fdbf 1102 1740 4d50 c0bf
000001b0: 129b 803f 74dc 0040 1ba4 2dc0 bacc 42c0
000001c0: 127e 6fc0 41d7 1ebf 2670 18c0 5c12 273f
000001d0: ff2d e4bf 7782 49c0 e9d7 0440 9306 24c0
000001e0: e55b 0fc0 ab77 62c0 5661 4cc0 c6e2 f3be
000001f0: ceb0 53c0 be35 4dc0 8353 c7be fd1e 57c0
00000200: e816 5cc0 3027 54c0 f1ad a93f edc0 24c0
00000210: b433 8cc0 4f89 8fbf 2b27 10c0 9fd6 1a3f
00000220: 4200 d8bf 2bc4 8a3f f7cd 2cbe 0200 46c0
00000230: 2dad 22c0 fc40 27c0 803c 20c0 db83 3ac0
00000240: 1bfc 42c0 9527 1cc0 2ae2 46c0 f179 f03f
00000250: df69 57c0 0bab 68c0 539e 1ec0 3a96 0f3f
00000260: 316d 643f 202f 3bc0 3ba3 1cc0 cfb0 abbf
00000270: 6a43 52c0 cf5d 4ac0 9c2a 58bf 552c 1cc0
00000280: 1826 42c0 fef3 2cc0 8d90 adbe 9096 db3f
00000290: e2ef ab3e 03d3 0ec0 3c0b 5bc0 81d0 e6bf
000002a0: a460 45c0 8c4f 57c0 ae24 823e 64f7 cd3f
000002b0: 7507 8c3f 945f edbf 37ff 06bf 3a34 29c0
000002c0: 3cce 3dc0 38a1 a33e 6bed 303f 9e28 6bc0
000002d0: 6de4 343f f260 dabf 8922 87bf b3c6 adbf
000002e0: 9e38 0dc0 e0b8 dfbf e92d 18c0 f7eb 2fc0
000002f0: ded0 22c0 379e 51c0 df5d ccbf 9ec3 b3bf
00000300: eea3 8a3f b43b f4bf f9aa ed3f 24bc e2bf
00000310: f16f a43f 66e0 85bf 0b23 c83f 8e61 c7bf
00000320: efba dabe 4230 0ac0 da59 4ac0 baa8 43c0
00000330: 7821 53c0 01f5 543e 9cbc c6bf 810e 5abf
00000340: d69a f1bf 2e1d 8dbe 02c9 32c0 1f2a 57c0
00000350: 9023 29c0 e1d1 e03f 8694 f13f 7c3c 29c0
00000360: 2506 423e 6b4a fbbf 07a6 77bf 9928 07c0
00000370: 66bc 25c0 49a5 03c0 6a56 06c0 2154 47c0
00000380: f803 2ec0 b0e2 3bc0 c4c3 4640 2a32 3cc0
00000390: ce0a 67c0 6b8b 47c0 9547 a73f 8b66 1b40
000003a0: 9b53 37bf a13d 43c0 ed37 d73f 89c4 25bf
000003b0: 8b24 a63f bdcd 2540 154c 2fc0 ae52 55c0
000003c0: 1281 b63f a38a a7bf 38e9 68c0 603f cabf
000003d0: e22a 81c0 b5fb 2fc0 6ddf 5c3f 3deb 3cc0
000003e0: 791e 6bc0 f7d4 49c0 aabc fb3f 61a2 04c0
000003f0: 499f 31c0 4a0a 40c0 32f3 953f bd3c b43f
2.0676105 -3.4981341 -2.5886915 -1.4057311 0.98185194 -2.9963458 -0.46505487 -2.695739
0.99978 -3.5607402 1.8643802 -3.7181046 -3.5301323 -1.2111261 3.042034 -2.8304453
-0.85193 0.44265655 -3.850343 1.7434492 0.9760555 1.2440174 -2.1784062 0.92320335
1.5005023 0.63378346 0.8579892 -3.1632922 1.1013281 -1.0626397 -2.2851446 -1.4880228
-1.7931228 -3.0623224 -0.8992136 -2.7368212 -2.4814546 -0.6843007 1.4628782 3.1882858
-1.9739736 -2.8351452 -2.4232132 -2.3748455 -2.2741516 -1.9065404 -0.32769182 -3.4727936
1.0028572 -2.7519937 2.298505 -2.8668358 -1.4574527 -3.1158085 1.1699322 -3.3549256
-1.321411 -2.8799193 -2.150782 -0.08535044 -3.411881 0.7775403 -2.2227197 0.7426762
0.65083617 -3.082256 -0.5286635 2.1076868 0.7563384 -0.98008347 -2.7191386 -2.6541603
-2.8670478 -3.5361614 1.0070902 -3.022355 -2.8596716 1.9110535 -0.8688755 -3.3798509
-2.9873924 -2.487197 3.508782 -2.5704641 -2.8292263 -3.244125 -3.5022864 -3.2367468
-3.0939977 -2.3426952 -2.6378314 -2.700201 -2.806981 -1.2890146 -2.9484584 -1.506678
-2.8063164 -2.7439435 -2.830023 -0.12034376 -1.8646734 -3.1865046 -3.293122 -0.08602626
-3.2421188 -1.9808469 2.3595011 -1.5024506 1.0047324 2.0134554 -2.7131412 -3.0437455
-3.7420697 -0.620472 -2.381845 0.6526239 -1.7826537 -3.148588 2.075678 -2.5629013
-2.2399838 -3.538554 -3.193441 -0.47633952 -3.3076663 -3.2064052 -0.38930902 -3.3612664
-3.438898 -3.3148918 1.3256208 -2.5742753 -4.3813114 -1.1213778 -2.2523906 0.60483736
-1.6875079 1.0841116 -0.16875444 -3.0937505 -2.5418198 -2.6133413 -2.5036926 -2.9142978
-3.0466373 -2.439916 -3.107554 1.8787214 -3.3658369 -3.6354396 -2.4784133 0.560886
0.8922911 -2.9247513 -2.4474628 -1.3413333 -3.2853646 -3.1619756 -0.84440017 -2.4402058
-3.033575 -2.702392 -0.33899346 1.7155323 0.33581454 -2.2316291 -3.4225607 -1.803238
-3.0840235 -3.3642302 0.2541861 1.6091123 1.0939776 -1.8544793 -0.52733177 -2.6438127
-2.9657125 0.31958938 0.6911227 -3.674354 0.7066105 -1.7060835 -1.0557414 -1.3576263
-2.2065806 -1.7478294 -2.3778021 -2.7487772 -2.5439982 -3.2752817 -1.5966147 -1.4044073
1.0831277 -1.908072 1.8567802 -1.7713666 1.2846662 -1.0459106 1.5635694 -1.5576646
-0.42720744 -2.1591954 -3.161734 -3.0571733 -3.2989178 0.20796587 -1.5526309 -0.8517838
-1.8875377 -0.27561325 -2.7935185 -3.3619459 -2.6427956 1.756405 1.8873451 -2.6443167
0.18947656 -1.9632086 -0.9673771 -2.111853 -2.589624 -2.0569632 -2.0990243 -3.1145098
-2.7189922 -2.935711 3.1056986 -2.9405618 -3.6100345 -3.1178844 1.306872 2.4281337
-0.71611947 -3.0506365 1.6813942 -0.64753014 1.2979902 2.5906823 -2.7390187 -3.3331714
1.4258139 -1.3089184 -3.6392345 -1.580059 -4.0364847 -2.749738 0.8627842 -2.9518578
-3.673735 -3.1536233 1.9666951 -2.0724108 -2.775347 -3.000628 1.1714842 1.4081036

utn.2.weight f4 [128, 256]
00000000: 0d36 56be 100a 38be c2c3 773e 0ea9 a8bf
00000010: 0792 963e 1ecf 8bbe 4794 d23d 9c6a 06bf
00000020: c1fc 0cc0 8c2b 22be a031 87bf 6d32 d33d
00000030: 73ac 7bbe 0436 ecbe 4b80 ddbe a7f3 f1be
00000040: 1751 b73e 0310 ce3e 0c8d 1c3e 8e51 1a3f
00000050: 56b6 f2bf 685b 7bbd 5fe5 5c3d f32f 923e
00000060: 845d 2abd 1175 9fbc 704d 0ac0 fed4 c0be
00000070: 4de8 8cbf 1e2f dc3d ee19 963a d643 dbbf
00000080: 4d92 6dbf b03d 11bf 9801 a23d a50f bb3e
00000090: aa4a 94bf 64a5 0bc0 975d b0bf 5562 d3bd
000000a0: ee34 05c0 f918 14be 03d3 29bf e54b 963f
000000b0: cd8b 7bbf f9e3 b33e ddda 2a3f 2223 81be
000000c0: 32cf cebf 3c8e 7bbf a56f 1abe 9dc8 2ebf
000000d0: 1c89 083f c462 00bf 5331 f4bf 9514 77bd
000000e0: 3de6 a7bf 97e0 66be cee0 05bf 8bee 6c3e
000000f0: e4bb 37be 8fd0 813f 044d f1be d801 d23e
00000100: c961 fbbf cdc5 e4be aba8 863e 6870 51be
00000110: fd09 0ec0 c042 8d3f ad1b 34bf a5a6 6c3e
00000120: 339d 11bf ec5c 2dbf d86f 6c3e 27bc c5be
00000130: f6db 95be 945a ce3c fb9d 343e 7711 d1bd
00000140: 9982 05bf 5fe2 b23f a183 1dbf 1718 a93f
00000150: f629 43be 2374 adbe 8df2 fdbd 2f23 f2be
00000160: be42 07bf 2e2d 33bf 16c7 77bf e822 dbbe
00000170: 76ec 23bf 27e7 e3bf 0a74 e1be bce7 a63e
00000180: 45bb 98be d063 9fbf 9b76 36bf 33c4 bb3d
00000190: 51ec 0d3e 4a8f cebe 431b 84be 9db6 043f
000001a0: c311 21bd d2f2 003e 3ecd ae3d ebb4 72bd
000001b0: 254f 9ebd 3fb1 ee3e 67d8 23bf 63fc d1be
000001c0: f6af 1b3d d3d3 743e 9e12 1cbf e706 06c0
000001d0: 994d 26be 6297 99be 0197 383f 451b 2cbf
000001e0: 79d9 57bf 25f4 bfbe 64d0 e1be fdc0 db3d
000001f0: c00f 2bbe d1ce eabe ee59 ff3e bd28 b7be
00000200: 6257 87be f321 dfbe dd6b d73e 2608 c3bf
00000210: c7eb 8d3e 82a2 afbf 4700 e5be bc84 bebf
00000220: edf2 9e3e b9a8 ea3e b1d2 3b3e 1f65 8fbe
00000230: 57f1 32bf b204 02bf 5356 a53e 3e48 c2be
00000240: 152b 13bf 20e3 90bf 7193 67be 922e fe3e
00000250: f7d9 d6be 1ab9 3bbe a308 dcbe 5072 c0bf
00000260: c42d c43e 2298 d9be 9147 ed3e daaf 6f3c
00000270: c4fa b4be d50e 11bf d435 113f 3f63 63bf
00000280: 6fe1 40bf b8c5 46bf 64b3 8fbf 6016 4b3c
00000290: 2abe 4d3e 7fbb 48bf 4ca7 52be 2746 30bf
000002a0: b0d5 e0be 9a55 bcbe 6e7d 6c3e 56a8 f43e
000002b0: d8ed 4d3f baec bdbe 601b 4a3f 9c94 e1be
000002c0: 0a43 cebe 4933 86bf 7871 b9bf b6ef 27bd
000002d0: bc72 4e3e d0ef 8fbe d076 e03d 3610 90be
000002e0: 4761 cbbf 418b 8ebf d477 eabe e941 17bf
000002f0: 275f c83f dde2 68bf 8aa8 873d 2386 303e
00000300: f7d7 e3bf 7f5b 90be dafd ad3e c5ed 53bf
00000310: bd5d 03c0 f081 753e ce93 0c3e 2974 e0bf
00000320: 10dc 8b3e 2f21 c6be aecf 82bf 827d 8bbe
00000330: 8512 203b 82cb 3f3e 2fef a93e 2c23 2a3f
00000340: 200f c0be 1382 433e ef85 e4be f4a0 55be
00000350: 6d37 b2be ee2b 853e 307d a5bf c428 793f
00000360: cb90 f53e f7d9 b83e 6916 7cbf 3930 6f3f
00000370: ae21 0ebf c151 e4be 426a 693e 1389 b6bd
00000380: eaf9 0cbf cc1b e4be 5e22 a4be d5d5 adbe
00000390: 8d90 e2bd 05ce 10bf cde6 ca3d b93b 113f
000003a0: ee1e ca3e c17b 19bf 19a9 6e3f be54 a5be
000003b0: 1dfb cdbe 4493 84be 4be4 e5be 5860 f4be
000003c0: 3340 a6bf 2169 04bf 0ca5 b63e 7ae9 823f
000003d0: 32a8 493e 03bf 89be 45fc ec3e 4abb 8dbd
000003e0: 4957 84bd b21d 5cbf 651d 023f 5628 f7bf
000003f0: c121 debe 3e85 80be de83 ae3d 5569 463c
-0.20919056 -0.17972589 0.2419577 -1.3176591 0.29408285 -0.27306455 0.10282188 -0.52506423
-2.2029269 -0.15836924 -1.0562019 0.10312352 -0.24577503 -0.4613496 -0.43261942 -0.47256204
0.35804054 0.4024659 0.1528818 0.6028069 -1.8961895 -0.06136647 0.053929683 0.28552207
-0.04159309 -0.019465001 -2.1609764 -0.376625 -1.1008393 0.107511744 0.001145182 -1.7130077
-0.9280136 -0.5673475 0.0791046 0.36535373 -1.1585286 -2.1819696 -1.3778561 -0.1032149
-2.0813556 -0.14462651 -0.66337603 1.1741911 -0.98260194 0.35134867 0.6674021 -0.25222117
-1.6156981 -0.9826391 -0.15081652 -0.6827486 0.5333421 -0.50150704 -1.9077553 -0.060322363
-1.3117138 -0.22546612 -0.5229615 0.23137872 -0.17942768 1.0141772 -0.4712907 0.41017032
-1.9639217 -0.4468216 0.26300558 -0.20453036 -2.2193596 1.1035995 -0.7035473 0.23110445
-0.5688049 -0.6771991 0.2308954 -0.3862011 -0.2926938 0.025189675 0.1763839 -0.10208409
-0.521524 1.3975333 -0.61528975 1.3210477 -0.19058976 -0.33877668 -0.123997785 -0.47292468
-0.52836215 -0.69990814 -0.96788156 -0.4280007 -0.64032686 -1.7804917 -0.44033843 0.32598674
-0.29830375 -1.2452335 -0.7127473 0.091682814 0.13859679 -0.40343696 -0.2580205 0.51841146
-0.03932358 0.12592629 0.085352406 -0.059254568 -0.07729939 0.46619603 -0.6400208 -0.41012868
0.038009606 0.2390893 -0.6096591 -2.0941713 -0.16240539 -0.29998308 0.72105414 -0.6722911
-0.8431621 -0.37490955 -0.44104302 0.10730169 -0.16705227 -0.45860913 0.49873298 -0.35773268
-0.26433855 -0.4358059 0.4207448 -1.5236862 0.27718946 -1.3721468 -0.44726774 -1.4884257
0.31044713 0.4583185 0.18342091 -0.28006837 -0.69899505 -0.50788414 0.32292423 -0.3794574
-0.5748761 -1.1319313 -0.22614838 0.49644905 -0.4196317 -0.1833233 -0.4297534 -1.5034885
0.38316166 -0.4249888 0.46343663 0.014629329 -0.3534757 -0.56663257 0.5672276 -0.8882331
-0.75343984 -0.77645445 -1.1226621 0.012395471 0.20092073 -0.78411096 -0.20571631 -0.68857044
-0.4391303 -0.3678406 0.23094723 0.4778468 0.80441046 -0.3709467 0.7894802 -0.44058692
-0.40285522 -1.0484401 -1.4487753 -0.04100009 0.20160955 -0.2811265 0.10960162 -0.28137368
-1.5889062 -1.1136247 -0.45794547 -0.59084946 1.5654038 -0.90971166 0.06623943 0.17238669
-1.7800282 -0.28194806 0.33982736 -0.8278468 -2.0525963 0.23975348 0.13728258 -1.7535449
0.27316332 -0.38697192 -1.0219629 -0.27244192 0.00244251 0.18729976 0.33190295 0.6645992
-0.3751154 0.19092588 -0.44633433 -0.2086218 -0.34807912 0.26010078 -1.2928829 0.9732783
0.4796203 0.36103794 -0.98471695 0.93432957 -0.5552014 -0.44593623 0.2279444 -0.089128636
-0.5506884 -0.44552457 -0.3205747 -0.33952203 -0.11062727 -0.5656436 0.09907303 0.56731755
0.39476722 -0.5995446 0.9322677 -0.32291216 -0.40230647 -0.25893605 -0.44900736 -0.47729754
-1.2988342 -0.51722914 0.35672796 1.0227501 0.19693068 -0.26903543 0.46286216 -0.06920488
-0.06461961 -0.8598281 0.508261 -1.9309185 -0.43385127 -0.25101656 0.085212454 0.012110074

utn.2.bias f4 [128]
00000000: 933f b3be 5c2b c6be 36c2 dbbe 9483 80be
00000010: 514f d8be 13e4 2abe e8e7 dabe 6a60 2fbf
00000020: 01ca d7be cf5c 0fbe ace2 b7be 5d48 96bd
00000030: 1a0e a93e bf81 ddbe 4f2e b9be 19a9 a6be
00000040: 819c bdbe de68 dcbe 94b4 cbbe 77ae bebe
00000050: b4ea d1be 00a4 edbe cda9 90be d91d 0ebf
00000060: b4d8 2fbc dcae fbbe 60bb 20be 50a5 d7be
00000070: c80f 9cbe 9366 f1be ab9e bdbe 426a 73be
00000080: ffe7 273e 2eb4 87be b673 d7be c6bf 7d3c
00000090: 125a 1e3e 1902 1c3e 7ab7 45be be2f 143d
000000a0: e596 51be 96ca efbe a80a 05bf 4373 c8be
000000b0: 50d4 61be fc2d 11bf 0e3b f9be 9c8a 37be
000000c0: 0f42 bcbe 3d59 93be 6cdd c2be f87c e9be
000000d0: 2c57 ca3e ed88 00be 8c55 f9be 2d59 c5be
000000e0: 0a3d 8ebe 197a 2cbe 57bb 71be 0932 e4be
000000f0: f879 dbbe b2a4 263d 6d16 d9be 7404 bfbd
00000100: 77a1 7abe b277 bcbe 9499 a5be bc05 1f3f
00000110: 254a 40be ad61 a6be c223 aebe c9f7 9cbe
00000120: 570a a0be 8317 01bf fe39 b0bd 0ef4 0cbf
00000130: cdcc eabe da8c 293d 9cc9 ebbe e6c3 0bbe
00000140: 19d6 b9be d514 2ebd b984 e4be ed09 eabd
00000150: 6baf 103e 645a 01bf 4f80 7cbe 084b dbbe
00000160: 8368 00bf 9419 cfbe 7612 16bd 4011 e7be
00000170: 073e dbbe 1e21 5abe 18fa d1be 8e62 4a3e
00000180: 2ba6 adbe b013 a4bd b23a f83d 565d d5be
00000190: de8a 05bf 1790 21bf 987c 80bd 3910 38bc
000001a0: 4c45 d6be e21a 48be cb64 dfbe bcd7 f6be
000001b0: 2a70 54be 45f7 71be 4395 e6be 74fe abbe
000001c0: 2891 e8be 600a 40be 50a5 483d eb5a 9ebe
000001d0: cf5a 9ebe e115 c8be 2cf2 83be c2a0 93be
000001e0: dca2 1abf 718e 1ebf 43a1 80be f605 40bd
000001f0: 7677 12bf 378d 1ebe 52cc 75be 36fc 99be
-0.3500944 -0.38704956 -0.4292161 -0.25100386 -0.42248014 -0.16688566 -0.42755055 -0.6850649
-0.42146304 -0.14000247 -0.35915124 -0.07338021 0.3301857 -0.4326305 -0.36168143 -0.32550886
-0.37033466 -0.43048757 -0.39786208 -0.3724248 -0.40999377 -0.46414185 -0.28254548 -0.55514294
-0.010732818 -0.49156845 -0.15696478 -0.4211831 -0.3048079 -0.4714857 -0.37035117 -0.23771003
0.16397093 -0.26504654 -0.42080468 0.015487617 0.15464047 0.15235175 -0.19308272 0.036178343
-0.20467718 -0.46834248 -0.51969385 -0.39150438 -0.22053647 -0.5671079 -0.48677868 -0.17923969
-0.3676915 -0.2877902 -0.38059556 -0.45603156 0.39519632 -0.12552233 -0.4869808 -0.38544598
-0.27780944 -0.16843452 -0.2360662 -0.44569424 -0.42866492 0.04068441 -0.42399922 -0.09327021
-0.24475656 -0.3681007 -0.32343733 0.62118125 -0.18778284 -0.32496396 -0.34011656 -0.30657795
-0.3125789 -0.504265 -0.08604811 -0.550599 -0.45859376 0.041394092 -0.46052253 -0.13648948
-0.36296156 -0.042500336 -0.4463251 -0.114276744 0.14129417 -0.5052855 -0.24658321 -0.42830682
-0.5015947 -0.40449202 -0.0366387 -0.45130348 -0.4282076 -0.21301696 -0.4101112 0.19764158
-0.3391584 -0.080115676 0.1212057 -0.41672772 -0.5216502 -0.6311049 -0.06273764 -0.0112343365
-0.41849744 -0.19541505 -0.43631586 -0.48211467 -0.20745912 -0.23629482 -0.45035753 -0.3359257
-0.45423245 -0.18753958 0.04898578 -0.3092874 -0.30928656 -0.39079192 -0.257707 -0.28833586
-0.60404754 -0.619361 -0.25123033 -0.046880685 -0.5721353 -0.15483557 -0.24003723 -0.30075234

utn.4.weight f4 [15, 128]
00000000: 0dfc d3bd 63cd edbd 043a 5cbe 9f40 56bd
00000010: 4c09 33be 8428 293e f5d0 fdbd 4208 04be
00000020: d434 c8bc f8b7 0a3f 4ee9 4bbe 01ed 533e
00000030: 3408 97bc 5356 e0bd 4b1f ddbd d52c 8cbd
00000040: c2b7 173f fecf 82be 5b85 fdbd 3890 b6be
00000050: bfe1 ae3d 4314 59be d618 cbbd 84eb 003e
00000060: fd1c fa3e c559 5abe 6d4e 5040 bcd4 e9bd
00000070: d5a9 83be e56f 0cbe b121 803f 0bd2 a6bd
00000080: ad39 ccbf f050 883d 386a 3a3f 686f 25bc
00000090: 2461 80be f01a aebe 4918 713d 8be7 0d40
000000a0: 0e76 ca3e 77fd ccbe 60d9 4b3d db7d 43bd
000000b0: 1a12 053f a931 4ebd d19d 0ebe 2de2 483f
000000c0: c31c fc3e a1b8 063e cfc8 c03f efad 003e
000000d0: 18ea a6be c6ad 1f3e 4637 83be 9d8d f6bd
000000e0: aee1 513e f89b 71be d287 f43e 25e5 853e
000000f0: 65b7 4abe 35a3 9d3f 6b8b 45be 821b bcbf
00000100: ea1e fcbe 3314 6c3e 1686 51be 9057 b9be
00000110: 3d50 b1bf 5129 02be ea3c a1be 4078 4740
00000120: 4b88 f2bd 6c74 6a3e f54d a93e fbd1 cb3e
00000130: 048e b93d e498 353c f426 d83d 835e 0dbf
00000140: 2a6c 3fbd 2c31 07bf d878 3abd d963 a7be
00000150: 1a03 473e 3d82 1ebe 620f fd3d a83c a2be
00000160: 3ab0 2f3f 5be8 463d 659c 29bc 931a 213f
00000170: 75c6 a13c 3270 803e bb1e 58bd 1c8f 5c3f
00000180: b0f2 abbd c6f8 103f eb77 7b3f 9045 d6be
00000190: d024 8cbe c4ed fa3e a3ee 1bbf 359a 863d
000001a0: c050 8bbd 8e50 453f 322d 0fbe e4a3 9f3e
000001b0: 68f0 f43f c62c b33d 9ca3 513e 856a 193f
000001c0: 0589 083e 75a0 9c3e 8310 ac3e 3f2c 2a40
000001d0: c328 dd3e 7f04 adbe 4b45 d8be 17a2 133e
000001e0: 71e6 46be 0c5f 45be 9037 8f3e 2233 cb3e
000001f0: 94c8 1b3e 117b 8a3d deeb f83e 6e6d 9b3e
00000200: efc9 46bf a24c c4be 568e c43d 31ec ca3d
00000210: 16ed 9abe 686c 2d3c 4d9d d2be 689a 03bf
00000220: 22f2 d0be a662 f13f 4f45 4bbe 0ced e73e
00000230: 3e00 77be fe0c a6be 8ca9 0abe b53d 88bc
00000240: 37c0 6e3f 3c52 6ebe 5cb1 f2be 96c8 4dbf
00000250: 2c02 b7be 8c56 20be 9d6f b2bc d7c1 0dbf
00000260: 8932 25bd 06a2 f1bd d0c8 2f40 6d67 d2bd
00000270: 68ae 13bf f29f 86be fb7b aabe 27c9 203c
00000280: 64db 94be dc65 073e 4d50 423e 6844 463f
00000290: 8d80 12be deac c53e a679 3ebd bc82 1f40
000002a0: 1a56 f0bd 84f2 17bf 2c0f c1be 2e30 8bbe
000002b0: b376 a33e 433b f1be 1981 b0bd 98bd ee3d
000002c0: 34ef dfbd cba2 79bd ced1 c43f ca59 60be
000002d0: 7811 13bf aa05 b43e bf68 81bf bb51 febd
000002e0: b312 c33f 4f3b 4bbe 0dca d7bd 48ef 8bbe
000002f0: 33df a4be 2c27 193e 3de5 733d 1259 acbd
00000300: c46b 29bf 9b59 99be fa15 a93e 13df a3be
00000310: 07a3 34be 2f4e 05be 22d4 2dbf a33c dd3f
00000320: 3d9d 34be 29c5 46bf 523b f63e 5083 7bbe
00000330: e50a f0be e5ac 7c3f 541c c8be e9a2 763e
00000340: 0f4e 4bbf 1729 cebe 758e a0bc d75e 353f
00000350: 2a08 4bbb 38e3 39bf 1f76 c83c e664 9ebd
00000360: dab5 43bf 0b0b 45be c8e3 1e3f 9f5c e4be
00000370: 17cf 34bf 711d 9abe 51b0 a93d d649 2e3f
00000380: 5694 aabe e16d ae3e 8e70 5b3f 0b11 893e
00000390: 44c1 c0be b100 4cbf a86d 54be 4a19 563f
000003a0: a29f fdbd 0bee b9be 9634 633c 0853 91be
000003b0: 9305 0240 2e08 4ebe d897 d9be 2796 01be
000003c0: d2f7 18be 1721 39bf f120 8b3f d7ab 0340
000003d0: 5c5f 083e 779f f7bc a0f5 59bf 268e 05bd
000003e0: a4b9 26bf 494a 16bf 5cce 863e 25e2 923c
000003f0: 0052 01bf 5747 9cbe e38c 333f f5b6 5c3d
-0.10350809 -0.1161144 -0.21506506 -0.05230772 -0.17484015 0.16519362 -0.12393371 -0.12893775
-0.024439253 0.54186964 -0.19913217 0.20695879 -0.018436529 -0.10953965 -0.10796984 -0.068444885
0.5926477 -0.2554931 -0.12378951 -0.35656905 0.085391514 -0.21199135 -0.099168465 0.12589842
0.4885024 -0.21323307 3.2547867 -0.11417529 -0.2571551 -0.1371456 1.0010282 -0.08145531
-1.5955101 0.066560626 0.72818327 -0.010097362 -0.25074112 -0.34004927 0.05886105 2.2172573
0.39543194 -0.40037128 0.04976785 -0.047727447 0.51980746 -0.05034033 -0.1392739 0.78470117
0.49240693 0.13156368 1.5061282 0.1256635 -0.32600474 0.15593633 -0.25628108 -0.12038729
0.20496246 -0.23594654 0.47759873 0.26151386 -0.19796522 1.2315432 -0.19291465 -1.4695895
-0.49242336 0.2305458 -0.20461306 -0.36199617 -1.3852612 -0.12711073 -0.31491786 3.1167145
-0.11842402 0.22895974 0.3306729 0.3980864 0.090602905 0.011083815 0.10554305 -0.5522234
-0.046734013 -0.52809405 -0.0455254 -0.32693365 0.19434777 -0.1547937 0.1235645 -0.31686902
0.68628275 0.048561435 -0.010352229 0.62931174 0.019747952 0.25085598 -0.05276368 0.8615587
-0.08395898 0.566296 0.98229855 -0.41849947 -0.27371836 0.49009526 -0.60911006 0.065723814
-0.06802511 0.7707604 -0.13982084 0.31179726 1.9135866 0.08748774 0.20472568 0.5992816
0.13333519 0.3059117 0.33606347 2.6589506 0.4319516 -0.33792493 -0.42240366 0.14417301
-0.19423844 -0.19274539 0.27972078 0.3968745 0.15213233 0.06761754 0.48617452 0.30356926
-0.77651876 -0.38339716 0.09597461 0.09908331 -0.30259007 0.010584928 -0.41135636 -0.5140748
-0.40809733 1.885823 -0.19850658 0.4529804 -0.24121186 -0.32431787 -0.1354124 -0.016630987
0.93262047 -0.23273557 -0.4740094 -0.80384195 -0.35743845 -0.15658015 -0.021781737 -0.553739
-0.040331397 -0.11798482 2.7466316 -0.10273633 -0.57688 -0.26293904 -0.33297715 0.009813583
-0.29073632 0.1322245 0.18975945 0.7744813 -0.1430685 0.3860845 -0.04650273 2.4923544
-0.117351726 -0.59354424 -0.37706888 -0.27185196 0.31926498 -0.47115526 -0.086183734 0.11657256
-0.10934296 -0.060946267 1.5376527 -0.21909252 -0.5744853 0.3516057 -1.0110091 -0.124179326
1.5240082 -0.19846843 -0.10536585 -0.27330995 -0.32201537 0.14956349 0.05954479 -0.08415426
-0.6618006 -0.29951176 0.3302458 -0.3200613 -0.17640315 -0.13018106 -0.67901814 1.728413
-0.17638107 -0.7764459 0.48092133 -0.2456181 -0.46883312 0.98701316 -0.39084113 0.24085583
-0.7941598 -0.40265724 -0.019599179 0.7084784 -0.0030980208 -0.72612333 0.024470387 -0.077340886
-0.7644936 -0.19242494 0.62066317 -0.44601914 -0.70628494 -0.30100587 0.08285583 0.68081415
-0.33316296 0.34068206 0.8571862 0.26770815 -0.3764745 -0.79688555 -0.20744956 0.8363234
-0.12383963 -0.36314425 0.013867518 -0.2838366 2.0315902 -0.20120308 -0.4249866 -0.12654935
-0.14938286 -0.72316116 1.0869428 2.0573633 0.13317627 -0.030227406 -0.8514042 -0.032606266
-0.65127015 -0.587071 0.26329315 0.0179301 -0.5051575 -0.30523178 0.7013685 0.05388542

utn.4.bias f4 [15]
00000000: f201 9cbe bc16 913d 208e df3e 773f 5bbe
00000010: fc25 ee3e cfb1 7d3e 072c 6dbe 50b7 c9be
00000020: 0f44 543e 1eea febd a8db 7fbe e517 173f
00000030: cab0 5cbe b081 b7be 43a5 63be
-0.30470234 0.07084414 0.4366312 -0.21410929 0.46513355 0.2477486 -0.23161326 -0.3939767
0.20729087 -0.12446998 -0.24986136 0.59020835 -0.21551815 -0.3584113 -0.22231011

itn.0.weight f4 [256, 2]
00000000: 9dbb ce3f 548d b2be 4a48 6abf 2138 68c0
00000010: eb01 e3bf af4e 2abf e5bf cf3e 4e8a bac0
00000020: 3bc2 c03f 47cf 18bf 5cf2 f1bf e63a 8dbf
00000030: 54fb d3bf f189 00c0 19c2 0540 38ac 81bf
00000040: a4d8 df3f dce3 44bf ab40 593f 4af7 51c0
00000050: 10e7 cebf d68c 033f c7a4 b23f a242 9bbf
00000060: 7dd7 b83f b2aa 44bf ac8b e13f 6d0e 013f
00000070: 30f4 c9bf e59c 603f e858 ec3f ea55 51bf
00000080: 697a dcbf d22e 1bbd 0675 e2bf d7f3 60bf
00000090: 5098 0440 c158 51bf 40a1 d03f 14cc ccbf
000000a0: 68a9 0a40 c74b f1bf 0bf1 923e a0d1 b5c0
000000b0: cdb2 223f b0ac 76c0 a191 d7bf 80d2 883f
000000c0: b8d4 cabf dea3 d13e 50de c9bf 8226 e83e
000000d0: 2e71 b3bf 25e2 35c0 e177 00c0 a916 f13f
000000e0: 34b1 dd3f 03bc 8ebf 9d68 c3bf 5365 0d3f
000000f0: 0549 adbf d5e8 44c0 90e5 e3bf 4184 0abf
00000100: 9f2a 28bf afc5 2e40 1396 cbbf 7614 cd3f
00000110: a7fc dbbf c844 d23e b3bb d3bf 0fa2 e73f
00000120: d5d0 cebf 33d2 713f 8047 01c0 6cfe a2bf
00000130: 410c e0bf c804 17c0 0d9b ffbf 716c d9bf
00000140: ead5 ebbf 163e a63f e420 25be 2eff a8c0
00000150: 5f21 bfbf 1d38 853f 9f2e fcbf 523f 46bf
00000160: 7759 fabf 3436 14c0 33ba ebbf fff3 15c0
00000170: 4e2c d9bf 5e25 07c0 bde5 203e 7dfc 84c0
00000180: 1259 cf3f b5e7 11bf f91f e4bf 8e89 bebd
00000190: a919 643f b428 50c0 a1a1 f8bf d845 693f
000001a0: e46d 823f 532c 7dc0 589d cd3f 2be8 04c0
000001b0: a3f9 d3bf 592f 633e f619 e5bf 4851 753f
000001c0: a985 d1bf 0e2d 9e3f 2756 dfbf 6dfa f93f
000001d0: b155 e2bf 642d 1c3f f819 14c0 150a 1ec0
000001e0: f32d e6bf 80b7 23be 9063 d4bf e63b e93e
000001f0: 97e5 f6bf d303 f3bf 5f47 95bf 41ad 6ec0
00000200: 0f30 e9bf 61d1 22bf c8ad 06c0 b817 afbf
00000210: 8d87 d4bf 025f d93f 30fa 61bf dac8 7bc0
00000220: 2e20 ee3f d5de 7fbf 5217 fa3e 0829 4cc0
00000230: e71d 00c0 a561 bebf aba2 683f 747d 4ec0
00000240: 4429 bf3f 87a8 e7bc 0c06 c7bf dcd5 7f3f
00000250: 2c29 fcbf 7fe1 d8bf 5029 0540 e0f3 9abf
00000260: 691a 2d3f 51d1 05c0 ff70 d53f e973 ecbf
00000270: 5695 d6bf 23f7 8d3f 86f4 dfbe 985d a3c0
00000280: 1c19 00c0 f11f b5bf 4cb5 86bf b85e 5dc0
00000290: f728 f6bf a035 de3f 5d6f c8bf 7978 a03f
000002a0: fe03 f3bf 621b da3d b8c0 ddbf 940f 353f
000002b0: 85a9 60bf 8378 9040 3f9b 8d3f e5ec 4fc0
000002c0: 4ea6 49bf eb93 5ec0 5093 a7bf 41c8 f03f
000002d0: 8343 e4bf 5109 bb3e 4a10 bc3f 1c90 96be
000002e0: 5746 f7bf 2864 60bf a2de 08c0 3ff6 d4bf
000002f0: 360a ecbf 8672 c2bf 2b07 af3f af07 0dc1
00000300: b317 cbbf 939b 19c0 eee1 d4bf 37d8 2340
00000310: e778 ff3e b3f0 4bc0 fa39 cc3f 82b3 423f
00000320: 560d 0240 f709 9d3e 760c d93f c4c5 553f
00000330: 3654 b4bf 2ef7 d03f 7794 9b3f e99d c43e
00000340: 6f6b f1bf b338 fd3f bc9d f1bf 2e72 cebe
00000350: 5f81 c6bf 6976 2f3f 98cd d4bf 56c6 b33e
00000360: ecca cdbf d03c 50be 40e9 de3f c27d 92bf
00000370: 73c1 c53f 8a0d 52bf 1bb6 cdbf 923c 44be
00000380: b7f2 dcbf 97b9 143e 0a81 f3bf c407 febc
00000390: 97f0 ea3f 783a 80bf dc03 d23f 493d 1dbf
000003a0: 99ce db3e 37d2 a0c0 98f1 3d3f 2145 6fc0
000003b0: 8f95 e9bf 500b d7bf 1d66 d9bf cf69 0d41
000003c0: c78f bbbf 5f40 d73f 956f 9dbf 16a1 54c0
000003d0: bd7b adbf aeec 2f40 f316 e4bf 4803 dd3e
000003e0: 540c b6bf 6cd7 4dc0 2b96 debf c553 2d3f
000003f0: 2191 ab3f 97fb 15c0 fd21 eebf 3f0a 0cc0
1.6151005 -0.3487345 -0.91516554 -3.6284258 -1.773496 -0.6652631 0.4057609 -5.829383
1.5059274 -0.5969128 -1.8902087 -1.1033599 -1.6561074 -2.0084193 2.0899718 -1.0130682
1.7487988 -0.76910186 0.848643 -3.2807183 -1.6164265 0.51386774 1.3956536 -1.212971
1.4440762 -0.7682296 1.762075 0.50412637 -1.5777645 0.877394 1.8464632 -0.8177172
-1.7224857 -0.03788645 -1.7691963 -0.8787207 2.0717964 -0.8177605 1.629921 -1.599978
2.1665897 -1.885125 0.28699526 -5.681839 0.6355408 -3.85429 -1.6841317 1.068924
-1.5846167 0.40945333 -1.5770969 0.4534188 -1.4018915 -2.8419278 -2.0073168 1.883504
1.7319703 -1.1151127 -1.52663 0.55232733 -1.3537909 -3.076711 -1.7804432 -0.54108053
-0.65690035 2.7308156 -1.5905174 1.6021869 -1.7186478 0.410681 -1.6541656 1.8096331
-1.615748 0.94461364 -2.019989 -1.2733893 -1.750374 -2.3596668 -1.9969193 -1.6986219
-1.8424656 1.2987697 -0.16125828 -5.28115 -1.4932059 1.040775 -1.9701728 -0.7744037
-1.9558553 -2.3158083 -1.8416198 -2.3430173 -1.6966646 -2.1116557 0.15712638 -4.1558213
1.6199057 -0.5699418 -1.7822257 -0.0930358 0.89101654 -3.2524843 -1.9424325 0.911222
1.0189786 -3.9558303 1.6063643 -2.0766704 -1.6560558 0.2218603 -1.7898548 0.9582715
-1.6368915 1.23575 -1.7448167 1.9529549 -1.7682401 0.6100676 -2.314085 -2.4693654
-1.7982773 -0.15987968 -1.6592884 0.4555351 -1.9288815 -1.8985542 -1.1662406 -3.7293246
-1.8217791 -0.63600737 -2.1043568 -1.3679113 -1.6603867 1.6982119 -0.8827238 -3.934134
1.860357 -0.9994939 0.48845917 -3.1900043 -2.001825 -1.4873549 0.9087321 -3.226407
1.4934468 -0.028278602 -1.554872 0.999357 -1.9700065 -1.6943816 2.0806465 -1.2105675
0.67618424 -2.0909007 1.6675109 -1.8472873 -1.6764324 1.1091045 -0.43741244 -5.105175
-2.0015326 -1.4150373 -1.0524077 -3.4589062 -1.9231251 1.7360115 -1.5658985 1.2536765
-1.8985593 0.10649754 -1.7324438 0.70726895 -0.87758666 4.514711 1.1063002 -3.248834
-0.78769386 -3.4777782 -1.3091831 1.8811113 -1.7833103 0.36530545 1.4692471 -0.29406822
-1.9318341 -0.87652826 -2.1385884 -1.6637648 -1.8440616 -1.51912 1.3674062 -8.814376
-1.5866607 -2.4001205 -1.6631448 2.5600717 0.4989693 -3.186566 1.5955193 0.7605516
2.032064 0.30671665 1.6956928 0.8350489 -1.4088199 1.6325433 1.2154683 0.38401726
-1.8860911 1.9782928 -1.8876262 -0.40321487 -1.5508231 0.68540055 -1.6625242 0.35112256
-1.6077552 -0.20335698 1.7414932 -1.1444628 1.5449661 -0.8205191 -1.6071199 -0.1916373
-1.7261571 0.14523922 -1.9023755 -0.031009562 1.8354672 -1.0017843 1.6407428 -0.6142164
0.4293106 -5.025661 0.7419677 -3.7385943 -1.8248767 -1.6800327 -1.6984288 8.838332
-1.4653252 1.681652 -1.2299677 -3.322332 -1.3553387 2.7488208 -1.7819504 0.43166566
-1.4222512 -3.2162733 -1.7389578 0.6770595 1.3403665 -2.3434808 -1.8604122 -2.1881254

itn.0.bias f4 [256]
00000000: 9cd7 dcbf 9423 a33f 3923 243f 0ce5 c23f
00000010: ebb2 d4bf 601d ed3c 7c73 693f 8313 e2bf
00000020: 9592 cdbf 1ed4 d8be 9e0f f53e dee1 afbf
00000030: 6cb6 c1bf 25a4 05c0 1a31 203e c469 d4bf
00000040: 48a5 5abe 1654 0e3e fb72 e8bf 0493 acbf
00000050: bebf c3bf 7ed2 c63f 9cc7 123e 097e fe3c
00000060: 8c73 ac3e 9fb4 c03e 3a3e acbe 2b4d 453f
00000070: e170 babf 5c65 6f3e 4d4b 003f 3cd8 38bf
00000080: 3264 a4bf c919 ebbd 92ed 0f3f dfdb 7e3e
00000090: 0d26 843e e054 a43e 2651 0f3f d9bf b33f
000000a0: e78b 2e3f 9fce e23f 9740 d8bd 831f 703f
000000b0: 4282 f23f 32f9 7cbf 0cb3 653e 149b 253f
000000c0: 2dba d7bf 8c42 663f 2dfc b1be 4bac 813f
000000d0: 493e 263c 954e 8ebf e9f8 273f bf13 2e3f
000000e0: 935a d43e 5f9f cc3e ef7a 543f c7e5 eabf
000000f0: 383a a0bd 8816 54bf 3829 bc3f 7664 e43f
00000100: bada b03e d88e bb3f 604b 823e 2b46 a93f
00000110: 02b6 cdbf 2dcb 0ebf 43be 48bf 6eff 10bf
00000120: 9dac e3bf 85c9 91be 3f28 b6be dd86 d8bf
00000130: 85f4 0dc0 9499 a3bf 36d8 cb3e 650b f73f
00000140: bfdb 3a3f d3c0 ccbe f26b 303f 0302 d23c
00000150: 9e38 8f3f 0341 263e e787 87bf 6e0f d3be
00000160: 1cf2 e23d c27d 1abf 5917 4d3f 191b dabf
00000170: 719f 8c3f e273 d33f ef63 8f3b 3498 e93f
00000180: e34e 65be 1cd9 193e 4621 7ebe e959 04c0
00000190: 4163 0dc0 3e6d 0ac0 3dc9 3dbf e5e9 edbf
000001a0: e979 133f b0fc 883f 910d f1bb 8771 753e
000001b0: 15bb 533e 8fdd bbbf 65e1 bcbf 4648 4e3e
000001c0: a573 403f 81af 863f 924c cbbf b384 ccbf
000001d0: 39a8 8b3f 8100 483d 6103 843f bd9a d2bf
000001e0: c129 93be 4f6f 7a3f feab 67be f416 603f
000001f0: 3706 dd3f 5e7b 5fbe 4a71 62bf e672 963f
00000200: 2e50 6b3e 636b a4bd 2030 dcbf 2554 ed3e
00000210: 0f18 d8bf 1a9d 2d3e 52ea 7c3f c1dc d7bf
00000220: 82a7 373f e313 9a3e 82a6 e43e c825 923f
00000230: afda 983e d5eb 9dbf 4bad 383f 85d0 293e
00000240: ec66 f23e d56d 673e 96b0 1c3f 47c0 02c0
00000250: 1269 83be 0a07 d7bf 6341 2fbf 2e2e a6bf
00000260: bb4b 5cbe 9012 8bbf d240 b3bf d008 cd3c
00000270: 52a2 ba3c bb1f d6bf 8540 77bf 145a 2d3d
00000280: d89b 363f 5f7a ad3e 5174 103f 0e4e ef3f
00000290: 220c 963f 68bf 153f eea6 ccbf 66a2 903d
000002a0: 1dce 0ec0 ebbf 8dbe c256 1bbe 77b6 ea3f
000002b0: e33b 823e 5f27 93bf 4490 abbf 0ceb ed3e
000002c0: 611c ee3d b2ac cbbf 83ee 02bf e749 fbbd
000002d0: 1c08 543e e1d2 0fbf 4e55 4abf 3b0c a63e
000002e0: 84a6 e8bc 88fa b43e c381 8f3e 0025 723f
000002f0: 0e18 5ebf 681a 61bf 1435 a2bf 9b84 a83f
00000300: 5785 0dbf 7484 aebf 82bf 1a3e 7bdd 903e
00000310: a52e 06c0 f8ea d03f dfa1 673f c3f8 afbf
00000320: 05ee a03e b2d6 153f 0732 7ebf ee64 0b3f
00000330: 2364 8abf 9dc3 ad3e 03e2 d9bf 71a9 babf
00000340: 1781 ae3d 668c b93e 1622 30be e3ec 813f
00000350: 2405 17c0 9a1d ae3e 329b 1c3f 1635 50be
00000360: 2c30 e7bf 3bd2 e23e 878a 293f 2b5f e0bf
00000370: 45d0 bcbe 1732 c73f 20d2 8fbf 315a b53f
00000380: 8b48 483f b009 ee3e f74f 323f 74c5 723f
00000390: caeb d0bf b6fe 923f 166e 043f 8608 5cbf
000003a0: 8194 aabf 37c7 f83e 69cd 75bf fb4d 6a3f
000003b0: b354 373d 683e f13f c529 b33e 722b c83e
000003c0: 1880 b53f 3bf1 c63f 280f 9d3f 791a 90bf
000003d0: 6e07 7e3f 3315 98bf 04a4 4b3e 7f89 e13d
000003e0: e2f4 413f 9ac4 e3bf e93b b8bf 4261 d9bf
000003f0: 4cd6 81bf aa99 cbbf ee99 b2bf 488b f0be
-1.7253299 1.2745233 0.64116246 1.522615 -1.6617101 0.028944671 0.9119184 -1.7662205
-1.6060358 -0.42349333 0.47863477 -1.3740804 -1.5133796 -2.0881436 0.15643731 -1.6594777
-0.21352112 0.13899264 -1.8160089 -1.3482366 -1.529289 1.5532987 0.14333957 0.031065958
0.33681905 0.37637803 -0.33641225 0.77070874 -1.4565698 0.2337851 0.501149 -0.7220495
-1.2843077 -0.114795275 0.5622188 0.24888562 0.2581028 0.32096004 0.559832 1.4042922
0.68182224 1.7719306 -0.105591945 0.93798083 1.8946002 -0.9881774 0.22431582 0.64689755
-1.6853691 0.8994529 -0.34762707 1.0130705 0.010146686 -1.1117731 0.6561418 0.6799888
0.41475353 0.3996534 0.8300008 -1.8351372 -0.07823604 -0.8284688 1.4700079 1.7843158
0.34541875 1.4652967 0.25448132 1.3224539 -1.6071169 -0.5577877 -0.78415316 -0.56639755
-1.7787052 -0.2847406 -0.3557758 -1.6916157 -2.2180493 -1.2781243 0.39813393 1.9300352
0.72991556 -0.39990863 0.6891471 0.025635725 1.1189153 0.16235738 -1.0588349 -0.4122271
0.11081335 -0.6034814 0.8011375 -1.703952 1.0986158 1.651974 0.0043759267 1.8249574
-0.22393374 0.15024227 -0.2481738 -2.0679877 -2.209183 -2.1629176 -0.7413519 -1.8587004
0.57607895 1.0702114 -0.0073563536 0.23969088 0.20676835 -1.4676989 -1.4756285 0.20144758
0.7517646 1.052231 -1.5882742 -1.5977997 1.0910712 0.048828606 1.0313531 -1.6453472
-0.28742793 0.97826093 -0.22624204 0.87535024 1.7267522 -0.21824405 -0.88454115 1.1753814
0.22979805 -0.08028295 -1.7202187 0.4635326 -1.6882342 0.1695446 0.98795044 -1.6864244
0.7173997 0.30093297 0.44658285 1.141778 0.29854342 -1.2337595 0.72139424 0.1658345
0.47344148 0.22600491 0.6120695 -2.0429857 -0.256661 -1.6799023 -0.6845915 -1.2982843
-0.21513264 -1.086504 -1.4004157 0.025028616 0.022782478 -1.6728433 -0.96582824 0.042322233
0.7133155 0.33882424 0.56427485 1.8695695 1.1722453 0.5849519 -1.5988443 0.07062225
-2.2313302 -0.27685484 -0.15169814 1.8336934 0.25436315 -1.149639 -1.3403401 0.4646839
0.116265066 -1.5912077 -0.5114519 -0.12269955 0.20706218 -0.5618115 -0.79036415 0.32431206
-0.028399713 0.3534739 0.28028688 0.9458771 -0.86755455 -0.8793092 -1.2672448 1.3165468
-0.55281585 -1.3634171 0.15112117 0.28293976 -2.096597 1.6321707 0.9048137 -1.3747791
0.31431594 0.58530724 -0.99295086 0.5445088 -1.0811809 0.33938304 -1.7022098 -1.458296
0.08520716 0.36239928 -0.17200503 1.0150417 -2.3596888 0.3400696 0.6117431 -0.2033275
-1.8061576 0.44301018 0.66227 -1.7529043 -0.36877647 1.5562161 -1.1236 1.4168149
0.7823569 0.46491766 0.69653267 0.9483254 -1.6321957 1.1483982 0.5173048 -0.85950506
-1.332657 0.4858949 -0.96016556 0.9152524 0.04475851 1.884717 0.34992805 0.39095646
1.4179716 1.5542368 1.227025 -1.1258079 0.99230087 -1.188147 0.19886786 0.110125534
0.75764287 -1.7794373 -1.4393283 -1.6982806 -1.0143523 -1.590627 -1.3953226 -0.46981263

itn.2.weight f4 [128, 256]
00000000: 13d3 373f 1b2d bdbf 4a20 1fbf ab19 24bf
00000010: 8567 5b3f d1ee f1be f130 90bf ed68 433f
00000020: f22d 363f 1f9a f1bd 92cd 85be f032 193f
00000030: 6f0c 3f3f 95db 553f 27db 90be a599 343f
00000040: 4b14 8ebe 9187 15bf 0f3b 4c3f 4c35 253f
00000050: c6a4 173f a2ac 3bbf 3c3e d0be ffe9 43bd
00000060: ec26 76be 6d52 8fbe 6ce8 93bf 997d 933d
00000070: 0462 393f 93d5 9abe 4c7e b8bf 6ded c1be
00000080: a752 583f 8d48 6e3e a44c 8ebe fee3 3b3e
00000090: cb61 203c 50ed fcbe 2fc7 82bf 38be 85bf
000000a0: fef2 083a 47a6 7abf 042f da3c 0e42 10bf
000000b0: d9d3 a3bf ff44 6abf 519f 81bf b067 2abf
000000c0: 2428 4e3f f140 d3be 4d85 bcbd dcb6 5cbe
000000d0: 041f 86be 2cbe f73e 3602 e7be 6d58 29be
000000e0: 214a a73c bc56 9a3e ff2b 96be f755 1cbf
000000f0: 1e6b 81be 35dc 25be 9806 8fbf 8e41 c6bf
00000100: 3066 bfbe 0b27 46bf 6505 c33d c25a b2bf
00000110: d0bb 4f3f 635f ecbe eb62 cdbe 5e4a e1bd
00000120: 149e 523f df92 05bc dd96 16bf 39f8 313f
00000130: 20d7 cbbc f252 113f 66a6 01be 7a20 91bf
00000140: 16a2 1cbf 2fb5 bdbf dd41 d13d 3df6 253d
00000150: 95b2 04bf ea95 b3bd afb9 883f 07c5 16bc
00000160: 3cfc bcbf 16d0 cb3e dcce 0dbf 97f0 4c3f
00000170: 3c6b 49bf 6b55 64bf fc12 2fbf afb9 62bf
00000180: a809 85bf 1cff 003f d204 afbe c36e 543f
00000190: d791 413f bac0 5c3f cef1 803e a8a3 5b3f
000001a0: b43d 7e3e 8701 19bf f161 34be 9ad2 aebe
000001b0: 1894 ccbe f439 3e3f fb4c 393f 0aca 00bf
000001c0: 51e2 9abe 73e2 fdbe 4916 383f dd46 293f
000001d0: 298d 13bf 06d5 77be 86e0 86bf 8d15 ad3f
000001e0: 8257 993e 3777 b6bf f1df 233f db95 a6be
000001f0: 9d04 d0bf f88a 55be 0288 a13e 6a51 82bf
00000200: 9d91 d7bd e68b b0bd f2f1 343f c9c4 543c
00000210: 0edc 5f3f 095f 123e 9568 a5bf e3d5 293f
00000220: 9d0d c0be 0f65 7d3d 9848 29be 72f7 c0be
00000230: 5ce4 c0bf 981a 233f ce59 663b e807 3e3d
00000240: 1ba8 083e f976 04be 73a4 8d3c 60ea 473f
00000250: dffb a739 ccc5 423f 7224 a7bf dee5 0f3f
00000260: 590e 033e 9865 26bf ed2f 3d3f c1df b3be
00000270: 95c5 08be 9e07 353f 3d07 28bf dd88 493d
00000280: 1579 8abe a846 92be 596d 20be 2060 c5bf
00000290: e540 a8bf dfb8 9dbe 4f40 843f 03e6 99be
000002a0: 422a 703f 058e 2bbf f62b 55be a69d e5bf
000002b0: 2003 26be cd5d 94be 8d62 133f b207 16be
000002c0: 351c 983e 2831 453f 76a2 e1be 7c4c bdbe
000002d0: eed9 ebbd 3911 f53d ece6 9c3e 81df 15bf
000002e0: 378e babe bf86 a8be a41b a23e 84b6 abbf
000002f0: eeb1 bf3e 5a4a c53e f904 1e3f e058 aebf
00000300: 0693 18be a179 203f 6bbc 1cbe b6e9 c1bf
00000310: 69ed 4a3f 13ab a0bf 5ed9 48be 3c60 8a3f
00000320: fb0b 123e ca23 a33e 0212 e43e 35f3 b9be
00000330: 3ba9 363e b809 9bbe 341b 553f 4749 183f
00000340: 626c b93e 8cd2 993e 9751 273f 00bb dbbe
00000350: 6e1f 533f 8381 0bbd b120 d7be de05 6e3e
00000360: 8378 473f 41c0 1abf e0b1 cabd a255 473f
00000370: cb69 d6be 18f3 27bf 35af dc3e 0bd3 84bf
00000380: e032 d6be 429b a83d f4d1 083d 8e33 9bbf
00000390: 7cf2 403f a240 b2be f283 803e 023a 5f3e
000003a0: 128c 863f 3245 9ebf 2737 cd3e 2c25 0abf
000003b0: 9aaf b13e 09b1 b9bf 0747 5c3d ddce 4cbf
000003c0: a91d 91bf 0b60 ddbf 472f c3bf dca3 eb3e
000003d0: 1081 2cbf f16f 083f f998 66bc 731a d6be
000003e0: c6d5 04bf 54b4 593f 9f49 343f ed7c 983f
000003f0: 6c05 4fbf fc67 4a3f dfe9 193f 5dbe 5e3d
0.7180645 -1.477939 -0.62158644 -0.64101666 0.85704833 -0.47252515 -1.1264936 0.7633198
0.71163857 -0.117969744 -0.261334 0.5984335 0.7462835 0.8353818 -0.282922 0.7054694
-0.27749857 -0.5840998 0.79777616 0.6453445 0.592358 -0.7331029 -0.4067248 -0.047830578
-0.24038285 -0.27992573 -1.1555305 0.0720169 0.72415185 -0.3024107 -1.4413543 -0.37876454
0.8450112 0.23269863 -0.27792847 0.18348691 0.009788941 -0.49399805 -1.0217036 -1.0448675
0.0005224197 -0.9790997 0.026633747 -0.5635079 -1.2799026 -0.9151153 -1.0126745 -0.66564465
0.8053 -0.41260484 -0.092051126 -0.2155413 -0.26195538 0.48387277 -0.45118874 -0.16537638
0.02042109 0.30144298 -0.2933044 -0.6106867 -0.25277036 -0.16197284 -1.1173887 -1.5488756
-0.3738265 -0.77403325 0.09522513 -1.3933947 0.81145954 -0.46166524 -0.4011453 -0.110005125
0.8227246 -0.008152693 -0.5882395 0.6951938 -0.024882853 0.5676719 -0.12661132 -1.1338036
-0.61184824 -1.4820918 0.102176405 0.040518034 -0.51834995 -0.08768828 1.0681666 -0.009202248
-1.4764476 0.39807194 -0.5539377 0.8005461 -0.7867925 -0.8919284 -0.6838834 -0.8856458
-1.0393572 0.50389266 -0.34183365 0.8298151 0.7561316 0.8623158 0.25184482 0.85796595
0.24828225 -0.59767956 -0.17615487 -0.3414505 -0.39956737 0.7430718 0.7238309 -0.5030829
-0.3025079 -0.4958683 0.71909004 0.66123754 -0.5763727 -0.24202356 -1.0537269 1.3522202
0.29949576 -1.4255131 0.6401358 -0.32536206 -1.6251408 -0.20853794 0.31549078 -1.0181096
-0.105258204 -0.086204335 0.7068168 0.01298637 0.8744515 0.14294066 -1.2922541 0.6634199
-0.37510386 0.061863955 -0.16531599 -0.37688786 -1.506969 0.63712454 0.0035148743 0.04639426
0.13345377 -0.1293601 0.01729033 0.78092 0.0003204038 0.76083064 -1.3057997 0.56210124
0.12798442 -0.6499877 0.73901254 -0.35131648 -0.13356622 0.7071475 -0.65636045 0.04920279
-0.27045503 -0.2856953 -0.15666713 -1.541996 -1.3144804 -0.30805108 1.0332125 -0.30058298
0.9381448 -0.6701358 -0.20817551 -1.7938735 -0.1621213 -0.28977814 0.5757225 -0.14651373
0.2970902 0.7702813 -0.4406926 -0.36972415 -0.11516176 0.119661756 0.3064493 -0.58544165
-0.36436626 -0.32915303 0.31661713 -1.3415074 0.37440437 0.38533288 0.6172634 -1.3620872
-0.14899835 0.6268559 -0.15306251 -1.5149448 0.7926851 -1.2552208 -0.19614169 1.0810618
0.14262383 0.31863242 0.4454499 -0.36318365 0.17837994 -0.30280852 0.83244634 0.5948681
0.36215502 0.30043447 0.6535887 -0.42916107 0.8246983 -0.03405906 -0.4201713 0.23244426
0.7791826 -0.60449606 -0.09897208 0.7786504 -0.4187759 -0.65605307 0.43102422 -1.0376905
-0.4183569 0.08232738 0.033403352 -1.2125108 0.7537 -0.34814936 0.25100666 0.21799472
1.0511496 -1.2364867 0.4008114 -0.5396297 0.34704286 -1.4507152 0.053778674 -0.8000315
-1.1337177 -1.7294935 -1.5248803 0.46023452 -0.67384434 0.5329581 -0.014074557 -0.41817054
-0.5188869 0.85040784 0.70424837 1.1913124 -0.8086765 0.7906492 0.60122484 0.054380763

itn.2.bias f4 [128]
00000000: 0122 bb3e acb6 69bb 1040 70be 0973 debe
00000010: 14f2 fe3d 58ad 543e 9385 773e b60e 67be
00000020: 21a0 a23d 3e71 9d3b ee25 26be e85b a3be
00000030: 1b15 3ebe 15a0 b13e 08c8 c43e 3606 093c
00000040: e5f2 e7be ac54 e7be f9de 6abe eb2b e23e
00000050: 1978 b43c 09ef a4bd 2481 073e 9ec6 5f3e
00000060: 236a 86bd b608 c03c 0883 0bbf 9a5e c23e
00000070: b1ab aebe 4053 9f3d db0a 453b 4215 e0be
00000080: b3a7 acbe bea9 70be 836d 14be 0d3e 12be
00000090: 4e4f 2ebe f505 803e 1ec5 14be 27b5 c4be
000000a0: db87 3ebe debb da3e 2255 46be aeb5 8e3c
000000b0: ac35 40be cade 54be 193e 5ebe c04d 5bbf
000000c0: ee68 68be 5d0c 233f 7bb5 74be e8b6 9abe
000000d0: 0041 aebe b956 b9bd 78cd 85be a899 003e
000000e0: debd 503e ca87 87be 7d82 2ebe 445d ed3d
000000f0: 357b ff3d 4fd6 5dbe 7d3c 253d 87d5 43be
00000100: 94c9 6fbe f5a4 4cbe 740e 24bd 3531 993e
00000110: e164 4c3e 8929 06bf 1ee7 59be 8553 31bf
00000120: 33b5 f1be e2e4 b3be 69e3 23be f92e f0be
00000130: 86ef f13e 64a5 f6be cf8b 1abe 5c39 61be
00000140: e153 a3be fb6b db3d 0119 edbd 488d 5bbe
00000150: a1d3 6ebe 600a b73c 720b 173f 7b6d ffbd
00000160: 454e 543f d212 8cbe 330e b63e 6a75 abbe
00000170: 48a1 16bf 0e4b 983e b7f6 47be 5eea 47bf
00000180: ac74 cabe f3f6 ed3d ed2e 1dbe 3371 47be
00000190: 8625 3cbe 0747 23bc b808 20be b818 713e
000001a0: 956c 8cbe 3e61 ddbe 527e 61be 4b5e 9bbe
000001b0: 4a0c 08bd 1132 113f 1dfd cfbe 860d 593e
000001c0: 3756 1abe 2875 7cbe e331 a73b 4e38 afbe
000001d0: fb1f 01bd 73e9 5f3e 57f4 adbe 5b59 2dbe
000001e0: fa31 e0be 969a 38bf 09c5 b3be 0db6 a0be
000001f0: bca9 96bd a46f 01bf c936 fa3e c34b 73be
0.3654938 -0.003566186 -0.23461938 -0.4344714 0.124485165 0.2076925 0.24172048 -0.22564206
0.079406984 0.0048047593 -0.16225407 -0.31906056 -0.18562739 0.34692445 0.38433862 0.008363297
-0.453025 -0.45181787 -0.2293662 0.44174132 0.022029923 -0.08053405 0.13232857 0.2185311
-0.06563213 0.023441654 -0.5449681 0.379628 -0.34115365 0.077795506 0.0030066285 -0.43766218
-0.33721694 -0.23502252 -0.144949 -0.14281483 -0.1702244 0.25004545 -0.14528319 -0.38419458
-0.18606512 0.42721456 -0.19368413 0.017420616 -0.18770474 -0.20788112 -0.21703376 -0.8566551
-0.22696277 0.6369074 -0.23897354 -0.3021767 -0.34033966 -0.09049744 -0.26133323 0.12558615
0.20384929 -0.26470786 -0.17041965 0.11590055 0.12474672 -0.21663783 0.04034089 -0.19124423
-0.2341674 -0.19984801 -0.040052846 0.29920354 0.19960357 -0.5240713 -0.2127957 -0.69268066
-0.47208557 -0.3513556 -0.16004719 -0.46910837 0.47253054 -0.48173058 -0.15092395 -0.21994537
-0.31899932 0.10713955 -0.11577035 -0.21440613 -0.23322918 0.022343814 0.5900184 -0.124720536
0.8293193 -0.2735811 0.35557708 -0.33488017 -0.58839846 0.29744762 -0.19527708 -0.7809199
-0.3954214 0.116193675 -0.15349932 -0.19476776 -0.18373689 -0.009965665 -0.15628326 0.23544586
-0.27426592 -0.43238252 -0.22020844 -0.30345377 -0.033214845 0.5671702 -0.40622798 0.21196565
-0.15071951 -0.24654067 0.0051023825 -0.34222645 -0.03152464 0.21866398 -0.3397548 -0.16928618
-0.4378813 -0.7211088 -0.35111263 -0.31388894 -0.07356593 -0.50560975 0.48869923 -0.2375937
