ckpt/assistment/irt_MFI_ip.pt (torch, 286913 bytes, 12 tensors)

utn.0.weight f4 [256, 1]
000000 aa e9 d7 3f 2b 8f b3 3f e2 f7 a1 bf 4f e3 9d bf
       1.6868184 1.4028066 -1.2653773 -1.2334994
000010 33 96 8e bf 3e 76 5d 3f a9 2b 1f bf 21 34 d2 3f
       -1.1139587 0.8650855 -0.62175995 1.6422158
000020 ad 75 2e bf 58 a2 86 3f 51 08 5c bf 59 07 04 bf
       -0.6814831 1.0518293 -0.8595019 -0.5157371
000030 75 b2 16 c0 d1 65 a3 bf ca 59 83 bf 03 3a 95 bf
       -2.3546422 -1.2765447 -1.0261776 -1.1658329
000040 25 89 a4 3f e6 54 aa 3f 5e 89 be bf 0c 8d a1 bf
       1.2854353 1.3307159 -1.4885671 -1.2621169
000050 b8 6b b7 3f f7 a6 b6 3f 98 b5 43 bf 3f fd b3 3f
       1.4329748 1.4269704 -0.76448965 1.406166
000060 20 62 1a bf 22 7f d2 3f ae de d0 3f 5d f9 12 c0
       -0.60305977 1.6445048 1.6317956 -2.29647
000070 4f 11 bc bf 89 75 84 bf 01 4d 6c bf 57 e3 b7 3f
       -1.4692782 -1.0348369 -0.92305 1.4366254
000080 ce d1 82 bf 94 f5 56 bf 9c d9 9a bf 7d 20 01 c0
       -1.0220277 -0.8396847 -1.2097659 -2.017608
000090 97 ca c1 bf 47 10 aa 3f e4 6d 8b 3f ae 21 98 3f
       -1.513995 1.3286217 1.0892911 1.1885278
0000a0 08 e8 15 bf ac 6d 9f bf 0c a8 54 3f f1 6f 19 c0
       -0.58557177 -1.2455344 0.8306892 -2.3974574
0000b0 98 65 8e bf b2 f7 61 bf 38 03 99 3f 58 a9 98 3f
       -1.1124754 -0.8826858 1.1954107 1.192668
0000c0 13 59 a9 bf 2e df 87 bf da 5b 99 3f 74 fe c9 3f
       -1.3230308 -1.0614984 1.1981156 1.5780778
0000d0 5b f1 98 3f ff 93 98 3f fb 02 b6 3f cd 13 81 bf
       1.1948656 1.1920165 1.421966 -1.0084168
0000e0 1e 48 86 3f 41 66 b9 bf 5e 4f c6 bf 00 c1 db bf
       1.0490758 -1.448433 -1.5492971 -1.7168274
0000f0 e7 71 90 3f 9b d8 91 3f 73 87 a4 bf 6d 08 8b 3f
       1.128476 1.1394228 -1.2853836 1.0861946
000100 73 e7 9e 3f b1 58 d8 be 75 37 a9 bf 4f 03 78 3f
       1.2414383 -0.42255166 -1.3220049 0.9688005
000110 be c9 c0 3f ea d7 db 3f 24 c6 0d c0 f7 5d 43 bf
       1.5061567 1.7175267 -2.2152185 -0.76315254
000120 9b b1 64 3f 57 3f b9 3f 3e 1c b7 3f b5 d2 c0 3f
       0.89333504 1.4472455 1.4305494 1.5064303
000130 9b 78 2d 3f 43 78 10 c0 22 13 9e 3f bb 80 bb bf
       0.67762154 -2.2573402 1.2349589 -1.464866
000140 32 19 1d c0 f3 03 de 3f 64 b3 d8 3f b1 99 0a c0
       -2.4546628 1.7344955 1.6929746 -2.1656306
000150 9f e6 66 3f 7a 5e 7a bf c6 95 4b bf 1f 36 bb bf
       0.9019565 -0.9780041 -0.7952541 -1.4625891
000160 8c 62 8f 3f be f3 ff bf e6 74 94 3f e1 7a a1 3f
       1.1201949 -1.9996259 1.1598175 1.2615625
000170 1b 7d a1 3f 1c 13 90 3f 59 0c fd bf c6 d2 0b c0
       1.2616304 1.1255832 -1.9769393 -2.1847396
000180 4d 2c 96 3f 40 cc 60 3f 42 f9 f9 bf ba 51 c5 bf
       1.173227 0.8781166 -1.9529192 -1.5415566
000190 3d 4e ab 3f b9 8e b5 3f 0e 5d 98 bf 72 63 26 bf
       1.3383251 1.418418 -1.1903398 -0.6499549
0001a0 26 50 da bf 88 3a b6 bf 3a fa 9d bf 42 5f 03 c0
       -1.7055709 -1.4236612 -1.2341988 -2.052689
0001b0 c4 5a c9 be 62 84 11 bf b2 ad c3 bf f9 6a b5 3f
       -0.3932706 -0.56842625 -1.5287383 1.417327
0001c0 72 15 94 bf 4c 07 a8 3f 8b 72 a7 3f 30 be 04 c0
       -1.1569045 1.3127227 1.3081831 -2.0741081
0001d0 72 58 95 bf da 8e 9c bf 36 f9 b6 bf c3 27 8d 3f
       -1.1667616 -1.2231095 -1.4294803 1.1027759
0001e0 b1 79 ae 3f 88 99 ba be d5 07 f6 bf 22 59 b4 3f
       1.3630887 -0.3644526 -1.922114 1.4089701
0001f0 ff 37 18 c0 c9 07 5c bf a7 01 18 bf 6b e1 da bf
       -2.3784177 -0.8594938 -0.5937752 -1.7100042
000200 5c ff 75 bf d4 f6 09 c0 fa 75 2d bf 7f 06 5b 3f
       -0.9609277 -2.1556902 -0.6775814 0.8555679
000210 39 bb 8e bf df e6 1e bf 30 1a ad 3f 4a aa 4c bf
       -1.1150886 -0.6207103 1.3523617 -0.7994734
000220 0d 53 95 bf a9 b7 50 3e 53 7c 0a be cf ee ba 3f
       -1.166597 0.20382561 -0.13523988 1.4604129
000230 17 50 cb 3f 59 44 a5 3f da 9c b6 3f 37 bb 10 bf
       1.5883816 1.2911483 1.4266617 -0.5653567
000240 78 52 05 c0 2a 7d 72 bf a6 d7 9a 3f 5b 05 0a bd
       -2.0831585 -0.94722235 1.2097061 -0.033696514
000250 45 f5 b7 bf 9f c5 a6 bf 59 c8 07 c0 62 0a 0f c0
       -1.4371725 -1.3029059 -2.1216033 -2.2350087
000260 b6 07 7d bf fc 24 ac 3f 66 a6 90 3f 7e b4 05 c0
       -0.9883989 1.3448787 1.1300781 -2.0891414
000270 0e 53 ca 3f c1 7f 00 c0 4b 43 89 bf 98 6e 73 bf
       1.5806596 -2.0077975 -1.0723661 -0.9509063
000280 21 0a 87 bf 23 4d 5e bf 7b c3 09 c0 c5 2e 06 c0
       -1.0549966 -0.8683645 -2.1525562 -2.0966046
000290 48 56 25 bf 0a 2d b9 3f c3 51 28 bf 92 ea 9c 3f
       -0.6458478 1.446687 -0.6574976 1.2259085
0002a0 9e a7 17 c0 90 ef b3 bf e1 63 b3 3f c4 9a 95 bf
       -2.3696055 -1.4057484 1.4014856 -1.1687856
0002b0 78 45 ae 3f 1d 06 90 3f 70 ef b6 bf 6f 56 b0 3f
       1.361495 1.1251866 -1.429182 1.3776377
0002c0 9a 0a 47 bf b1 45 71 bf 42 2d b0 3f 00 36 f2 bf
       -0.7775055 -0.94246966 1.3763812 -1.892273
0002d0 4f 14 f3 bd ce bf 9c bf 50 d8 bc 3f ad 07 a0 3f
       -0.11869108 -1.2246034 1.4753513 1.2502342
0002e0 21 a3 a8 3f 49 dd a1 3f 34 04 70 bf 4d fc fb be
       1.3174783 1.2645656 -0.93756413 -0.49215928
0002f0 70 ae ae bf ba 41 bf 3f 88 0f 9f 3f 72 87 ab 3f
       -1.3646984 1.4941933 1.2426615 1.340071
000300 03 c4 8c bf 42 52 f9 3d 42 8f 00 c0 a9 e0 dd bf
       -1.0997318 0.121738926 -2.0087438 -1.7334186
000310 61 e9 03 c0 84 32 8c 3f f7 7c 9e bf 8b b6 f1 be
       -2.0611193 1.0952916 -1.2381886 -0.47209582
000320 22 b2 8e be b9 99 bd 3f f5 b0 a6 bf 35 60 8f bf
       -0.2787028 1.4812537 -1.3022753 -1.1201235
000330 e8 bb a6 bf 68 1f 9e 3f fc cb 5c bf e1 84 c3 3f
       -1.3026094 1.2353334 -0.86248755 1.5274926
000340 2b 09 90 3f 30 e2 3c 3f 1f 00 60 bf ff 10 94 bf
       1.1252798 0.73782635 -0.87500185 -1.1567687
000350 87 1a a1 3f a3 99 6d bf bb a1 ed be d5 74 8b 3f
       1.258622 -0.92812556 -0.46412453 1.0895029
000360 31 fa 09 c0 f6 9c 4b bf bf 9e b1 3f 05 82 ae bf
       -2.1558955 -0.7953638 1.387657 -1.3633429
000370 5d 4f 8c bf ab 76 c5 3f 29 56 8c 3f d5 16 88 3e
       -1.096172 1.542684 1.0963794 0.2657992
000380 67 20 af bf 72 89 96 3f 7d 6f c8 bf 5e 93 1b bf
       -1.3681763 1.1760695 -1.5659024 -0.6077174
000390 9c 56 3a bf c7 5d b8 be 73 78 72 be 51 d0 be 3f
       -0.72788405 -0.36009046 -0.2367876 1.4907323
0003a0 1a 19 33 bc 0e 88 b3 3f 23 6b 8b 3f 82 dc c9 bf
       -0.010931278 1.4025896 1.089207 -1.5770419
0003b0 5c 45 a4 3f 66 16 a1 bf 99 3d cb bf 5a fb 81 3f
       1.2833667 -1.258496 -1.5878173 1.0154831
0003c0 3c 29 97 3f 0e 6a a6 3f 0e 30 e3 bf 78 e5 5f be
       1.1809459 1.3001115 -1.774904 -0.21864879
0003d0 9e 98 b1 3f c0 cd 08 c0 62 2f b7 3f 73 22 08 c0
       1.38747 -2.137558 1.4311335 -2.1271026
0003e0 6a 97 28 bf a0 ba 89 bf 57 c4 86 bf 3e 15 47 3f
       -0.6585604 -1.0760078 -1.0528668 0.7776679
0003f0 f7 a3 a3 3f 2f 1d 33 bf 5a 53 8d bf ec 62 a0 bf
       1.2784413 -0.69966406 -1.1041062 -1.2530189

utn.0.bias f4 [256]
000000 39 24 86 c0 3c 7b 3f 3f 57 da e9 bf 58 20 0e c0
       -4.1919217 0.74797416 -1.8269757 -2.220724
000010 31 c4 23 c0 f9 1d 93 bf 8c ad 51 c0 e0 00 b9 3f
       -2.5588496 -1.1493522 -3.2762175 1.4453392
000020 0b 03 3c c0 5e 13 f4 bf 77 1a 32 c0 db fc 38 c0
       -2.9376857 -1.906841 -2.7828653 -2.890433
000030 b2 84 51 3f 6f 50 69 bf c4 ee 16 c0 fb 8e 3c c0
       0.818431 -0.91138357 -2.358323 -2.9462268
000040 6b 37 a9 bf 81 6a e3 3e 06 58 94 bf da b1 1f c0
       -1.3220037 0.44417194 -1.1589363 -2.4952302
000050 20 bb 6e 3f 83 35 34 bf c8 b9 31 c0 6e 9e 23 3f
       0.9325428 -0.7039415 -2.7769642 0.6391362
000060 3c 29 4b c0 94 48 31 c0 3a 43 56 bf f8 92 3f 3f
       -3.1743917 -2.7700548 -0.8369633 0.7483363
000070 56 38 43 bf 50 b9 7e bf 32 74 24 c0 6e 1f 3b 3f
       -0.76257837 -0.99501514 -2.569592 0.7309483
000080 3b 8d e8 bf a3 24 f5 bf b0 c6 0b c0 7a 1b a7 bd
       -1.81681 -1.9151806 -2.184002 -0.081595376
000090 af 49 27 bf 74 51 e4 3d cb cb de be b2 e9 61 bf
       -0.6534681 0.111483485 -0.43514857 -0.88247216
0000a0 69 67 22 c0 86 b5 21 c0 48 57 15 c0 14 34 e2 3c
       -2.5375617 -2.5267043 -2.3334522 0.027612723
0000b0 d3 62 f8 bf 3d 2c d9 bf 04 63 30 bf 47 4f c1 3d
       -1.9405159 -1.6966625 -0.68901086 0.09438949
0000c0 7d cc 84 bf d0 70 53 c0 c2 24 05 3e b3 42 7e 3f
       -1.0374905 -3.3037605 0.13002303 0.99320525
0000d0 e8 f8 d9 3d 8c 01 26 c0 de 3f 5e bf cf 0e e2 bf
       0.10643178 -2.5938444 -0.86816204 -1.7660769
0000e0 51 1b b6 be e8 20 97 bf f1 3e e7 be fd 81 53 be
       -0.35567716 -1.1806917 -0.45165208 -0.20655055
0000f0 21 60 1c bf 23 12 86 bd 01 52 73 bf a6 af 5d be
       -0.6108418 -0.06546428 -0.95047003 -0.21649036
000100 f8 24 42 3d 9b e2 6c c0 ac f4 5a c0 5d 0b 28 bf
       0.047398537 -3.701331 -3.4211836 -0.6564234
000110 20 53 8d 3f a9 c1 ce 3f 31 9a c4 3e 23 5a 0a c0
       1.1040993 1.615285 0.3839889 -2.1617515
000120 01 d9 69 bf 13 a8 d5 be 61 35 77 bf 40 be 89 bf
       -0.91346747 -0.41729793 -0.96565825 -1.0761185
000130 70 96 e5 bf ab e6 ef 3e 1f 3a 04 c0 d7 40 47 bf
       -1.7936535 0.46855673 -2.0660474 -0.7783331
000140 87 7c 37 3f 93 53 d5 3f 6a 52 c6 3f 61 9a 39 3f
       0.7167439 1.666613 1.5493901 0.7250119
000150 a4 63 be bf ac 13 32 c0 ae 66 bf bf b9 14 0e bf
       -1.4874158 -2.7824507 -1.495321 -0.5550037
000160 d6 2c 5d bf 9a 0a f8 3e f4 76 64 3d 77 df ab 3e
       -0.8639654 0.48445588 0.055777505 0.33568928
000170 c3 97 38 bf 25 be 10 be 6a b2 08 bf a2 82 2c 3f
       -0.7210657 -0.14135034 -0.5339724 0.6738683
000180 cf c1 28 be 21 8e 5d bf 46 9a 4b be dd 46 d9 be
       -0.16480182 -0.86544997 -0.1988307 -0.42436877
000190 be 3e c8 be 5c 6b 57 3f dc e2 1d c0 b0 5c 31 c0
       -0.39110368 0.8414819 -2.4669714 -2.7712822
0001a0 76 15 91 bf 19 e6 3d c0 83 7d 1b c0 1a ad 01 3f
       -1.1334674 -2.967169 -2.4295356 0.5065476
0001b0 ec 8b 53 c0 d4 6d 4e c0 ea 17 e4 bd 72 e6 77 bf
       -3.3054152 -3.2254534 -0.11137374 -0.96836007
0001c0 11 e8 19 c0 ae 59 74 3c f9 f5 47 bf 48 52 fd 3e
       -2.4047892 0.014913959 -0.781097 0.49476838
0001d0 bd 99 30 c0 98 a6 3b c0 73 e2 43 c0 3c 38 6f bf
       -2.7593834 -2.932043 -3.0606964 -0.9344518
0001e0 38 e7 2a 3f 05 2b 59 c0 94 15 87 3e a5 16 5f 3f
       0.6675906 -3.3932507 0.2638365 0.8714393
0001f0 ed a4 6d 3f 6a 62 0f c0 12 c1 22 c0 51 95 03 3e
       0.9282978 -2.2403817 -2.543034 0.12849928
000200 55 37 c3 bf 37 ff 51 3f eb 21 f9 bf 97 d2 55 bf
       -1.5251261 0.8203005 -1.9463476 -0.8352446
000210 04 7b f8 bf 46 09 64 c0 ce 22 00 3f 9a 4c 3d c0
       -1.9412541 -3.563066 0.5005311 -2.9578004
000220 1f 74 43 c0 45 28 cf c0 0a 9d e9 c0 31 67 72 3f
       -3.0539625 -6.4736657 -7.30042 0.9468871
000230 60 29 94 3f 7c 24 15 3e 42 d9 2e bf 1b 0f 23 c0
       1.1575127 0.14564699 -0.6830026 -2.547797
000240 f4 ab 03 3f cd 8f e3 bf 2a d4 2b bf 22 1c b9 c0
       0.51434255 -1.777826 -0.6712061 -5.784684
000250 84 d2 23 bf 35 33 0e c0 bc 78 29 3f 01 f9 29 3f
       -0.63993096 -2.2218754 0.6619985 0.66395575
000260 e6 a4 36 c0 c1 65 21 3f b9 bc 56 bf 2d 0b 16 be
       -2.8538146 0.6304589 -0.8388172 -0.146527
000270 02 34 a3 3f 83 99 75 be 05 cd 30 c0 4a 1a 21 c0
       1.2750247 -0.23984341 -2.7625134 -2.5172296
000280 33 8a 32 c0 fa 3d 30 c0 78 cb f8 3c df ec 40 3f
       -2.789685 -2.7537827 0.030370459 0.75361437
000290 99 0a 3d c0 22 b3 35 c0 a9 00 19 c0 f8 94 c5 3e
       -2.9537718 -2.8390584 -2.3906653 0.38590217
0002a0 98 91 07 3f 21 2a 3d c0 32 a1 f3 bd f1 63 16 c0
       0.52956533 -2.9556963 -0.1189598 -2.34985
0002b0 36 82 ed be 7b 91 60 3c a2 f2 de bf ac 56 20 3f
       -0.46388406 0.01370656 -1.7417796 0.6263225
0002c0 4f 7c bc bf 57 c8 d3 bf 94 77 4f bf d2 08 02 bf
       -1.4725436 -1.6545514 -0.81041837 -0.5079471
0002d0 4a 57 db c0 6a 1e 32 c0 08 fc 6c 3f 6e d9 bf bf
       -6.8544054 -2.7831063 0.9257207 -1.4988229
0002e0 df 7b a8 bf 34 b3 b5 bf 89 57 1e c0 ca ab 17 c0
       -1.3162802 -1.4195313 -2.4740927 -2.3698602
0002f0 2d c7 16 c0 bc 06 88 3f ca 11 a9 be cd 6b 01 3f
       -2.3559067 1.0627055 -0.33021384 0.50555116
000300 87 35 a9 bf f4 ba 05 c1 82 c1 0a 3f 33 83 02 bd
       -1.321946 -8.358143 0.5420152 -0.031863403
000310 97 0c 47 3f d0 08 01 be 29 80 0c c0 2c 78 34 c0
       0.77753586 -0.12601018 -2.1953223 -2.8198347
000320 4b 74 94 c0 04 47 58 3f e3 3c 03 c0 11 b8 e0 bf
       -4.639196 0.8448336 -2.0505912 -1.7556173
000330 5d 2a 22 c0 ec ce 19 bf ee 25 d9 bf 6d 6a 6e bf
       -2.5338356 -0.6008136 -1.69647 -0.9313114
000340 16 6a c9 3c d3 63 fb bf 6b 5d 47 c0 ad 07 36 c0
       0.024586719 -1.9639839 -3.1150768 -2.8442185
000350 15 a5 f1 bf 10 aa 29 c0 b8 cf 64 c0 e6 5d 01 be
       -1.8878504 -2.6510048 -3.5751781 -0.12633476
000360 69 01 a1 3e 9c a0 1a c0 56 b8 35 3f 6d a9 14 c0
       0.31446388 -2.4160528 0.709844 -2.322841
000370 b1 ee 42 c0 6e f2 76 3f 6b fd b0 bf 5c e4 9a c0
       -3.0458186 0.9646367 -1.3827337 -4.840376
000380 c0 6f db bf 93 bc 34 bf 48 3d a0 bf 47 52 04 c0
       -1.7143478 -0.7060024 -1.2518702 -2.0675218
000390 31 b7 2b c0 2b 61 72 c0 eb b3 80 c0 48 cc 6d 3f
       -2.683056 -3.7871807 -4.0219626 0.92889833
0003a0 cb 9d 01 c1 08 ac 65 be 28 d7 d9 be 29 fc 3c bf
       -8.101024 -0.22428906 -0.42546964 -0.73822266
0003b0 bc 24 f0 3e 11 91 02 c0 e3 53 0c bd fe c6 36 bf
       0.46903026 -2.0401042 -0.034259688 -0.7139739
0003c0 37 50 c8 bf 8c 49 12 bf 64 a9 99 3d 98 ce 8d c0
       -1.564948 -0.57143474 0.07503012 -4.431469
0003d0 4e 75 7a bf 62 64 1d 3f 18 3a 54 3f 58 8f cc 3e
       -0.9783524 0.61481297 0.82901144 0.39953113
0003e0 88 76 ee bf 20 0c 32 c0 73 44 ba bf 80 4d f0 bf
       -1.8629923 -2.78199 -1.4552139 -1.8773651
0003f0 c0 fb d7 be 41 ba fc bf 50 3c e5 bf 3b dc 70 bf
       -0.42184258 -1.974434 -1.7909031 -0.94086045

utn.2.weight f4 [128, 256]
000000 64 ac be bd e3 cb 86 be e1 e6 3d be 19 be 1e be
       -0.09310225 -0.26327428 -0.18545105 -0.15502204
000010 1d 10 35 be 4b 82 27 be 50 5e 90 bd a8 90 83 be
       -0.17681928 -0.16358297 -0.07049239 -0.256963
000020 3d 90 cc bd cc 4e 27 be b8 9c e1 bd b5 1a 37 be
       -0.09988449 -0.16338652 -0.1101622 -0.17881282
000030 22 06 a8 be c0 4b 87 be e7 7a d1 bd 66 45 06 be
       -0.3281718 -0.2642498 -0.1022852 -0.13112411
000040 97 01 3f be 3e 98 87 be 80 b1 46 be 2d c3 c9 bd
       -0.1865295 -0.2648334 -0.19403648 -0.0985168
000050 1f d3 91 be 16 6b 7c be ab fa 36 be b5 76 73 be
       -0.28481385 -0.24650225 -0.1786906 -0.23775752
000060 61 72 09 be b4 9f 1e be 6c fa 57 be 5a c5 8d be
       -0.13422538 -0.1549061 -0.21091622 -0.2768963
000070 3a a4 8b be bb a4 4f be d8 5e 22 be a0 8f 89 be
       -0.27273732 -0.20277683 -0.15856493 -0.2686739
000080 5f 89 3d be e7 34 06 be 55 d3 61 be 55 bb 87 be
       -0.18509434 -0.13106118 -0.22053273 -0.2651011
000090 5f 4a 85 be da bc 23 be c2 e1 8d be 49 21 85 be
       -0.26033303 -0.1599001 -0.27711302 -0.26001957
0000a0 77 f4 9c bd 27 1c 45 be cf f4 e7 bd 5c b8 a8 be
       -0.076638155 -0.1924902 -0.113259904 -0.32953155
0000b0 bc 9a 54 be 2c 4d 51 be 7f bd 2a be 1e 9a 60 be
       -0.20762151 -0.20439595 -0.1667385 -0.21933791
0000c0 34 56 8f be 0c 3a 15 be b7 8c 7c be 77 78 55 be
       -0.27995455 -0.14572924 -0.24663053 -0.20846735
0000d0 12 df 85 be 11 c0 61 bd 8c 75 58 be 62 a8 50 be
       -0.26146752 -0.05511481 -0.2113859 -0.20376733
0000e0 8f 20 23 be 94 a3 58 be 23 33 49 be 28 d1 54 be
       -0.15930389 -0.2115615 -0.19648413 -0.20782912
0000f0 dd 72 72 be 8e d6 88 be 8f e6 67 be f5 c4 2c be
       -0.2367663 -0.26726192 -0.22646545 -0.16872008
000100 08 4a 79 be b4 55 27 be 82 7d 91 bd a1 21 12 be
       -0.24344647 -0.16341287 -0.07104017 -0.14270641
000110 ea 50 86 be 0d 76 9a be 6f 8a aa be 1a d7 15 be
       -0.26233608 -0.3016819 -0.3330874 -0.14632836
000120 3d fe 3a be 7d 04 73 be 67 a8 32 be 22 d0 20 be
       -0.18261047 -0.23732181 -0.17447053 -0.15704396
000130 4c 42 c1 bd 5f 27 6d be 4d 01 20 be 82 66 91 be
       -0.09436473 -0.2315955 -0.15625496 -0.2839852
000140 6a e1 af be 2e a8 43 be 79 e7 64 be 08 7f 87 be
       -0.34351665 -0.19107124 -0.22353925 -0.26464105
000150 3a bd 67 be 48 ad 90 bd ed cc 0b be 2f 54 36 be
       -0.22630778 -0.07064301 -0.13652392 -0.17805551
000160 86 a9 85 be 2f 0a 95 be ea f0 83 be 1c e1 25 be
       -0.261059 -0.29109332 -0.2576974 -0.16199154
000170 07 bf 6c be c6 66 77 be ac 1f 83 be 7f 24 9e be
       -0.23119746 -0.24160299 -0.256101 -0.3088722
000180 29 a4 83 be 2b aa 45 be b2 29 8c be ee da 97 be
       -0.25711182 -0.19303195 -0.2737556 -0.29659218
000190 9a e7 1a be 16 30 89 be c4 96 09 be 3e 51 9f bd
       -0.15127411 -0.267945 -0.13436419 -0.077791676
0001a0 90 48 76 be ee 81 e7 bd c7 ef e9 bd 73 d2 88 be
       -0.24051118 -0.11304079 -0.11422687 -0.2672306
0001b0 69 fa 18 be 5d 0e 3f bd e6 66 71 be 28 46 84 be
       -0.14939274 -0.046644557 -0.23574409 -0.25834775
0001c0 a1 77 3a be bf ee 86 be 3c a2 13 be f1 2f 95 be
       -0.18209697 -0.26354024 -0.14417356 -0.2913814
0001d0 1e 4f 46 be 2c 8c f2 bd c5 11 9c bd 8f 4a 40 be
       -0.19366118 -0.11843142 -0.07620577 -0.18778442
0001e0 10 c9 54 be e0 1b dd bd 25 ad 74 be 31 1a 81 be
       -0.20779824 -0.10796332 -0.23894174 -0.25215295
0001f0 54 d2 a2 be d0 8c 6a be bb c2 42 be 24 e6 69 be
       -0.31801093 -0.22905278 -0.19019596 -0.22841698
000200 15 88 6b be e3 ba 8b be 53 7d 1e be 2c a8 39 be
       -0.2300113 -0.2729102 -0.15477495 -0.18130559
000210 85 d9 66 be a1 60 16 bd 16 74 8d be d8 77 91 bd
       -0.22543915 -0.036713246 -0.2762763 -0.071029365
000220 f6 97 25 be c2 63 97 bd 79 45 80 bc f1 25 88 be
       -0.1617125 -0.07392074 -0.015658127 -0.26591447
000230 94 62 40 be 3f ba 8c be 26 0e 7b be 8b 5f 2a be
       -0.18787605 -0.27485844 -0.24517116 -0.16638009
000240 48 7e 8d be e5 bc 01 be e2 67 6e be a0 e9 47 bd
       -0.27635407 -0.12669714 -0.23281816 -0.048806787
000250 91 e2 80 be 95 37 48 be ce 33 6f be a8 6a aa be
       -0.25172856 -0.19552453 -0.23359606 -0.33284497
000260 b1 57 f1 bd a8 f7 31 be a2 a2 5a be 38 0e 81 be
       -0.11784304 -0.1737963 -0.21351102 -0.2520616
000270 6c c9 87 be 9a 08 63 be 1d 03 4a be 55 80 1e be
       -0.2652086 -0.2217125 -0.1972775 -0.15478642
000280 73 b9 09 be 32 3f e1 bd a6 78 87 be 2b ce 71 be
       -0.1344965 -0.10998382 -0.26459235 -0.23613803
000290 9c 23 0a be 8c 5a f2 bd 6b 94 ee bd 1e 74 7d be
       -0.13490146 -0.11833677 -0.11649402 -0.24751326
0002a0 d1 bc 71 be 07 52 26 be 9c 6d 5f be 73 e7 2d be
       -0.23607184 -0.16242228 -0.21819156 -0.16982822
0002b0 31 83 32 be 8e a3 34 be d5 62 6e be fa 76 93 be
       -0.17432858 -0.17640516 -0.23279889 -0.2880171
0002c0 16 96 27 be 3e bb 33 be bc 52 2c be f6 38 a7 be
       -0.16365847 -0.17551896 -0.16828436 -0.32660645
0002d0 ed 38 58 bc f8 d1 95 bd e2 ea 73 be 39 7d 74 be
       -0.013197166 -0.07315439 -0.2382007 -0.23875894
0002e0 ba 10 11 be ce ae 6b be 0a a3 04 be 79 4c 1a be
       -0.14166537 -0.23015901 -0.1295282 -0.15068235
0002f0 fe fb 56 be 37 41 5e be a7 67 8b be e6 40 61 be
       -0.20994565 -0.21704565 -0.27227518 -0.21997413
000300 99 50 84 be 27 e4 5e bd 01 f4 88 be 60 04 53 be
       -0.2584274 -0.0544168 -0.2674866 -0.20607138
000310 10 bf 9c be 3c 7f 2e be 53 92 3c be c1 6c 25 be
       -0.3061452 -0.17040724 -0.18415193 -0.16154768
000320 77 ac 0d be e7 dc 97 be b4 cc 0d be 7e 0b 5a be
       -0.13835321 -0.29660723 -0.1384762 -0.21293446
000330 7f 74 23 be c5 1e 3d be 2d 8e 16 be dc f4 06 be
       -0.15962408 -0.18468769 -0.14702673 -0.13179344
000340 c2 7f 2f be 44 36 43 be 19 87 ef bd 00 dc 28 be
       -0.1713858 -0.1906367 -0.1169569 -0.16490173
000350 6a cd 43 be 36 55 f9 bd 10 66 3b bd 55 7d 81 be
       -0.19121328 -0.12174456 -0.04575163 -0.25290933
000360 99 a6 71 be a3 d6 3f be a6 b7 80 be 49 23 0d be
       -0.23598708 -0.18734221 -0.25140113 -0.13782991
000370 b5 02 0c be e3 81 6e be 2c 33 64 be c9 bb cf bc
       -0.13672908 -0.23291735 -0.22285146 -0.025358098
000380 cb 71 6f be a8 84 80 be 3b df 81 be 8c 26 5e be
       -0.23383252 -0.2510121 -0.25365624 -0.21694392
000390 db 34 43 be 46 5b c4 bd eb 70 5f bd 20 42 83 be
       -0.19063132 -0.095877215 -0.054551046 -0.25636387
0003a0 9d 07 97 bc a6 c7 20 be 07 c9 30 be 8a 45 8b be
       -0.018436247 -0.1570116 -0.17264186 -0.27201492
0003b0 06 60 72 be 01 6d 5b be 84 d9 9a be 46 77 4e be
       -0.23669443 -0.214283 -0.30244076 -0.20162687
0003c0 66 f1 02 be 5a 73 1d be c7 30 77 be c3 fa 9d bd
       -0.12787399 -0.15376034 -0.24139701 -0.077138446
0003d0 d4 c4 69 be 56 8f 77 be 76 18 88 be 30 d8 a4 be
       -0.2282899 -0.24175772 -0.26581162 -0.32196188
0003e0 df e7 27 be 1b 29 bc bd 41 86 81 be e0 0e b7 bd
       -0.16397046 -0.09187528 -0.2529774 -0.08938384
0003f0 e5 95 3a be 00 ed 60 be 6f bb 54 be 3b e1 23 be
       -0.18221243 -0.21965408 -0.20774625 -0.16003887

utn.2.bias f4 [128]
000000 1e 46 8f be 44 4c 0c bf 57 d7 32 be 6b 0f ad 3e
       -0.27983183 -0.5480387 -0.17464958 0.33800825
000010 d9 66 9a be cd 9e 07 3a c6 ff 2f be 25 57 67 bd
       -0.30156592 0.00051735045 -0.17187414 -0.056479592
000020 1d 17 81 be e0 31 f8 bd fa 22 07 bf 22 3c 7c be
       -0.25212947 -0.12118888 -0.52787745 -0.24632314
000030 ff 02 8e be 96 75 ab be 32 ca f1 bd d8 d2 31 be
       -0.2773666 -0.33488148 -0.11806144 -0.17365587
000040 33 0c c7 bd 1b 4a 81 be ca d5 a1 be ea 2f b3 be
       -0.09719124 -0.2525185 -0.3160842 -0.34997493
000050 0b b7 a8 3d c4 6a 82 bd 70 06 86 be 7e f6 a0 be
       0.08238038 -0.0636802 -0.26176786 -0.3143806
000060 e1 92 da be 02 fa 95 be 24 05 7d be b6 4c 40 bd
       -0.42690185 -0.29292303 -0.24708992 -0.046948157
000070 8c c7 47 be d3 41 92 be 21 f7 ac be 8f 4f 26 bd
       -0.19509715 -0.28565845 -0.33782294 -0.040603217
000080 c9 81 16 be ef d1 3c 3e 98 6b b6 be bb a1 9f be
       -0.14697947 0.18439458 -0.35628963 -0.31178078
000090 36 f8 84 bc c5 5b b1 be 46 86 8a be 5c 50 8f be
       -0.016231637 -0.34640327 -0.27055568 -0.27990997
0000a0 91 f8 03 bf 6b ba a5 be 77 54 51 bd 8c 27 37 be
       -0.5155116 -0.32368788 -0.051105943 -0.1788618
0000b0 5b f9 9b be 54 d3 93 3d e1 b1 f9 3d a2 e2 98 be
       -0.3046368 0.07218042 0.12192131 -0.29860407
0000c0 bc 75 71 be 66 07 b4 be f5 fc ac 3e d0 b1 5a be
       -0.23580068 -0.35161895 0.3378674 -0.21356893
0000d0 77 b0 0e be d1 d5 d6 be ac bb 14 3d 7b 69 6d be
       -0.13934503 -0.41960004 0.03631179 -0.23184769
0000e0 b3 fa d5 3e c8 5e f7 be 81 a3 b3 be fe 8d 7f be
       0.4179283 -0.483145 -0.3508568 -0.2495651
0000f0 3b 5e d7 bd 4b 92 ba bd 8e 90 30 3e e4 f6 a9 3e
       -0.1051602 -0.091099344 0.17242643 0.33196175
000100 b7 da ab be c7 62 a6 be a3 e0 92 3c 23 9b 94 3e
       -0.33565304 -0.32497236 0.01792938 0.2902461
000110 80 b3 c6 bd fd 90 6d be a4 d4 8b bd 93 90 66 3e
       -0.09702206 -0.2319984 -0.06827667 0.22516088
000120 d5 05 87 be 7b c1 af 3a 70 ad b6 be 24 8b 08 bf
       -0.26371637 0.0013409102 -0.35679197 -0.5333731
000130 6f 25 32 3e a0 b9 97 be bf 34 6e be cd 41 e5 bd
       0.17397092 -0.29633808 -0.23262309 -0.11194191
000140 89 0a 6b be 74 45 22 3e 04 33 a2 be b3 01 08 bf
       -0.22953238 0.15846807 -0.31679547 -0.5312759
000150 63 bd 7a 3e 45 f4 0d 3e b1 2a 9d be fd ab 21 be
       0.24486308 0.13862713 -0.30696633 -0.15788265
000160 96 c5 c1 be 99 83 de be 76 ee f7 bd e7 26 84 be
       -0.3784606 -0.43459776 -0.1210603 -0.2581093
000170 9f 99 8e 3d ee 76 9f be 25 a6 a9 be ed eb 09 3d
       0.06962895 -0.31145424 -0.3313457 0.033672262
000180 fa ab 9d be 5b be fd bd d7 4d 9c be c0 f9 a7 3d
       -0.3079527 -0.12389823 -0.30528137 0.08201933
000190 77 d7 f7 be e9 25 b8 be ec 22 3e bd a2 25 9c be
       -0.48406574 -0.35966423 -0.046420023 -0.30497462
0001a0 9c 8b b2 bd 4f 01 a7 be e4 26 ce bd 3e 47 f8 3e
       -0.087180346 -0.32618186 -0.100660115 0.48491853
0001b0 b5 97 a1 be 29 f2 88 3e aa b5 e7 bd 4d cd 7c be
       -0.31561056 0.26747254 -0.113139465 -0.24687691
0001c0 62 79 2f be 14 ac cc bd 30 b1 6c be ad 34 9c be
       -0.17136148 -0.09993759 -0.23114467 -0.30508938
0001d0 24 f4 ed bd be 61 53 be 6c 66 0f bf cf bd d5 be
       -0.11618832 -0.20642754 -0.5601566 -0.41746375
0001e0 37 91 ad be 79 b3 b0 bc 41 01 28 be bb 01 be be
       -0.33899853 -0.021569954 -0.16406728 -0.37110695
0001f0 c3 20 2b be a1 6a 3b 3e 0d 5f 86 be e1 6b 64 3c
       -0.16711716 0.18302394 -0.26244393 0.013941736

utn.4.weight f4 [15, 128]
000000 6b f0 8e bd 70 68 a1 bc 15 76 6a 3d 55 ce eb be
       -0.0697945 -0.01970312 0.057241518 -0.46055856
000010 94 2f cd 3c ca f2 3c 3d 65 0d cb be 62 77 80 be
       0.025047101 0.04612998 -0.39658657 -0.25091082
000020 25 9d f1 bd 32 27 e2 3c 7b 80 07 bf 83 e9 f7 bd
       -0.11797551 0.02760658 -0.5293042 -0.12105086
000030 ae ed c2 bd bc df 9a bd bd 06 54 be eb 62 3d be
       -0.0951799 -0.07562205 -0.20705695 -0.18494765
000040 b2 33 13 bf 06 3e 34 bc af 62 fc 3d ad 46 02 be
       -0.57500756 -0.011001116 0.1232351 -0.12722273
000050 89 6a f5 be 57 ed b0 be 38 32 01 3e 72 93 05 bc
       -0.47932842 -0.34556076 0.12616813 -0.0081528295
000060 b7 91 10 3f 9d 23 1a be 49 e1 a8 be c3 56 08 be
       0.56472343 -0.15052648 -0.3298438 -0.13314347
000070 c9 ae 18 3c db 8f 88 bc d7 60 f4 bd 8f 0e 10 be
       0.009319016 -0.016670158 -0.11932533 -0.14068054
000080 5f fc 3c bd 41 65 bd be 3b 20 f5 bd 2a a7 69 bd
       -0.046139117 -0.36991313 -0.11969038 -0.057044186
000090 3c ff f8 be 19 b7 08 bf 58 6e 34 bd 38 e8 55 bd
       -0.48632228 -0.53404385 -0.044050545 -0.052223414
0000a0 00 cb c8 3f 56 69 0b be 21 a6 04 be 1c e8 cc bc
       1.5686951 -0.13614401 -0.12953998 -0.025013022
0000b0 40 e2 aa bd 9b d7 64 be 97 0d 73 be ea 22 7c bd
       -0.08343935 -0.22347872 -0.23735653 -0.061556734
0000c0 df 5e 37 be f3 ec 25 bd 0c 12 03 bf 6f 3c 02 bc
       -0.17907284 -0.040509176 -0.5119941 -0.007948979
0000d0 14 9b 9b 3d 94 83 d2 be 27 27 a2 be 89 e8 9c 3c
       0.07597938 -0.4111601 -0.31670496 0.01915385
0000e0 93 a9 35 3f 64 3d 85 bd 47 13 1d bd f8 d1 90 bd
       0.70961875 -0.0650585 -0.038348462 -0.07071298
0000f0 98 9b 47 be 44 d8 c7 be 44 15 ad bd f1 41 2f 3d
       -0.19492948 -0.39032185 -0.08451322 0.042787496
000100 c5 cd 68 3c ed de 48 3c ce ac 0a bf ca 50 f6 be
       0.0142092155 0.012260181 -0.5416993 -0.48108512
000110 9a 57 88 bd 8f 4a fb bc e6 07 1f be e0 5e e6 be
       -0.06657334 -0.0306752 -0.15530357 -0.4499426
000120 2a e7 6e bd 30 d2 d3 bb 9a ce 4a 3f b6 cc ee 3e
       -0.058325924 -0.0064642653 0.792215 0.46640557
000130 d2 6b 0a bf 05 60 e3 bd 37 61 90 bc 91 97 cd bd
       -0.5407077 -0.11102299 -0.01762448 -0.100386746
000140 ff 72 b3 bd 8c 6f 37 be e1 f5 29 bc 79 3e ce bb
       -0.08762168 -0.17913646 -0.0103735635 -0.0062940684
000150 e6 18 ac be 7c 2d 28 be 90 d5 e1 bd 46 f1 74 be
       -0.33612746 -0.16423601 -0.11027062 -0.23920164
000160 68 d3 df be 1a 84 c9 3e 4a d7 21 be 8b 88 9e bd
       -0.43715978 0.39358598 -0.15804783 -0.07740887
000170 21 89 05 bf 6f 58 1f be f2 7c fa bc e4 9d 21 be
       -0.5216237 -0.15561078 -0.030577157 -0.15782887
000180 90 55 34 be e6 46 8e be a0 b7 b6 bd e8 ae a4 be
       -0.17610765 -0.27788466 -0.089217424 -0.32164693
000190 89 cb 86 3f 56 4c d9 bd 0e 84 4e bf a6 88 ea bd
       1.0530864 -0.10610263 -0.8067025 -0.11451845
0001a0 e3 38 7b bd 75 c7 2a bd 89 6c 56 be 19 bf e1 be
       -0.06133355 -0.041694123 -0.2093984 -0.44091108
0001b0 ac b2 12 be ca 75 27 be be 34 8e be cd 68 e9 bc
       -0.1432597 -0.16353527 -0.27774614 -0.028492356
0001c0 80 68 74 bd 23 14 13 bf 9f c2 dd 3a 92 cc 17 3d
       -0.05966997 -0.574526 0.0016918964 0.037060328
0001d0 8c 98 fb be d3 4d f0 be dc 18 02 3f d1 58 28 3e
       -0.49139822 -0.46934375 0.5081918 0.16440131
0001e0 ec 7f 5b bd 03 8f 5c 3d f6 cb cd bd 15 42 72 bc
       -0.053588793 0.053847324 -0.10048668 -0.014786263
0001f0 d8 03 a0 3e ec 34 0b 3e bf 08 0b bd 6b f8 63 be
       0.31252933 0.13594407 -0.033943888 -0.22262733
000200 0f ea ea bc 6f a8 ec be fc a9 cb be fd 6f 12 bf
       -0.028676061 -0.46222255 -0.39778125 -0.5720213
000210 c0 f8 77 bd 55 ce eb bf 79 58 ee be 33 b1 d5 bf
       -0.06053996 -1.8422343 -0.46551874 -1.6694702
000220 26 61 dc 3c f0 5d 67 c0 a1 20 f9 bf 86 1e c6 3c
       0.026901793 -3.6151085 -1.9463083 0.024184477
000230 0a 2e 43 be 2a e6 19 3d 53 4b ed bd 4c 4a 9d bf
       -0.19060531 0.037573017 -0.115866326 -1.2288299
000240 84 86 21 c0 78 0b 82 bb 31 db b9 bd 23 19 59 bd
       -2.5238352 -0.0039686523 -0.090750106 -0.053002488
000250 96 51 47 c0 17 34 27 bf 13 46 d7 3e 82 6f d6 3c
       -3.1143546 -0.6531386 0.4204565 0.026176218
000260 0f 24 f9 bd fa 65 00 3c af c1 16 be c8 9b 39 c0
       -0.12165081 0.007836813 -0.14722322 -2.9001331
000270 8a a6 d3 bc 7d 19 e2 3d 3b df e8 3d ca ec fc bf
       -0.025836248 0.11040018 0.11370703 -1.9759762
000280 90 b5 00 bd 22 0c 85 be b6 08 d3 3d 71 88 50 3c
       -0.03142315 -0.2598582 0.10304396 0.012727843
000290 41 1b 72 bf 60 3e 80 bf ec 15 81 3d 0a a3 25 3b
       -0.94572836 -1.0019035 0.063030094 0.002527418
0002a0 1d 4c d5 be ef cb 53 bd 1d 37 48 bf 43 65 c4 bd
       -0.41659632 -0.051708158 -0.78209096 -0.09589627
0002b0 09 aa 21 3d e7 5a d8 bf 20 5e 98 bd 9e ed 1d bd
       0.0394688 -1.6902741 -0.07439828 -0.038556688
0002c0 c2 0c 94 be 6b 2a 01 3d 34 91 2b be 73 d4 b8 be
       -0.28915983 0.031534594 -0.1675461 -0.36099586
0002d0 cc 8a 5e bf e1 05 94 bf 08 77 c3 3f c6 b4 ba 3d
       -0.8693054 -1.1564294 1.52707 0.09116511
0002e0 62 6f 41 3e a9 00 d2 be b0 de 73 3d 15 d6 9e 3c
       0.18890145 -0.4101613 0.059538543 0.019389192
0002f0 e1 58 08 c0 cb 84 a2 bf d9 c7 a0 bd 33 b7 f7 be
       -2.1304247 -1.2696775 -0.07850618 -0.48381957
000300 9c 94 1e bd e7 0f ac bd ac b0 18 c0 8a 77 90 be
       -0.038715944 -0.08401471 -2.3857832 -0.282162
000310 2b 56 88 bd 61 7c 4d 3d 26 c6 05 bd 29 d2 76 be
       -0.0665706 0.050167445 -0.032659672 -0.24103607
000320 41 b2 56 3d b2 a1 9d 3f a2 ae 37 bf c7 63 af bf
       0.05241609 1.231497 -0.71750844 -1.3702325
000330 da c0 ef 3f 40 91 77 bd 68 bf b9 bd 9f 49 06 be
       1.8730729 -0.060441256 -0.09069711 -0.13114022
000340 d8 dc 53 bd 90 6c 57 3c a9 08 c3 bc 53 c6 72 be
       -0.051724285 0.013148442 -0.02380784 -0.23708467
000350 bb 94 66 3f f6 43 23 3c 31 26 bb 3d b0 5b 7f be
       0.90070695 0.009964934 0.09138144 -0.2493732
000360 ff e9 51 bf 53 14 7a be 52 63 38 be b6 b8 bc 3d
       -0.81997675 -0.24421816 -0.18006638 0.09214918
000370 99 b6 1d be 8d 7d d2 bc fb db 25 be 87 8f 09 c0
       -0.15401687 -0.025694633 -0.16197197 -2.1493852
000380 c9 83 d3 3c 7c 7b e7 bf 60 45 62 3d 64 98 85 be
       0.025819676 -1.808456 0.055241942 -0.26092827
000390 a6 c4 99 be 63 01 77 be a8 a8 24 be 08 56 63 3d
       -0.30032843 -0.24121623 -0.16079962 0.055501968
0003a0 30 6c fc bf 7a f6 c5 bd c2 ce fc bd 4e f5 1d bf
       -1.9720516 -0.09666152 -0.123441234 -0.6170243
0003b0 d9 e8 54 bc 79 3b d5 be 04 1b a8 be 7f 8e f2 ba
       -0.012994968 -0.41646937 -0.3283311 -0.0018505602
0003c0 4e c6 95 be ed 19 4f bf c6 f6 9a be 1c bf 87 3c
       -0.29252857 -0.80898935 -0.30266398 0.01657062
0003d0 46 4a 18 c0 ea a3 e6 be b7 cd 76 be 5d 74 3e bf
       -2.3795333 -0.45046932 -0.24101911 -0.74396306
0003e0 7c 18 5a bd 2a d4 1d c0 f7 ea d8 bd 16 6f 4b 3d
       -0.053246006 -2.4660745 -0.10591691 0.049666487
0003f0 3e 1a 1f bf 12 50 05 bf fa eb 1f bd 16 06 81 3d
       -0.6214942 -0.520753 -0.039043404 0.06299989

utn.4.bias f4 [15]
000000 d4 b3 03 bf 87 7b 3e be c6 5d ba 3d 4a 92 ef bd
       -0.5144627 -0.1860181 0.09099917 -0.11697824
000010 d6 9c 61 be 87 17 2c bd 8f 43 10 be 4f 54 54 be
       -0.22032484 -0.042014625 -0.14088272 -0.20735286
000020 79 1a 76 bd de 5f 12 3d f1 7c fb be 2e 05 60 3e
       -0.06008384 0.035735957 -0.4911876 0.21876976
000030 db 78 b7 3e 7b 7c 95 bd 06 b1 0f bd
       0.35834393 -0.072991334 -0.035080932

itn.0.weight f4 [256, 2]
000000 29 1e c0 bf 7d 14 22 3f b2 3c d4 bf 30 84 9d bf
       -1.5009204 0.6331251 -1.6581023 -1.2305965
000010 8f b9 8f be 2a 49 1a 40 ec 02 7e 3f 0e 75 57 bf
       -0.28071257 2.4107156 0.9922321 -0.84162986
000020 0d ad b3 bf 6e c7 54 3f 3d 1e b8 bf 44 35 11 3e
       -1.4037186 0.83116806 -1.4384228 0.14180475
000030 5f 7c b1 bf a7 95 9d bf 9e a1 b3 bf ee 11 52 be
       -1.386608 -1.2311295 -1.4033697 -0.20514652
000040 f4 8a b0 bf 3a 35 22 be 19 09 15 bf ce e4 7b c0
       -1.3792405 -0.15840617 -0.58217007 -3.9358401
000050 f6 63 b9 bf cc 72 0d bf c5 f8 f2 bf 1c ee cb bf
       -1.4483631 -0.5525329 -1.8982168 -1.593204
000060 d3 73 c4 3e 0d 9c 8e bf c8 af 3c be 5e 4c fb 3e
       0.38369617 -1.1141373 -0.1842643 0.490817
000070 c4 d7 6b 3f 55 5f 88 bf a0 53 af bf 89 88 a0 3d
       0.9212611 -1.0654093 -1.3697395 0.07838542
000080 be c4 ac bf 79 9e 99 be a1 eb 5b bf 37 6b 31 c0
       -1.3497541 -0.30003718 -0.85906416 -2.7721689
000090 d3 3c c7 bf 51 04 bf bd de e1 a5 bf ef ae 70 bf
       -1.5565437 -0.09326995 -1.2959554 -0.9401693
0000a0 30 22 8f bf 2f 68 11 c0 42 70 d3 bf a2 05 ea bf
       -1.1182308 -2.2719839 -1.6518633 -1.8282969
0000b0 75 cf f3 bd f1 8f 10 c0 af b3 06 bf 94 86 d1 3f
       -0.11904804 -2.2587855 -0.52617925 1.6369195
0000c0 3d 08 bd bf 90 ba a4 3e 07 c3 6a 3f 92 09 b8 be
       -1.4768139 0.32173586 0.9170384 -0.35944802
0000d0 ee 2f 9f 3f 39 9f d8 bd 34 d3 bf bf b5 36 ea 3e
       1.2436502 -0.10577244 -1.4986329 0.45744863
0000e0 d8 54 28 bf e3 00 39 c0 83 64 9e bf 60 1b d2 be
       -0.6575446 -2.8906791 -1.2374424 -0.4103651
0000f0 ca ac ac bf 3a 6c 60 bf 2f d6 bd bf 34 c0 80 bf
       -1.3490231 -0.8766514 -1.4830989 -1.0058656
000100 f4 21 94 bf 84 2c fa bf 31 9b ed bf 78 41 0e c0
       -1.1572862 -1.9544835 -1.8562986 -2.222746
000110 bb 01 1a 3f 7a a5 dd bf 39 89 83 bf 12 a3 04 c0
       0.6015889 -1.7316124 -1.0276252 -2.072453
000120 4f 68 50 bf 69 2f cd 3f fe be b6 bf a0 d5 d8 be
       -0.8140916 1.6030093 -1.4277036 -0.42350483
000130 bf 08 e4 3e 89 25 f6 bf b0 e6 d8 bd 16 91 e6 bf
       0.44537923 -1.9230205 -0.10590875 -1.8013027
000140 b9 f2 b1 bf b7 a0 b0 3e b3 6b ac bf 97 0e c3 3d
       -1.3902198 0.34497616 -1.3470367 0.09524267
000150 6d 50 11 bf 8e 7f 9b 3f a9 ef af bf 44 e9 1f be
       -0.56763345 1.2148302 -1.3745013 -0.15616328
000160 b1 1f f1 bf 91 3f f2 bf 83 d8 38 bf 49 05 91 3f
       -1.8837796 -1.8925649 -0.7220537 1.1329738
000170 59 64 f2 bf 49 b8 de bf 67 50 b8 bf 6c 95 ae be
       -1.8936874 -1.7399989 -1.4399537 -0.34098375
000180 3e 41 a7 bf dc e5 9d bf b2 20 7a 3f b0 30 cc bf
       -1.3066785 -1.2335773 0.9770614 -1.5952358
000190 72 32 b0 bf 93 b1 7f 3d 43 f1 a8 bf f6 1a 27 bf
       -1.3765395 0.062425207 -1.3198627 -0.65275514
0001a0 a5 48 a9 bf 5c b7 cc be 9c 1b c8 3e a9 69 15 c0
       -1.3225294 -0.39983642 0.39083564 -2.334574
0001b0 55 87 30 3f 1e 38 59 be 14 7a 8e bf c5 77 09 c0
       0.689565 -0.21212813 -1.1131005 -2.1479352
0001c0 ce 2d 60 be fd 37 f4 bf 5c 12 fe bf 8c 90 ae bd
       -0.21892473 -1.9079586 -1.9849353 -0.08523664
0001d0 fe 94 b6 bf 5f f6 a6 3e 74 77 ad bf d1 dd 0b bf
       -1.4264219 0.3260984 -1.3552079 -0.5463534
0001e0 ec af d4 bf ce 29 8f bf e1 a1 a5 bf 10 1c 41 bf
       -1.6616187 -1.1184633 -1.2940027 -0.75433445
0001f0 64 0c 0c 3f 80 60 eb bf 45 2c 9a bf 36 2c f7 bf
       0.54706407 -1.8388824 -1.204476 -1.9310367
000200 cb ec d6 be e8 ef 2e bf 79 87 bf bf 2e 4c 8b 3e
       -0.41977534 -0.6833482 -1.4963218 0.27206558
000210 2c a9 ae bf bd 9c 42 bf 1b 2a a2 be a6 fc 64 c0
       -1.3645377 -0.76020414 -0.3167275 -3.5779204
000220 81 b9 4d 3f a0 de fb bf 85 5a ea be 31 1d 35 bf
       0.8036118 -1.9677315 -0.45772186 -0.7074767
000230 89 e4 1c be 21 8a 06 bf 8e ca a5 bf dc 61 cf bf
       -0.15321554 -0.5255452 -1.295244 -1.6201739
000240 28 70 80 3f 3f 20 bf be b5 c2 8e be 41 7c e5 bf
       1.0034227 -0.3732929 -0.27882925 -1.7928544
000250 7f da 92 bf 84 6f e4 bf 9f d5 01 c0 64 f1 9a be
       -1.147293 -1.7846532 -2.0286634 -0.3026229
000260 67 61 ba bf 04 49 d9 be b0 f8 aa 3f 43 9d a7 bf
       -1.4560975 -0.4243852 1.3357143 -1.3094867
000270 45 b3 ad bf b7 7c 02 be ae 10 b5 bf 76 86 5b 3d
       -1.3570334 -0.12742887 -1.4145715 0.05359503
000280 37 44 a0 bf 28 d2 7a bf 2b ff a9 bf bd d8 26 bd
       -1.2520818 -0.97976923 -1.3280996 -0.04073404
000290 2e f4 9b bf ab 22 73 bf 54 72 fd 3e e6 34 00 c0
       -1.2183893 -0.94974774 0.49501288 -2.0032287
0002a0 0b 87 39 bf 6a a8 ef 3f 08 6f c6 3f 30 e7 a7 bf
       -0.72471684 1.8723271 1.5502634 -1.3117428
0002b0 c7 67 b8 bf 7b 4d 30 3e 7c 33 80 bf 7d 5b 1e c0
       -1.440667 0.17217056 -1.0015712 -2.474334
0002c0 00 c3 39 bf a3 41 09 40 dc 10 b6 bf 90 c9 68 3f
       -0.7256317 2.1446311 -1.4223895 0.9093256
0002d0 38 b3 5b 3f 65 21 ff be 26 05 a6 bf c1 89 57 be
       0.8582034 -0.49830166 -1.2970321 -0.21048643
0002e0 ca b8 a9 bf e0 5b a0 bf ac 87 aa bf 23 6d 81 be
       -1.3259518 -1.2528038 -1.3322654 -0.25278577
0002f0 54 99 58 3f 6f 0e 8b bf 84 30 c4 3f b2 60 35 bf
       0.8460896 -1.086378 1.5327306 -0.7085067
000300 e9 e1 81 bc c8 71 f0 bf ce ca aa bf 07 61 1d bf
       -0.015854793 -1.8784723 -1.3343141 -0.61476177
000310 b1 d3 ab bf 41 9d b2 3e 9c 8c d8 bf a8 47 18 bf
       -1.3423978 0.348856 -1.691791 -0.5948434
000320 78 c6 f3 3c 77 0f 11 c0 04 c7 a7 bf 30 78 8d bf
       0.029757723 -2.266569 -1.310761 -1.1052303
000330 05 47 b9 bf 18 a8 14 3f 1d 4c f0 3e 9f 98 04 c0
       -1.4474798 0.5806899 0.4693307 -2.0718153
000340 1d b5 9a bf 4d f6 f8 bf ad 0c 3a 3f b1 ba 94 be
       -1.2086521 -1.9450165 0.7267559 -0.29048684
000350 62 b7 48 bf 04 17 af 3f 32 a2 62 bf f3 4b bc 3f
       -0.7840482 1.3678899 -0.8852874 1.4710678
000360 7b ed e8 be 12 59 19 40 75 fd ab bf 72 15 fd be
       -0.45493683 2.3960614 -1.3436724 -0.49430424
000370 46 7c 33 3f e8 b7 a4 bf 8e 44 96 3f 23 bb ae be
       0.701115 -1.2868624 1.1739671 -0.3412715
000380 67 f5 bd bf 7a 72 83 3f ed 33 b3 bf b6 98 86 3d
       -1.4840516 1.026931 -1.4000221 0.06572096
000390 59 51 af bf bf 01 a7 bf df 39 b4 bf c1 e1 8c 3e
       -1.36967 -1.3047408 -1.4080161 0.27515987
0003a0 ac de 22 bf b9 23 f1 3f 6d 35 ad bf 7b fe 15 bf
       -0.6362102 1.8839027 -1.3531929 -0.5859143
0003b0 73 01 b7 bf b4 76 54 3f c3 e3 ca bf b7 42 e3 bf
       -1.4297317 0.82993627 -1.5850757 -1.7754735
0003c0 a5 1a b8 bf 07 c2 f4 3e d7 93 9e 3f a2 bd 13 bf
       -1.4383131 0.4780428 1.2388867 -0.5771123
0003d0 7c db e2 bf 2d db af be 7a b7 b7 bf 96 b0 9a 3f
       -1.7723231 -0.34346905 -1.4352868 1.208514
0003e0 68 60 eb 3e 0b 9a 03 c0 22 fb 0e 3f 59 73 f9 bf
       0.4597199 -2.056277 0.5585195 -1.9488326
0003f0 29 66 b0 bf e6 0f 9c bd 89 fb b9 bf 78 4c 2c 3f
       -1.3781177 -0.0762022 -1.4529887 0.6730418

itn.0.bias f4 [256]
000000 af cf a8 3e e0 88 02 bf 4c 89 5e bf f9 1f 96 bf
       0.3297095 -0.50990105 -0.8692825 -1.1728507
000010 24 4e bc be 9e 44 68 3f 6e 0e 12 3e e8 ec e5 be
       -0.36778367 0.907297 0.14263317 -0.44907308
000020 28 de 2d bf e3 74 fa bf 10 23 43 c0 a5 b6 09 be
       -0.6791711 -1.9566921 -3.049015 -0.1344858
000030 24 1d 97 bf 5b c5 00 c0 03 3a 8b bf f2 97 a1 3e
       -1.1805768 -2.0120456 -1.0877079 0.31561238
000040 e1 59 b7 3e 0a 3c f0 be bb 7c 9f bf d2 98 3c 3f
       0.3581076 -0.46920806 -1.245994 0.73670685
000050 22 41 2f bd 66 09 1d bf 8d dd 4e bf 3f 37 c3 bf
       -0.042786725 -0.61342466 -0.8080681 -1.5251235
000060 b3 0b 79 3f 6e c1 bb bf 23 f5 df bf 00 cf 44 3f
       0.97283477 -1.4668405 -1.7496685 0.76878357
000070 e7 43 e2 be 2e fc 32 c0 74 d7 a2 3e df db dc be
       -0.4419243 -2.7966418 0.31805003 -0.43136498
000080 6e 6e 9e bc ff 5e 6a bf c5 d0 3c bf a7 54 16 bf
       -0.019339766 -0.915512 -0.7375606 -0.5872292
000090 17 1f 9a bf 0e e3 93 bd 86 e7 2c be de 20 71 bf
       -1.2040738 -0.072210416 -0.16885194 -0.94190776
0000a0 8f b8 76 bc cb 81 f3 be ec 73 00 c0 b0 48 59 bd
       -0.015058651 -0.47559962 -2.0070753 -0.053047836
0000b0 96 d9 18 bf 9c 61 07 c0 8b c0 ea be 28 b2 2b bf
       -0.5970701 -2.1153326 -0.45850024 -0.6706872
0000c0 2e aa 28 c0 99 5b 27 be 5d 53 de 3e 7e 72 c4 bc
       -2.635387 -0.16343535 0.43422976 -0.023980375
0000d0 25 9f 07 3f 84 15 14 bf ca 23 c9 bf 28 f8 3d be
       0.5297721 -0.5784533 -1.5714047 -0.18551695
0000e0 d5 b2 81 bf af ee 09 c0 ba 46 b7 3e c8 14 ee 3e
       -1.01327 -2.155193 0.35796148 0.4650023
0000f0 48 7f 2a be a4 31 c8 bd 4f e4 1c bf 76 20 e6 3d
       -0.16650116 -0.09775093 -0.6128587 0.1123666
000100 7a c1 cc bf b2 3c 80 3f 08 b9 c6 bd f9 1e 2c bf
       -1.5996544 1.0018523 -0.09703261 -0.6723476
000110 da 36 84 3e a3 50 e6 bf 70 fb f6 bf 58 fd d8 be
       0.25823098 -1.7993358 -1.9295483 -0.42380786
000120 a6 78 bb bf 3e e2 68 bf 5d 0b 32 bf 20 2f 0c c0
       -1.4646194 -0.9097022 -0.6954859 -2.1903763
000130 bf 9f ad be d2 de 35 bf 82 26 30 3e ba d8 42 3f
       -0.3391094 -0.7104312 0.1720219 0.7611195
000140 6b ad dd 3e 12 78 31 bf 9d 0f a4 3e 0f 4d 7a be
       0.4329637 -0.6932384 0.32043162 -0.24443458
000150 61 46 a6 bf 87 44 42 bf f9 be 84 3f c1 f7 c7 be
       -1.2990228 -0.75885814 1.037078 -0.3905621
000160 46 0c 68 be a6 e2 4d be 35 8a a8 bf ff d3 87 be
       -0.22660932 -0.20105991 -1.3167177 -0.26528928
000170 16 1e 7a 3f fa da d7 3e 74 69 72 bf f8 27 ac bf
       0.9770216 0.42159253 -0.9469216 -1.3449697
000180 e3 1b 7c bf 0a 57 20 3f df 90 25 bf d7 d9 50 bf
       -0.9848005 0.6263281 -0.6467418 -0.815824
000190 d3 64 85 be c4 28 b3 3e b5 f4 7e 3d 80 04 1e be
       -0.26053485 0.3499204 0.06224509 -0.15431404
0001a0 69 0b 2a 3d b4 39 b4 bf 1b dd 8d bf ef 14 96 bf
       0.041514788 -1.408011 -1.1083101 -1.1725138
0001b0 be af 3a bf 09 47 36 3f ae 6a 8b bf 73 95 b7 bf
       -0.7292441 0.7120214 -1.0891931 -1.4342483
0001c0 3e 88 e2 bd 74 b4 2c 3f cc aa 08 c0 5e ca 28 be
       -0.110611424 0.6746285 -2.1354246 -0.16483447
0001d0 47 ba 8d bf 23 ff 45 bd e6 e5 4e be cc 9b 8b bf
       -1.1072472 -0.04833902 -0.20204887 -1.090692
0001e0 1e be 12 3e 6b 60 b1 bf ff 7f ad bf 50 0f 12 bf
       0.14330336 -1.385755 -1.3554686 -0.57054615
0001f0 81 47 1a bf 34 c4 01 be a0 ea b4 bd 3a f8 a7 3e
       -0.60265356 -0.12672502 -0.08833814 0.3280657
000200 98 bf 02 c0 fa d4 59 3f 2b e8 28 bf ba d4 e1 be
       -2.042944 0.850906 -0.6597926 -0.4410761
000210 98 27 6b bf 87 9e 41 bf c3 0a 6f be 3a 01 95 be
       -0.9185729 -0.7563252 -0.23343949 -0.29102498
000220 35 54 9d be 60 f3 11 c0 ef d6 03 3f e2 6e 71 be
       -0.30728307 -2.2804794 0.5149984 -0.23577455
000230 05 6e e4 be df 51 5b be 3d 69 92 bf d3 ca c4 3d
       -0.44615188 -0.2141795 -1.1438366 0.09608998
000240 3f 53 c3 3e d9 40 f1 bf 5e 1a ff bf c7 0d 0a 3d
       0.3814945 -1.8847915 -1.9929922 0.033704545
000250 dd 15 a8 be 2c 24 46 bf fb b9 08 3f 76 52 72 3f
       -0.3282918 -0.77398944 0.53408784 0.94657075
000260 50 23 b3 bf c6 d2 cd bf cf 42 53 3e 9f aa 37 bf
       -1.3995152 -1.6079948 0.20630954 -0.7174472
000270 c8 2f 31 3f ae 58 eb bd fa 50 a0 bf 5d dd b9 be
       0.69213533 -0.11491524 -1.2524712 -0.363017
000280 79 dd 73 ba 49 e0 9c 3d d5 49 2b 3e 92 7d 9e bd
       -0.00093027164 0.076599665 0.16727383 -0.077387944
000290 4c 27 e6 bf 84 8d 05 c0 66 47 07 bf 72 8c 99 bf
       -1.7980742 -2.0867624 -0.5284332 -1.1995986
0002a0 f6 d7 a1 3e d0 a4 3c 3c 1a da a3 bd 32 14 9f 3e
       0.31610078 0.011513904 -0.08000584 0.31070095
0002b0 13 b0 9b bf 9c 21 a5 bd b4 ee c5 3e 94 74 5c bf
       -1.2163109 -0.08063051 0.3865868 -0.86115384
0002c0 2c 6c 21 c0 16 ab e3 3e d8 77 c4 bf 7d 6f 13 3f
       -2.5222273 0.44466466 -1.5349073 0.5759199
0002d0 04 3b ac bf ed f6 39 3e 18 9e 15 bf a0 7c 04 bc
       -1.345551 0.18160601 -0.58444357 -0.008086354
0002e0 cd 1e 7c bf e0 62 80 bf 75 72 9e bf 72 32 38 bf
       -0.984845 -1.0030174 -1.237868 -0.71951973
0002f0 c7 a9 54 3f 06 e6 08 bf e1 b2 37 be ae 92 a4 bd
       0.8307156 -0.5347599 -0.1793933 -0.080357894
000300 f3 b2 08 bd e6 c9 2a bf 56 32 94 bf 0e 0b 4b bf
       -0.033373784 -0.6671432 -1.1577861 -0.79313743
000310 af 70 91 bf 3d 3e 10 c0 32 81 18 3e 67 86 6a bf
       -1.1362513 -2.2537987 0.14893034 -0.9161133
000320 b2 32 94 bf b2 f6 86 bf 46 cd a9 bf b2 f7 cc bf
       -1.1577971 -1.0544035 -1.326577 -1.6013091
000330 bb eb 53 be 73 ef cc bf 3a 13 07 bf d8 ba 6a bb
       -0.20695393 -1.6010574 -0.5276371 -0.0035816934
000340 3d f0 4f be dd 55 2f 3f 4a 9c d2 bf 77 f6 97 3e
       -0.20306487 0.6849039 -1.6453946 0.29680225
000350 a7 7d 47 3f 56 11 c3 bf cd ae 9a bf 66 96 0b 3f
       0.77926105 -1.5239666 -1.2084595 0.54526365
000360 cb e0 9c bf 8e 20 79 3f 78 52 f2 bd e1 5b f0 3e
       -1.2256101 0.973153 -0.11832136 0.46945098
000370 12 1e cc bf 0c 3f fa 3e 00 72 69 bf 46 67 1e 3f
       -1.5946677 0.48876226 -0.91189575 0.6187633
000380 d3 1c 51 bf 32 f0 93 bf a8 c8 ca be 51 4d cd 3e
       -0.8168461 -1.1557677 -0.39606214 0.4009805
000390 77 ea e7 bf 13 52 80 be d1 be f4 be 1c ba 02 c0
       -1.8118428 -0.25062618 -0.4780183 -2.0426092
0003a0 42 31 9d bf 54 7e 88 be 3a e6 64 3e ad 6a 11 3f
       -1.2280657 -0.2665888 0.2235345 0.568034
0003b0 33 1d 9c 3c 02 50 95 be b0 dd 14 bd ee 8c c8 bf
       0.019056892 -0.29162604 -0.03634423 -1.5668008
0003c0 c6 f1 6d 3f bf 6b b4 3d eb 8c a8 3c 65 24 9e be
       0.9294704 0.088096134 0.020575007 -0.30887142
0003d0 c9 61 f1 3d 21 79 c3 be 73 ee eb 3e 71 41 71 bf
       0.11786229 -0.38178352 0.4608036 -0.9424048
0003e0 14 be 19 3f c2 3c 98 bf 46 dc bf 3e 1f 87 80 3d
       0.6005566 -1.1893542 0.37472743 0.06275772
0003f0 80 36 11 3f 88 fc df bf ab da bd be 29 0e 72 bf
       0.56723785 -1.7498941 -0.37080893 -0.94552857
