ckpt/assistment/irt_MFI_ip.pt (torch, 286913 bytes, 12 tensors)

utn.0.weight f4 [256, 1]
0	0x3eb5cfba	0.35510045
1	0x3fbd90e2	1.480984
2	0xbfafa330	-1.3721676
3	0xbfb81bab	-1.4383444
4	0xbfc027cf	-1.5012149
5	0x3f868150	1.0508213
6	0xbf7d1d06	-0.9887241
7	0x3fda6040	1.7060623
8	0xbf81a030	-1.012701
9	0x3f4c3879	0.7977367
10	0xbf6e5473	-0.9309761
11	0xbedffc3e	-0.43747133
12	0xc019f212	-2.4053998
13	0xbf94bc0b	-1.1619886
14	0xbfac228b	-1.3448042
15	0xbfabace4	-1.3412137
16	0x3f950e2a	1.1644948
17	0x3fbe4bb9	1.4866859
18	0xbfdac83b	-1.7092355
19	0xbfcc7917	-1.5974454
20	0x3fc2e0b6	1.5224826
21	0x3fb76b25	1.4329573
22	0xbf8620f3	-1.0478805
23	0x3fc25695	1.5182673
24	0xbe68c90c	-0.22732943
25	0x3e8220e3	0.25415716
26	0x3fc12e7d	1.5092312
27	0xc0144973	-2.316983
28	0xbfaf652e	-1.3702753
29	0xbee65df5	-0.4499356
30	0xbf8a04f1	-1.0782758
31	0x3fc3e282	1.53035
32	0xbf94f95a	-1.1638596
33	0xbf801d50	-1.0008945
34	0xbfbdf24d	-1.4839569
35	0xbff453a7	-1.9088029
36	0xbfaa06ae	-1.3283288
37	0x3fb47e03	1.4100956
38	0x3f9b7050	1.214365
39	0x3f9b88ba	1.2151101
40	0xbf6a0882	-0.9141923
41	0xbfc81bbd	-1.5633465
42	0x3f26d928	0.65175104
43	0xc01883d6	-2.3830466
44	0xbfab5cc8	-1.338769
45	0xbf68f85a	-0.91003954
46	0x3fa1803d	1.261726
47	0x3fadeb27	1.3587388
48	0xbf91503f	-1.1352614
49	0x3d9c95c9	0.07645757
50	0x3fac3bb2	1.3455718
51	0x3fd229ce	1.6419008
52	0x3fa543db	1.2911333
53	0x3eeb88f1	0.46002916
54	0x3fb2e8b6	1.3977268
55	0xbf9428fc	-1.1575007
56	0x3f8aa087	1.0830239
57	0xbfde60c1	-1.7373277
58	0xbfbe6971	-1.4875928
59	0xbfc680fd	-1.5508114
60	0x3fa0f833	1.2575744
61	0x3fa367cf	1.2766055
62	0xbf91022a	-1.1328785
63	0x3f994817	1.1975125
64	0x3fb48a31	1.4104673
65	0xbd5e2aa9	-0.054239903
66	0xbe13dbac	-0.14439267
67	0x3f900998	1.1252928
68	0x3fd0e3fb	1.6319574
69	0x3fddc6d0	1.7326298
70	0xc011d8cc	-2.2788572
71	0xbf8cf3a9	-1.1011859
72	0x3f732e75	0.9499276
73	0x3fb73bc3	1.4315113
74	0x3fa7d275	1.3111101
75	0x3fb061d8	1.377986
76	0x3f58ab74	0.84636617
77	0xc00c450e	-2.1917148
78	0x3f4b2147	0.7934765
79	0xbfae7971	-1.3630811
80	0xc019e1fb	-2.4044178
81	0x3fe97902	1.8240054
82	0x3fe16ba5	1.7610976
83	0xc007ff1f	-2.1249464
84	0x3f63945c	0.88898253
85	0xbfa002c7	-1.2500848
86	0xbe9a2930	-0.3010955
87	0xbf97c395	-1.1856562
88	0x3f99efd3	1.2026314
89	0xc0039940	-2.0562286
90	0x3f96f7b6	1.1794345
91	0x3fa10276	1.2578876
92	0x3f9e2c7b	1.2357324
93	0x3fab8cfb	1.3402399
94	0xbff6b547	-1.9274071
95	0xc012b241	-2.2921298
96	0x3fa1bdb4	1.2636018
97	0x3f7ec6b7	0.99521965
98	0xc003a4c3	-2.0569313
99	0xbfadd482	-1.3580477
100	0x3fac53d0	1.3463078
101	0x3fbfd57f	1.4987029
102	0xbfc58068	-1.5429811
103	0xbf4dfe47	-0.8046612
104	0xbff97f03	-1.9491886
105	0xbfed8c8f	-1.855852
106	0xbfbd2ca3	-1.4779247
107	0xc0007414	-2.0070848
108	0xbe1c2a5f	-0.15250538
109	0xbfbfb7a0	-1.4977913
110	0xbfb6bd22	-1.4276469
111	0x3fb16be4	1.3861051
112	0xbfbdcb6a	-1.4827702
113	0x3faf3436	1.3687809
114	0x3fa6d534	1.3033814
115	0xc00891c9	-2.133898
116	0xbfc08a57	-1.5042218
117	0xbfbc186d	-1.4694954
118	0xbfce097b	-1.6096643
119	0x3f9e82ec	1.2383704
120	0x3fb1ec17	1.3900174
121	0xbe0fa950	-0.14029431
122	0xbfed6d21	-1.8548928
123	0x3fbaf107	1.4604806
124	0xc0138cea	-2.3054757
125	0xbf868cf5	-1.0511767
126	0xbf63a335	-0.8892091
127	0xbfc48690	-1.5353565
128	0xbf82d59b	-1.0221437
129	0xc012f4ed	-2.296199
130	0xbf095922	-0.5365163
131	0x3f98076e	1.1877267
132	0xbfa20bba	-1.2659829
133	0xbf40b250	-0.75272083
134	0x3fb99f76	1.4501789
135	0xbf58796f	-0.8456029
136	0xbfcd5354	-1.6041055
137	0x3e347c05	0.17625435
138	0x3ee29017	0.44250557
139	0x3fccc5db	1.5997881
140	0x3fcf2ffd	1.618652
141	0x3fadb48c	1.3570724
142	0x3faecace	1.3655641
143	0xbf56cdff	-0.83908075
144	0xc003c4a1	-2.0588763
145	0xbf8ab711	-1.0837117
146	0x3fa1e617	1.2648343
147	0x3e1569e0	0.1459117
148	0xbfb462a9	-1.4092609
149	0xbfc74a1b	-1.556949
150	0xc0077766	-2.1166625
151	0xc008f07b	-2.1396778
152	0xbf97c48a	-1.1856854
153	0x3fb7ded7	1.436488
154	0x3f9546a3	1.1662182
155	0xc01099b4	-2.2593813
156	0x3fcfd0e1	1.623562
157	0xc0011ddf	-2.0174482
158	0xbf6eabc4	-0.93230844
159	0xbfa0dff9	-1.2568351
160	0xbfb3ef61	-1.4057428
161	0xbf627429	-0.88458496
162	0xc00dd56d	-2.2161515
163	0xc00405fa	-2.0628648
164	0xbec831ed	-0.3910059
165	0x3ef5ec3d	0.48031798
166	0xbf28fc76	-0.66010225
167	0x3fb24919	1.3928558
168	0xc015645f	-2.3342512
169	0xbfed69e2	-1.8547938
170	0x3fb5d96d	1.4206978
171	0xbfc06075	-1.5029436
172	0x3fb27694	1.3942437
173	0x3fa3a889	1.2785808
174	0xbfc1f099	-1.515155
175	0x3fbdf917	1.4841641
176	0xbe47c817	-0.19509922
177	0xbf7a8f4e	-0.97874916
178	0x3fb4c990	1.4124012
179	0xc00911f7	-2.1417215
180	0x3de21103	0.11038401
181	0xbfb9c2ba	-1.4512551
182	0x3fc5ed6b	1.5463079
183	0x3f88c71c	1.0685763
184	0x3f9665f1	1.174986
185	0x3f8ca9e9	1.0989352
186	0xbf9ee68d	-1.2414109
187	0xbe548ed4	-0.2075761
188	0xbfd169ab	-1.6360372
189	0x3fc868a2	1.5656931
190	0x3fa8b8b0	1.3181362
191	0x3fbb7e92	1.4648001
192	0xbf8a84db	-1.0821794
193	0x3e29d649	0.1658565
194	0xc0001a06	-2.0015883
195	0xbfc2df26	-1.522435
196	0xc0051217	-2.079229
197	0x3f9b49cd	1.2131897
198	0xbfc045a3	-1.5021251
199	0xbf1cfcb4	-0.61323094
200	0x3e16c1cd	0.14722367
201	0x3fc6bae3	1.5525783
202	0xbfc3580b	-1.5261244
203	0xbfa15101	-1.2602845
204	0xbfce0971	-1.6096631
205	0x3fa61e81	1.2978059
206	0xbf591e1b	-0.8481156
207	0x3fb3823e	1.4024122
208	0x3fadbd72	1.3573439
209	0x3f2b1b8d	0.66838914
210	0xbfa1c4c8	-1.2638178
211	0xbfaf6d9d	-1.3705326
212	0x3f73aaf7	0.95182747
213	0xbf92b1e9	-1.1460544
214	0xbd5e9ccc	-0.054348752
215	0x3fa3faff	1.2810973
216	0xc00a8add	-2.1647255
217	0xbf83319c	-1.0249515
218	0x3fc5ec09	1.5462657
219	0xbfd54ec7	-1.6664666
220	0xbe3537f7	-0.1769713
221	0x3fcaac3a	1.5833809
222	0x3f814c7d	1.0101467
223	0x3f01b4b0	0.5066633
224	0xbfc71005	-1.5551764
225	0x3f9da202	1.2315066
226	0xbff2bd39	-1.8963996
227	0xbee2106c	-0.44153154
228	0xbf4fbcaa	-0.81147254
229	0xbf26b733	-0.6512329
230	0x3e1afc2e	0.15135261
231	0x3fc91b95	1.5711542
232	0x3a62ba90	0.0008649016
233	0x3fb38987	1.4026345
234	0x3f9db5dc	1.2321124
235	0xbfb86432	-1.4405577
236	0x3fa18198	1.2617674
237	0xbfbf4b21	-1.4944803
238	0xbfa995ca	-1.3248837
239	0x3f8ccd1e	1.1000097
240	0x3f827d2c	1.019445
241	0x3faf310c	1.3686843
242	0xbfe50e2c	-1.789495
243	0xbd2aae1a	-0.041669942
244	0x3fae4c56	1.3617046
245	0xc006246e	-2.0959735
246	0x3fc52ccf	1.54043
247	0xc001b468	-2.0266361
248	0xbea34206	-0.3188631
249	0xbf977d22	-1.1835063
250	0xbf8d8636	-1.1056583
251	0x3f16e774	0.5894692
252	0x3faa0160	1.328167
253	0xbf1fb35f	-0.62383074
254	0xbfa4c3d5	-1.2872263
255	0xbf8b747b	-1.0894922

utn.0.bias f4 [256]
0	0xc07b76aa	-3.9291177
1	0x3f29c369	0.663138
2	0xbfd3f757	-1.6559857
3	0xc00200a7	-2.0312898
4	0xc0132fe2	-2.2997975
5	0xbf16a37c	-0.5884321
6	0xc02a4906	-2.660707
7	0x3fabac30	1.3411922
8	0xc01d44f7	-2.4573343
9	0xbfde0646	-1.7345665
10	0xc01a6b24	-2.4127893
11	0xc0371f37	-2.8612802
12	0x3f9799cb	1.1843809
13	0xbf75286b	-0.957648
14	0xc0087aee	-2.132503
15	0xc02f9ce0	-2.74395
16	0xbf80f13d	-1.007362
17	0x3f1ac6c8	0.60459566
18	0xbf0689ae	-0.5255383
19	0xc014033b	-2.3126972
20	0x3f59f873	0.8514473
21	0xbf3f0385	-0.74614745
22	0xc0188faf	-2.3837698
23	0x3f37f68a	0.71860564
24	0xc0638b9a	-3.5553956
25	0xc09cf3cd	-4.904761
26	0xbf4d7cf9	-0.8026882
27	0x3f823322	1.0171854
28	0xbf40068b	-0.75009984
29	0xbfedf458	-1.8590193
30	0xc00f1828	-2.2358494
31	0x3f4752ae	0.77860534
32	0xbfce47b4	-1.6115632
33	0xbfe7f3bd	-1.8121258
34	0xbff6d110	-1.9282551
35	0x3e803736	0.25042123
36	0xbf398ed0	-0.7248354
37	0x3e371aa5	0.17881258
38	0xbe3a5809	-0.18197645
39	0xbf1954a1	-0.5989476
40	0xc02014e3	-2.5012748
41	0xc0118592	-2.2737775
42	0xbfdb1e12	-1.7118552
43	0x3f32d17f	0.69850916
44	0xbfd03f64	-1.6269345
45	0xbfcf0c9e	-1.6175725
46	0xbed7621a	-0.42067033
47	0x3eb6fa26	0.35737723
48	0xbf9e90f4	-1.2387986
49	0xc0a04fd3	-5.009744
50	0x3eabb623	0.33537397
51	0x3f7fc739	0.99913365
52	0x3e2f16ef	0.17098592
53	0xc04499b4	-3.0718813
54	0xbf2ca9ad	-0.67446405
55	0xbfcf2473	-1.6182998
56	0xbef394a7	-0.4757435
57	0xbed1c8d1	-0.40973523
58	0xbed783e1	-0.42092803
59	0xbe90bfc0	-0.28271294
60	0xbe8a0198	-0.2695434
61	0x3da6d1b8	0.081454694
62	0xbf7ed100	-0.9953766
63	0xbe25c76f	-0.16189359
64	0x3eb0329c	0.34413612
65	0xc0797671	-3.897854
66	0xc0a61d02	-5.191041
67	0xbeb1e46d	-0.34744588
68	0x3f8ecdc1	1.1156541
69	0x3fb0cda5	1.3812758
70	0x3f649844	0.8929484
71	0xbff65fff	-1.9248046
72	0xbf6df703	-0.92955035
73	0xbef49fb2	-0.47778088
74	0xbf599434	-0.84991765
75	0xbf661f67	-0.89891666
76	0xbf8370ba	-1.0268776
77	0x3f436e4c	0.76340175
78	0xc002c119	-2.0430357
79	0xbf5076b0	-0.814311
80	0x3f8f5a46	1.1199424
81	0x3fcad40a	1.5845959
82	0x3fbaf136	1.4604862
83	0x3f5ae35f	0.8550319
84	0xbf9ed5ef	-1.2409037
85	0xc01f1c50	-2.486103
86	0xc01073d9	-2.2570708
87	0xbf70d029	-0.9406763
88	0xbef62d9c	-0.48081672
89	0x3f2066ea	0.62657034
90	0xbe3d4e05	-0.18486793
91	0x3c21a06e	0.00986491
92	0xbf159540	-0.5843086
93	0x3e768299	0.24073257
94	0x3ca4271d	0.020038182
95	0x3f7abf18	0.97947836
96	0xbd0aaaf4	-0.03385444
97	0xbf3a8875	-0.72864467
98	0x3ea252e3	0.31703863
99	0xbf19ed79	-0.6012798
100	0xbeac3699	-0.33635405
101	0x3f455433	0.770816
102	0xc00b4abe	-2.176437
103	0xc01f0c33	-2.4851196
104	0xbe2eb713	-0.17062025
105	0xc0325e77	-2.7870157
106	0xc00964ec	-2.1467848
107	0x3f175c31	0.5912505
108	0xc06254ab	-3.5364177
109	0xc029dc0a	-2.654055
110	0xbe526db5	-0.20549662
111	0xbf3aabd7	-0.72918457
112	0xc00982de	-2.1486125
113	0x3c42d49d	0.011891511
114	0xbf21c610	-0.63192844
115	0x3f4ec898	0.8077483
116	0xc02062b1	-2.5060236
117	0xc02b7744	-2.6791544
118	0xc03b08e0	-2.9224167
119	0xbec652e1	-0.38735107
120	0x3f02a36a	0.510306
121	0xc07c7f8d	-3.945285
122	0x3e6f4095	0.2336448
123	0x3f2c14d2	0.6721927
124	0x3f8eefdd	1.116695
125	0xbff51f17	-1.9150113
126	0xc014c689	-2.3246176
127	0xbe30eca9	-0.17277779
128	0xbfc7861f	-1.5587806
129	0x3f8d2c20	1.1029091
130	0xc010b5de	-2.2611003
131	0xbdcb2e34	-0.09920922
132	0xbfe41199	-1.781787
133	0xc03965aa	-2.89683
134	0x3f106037	0.5639681
135	0xc03131ce	-2.7686648
136	0xc02e2508	-2.7210102
137	0xc08e361a	-4.444104
138	0xc0744c17	-3.8171442
139	0x3f85f575	1.0465533
140	0x3f87f821	1.0622598
141	0x3e49fcb2	0.19725302
142	0xbf0b2474	-0.543525
143	0xc00a5d62	-2.1619496
144	0x3f271705	0.652695
145	0xbfc8807b	-1.5664209
146	0xbebf6b64	-0.3738662
147	0xc051d867	-3.2788332
148	0xbf1e4eb3	-0.61838835
149	0xc0025a3a	-2.036757
150	0x3f5fb341	0.87382895
151	0x3f5e79da	0.8690468
152	0xc0218a8d	-2.5240815
153	0x3f15b5fa	0.584808
154	0xbf153426	-0.582827
155	0x3f20e290	0.62845707
156	0x3f9253b0	1.1431789
157	0x3e8152cd	0.25258484
158	0xc02ac7f2	-2.6684537
159	0xc00cdc57	-2.2009485
160	0xc01c0522	-2.4378133
161	0xc023cff8	-2.5595684
162	0x3f17b60b	0.5926215
163	0x3f4f720f	0.81033415
164	0xc03e639c	-2.9748297
165	0xc04905a6	-3.1409698
166	0xc00399c7	-2.0562608
167	0x3ef9031d	0.48635188
168	0x3f7adbe3	0.9799177
169	0xc02e9a2c	-2.72816
170	0xbdebdb9a	-0.11516495
171	0xc006c190	-2.105564
172	0xbf03ce4b	-0.51486653
173	0x3e293b3f	0.16526507
174	0xbfb6f164	-1.4292417
175	0x3f25e3ac	0.64800525
176	0xc02713de	-2.6105876
177	0xbfdcd042	-1.7251055
178	0xbf341c67	-0.7035584
179	0x3ea7cdf1	0.32774308
180	0xc09dacf7	-4.927364
181	0xc01f843a	-2.4924455
182	0x3f76a206	0.9634098
183	0xbfa7db58	-1.3113813
184	0xbf76e89e	-0.96448696
185	0xbf92c6b1	-1.1466886
186	0xc00e50e8	-2.2236881
187	0xc0339950	-2.8062325
188	0xc008fc65	-2.140405
189	0x3f77d762	0.96813023
190	0xbe37cf6e	-0.17950222
191	0x3f226181	0.6343003
192	0xbfa0ee55	-1.2572733
193	0xc0b1a8f8	-5.551876
194	0x3f15c49f	0.58503145
195	0xbe908e76	-0.2823369
196	0x3f39d797	0.7259459
197	0xbd8d1e0a	-0.06890495
198	0xc00273f4	-2.0383272
199	0xc03cf891	-2.9526713
200	0xc06f0a5b	-3.735007
201	0x3f571835	0.8402131
202	0xbfd9ea70	-1.702467
203	0xbfc9b6cf	-1.5758914
204	0xc0151532	-2.3294187
205	0xbecf4f33	-0.40490112
206	0xbff797ce	-1.9343202
207	0xbf42663a	-0.75937235
208	0x3eb70f5a	0.357539
209	0xbfd23509	-1.6422435
210	0xc02a0cad	-2.6570237
211	0xc0206c19	-2.5065978
212	0xbfda62cc	-1.70614
213	0xc01346ba	-2.3011918
214	0xc0889f3b	-4.2694373
215	0x3e01a40f	0.1266024
216	0x3f3db65e	0.74106395
217	0xc0007c73	-2.0075958
218	0x3f6403f9	0.8906856
219	0xc0091fdc	-2.1425695
220	0xc08daa18	-4.4270134
221	0x3f577075	0.8415597
222	0xbf89da25	-1.0769697
223	0xc0014d4d	-2.020343
224	0xbf884e20	-1.0648842
225	0xbee6b99d	-0.45063487
226	0xbe955e2b	-0.29173407
227	0xc0167394	-2.3508043
228	0xc016ae91	-2.3544047
229	0xc043f0db	-3.0615757
230	0xc0608e2c	-3.5086775
231	0x3f694820	0.9112568
232	0xc0b70bd0	-5.720192
233	0xbe359e17	-0.17736088
234	0xbe187605	-0.14888771
235	0xbf334db8	-0.70040464
236	0x3dbcff14	0.0922834
237	0xbff037b8	-1.8767004
238	0xbecea930	-0.40363455
239	0xbf2685af	-0.65047735
240	0xbf9b617a	-1.2139122
241	0xbf04f8c3	-0.5194208
242	0x3dcfdf0c	0.10149965
243	0xc07a6f99	-3.9130614
244	0xbf3479e3	-0.70498484
245	0x3f3fef46	0.7497448
246	0x3f63328a	0.8874899
247	0x3f0991c3	0.5373804
248	0xc038ccea	-2.887507
249	0xc02171b1	-2.5225642
250	0xbfaec2e1	-1.3653222
251	0xbfffe760	-1.9992485
252	0xbe3de94b	-0.18546025
253	0xc00af9c7	-2.1714952
254	0xbfb79edc	-1.4345355
255	0xbfa28dc9	-1.2699519

utn.2.weight f4 [128, 256]
0	0xbd8a4a94	-0.06752506
1	0xbe125486	-0.14290056
2	0xbdff50e3	-0.124666
3	0xbdc81625	-0.09769849
4	0xbdf83acd	-0.1212059
5	0xbd9d3b04	-0.07677272
6	0xbcfb22c0	-0.030656219
7	0xbe0f2a84	-0.13981062
8	0xbd5bf2cd	-0.05369835
9	0xbd8ff01c	-0.07028219
10	0xbd8da767	-0.06916695
11	0xbdfcba35	-0.12340204
12	0xbe841dd9	-0.25804022
13	0xbe366a43	-0.17813973
14	0xbd2e420a	-0.04254345
15	0xbdb19c14	-0.08672348
16	0xbd7c112a	-0.061539806
17	0xbe19e49f	-0.15028618
18	0xbe213041	-0.15741064
19	0xbd1b1cc8	-0.037869245
20	0xbe2f2d16	-0.17107043
21	0xbded6ca8	-0.1159299
22	0xbe06434e	-0.13111612
23	0xbdf89158	-0.12137097
24	0xbdb295b5	-0.087199606
25	0xbdb6cf49	-0.08926255
26	0xbdac527a	-0.08414169
27	0xbe4ede7e	-0.20202062
28	0xbe409f73	-0.18810825
29	0xbdb9ccb7	-0.090722494
30	0xbde4060f	-0.11133968
31	0xbe1b17ed	-0.15145846
32	0xbdf8729e	-0.121312365
33	0xbd73ac92	-0.059490748
34	0xbe274e8d	-0.16338558
35	0xbe53237f	-0.2061901
36	0xbe2fb590	-0.17159104
37	0xbd2862df	-0.041109916
38	0xbe2526a9	-0.16128029
39	0xbe1072db	-0.14106314
40	0xbbf7a67b	-0.007557688
41	0xbe0d7b5d	-0.1381659
42	0xbd554108	-0.05206397
43	0xbea4a2fd	-0.321556
44	0xbe1bff7a	-0.15234175
45	0xbe06c6e5	-0.1316181
46	0xbd42ab6c	-0.047526762
47	0xbde13f80	-0.1099844
48	0xbe3ef41d	-0.1864781
49	0xbdbf1d6a	-0.09331782
50	0xbe094bb4	-0.13407785
51	0xbdbd5845	-0.09245352
52	0xbe168fa2	-0.14703229
53	0x3c2205c8	0.009889074
54	0xbdacbd9a	-0.08434601
55	0xbe0a57c6	-0.13510045
56	0xbd26dc00	-0.040737152
57	0xbe3d4a1b	-0.184853
58	0xbde1da7d	-0.110280015
59	0xbdec3787	-0.115340285
60	0xbdefa9b6	-0.11702292
61	0xbe1a4ff0	-0.15069556
62	0xbe10135e	-0.14069888
63	0xbd464de1	-0.048414115
64	0xbe093795	-0.13400109
65	0xbe00d969	-0.12582935
66	0xbce648c7	-0.028110875
67	0xbd0ec6d3	-0.034857582
68	0xbe1719f0	-0.14755988
69	0xbe3a906a	-0.18219152
70	0xbe8a7a29	-0.27046326
71	0xbda54cdc	-0.080713004
72	0xbd9d4912	-0.07679953
73	0xbddf8976	-0.109148905
74	0xbd46cbee	-0.048534326
75	0xbd0e3a70	-0.0347237
76	0xbcd25917	-0.025677247
77	0xbe25a437	-0.16175924
78	0xbd63b64e	-0.05559378
79	0xbe498dd5	-0.19683011
80	0xbe8e2cec	-0.27768648
81	0xbd9e84de	-0.07740186
82	0xbddd030a	-0.10791595
83	0xbe3f02fa	-0.18653479
84	0xbdfe44f0	-0.124154925
85	0xbcbb6824	-0.022876807
86	0xbd112aa3	-0.035441052
87	0xbd9783b3	-0.073981665
88	0xbe1255b8	-0.14290512
89	0xbe4ed7e8	-0.20199549
90	0xbe0c29fc	-0.13687891
91	0xbd1a7c6e	-0.03771632
92	0xbdd9881a	-0.106216624
93	0xbe0dfec4	-0.13866717
94	0xbe6fcf1d	-0.23418851
95	0xbe69acd6	-0.22819838
96	0xbe0c1025	-0.13678034
97	0xbdb3dfcf	-0.087829225
98	0xbe61ff20	-0.22069979
99	0xbe4ba946	-0.19888791
100	0xbd016c70	-0.031597555
101	0xbe17dc00	-0.14830017
102	0xbda08eef	-0.078397624
103	0xbcd91fe1	-0.026504459
104	0xbe8454c0	-0.2584591
105	0xbd76b568	-0.060231596
106	0xbd85440d	-0.0650712
107	0xbe3a1e36	-0.18175587
108	0xbdc8b01e	-0.09799217
109	0x3b39a905	0.0028329503
110	0xbe0d2c2e	-0.13786384
111	0xbe05c791	-0.1306441
112	0xbe01e4e2	-0.12684968
113	0xbe0eb101	-0.13934709
114	0xbca4d172	-0.020119403
115	0xbe5f6c60	-0.21818686
116	0xbe128878	-0.14309871
117	0xbd97101d	-0.0737612
118	0xbcec0213	-0.028809583
119	0xbda1f0b7	-0.07907241
120	0xbdbbdac0	-0.091725826
121	0xbd5d9208	-0.054094344
122	0xbe12e6ac	-0.14345807
123	0xbe08574b	-0.1331455
124	0xbe757da1	-0.23973705
125	0xbe33e371	-0.17567231
126	0xbe02a6ae	-0.12758896
127	0xbdfb504e	-0.12271176
128	0xbe14f947	-0.14548217
129	0xbe445dd7	-0.19176422
130	0xbd9091e5	-0.07059077
131	0xbdc32ba5	-0.09529809
132	0xbe271237	-0.16315542
133	0xbbd1b3ae	-0.0063995933
134	0xbe20365e	-0.1564574
135	0xbcd1024e	-0.025513794
136	0xbdf1724c	-0.117893785
137	0xbd948460	-0.07251811
138	0xbc19d877	-0.009389988
139	0xbe1de14f	-0.1541798
140	0xbd91c549	-0.07117707
141	0xbe1a735b	-0.15083067
142	0xbe02460c	-0.12722033
143	0xbdde104d	-0.10842953
144	0xbe4a9d16	-0.19786486
145	0xbd7189d2	-0.058969326
146	0xbdf0868f	-0.11744415
147	0xbd30d71a	-0.043173887
148	0xbe252d6d	-0.1613061
149	0xbe0a6d42	-0.13518241
150	0xbe1db4f0	-0.15401053
151	0xbe830f21	-0.2559748
152	0xbd98c809	-0.07460029
153	0xbd6d47e7	-0.0579299
154	0xbdbf7598	-0.09348601
155	0xbe7396e4	-0.23788029
156	0xbe17cdac	-0.14824551
157	0xbe3114b5	-0.17293055
158	0xbe1a6e94	-0.15081245
159	0xbdd42621	-0.10358835
160	0xbdb2c175	-0.08728305
161	0xbd800999	-0.062518306
162	0xbe656f81	-0.22405817
163	0xbe1951d4	-0.14972621
164	0xbdb3ecb0	-0.08785379
165	0xbd5674eb	-0.052357595
166	0xbd86e181	-0.0658598
167	0xbe096ab2	-0.13419607
168	0xbe361fc3	-0.17785554
169	0xbde1bbeb	-0.11022171
170	0xbdc920df	-0.09820723
171	0xbde019f0	-0.10942447
172	0xbd42ef9e	-0.047591798
173	0xbd86a4dc	-0.06574413
174	0xbe3bbf24	-0.18334633
175	0xbe2f4424	-0.17115837
176	0xbd5f166f	-0.054464754
177	0xbdbffcb9	-0.09374375
178	0xbd2f2b14	-0.042765692
179	0xbea0ca34	-0.3140427
180	0xbc303a36	-0.010756066
181	0xbcdbcac3	-0.026830083
182	0xbdfaed5a	-0.122523025
183	0xbde4c127	-0.111696534
184	0xbca98775	-0.020694474
185	0xbdd57648	-0.10422951
186	0xbd9454ed	-0.07242761
187	0xbd9a0aef	-0.07521617
188	0xbe1bf1ec	-0.15229005
189	0xbdcfc960	-0.10145831
190	0xbe1a1656	-0.15047583
191	0xbdd7a569	-0.10529596
192	0xbe3ab8cf	-0.18234561
193	0xbd64a8bc	-0.05582498
194	0xbe356562	-0.17714456
195	0xbdd6fe14	-0.1049768
196	0xbe55a5dd	-0.20864053
197	0xbd6f7660	-0.0584625
198	0xbdf78d13	-0.12087455
199	0xbdc1f374	-0.09470263
200	0xbdec3e6e	-0.11535345
201	0xbe3865ee	-0.18007633
202	0xbdb5c58b	-0.08875569
203	0xbe174f65	-0.1477638
204	0xbdd43e14	-0.10363403
205	0xbd8ae43c	-0.067818135
206	0xbd707a63	-0.058710467
207	0xbc38e167	-0.011284209
208	0xbd84d83e	-0.064865574
209	0xbde786ba	-0.11304994
210	0xbd9bcd17	-0.07607477
211	0xbdf87aa7	-0.12132769
212	0xbda5b503	-0.08091166
213	0xbd97332d	-0.07382808
214	0xbac3573c	-0.0014903317
215	0xbe1d5e83	-0.15368085
216	0xbe2eab7c	-0.17057604
217	0xbe0dff48	-0.13866913
218	0xbe0cb78f	-0.13741897
219	0xbd98ffdb	-0.074706756
220	0xbda196fe	-0.078901276
221	0xbde553f4	-0.111976534
222	0xbde7fdc1	-0.113276966
223	0xbc6b051c	-0.01434448
224	0xbe580fb8	-0.21099746
225	0xbe08f415	-0.1337436
226	0xbe8428b7	-0.25812313
227	0xbe0ce256	-0.13758215
228	0xbe12d0eb	-0.14337508
229	0xbd724c6b	-0.05915491
230	0xbc5977a2	-0.013273152
231	0xbe103c96	-0.14085612
232	0xbca1b09a	-0.01973753
233	0xbd0f997e	-0.03505849
234	0xbd6ef6f5	-0.058340985
235	0xbe42a76f	-0.19009183
236	0xbddc7eae	-0.1076635
237	0xbe18b3b0	-0.14912295
238	0xbe48976b	-0.19589011
239	0xbda6fe6e	-0.08153997
240	0xbc5cb98b	-0.013471971
241	0xbcd0c093	-0.025482452
242	0xbe14de89	-0.14538015
243	0xbd476aa4	-0.048685685
244	0xbdcb0b9d	-0.099143244
245	0xbe27d8da	-0.16391316
246	0xbe1a1531	-0.15047146
247	0xbe7936e7	-0.2433735
248	0xbd84f237	-0.06491511
249	0xbd416148	-0.047211915
250	0xbe3473d3	-0.17622308
251	0xbb5b01e3	-0.0033417873
252	0xbd8e257c	-0.06940743
253	0xbe0f0653	-0.13967256
254	0xbe19de12	-0.1502612
255	0xbd6f1a4f	-0.0583747

utn.2.bias f4 [128]
0	0xbe234717	-0.15945087
1	0xbf033e99	-0.5126739
2	0xbead3236	-0.3382737
3	0xbe2bb880	-0.167696
4	0xbe428202	-0.18994907
5	0x3e0b2343	0.1358767
6	0xbe1af2a6	-0.15131626
7	0xbe912356	-0.28347272
8	0xbe4e3383	-0.20136838
9	0xbe9b1037	-0.30285808
10	0xbeeb0d89	-0.45908764
11	0xbe62cc0f	-0.22148155
12	0xbeed7b2a	-0.4638303
13	0xbec316cf	-0.3810334
14	0xbe3a7c7e	-0.18211553
15	0xbe5f5a18	-0.21811712
16	0xbe6bf450	-0.23042417
17	0xbe7c4f55	-0.24639638
18	0xbebf870d	-0.37407723
19	0xbe4479a8	-0.19187033
20	0x3db84a1a	0.08998509
21	0x3e5a7751	0.21334578
22	0xbe9064b4	-0.2820183
23	0xbea60382	-0.3242455
24	0xbe1731ff	-0.14765166
25	0xbe5910c5	-0.21197803
26	0xbea09e4e	-0.31370777
27	0xbec80254	-0.39064276
28	0xbde6030d	-0.11231051
29	0xbe341b8f	-0.17588638
30	0xbebaf1d6	-0.3651263
31	0xbe8da119	-0.2766197
32	0xbe20686d	-0.15664835
33	0xbe3350e0	-0.1751132
34	0xbea91abe	-0.33028215
35	0xbe2bb770	-0.16769195
36	0xbcda9bda	-0.026685644
37	0xbe5dcf51	-0.21661116
38	0xbe0da5e8	-0.1383282
39	0xbe0ef0b9	-0.13959016
40	0xbeb0ca6f	-0.34529445
41	0xbe3077be	-0.17233178
42	0xbe1f2b0c	-0.15543765
43	0xbe31b582	-0.17354396
44	0xbe56ca09	-0.20975508
45	0xbed02ea7	-0.40660593
46	0xbde04540	-0.109507084
47	0xbe5addf6	-0.21373734
48	0xbe7277e5	-0.23678549
49	0xbec12ff7	-0.37731907
50	0xbdcd3fae	-0.100219116
51	0xbe458a9b	-0.19291155
52	0xbec0b557	-0.3763835
53	0x3ea46b2e	0.32113022
54	0xbd2365e3	-0.03989209
55	0xbe012c1f	-0.12614487
56	0xbe126279	-0.14295377
57	0xbea7ee23	-0.3279887
58	0xbe94a1da	-0.29029733
59	0x3e5ab943	0.21359734
60	0xbe1497a9	-0.14510979
61	0xbe9d6b33	-0.3074585
62	0xbe7cca5c	-0.24686569
63	0xbe605601	-0.21907808
64	0xbe9f1a4a	-0.31074744
65	0xbe3a8052	-0.18213013
66	0xbe82e73c	-0.25567043
67	0x3e141211	0.14460017
68	0xbd9b3aa8	-0.07579547
69	0xbe87a433	-0.26492462
70	0xbe398796	-0.18118128
71	0xbe433639	-0.19063653
72	0x3e1aee98	0.15130079
73	0xbe4c9c05	-0.19981392
74	0xbe820084	-0.25391018
75	0xbed021ad	-0.40650693
76	0xbeb16091	-0.34643987
77	0xbe106df5	-0.14104445
78	0xbdecbb83	-0.115592025
79	0xbdd72418	-0.10504931
80	0xbe056531	-0.13026883
81	0xbd976670	-0.07392585
82	0xbe29cd69	-0.16582264
83	0xbed73c6a	-0.4203828
84	0x3e3eb932	0.18625334
85	0xbda45dce	-0.08025704
86	0xbe82bddf	-0.25535485
87	0xbddad46d	-0.10685048
88	0x3dc4003d	0.09570358
89	0xbec26aa5	-0.37971988
90	0xbe914df5	-0.2837979
91	0xbe9b4438	-0.30325484
92	0x3e528ded	0.20561953
93	0xbe584555	-0.21120198
94	0xbed01213	-0.4063879
95	0xbea69d3e	-0.3254184
96	0xbe16927b	-0.14704315
97	0xbe9fd12b	-0.3121427
98	0xbe28b869	-0.16476597
99	0xbd289854	-0.041160896
100	0xbeab393b	-0.334421
101	0xbe81dc3e	-0.25363344
102	0x3e994009	0.29931667
103	0xbe094939	-0.13406838
104	0x3d5cf2ff	0.053942677
105	0xbe8bd6cb	-0.27312312
106	0xbdb4d21c	-0.08829138
107	0xbe12670d	-0.14297123
108	0xbe2de08f	-0.16980194
109	0xbe0bb681	-0.13643838
110	0xbe5b6068	-0.21423495
111	0xbe903265	-0.28163448
112	0xbe2a115a	-0.16608182
113	0xbe7e0c42	-0.24809363
114	0xbea02daf	-0.31284854
115	0xbeae5f2b	-0.34056982
116	0xbef63fde	-0.48095602
117	0xbe392518	-0.18080556
118	0xbe9de919	-0.30841902
119	0xbebf87ba	-0.3740824
120	0xbeb6f8de	-0.35736746
121	0xbeddac09	-0.43295315
122	0xbe3628c9	-0.17788996
123	0xbe104988	-0.1409055
124	0xbeec5d74	-0.4616505
125	0x3e1a1255	0.15046056
126	0xbe47b82f	-0.19503854
127	0xbe89a844	-0.2688619

utn.4.weight f4 [15, 128]
0	0xbd890e44	-0.06692174
1	0xbe503ada	-0.2033495
2	0xbe0ffb17	-0.14060627
3	0xbe8b5032	-0.27209622
4	0x3d5c94ec	0.05385296
5	0xbe9298e6	-0.28632277
6	0xbe528152	-0.20557144
7	0xba9a88d4	-0.0011790046
8	0xbdb39439	-0.087685056
9	0xbeae1df4	-0.34007227
10	0x3ccd4400	0.025056839
11	0xbde276c1	-0.11057807
12	0xbe9251ce	-0.28578037
13	0xbd5e0ee7	-0.05421343
14	0xbdb597b2	-0.08866824
15	0xbed24b89	-0.41073254
16	0xbea6915e	-0.3253278
17	0x3ccba38c	0.024858259
18	0xbe07c20f	-0.13257621
19	0xbdb0a811	-0.08625806
20	0xbe670b19	-0.22562827
21	0x3dc8df57	0.09808224
22	0xbec06596	-0.37577504
23	0xbd3285e3	-0.043584716
24	0xbe675900	-0.22592545
25	0xbdd53666	-0.10410766
26	0xbe824e4c	-0.2545036
27	0xbe0ae3af	-0.13563417
28	0xbb04d913	-0.0020270988
29	0x3c5dd3ce	0.013539268
30	0xbdf03b38	-0.11730045
31	0xbde7304b	-0.11288508
32	0x3bdd08bc	0.006745426
33	0xbb02a110	-0.0019932427
34	0xbe15078a	-0.14553657
35	0xbd3570f9	-0.044297192
36	0xbefa513a	-0.48890096
37	0xbd454f76	-0.048171483
38	0xbd1eb8e5	-0.038750548
39	0xbcd27803	-0.025691992
40	0xbded504c	-0.11587581
41	0xbe015388	-0.12629521
42	0xbe9ac131	-0.30225518
43	0x3c10a55b	0.008828486
44	0xbdf7cb9b	-0.120993815
45	0xbe09fb5d	-0.13474794
46	0xbd694fcd	-0.05696087
47	0xbd7c4596	-0.0615898
48	0xbd79def9	-0.06100366
49	0x39dc0766	0.00041967182
50	0xbe18477d	-0.1487102
51	0xbca7fc71	-0.020506116
52	0xbe664da6	-0.22490558
53	0xbe5a0a03	-0.21292882
54	0xbeb1f702	-0.34758765
55	0xbee48cdc	-0.44638717
56	0x3cda64ce	0.026659396
57	0x3d345828	0.044029385
58	0xbc701291	-0.014652864
59	0xbe6e14c0	-0.23250103
60	0xbe3e0abf	-0.18558787
61	0xbd89c820	-0.06727624
62	0x3cee9fe1	0.02912897
63	0xbe80c6fc	-0.25151813
64	0xbd1e946f	-0.038715776
65	0x3cd69a8a	0.026196737
66	0xbd9efb86	-0.07762818
67	0xbea35817	-0.31903145
68	0xbc5e8b92	-0.013583081
69	0x3b3caad2	0.002878834
70	0xbedd8499	-0.43265226
71	0xbdf52daf	-0.11971604
72	0xbe8d146d	-0.27554646
73	0xbe6c244b	-0.2306072
74	0xbd111376	-0.03541895
75	0xbea6510a	-0.32483703
76	0xbe9f8139	-0.31153277
77	0xbd9fe401	-0.0780716
78	0x3c28ac44	0.010294978
79	0xbd876783	-0.0661154
80	0xbd998d4f	-0.074976556
81	0xbd858907	-0.065202765
82	0x3a948775	0.0011331873
83	0xbda0b137	-0.07846301
84	0xbdcd086d	-0.10011373
85	0xbc7e66d0	-0.015527442
86	0xbde00365	-0.109381475
87	0xbea22e58	-0.31675982
88	0xbda5a7ad	-0.08088622
89	0xbb0dfe24	-0.0021666372
90	0xbe839d0f	-0.25705764
91	0xbddb316e	-0.10702787
92	0xbe2d5010	-0.16925073
93	0xbe5cc8d6	-0.21560988
94	0xbeac9287	-0.33705541
95	0xbe267740	-0.16256428
96	0xbe177ea5	-0.14794405
97	0xbd23812d	-0.039918113
98	0xbda4f83c	-0.080551594
99	0xbe09e004	-0.13464361
100	0xbee97d7b	-0.45603547
101	0x3a6c68fc	0.00090183294
102	0xbe35a4f8	-0.17738712
103	0xbe054498	-0.13014448
104	0xbe7a50a5	-0.24444826
105	0x3c30199e	0.010748295
106	0xbe0d4547	-0.13795958
107	0xbe8d5ef7	-0.27611515
108	0xbdd499b1	-0.10380877
109	0xbd3a0928	-0.04541889
110	0xbef942e7	-0.48683855
111	0x3c525cb4	0.012839485
112	0xbd990c29	-0.074730225
113	0xbe0362f1	-0.12830712
114	0x3bb82f4d	0.005620873
115	0x3d5628e8	0.052285105
116	0xbe8a2508	-0.26981378
117	0xbdc9597a	-0.098315194
118	0xbed4c0f6	-0.41553468
119	0xbdf1bf5b	-0.11804076
120	0x3b3642ff	0.002781093
121	0xbdf8d86e	-0.12150656
122	0xbd8bd80f	-0.06828319
123	0xbecfacd3	-0.40561542
124	0xbe29dabf	-0.16587351
125	0xbdb70dcc	-0.089381784
126	0xbd08f44e	-0.033436112
127	0xbd129e28	-0.03579536
128	0xbd462c3d	-0.048382033
129	0xbe71c5f1	-0.23610665
130	0xbee9ff49	-0.4570258
131	0xbf205706	-0.6263279
132	0xbdf20576	-0.11817448
133	0x3dd7443d	0.10511062
134	0xbfd8bfe4	-1.693356
135	0xbe24ac55	-0.16081364
136	0xbc8ee5bb	-0.017443528
137	0xbf556e31	-0.83371264
138	0xbdb948cd	-0.09047089
139	0xbd4f3ffb	-0.050598126
140	0xbec1ee68	-0.37877202
141	0xbcbccbdf	-0.023046432
142	0xbe2a63e4	-0.16639668
143	0xbf10090e	-0.56263816
144	0xbf0eb0f2	-0.5573875
145	0xbd61794c	-0.05504732
146	0xbec78177	-0.3896596
147	0xbde572d0	-0.11203539
148	0x3ece7e77	0.4033086
149	0x3f6458af	0.8919782
150	0xbed7c2e7	-0.42140886
151	0xbe30a533	-0.17250519
152	0xbf30be61	-0.69040495
153	0xbd83a20f	-0.064273946
154	0xbf6face4	-0.93623185
155	0xbdd85f6b	-0.105650745
156	0xbdb748b4	-0.08949414
157	0x3c79b818	0.015241645
158	0xbd9d2c3a	-0.07674451
159	0xbe532d77	-0.20622812
160	0xbdb607d2	-0.0888821
161	0xbd4cdb37	-0.050013747
162	0xbe67cef3	-0.22637539
163	0x3c833bf4	0.016019799
164	0xbfaa63f0	-1.3311749
165	0xbe407e3b	-0.18798153
166	0xbd45d00a	-0.048294105
167	0xbc3a342f	-0.011364981
168	0xbe9806de	-0.2969274
169	0xbd492266	-0.04910507
170	0xbf821d36	-1.0165164
171	0xbcb158dd	-0.021648819
172	0x3c645052	0.0139351655
173	0xbe8fa55d	-0.2805585
174	0xbdc97c83	-0.09838202
175	0xbe0f2b39	-0.13981332
176	0xbda5a88e	-0.0808879
177	0xbda439bd	-0.08018825
178	0x3d184bc5	0.037181634
179	0xbe499e97	-0.19689403
180	0xbf40f60e	-0.7537545
181	0xbeda1e87	-0.42601416
182	0xbfaa4e25	-1.3305098
183	0xbe884d43	-0.26621446
184	0xbd8f905d	-0.07009957
185	0xbde21629	-0.11039383
186	0xbc9c5d38	-0.019087419
187	0xbf0f7234	-0.56033635
188	0xbf3b28aa	-0.73108923
189	0xbf119343	-0.5686533
190	0xbda2f31b	-0.07956525
191	0xbf4a0673	-0.7891609
192	0xbdbe0b5d	-0.09279511
193	0xbdba273d	-0.09089515
194	0xbeb3fb2f	-0.35152575
195	0xbed5de4b	-0.4177116
196	0xbc9e6a55	-0.019337812
197	0xbabc2bb0	-0.0014356282
198	0xbf09f7e3	-0.5389387
199	0xbd78ed3d	-0.060773123
200	0xbe8fa2f0	-0.28054
201	0xbf86c408	-1.0528574
202	0xbd072534	-0.032994464
203	0xbe95ba3a	-0.29243642
204	0xbf23c50a	-0.6397253
205	0xbddeecbf	-0.108849995
206	0xbdbc2a68	-0.09187776
207	0xbd496bf6	-0.049175225
208	0xbdcc0651	-0.09962142
209	0xbba42d8c	-0.0050103124
210	0xbc9ec131	-0.01937923
211	0xbea405da	-0.32035714
212	0x3f4c710b	0.7985999
213	0x3aea7f47	0.0017890715
214	0x3cef3318	0.029199168
215	0xbe296530	-0.16542506
216	0x3f4f1026	0.80884016
217	0xbe43a5d2	-0.19106224
218	0xbe978fbf	-0.29601857
219	0xbe2b08a4	-0.16702515
220	0xbe11a254	-0.1422208
221	0xbc8ef4a7	-0.017450644
222	0xbf162339	-0.58647496
223	0xbf38cd29	-0.7218805
224	0x3c8a562d	0.016886795
225	0xbe82a1e2	-0.25514132
226	0xbdb40bcb	-0.08791312
227	0x3f530350	0.8242693
228	0xbf257016	-0.64624155
229	0xbd8a1129	-0.06741554
230	0xbe695e43	-0.22789864
231	0x3d9a0727	0.075208955
232	0xbf145faa	-0.5795847
233	0xbe280024	-0.16406304
234	0xbcf986e4	-0.030459829
235	0x3e64be1a	0.22338143
236	0xbdd9f623	-0.1064265
237	0xbe0ed89d	-0.13949819
238	0xbfb6be76	-1.4276874
239	0xbde6a647	-0.11262184
240	0xbe34115a	-0.17584744
241	0xbe86782f	-0.26263568
242	0xbef4f3af	-0.47842166
243	0xbe0213bc	-0.1270284
244	0xbe8e1fb2	-0.27758557
245	0xbdbfcf87	-0.093657546
246	0xbf161b6c	-0.5863559
247	0xbeb2fab1	-0.34956887
248	0xbdfdc248	-0.12390572
249	0xbe4c82ab	-0.19971721
250	0xbdd2fe9d	-0.1030247
251	0xbf58f59f	-0.8474979
252	0xbeba8498	-0.36429286
253	0x3f8a86e5	1.0822417
254	0xbdf3506b	-0.11880573
255	0xbb81183f	-0.003939658

utn.4.bias f4 [15]
0	0xbeb6c6d6	-0.35698575
1	0xbea45ea9	-0.3210347
2	0x3dfe9fe0	0.124328375
3	0x3d2ef88f	0.042717513
4	0xbdae481a	-0.08509846
5	0xbd95df96	-0.07318036
6	0x3dbfa1cf	0.093570344
7	0xbeb21ba8	-0.34786725
8	0x3adf1380	0.0017019361
9	0xbe304a69	-0.17215885
10	0xbdd656d0	-0.10465777
11	0xbe23a6ee	-0.15981647
12	0x3d45ecd9	0.04832158
13	0xbe42059b	-0.18947451
14	0xbc636a14	-0.013880271

itn.0.weight f4 [256, 2]
0	0xbfb94099	-1.4472839
1	0x3f48790e	0.78309715
2	0xbfbc34c8	-1.4703608
3	0xbebb250a	-0.36551696
4	0x3e0a9ff4	0.1353758
5	0x4005bf45	2.0897992
6	0x3f7687b0	0.9630079
7	0xbf5e0ec1	-0.8674126
8	0xbfa855f8	-1.3151236
9	0x3f97d50e	1.1861894
10	0xbfbc6acb	-1.4720091
11	0x3e8daf43	0.27672777
12	0xbf9efa4a	-1.2420132
13	0xbfb0e782	-1.382065
14	0xbfacfe78	-1.3515158
15	0xbc960480	-0.018312693
16	0xbf70950b	-0.9397742
17	0x3fd0daa8	1.6316729
18	0xbf389d0c	-0.72114635
19	0xc06e2617	-3.7210748
20	0xbe6bcfab	-0.23028438
21	0xbea00af6	-0.31258363
22	0xbfc3a43f	-1.5284499
23	0xbf2bfc92	-0.67182267
24	0x3f0e4b8e	0.5558404
25	0xbf735af9	-0.9506069
26	0x3eae497a	0.34040433
27	0x3f3b8b35	0.7325929
28	0x3f677f89	0.9042898
29	0xbf86cbfe	-1.0531003
30	0xbfb14911	-1.3850423
31	0x3eb9d821	0.36297706
32	0xbfaca026	-1.3486373
33	0xbe48c3c9	-0.19605936
34	0xbf899383	-1.0748142
35	0xc016f6c7	-2.358812
36	0xbfab26dc	-1.3371234
37	0x3e3dc44d	0.18531914
38	0xbfa7be0c	-1.3104873
39	0xbf76f636	-0.9646944
40	0xbf941bc1	-1.157097
41	0xbfe7dfb8	-1.8115149
42	0xbfb7bcaf	-1.4354457
43	0xbf9c89e2	-1.2229578
44	0xbea6c2ff	-0.32570645
45	0xbfefddd8	-1.8739576
46	0x3da49b08	0.08037382
47	0x3fa7576d	1.3073555
48	0xbfc1b37c	-1.5132899
49	0x3f1068f7	0.56410164
50	0x3f687efd	0.9081877
51	0xbed20bfc	-0.41024768
52	0x3f974897	1.1819028
53	0xbc972e35	-0.01845465
54	0xbfc1b1a8	-1.5132341
55	0x3f2b2e7f	0.6686782
56	0xbf830c08	-1.0238047
57	0xc00d45b0	-2.2073784
58	0x3d339a26	0.04384818
59	0x3e3908a0	0.18069696
60	0xbfa87dd2	-1.3163397
61	0xbf34d74b	-0.7064101
62	0xbfb04f07	-1.3774117
63	0xbf6505e8	-0.8946214
64	0xbf9a4c2d	-1.2054497
65	0xbfb4a52a	-1.4112904
66	0xbfb96a06	-1.4485481
67	0xbfc0c7c4	-1.5060964
68	0x3f0ca53c	0.5493963
69	0xbfdc8c29	-1.7230273
70	0xbf91ad8e	-1.138109
71	0xbfef6002	-1.8701174
72	0xbeaef195	-0.34168687
73	0x3fd406bc	1.6564555
74	0xbfb444de	-1.4083517
75	0xbe64d599	-0.22347106
76	0x3ed16540	0.4089756
77	0xbff6063b	-1.9220651
78	0xbe8e7f93	-0.27831706
79	0xbfbecee6	-1.490689
80	0xbfad9158	-1.355998
81	0x3f2eb6f4	0.68247914
82	0xbfa50635	-1.2892519
83	0x3f09b7fd	0.5379637
84	0xbe421bcf	-0.1895592
85	0x3f6389ef	0.88882345
86	0xbfb02569	-1.3761417
87	0x3e86ca25	0.263261
88	0xbfb71c43	-1.43055
89	0xbeded464	-0.43521416
90	0xbdce8eb3	-0.100858115
91	0x3f8160e3	1.0107692
92	0xbfb83189	-1.4390117
93	0xbe4100ef	-0.18848012
94	0xbfb279a0	-1.3943367
95	0xbd84f574	-0.06492129
96	0xbfa5b8aa	-1.294698
97	0xbf2101f5	-0.6289361
98	0x3f5bd974	0.8587868
99	0xbfd92bf0	-1.6966534
100	0xbfb20830	-1.3908749
101	0x3eacc0ea	0.33740932
102	0xbfa41f04	-1.2821965
103	0xbf1b6deb	-0.60714597
104	0xbfab1a4d	-1.3367401
105	0xbeadd3c0	-0.33950615
106	0xbfb088b3	-1.3791717
107	0xc025efe0	-2.5927658
108	0x3f4a2a65	0.7897094
109	0xbe1e920f	-0.15485404
110	0xbf8bd672	-1.0924819
111	0xbff58466	-1.918103
112	0xbf36433a	-0.7119633
113	0xbf6afb5c	-0.91789794
114	0xbf9f5f82	-1.2451022
115	0xbe9dab70	-0.3079486
116	0xbfb3e057	-1.4052838
117	0x3ef55222	0.47914225
118	0xbfac2576	-1.3448932
119	0xbef10ff1	-0.47082475
120	0xbfc5c2c5	-1.5450064
121	0xbf93ab9d	-1.1536747
122	0xbfa04bed	-1.2523171
123	0xbf3c10b3	-0.7346298
124	0x3eee4e0a	0.46543914
125	0xbfe883ac	-1.8165183
126	0xbf979160	-1.184124
127	0xbfcddeca	-1.6083615
128	0x3dfaef74	0.12252703
129	0xbed46876	-0.41485947
130	0xbfc28d10	-1.5199299
131	0x3ec6f970	0.3886218
132	0xbfa3fcdc	-1.2811542
133	0xbf0901ec	-0.5351856
134	0xbf56d1eb	-0.8391406
135	0xc049199a	-3.1421876
136	0x3f35501b	0.70825356
137	0xc002eb51	-2.0456126
138	0x3e995556	0.2994792
139	0xbeac3c1b	-0.33639607
140	0x3ebe0822	0.3711558
141	0xbe99e892	-0.3006025
142	0xbf9f71d8	-1.2456617
143	0xbf84ab23	-1.0364727
144	0x3f7aace7	0.9792008
145	0xbec2023b	-0.37892327
146	0xbf0a7792	-0.540887
147	0xbf93ce35	-1.1547304
148	0xbf99f971	-1.2029248
149	0xbfd20719	-1.6408416
150	0xbfbad3c5	-1.4595877
151	0xbece9310	-0.40346575
152	0xbfc2a4ff	-1.5206603
153	0xbf93909d	-1.1528507
154	0x3f84be4f	1.0370578
155	0xbf93e274	-1.1553483
156	0xbfb48da8	-1.410573
157	0x3e0c6a18	0.13712347
158	0xbfb997f0	-1.4499493
159	0x3e99d50d	0.30045357
160	0xbfa71713	-1.3053917
161	0xbf728500	-0.9473419
162	0xbfa0f2fc	-1.2574153
163	0x3ec890f7	0.391731
164	0xbfa071b3	-1.2534698
165	0xbf74f504	-0.95686364
166	0x3e9d64d4	0.30740988
167	0xc0038d9d	-2.0555184
168	0xbeafa58c	-0.3430599
169	0x3fd18271	1.6367933
170	0x3f9f18c2	1.242943
171	0xbfa889cd	-1.3167053
172	0xbfbece7e	-1.4906766
173	0x3e9f3d98	0.3110168
174	0xbf821956	-1.0163982
175	0xc016bd8f	-2.3553197
176	0xbf0f0d28	-0.5587945
177	0x4015e322	2.341988
178	0xbfae626d	-1.3623787
179	0x3f95c004	1.1699224
180	0x3f4dd1e6	0.80398405
181	0xbe2339d6	-0.15940031
182	0xbfa31d4b	-1.2743315
183	0x3d73abe3	0.059490096
184	0xbfaee1bd	-1.366264
185	0xbf838dcd	-1.0277649
186	0xbfabd847	-1.3425378
187	0xbe23c6df	-0.15993832
188	0x3f4edfb4	0.80810094
189	0xbf7ea67b	-0.9947278
190	0x3f9c49ed	1.221006
191	0xbef4b560	-0.47794628
192	0xbe850cf3	-0.25986442
193	0xbfcc7867	-1.5974244
194	0xbfab0e19	-1.3363677
195	0xbf14d1a3	-0.5813238
196	0xbfa1182d	-1.2585503
197	0x3f3f1e9d	0.7465609
198	0xbfa65a58	-1.2996321
199	0x3e01fbe2	0.12693742
200	0x3c1a4e5d	0.009418097
201	0xc0085f07	-2.1308
202	0xbfa3c7d2	-1.2795355
203	0xbf695fdc	-0.91161895
204	0xbfb0f40b	-1.3824476
205	0x3f51cb62	0.8195096
206	0x3e9ddbd5	0.3083178
207	0xc00fcf39	-2.2470229
208	0xbf9af648	-1.2106409
209	0xbfc975b1	-1.5739042
210	0x3f3509b5	0.70717937
211	0xbe06750f	-0.13130592
212	0xbeab2fe2	-0.3343497
213	0x3fa35b2b	1.2762197
214	0xbefd965a	-0.49528772
215	0x3fcd19b9	1.6023475
216	0xbde7a0bf	-0.11309957
217	0x400bafc1	2.1826022
218	0xbfaf67a3	-1.3703502
219	0xbee2c761	-0.4429274
220	0x3f3ca54f	0.7368974
221	0xbf94cea1	-1.1625558
222	0x3f89acdd	1.0755879
223	0xbebab9e4	-0.36469948
224	0xbfb3ff1e	-1.406223
225	0x3fa0e836	1.2570865
226	0xbfb66284	-1.4248815
227	0x3ea77d04	0.32712567
228	0xbf977764	-1.183331
229	0xbf4fa732	-0.81114495
230	0xbface455	-1.3507181
231	0x3ee6227a	0.4494818
232	0xbe52f284	-0.20600325
233	0x3fe7d230	1.8111019
234	0xbfa521e1	-1.2900964
235	0xbe7db3f1	-0.24775673
236	0xbfae7f7f	-1.3632659
237	0x3f8f2c18	1.1185331
238	0xbfb72c90	-1.4310474
239	0xbfc30529	-1.523595
240	0xbfb2a01a	-1.3955109
241	0x3f2c054c	0.6719558
242	0x3f90fcda	1.1327164
243	0xbf23037b	-0.63677186
244	0xbfb4174e	-1.4069612
245	0xbe7a542d	-0.24446173
246	0xbfaa6ce8	-1.3314486
247	0x3fbf9e37	1.4970158
248	0x3e82ac14	0.2552191
249	0xc008543c	-2.1301413
250	0x3e9d0e50	0.30674982
251	0xbffd2254	-1.9776101
252	0xbfacd5de	-1.3502767
253	0x3e1e27a7	0.15444814
254	0xbfb70d88	-1.4301004
255	0x3f740336	0.953174

itn.0.bias f4 [256]
0	0x3e8acf50	0.27111292
1	0xbf7c008d	-0.9843834
2	0xbf53a014	-0.82666135
3	0xbf91ef54	-1.1401162
4	0xbebd6587	-0.36991522
5	0x3f484eac	0.78245044
6	0x3e1aa906	0.1510354
7	0xbf1e2015	-0.61767703
8	0xbf3bd2aa	-0.7336832
9	0xbf96a894	-1.1770196
10	0xbfb54230	-1.4160824
11	0xbefb37b5	-0.4906594
12	0xbf82034c	-1.0157256
13	0xbfb9cfe8	-1.4516573
14	0xbf8a1255	-1.0786844
15	0x3e3c8ad3	0.18412332
16	0x3e5badee	0.21453068
17	0xbd5e9c0d	-0.05434804
18	0xbfb3999e	-1.4031255
19	0x3f39de07	0.7260441
20	0x3e15b5dc	0.14620155
21	0xbf37c457	-0.71783966
22	0xbf614906	-0.8800205
23	0xbfa9b49d	-1.3258244
24	0x3f50920a	0.8147284
25	0xbfad52b5	-1.3540865
26	0xbfda4013	-1.7050804
27	0x3f2a8f25	0.6662467
28	0xbe90d68c	-0.28288686
29	0xbfb80191	-1.4375478
30	0x3eb3ea5f	0.35139748
31	0xbf373c27	-0.7157616
32	0x3d4ceaed	0.05002873
33	0xbf990aa6	-1.1956375
34	0xbf4276e9	-0.7596269
35	0xbee90f04	-0.4551927
36	0xbf873a16	-1.0564601
37	0xbe6d4778	-0.23171794
38	0xbeabe9fd	-0.33576956
39	0xbf863b75	-1.0486895
40	0xbe1eae54	-0.15496188
41	0xbee5070b	-0.44731936
42	0xbfdc0f78	-1.7192221
43	0xbe979d8b	-0.29612383
44	0xbfb5b0ef	-1.4194621
45	0xbfd0ffce	-1.6328065
46	0xbf9b8253	-1.2149147
47	0xbf436791	-0.76329905
48	0xc0065f4d	-2.0995667
49	0xbebb4f54	-0.3658396
50	0x3e949648	0.29020905
51	0xbdda4fdb	-0.106597625
52	0x3ecd9544	0.40152943
53	0xbf8d7ba6	-1.105336
54	0xbfae99ac	-1.3640647
55	0xbd8d95a0	-0.06913304
56	0xbfbe7da6	-1.4882095
57	0xc0101066	-2.251001
58	0x3e7905dc	0.24318641
59	0x3ed7cbca	0.42147666
60	0xbed48305	-0.4150621
61	0xbdf5e446	-0.1200643
62	0xbf224827	-0.63391346
63	0x3e8127cd	0.25225678
64	0xbf9068a1	-1.128193
65	0x3f5dc466	0.86627805
66	0xbe1ff963	-0.15622477
67	0xbee820b7	-0.4533746
68	0xbd0cb065	-0.03434791
69	0xbf8f08da	-1.1174576
70	0xbfae433d	-1.361427
71	0xbeb801b8	-0.3593881
72	0xbfb0cdb5	-1.3812777
73	0xbfa303dc	-1.2735553
74	0xbf323a99	-0.6962066
75	0xc00358cb	-2.0522945
76	0xbf1bdb5a	-0.6088158
77	0xbf7859b9	-0.97011906
78	0xbe0cb3cc	-0.13740462
79	0x3f1e85ba	0.619228
80	0x3ebdd812	0.3707891
81	0xbf2bea06	-0.67153966
82	0x3e76755b	0.24068205
83	0xbedc2509	-0.42997006
84	0xbfa26d4c	-1.2689605
85	0xbf81acab	-1.0130819
86	0x3f61f3fd	0.8826292
87	0xbe2a4dcc	-0.1663124
88	0xbef81234	-0.48451388
89	0xbe342feb	-0.17596404
90	0xbfa9e0f5	-1.3271776
91	0xbeb27dab	-0.34861502
92	0x3f832658	1.0246077
93	0x3e858178	0.2607534
94	0xbf7d7816	-0.9901136
95	0xbfc1889a	-1.5119812
96	0xbf8b38cc	-1.0876708
97	0x3f172bd3	0.59051245
98	0xbf1da64e	-0.61581886
99	0xbf936c89	-1.1517497
100	0xbe9aab23	-0.30208692
101	0x3ec7feda	0.39061624
102	0xbdb01778	-0.08598226
103	0xbe9b5b44	-0.30343068
104	0x3e17a0a8	0.14807379
105	0xbfa66867	-1.3000611
106	0xbf80aeea	-1.005338
107	0xbf872e14	-1.0560937
108	0xbf45b5ba	-0.7723042
109	0x3f1fcf1f	0.62425417
110	0xbf7e2e2e	-0.99289215
111	0xbfb504d3	-1.4142097
112	0xbdc841bb	-0.09778162
113	0x3efbeb91	0.4920316
114	0xbfe4b1b2	-1.7866728
115	0xbe243ff1	-0.16040017
116	0xbf8421fd	-1.0322872
117	0xbdf8f001	-0.12155152
118	0xbe2bfa47	-0.16794692
119	0xbfb119ae	-1.3835962
120	0x3dc08a83	0.09401419
121	0xbfaff9a2	-1.3748057
122	0xbfdccda1	-1.7250253
123	0xbf042c6b	-0.51630276
124	0xbf325438	-0.6965976
125	0xbee691c2	-0.4503308
126	0xbe85c361	-0.26125625
127	0x3e71187d	0.23544498
128	0xbfe31cd4	-1.7743173
129	0x3f5453c9	0.82940346
130	0xbf0c958b	-0.54915684
131	0xbefd3543	-0.49454698
132	0xbf8b0d1c	-1.0863376
133	0xbf610557	-0.8789877
134	0xbe9623ca	-0.2932418
135	0xbeeb6df4	-0.45982325
136	0xbf1f497e	-0.62221515
137	0xbf94fa8c	-1.1638961
138	0x3ec06703	0.37578592
139	0xbe36659d	-0.178122
140	0xbed77840	-0.4208393
141	0xbebdb67d	-0.3705329
142	0xbf8a586b	-1.0808233
143	0xbce331dd	-0.027733738
144	0x3edc8327	0.4306881
145	0xbfad9bdf	-1.3563193
146	0xbfa36bfa	-1.2767327
147	0xbe044f9a	-0.1292099
148	0xbec9b00c	-0.39392126
149	0xbf53a894	-0.82679105
150	0x3ed2cd74	0.41172373
151	0x3f50e174	0.81594014
152	0xbfc05aba	-1.5027688
153	0xbfb9f850	-1.4528904
154	0x3e53866a	0.20656744
155	0xbf17b332	-0.59257805
156	0x3f0eb199	0.5573974
157	0xbe577dfc	-0.21044153
158	0xbfc27e55	-1.5194803
159	0xbe18910d	-0.14899082
160	0xbe3819dc	-0.17978615
161	0xbd297cf5	-0.041378934
162	0x3e8ba0d3	0.27271137
163	0xbc72bfa9	-0.014816203
164	0xc02c4812	-2.6918988
165	0xbfc65c12	-1.5496848
166	0xbf18e0d2	-0.5971805
167	0xbf9196bb	-1.1374124
168	0x3eb1fe55	0.34764352
169	0xbe3552be	-0.17707345
170	0xbe2be27a	-0.16785613
171	0x3eace9ba	0.3377207
172	0xbf9ee22c	-1.2412772
173	0xbe2a036a	-0.16602865
174	0x3ea8c4a0	0.32962513
175	0xbe839ce7	-0.25705644
176	0xbfe6d07d	-1.8032376
177	0x3ec45133	0.383432
178	0xbf9bde0b	-1.2177137
179	0x3ef294ad	0.47379056
180	0xbf9b598d	-1.2136704
181	0x3e04253e	0.12904832
182	0xbf1cf220	-0.61306953
183	0xbe9c8da3	-0.3057681
184	0xbf2a1501	-0.664383
185	0xbf7d48ed	-0.989394
186	0xbf96de7d	-1.1786648
187	0xbf38bc90	-0.72162724
188	0x3f4d7d32	0.8026916
189	0xbf181b00	-0.594162
190	0xbe9386d8	-0.28813815
191	0x3d85c402	0.06531526
192	0xbe3fba9f	-0.18723534
193	0xbf2f9e08	-0.6860051
194	0xbfa40e3a	-1.2816842
195	0xbf99b505	-1.2008368
196	0xbfb3c252	-1.4043677
197	0xbfd14ba1	-1.6351205
198	0xbd27957c	-0.040914044
199	0xbf6f1c17	-0.93402237
200	0xbf07c917	-0.53041214
201	0xbf73a0e4	-0.95167375
202	0xbfa1d0e0	-1.2641869
203	0xbfa71632	-1.3053648
204	0xbe5238a8	-0.20529425
205	0xbf9f20ae	-1.2431848
206	0xbf11b2db	-0.56913537
207	0xbd963070	-0.073334575
208	0xbdd3c742	-0.1034074
209	0x3f2e4d11	0.68086344
210	0xbfb57fb8	-1.4179602
211	0x3eb0e5ce	0.34550327
212	0x3f248f47	0.64281124
213	0xbfb9921b	-1.4497713
214	0xbfa87f22	-1.3163798
215	0x3edd42e7	0.43215105
216	0xbfc4427d	-1.5332791
217	0x3f5debec	0.86688113
218	0xbdbca037	-0.09210246
219	0x3f164afa	0.58708155
220	0xbfc6c646	-1.5529258
221	0x3ea273d0	0.31728983
222	0xbf926c85	-1.1439368
223	0x3f288d8e	0.65840995
224	0xbf62adde	-0.8854655
225	0xbfbd18f0	-1.4773235
226	0xbecdfa79	-0.40230158
227	0x3e73c7b9	0.23806657
228	0xbfb6296b	-1.423139
229	0xbd8a8321	-0.06763292
230	0xbefc0cc5	-0.49228492
231	0xbf90a24c	-1.1299529
232	0xbf8a52ac	-1.080648
233	0xbe7a1e36	-0.24425587
234	0x3e1cfa42	0.15329841
235	0x3ef4fc9b	0.47848973
236	0xbda2b33b	-0.07944342
237	0xbeabeb01	-0.3357773
238	0x3cb485c2	0.022036437
239	0xbf8f89a3	-1.1213878
240	0x3f521423	0.82061976
241	0xbe5a753a	-0.21333781
242	0xbc07010b	-0.008239995
243	0xbf04bb63	-0.5184843
244	0x3e8485bf	0.2588329
245	0xbf85d28e	-1.0454881
246	0x3ee9238b	0.4553493
247	0xbff06b49	-1.8782741
248	0x3f161aec	0.5863483
249	0xbf6a5467	-0.9153504
250	0x3e96b140	0.29432106
251	0x3d0e137b	0.034686547
252	0x3f1519c1	0.5824242
253	0xbfacee04	-1.3510137
254	0xbebf1cd3	-0.3732668
255	0xbf79e7ac	-0.9761913
