ckpt/assistment/irt_MFI_ip_s.pt (torch, 286913 bytes, 12 tensors)

utn.0.weight f4 [256, 1]
00000000: 483a 6a3e f39e c23f 4e65 cbbf dfed cabf
00000010: 1580 c8bf 6be6 883f e3bf 93bf b796 db3f
00000020: efc6 a6bf 3b0b 433f e2aa 97bf 07ec 5fbf
00000030: 8325 1dc0 6de6 c8bf 87c7 bfbf 0c06 adbf
00000040: 9745 a63f c62b c73f eab2 fdbf 4d5f d3bf
00000050: ad31 b73f 1fb5 d33f d9ed 99bf 9418 cb3f
00000060: 59de 1cbf 0388 703b e371 db3f 16c8 18c0
00000070: 5c39 dcbf 0d9e 92bf 90de a9bf 6ba9 c73f
00000080: d144 bdbf b1a9 b0bf 9750 cebf ef47 04c0
00000090: eb58 d6bf 19a9 bd3f 2062 a03f 37ce ad3f
000000a0: 8e90 95bf e223 cebf a6f1 ef3e 7422 1cc0
000000b0: b712 ccbf 0bf8 acbf 154f b23f 86d0 b13f
000000c0: 468e ccbf 3701 a2be df29 ac3f d60d d93f
000000d0: 55b0 a63f 437f 1a3e bd0c cc3f 766f babf
000000e0: 425e 7d3f 5a8d febf 32b3 e1bf 34fc e9bf
000000f0: b04a aa3f c986 a73f 82ef d2bf 0bd7 9c3f
00000100: ceea b83f 8657 08bf 5ac2 6cbf 8e1d 933f
00000110: ee13 cf3f ce68 e53f ac32 18c0 0704 b5bf
00000120: 5ea3 583f b66d d53f 02ca be3f 1b54 c83f
00000130: efc0 053f 2fcd 0fc0 d7a0 2f3f fbd7 e3bf
00000140: 7d97 1dc0 1df5 e83f 8c60 e23f 9018 08c0
00000150: 5af1 6a3f eac8 afbf d7f0 80bf 53d0 d3bf
00000160: 1e67 a93f 945a 0ac0 cda3 983f 3d39 a93f
00000170: e0dd b33f 1eae a83f dcc3 07c0 5483 16c0
00000180: 7c4a ab3f 718f 673f 4e89 09c0 3bfd d6bf
00000190: 6ec1 bd3f 6116 c13f ce92 cebf 0d82 91bf
000001a0: 48f7 08c0 787e edbf 5743 cabf 00c3 05c0
000001b0: bffe 2abf 50a4 b0bf 0847 c9bf 817c cd3f
000001c0: f2a5 c7bf debf bb3f 60bf bf3f 3cb8 0dc0
000001d0: 5bb3 c4bf 74b7 c1bf 3cec ccbf f56b ad3f
000001e0: 78f7 af3f 4931 18bf c3ba ffbf bb72 b63f
000001f0: 7bbd 15c0 88bb a7bf 4481 9bbf 0448 e0bf
00000200: 5487 c3bf 4f9c 16c0 42cb 90bf 438e 893f
00000210: 386c bfbf 685b 89bf 4ef9 be3f bc05 80bf
00000220: 8a0d d0bf 2555 cdbd 7421 8a3e 352e c93f
00000230: 90ee d73f 7a8c b73f da4b c53f e37a a2bf
00000240: e775 07c0 805a b9bf e37e b23f 32cf fcbe
00000250: 96a8 dcbf f52b d1bf 029c 0bc0 fe88 0cc0
00000260: 24a7 a9bf f8c5 b93f 716e a43f 1bff 16c0
00000270: aeb1 cc3f f430 09c0 71d0 8fbf 7686 b4bf
00000280: 4a5f bbbf 9315 85bf e7a1 14c0 d424 04c0
00000290: 296e 65bf 8ae4 c33e b77b 90bf 7728 af3f
000002a0: ae62 1bc0 556f f4bf 57f7 cc3f ee2e ccbf
000002b0: 9de2 d03f f12a a33f 3990 e4bf 0b40 c43f
000002c0: b26e 76bf 3eef adbf d549 d03f 92e4 11c0
000002d0: 2156 70be 91e5 c4bf beec c23f c586 973f
000002e0: 3d24 a43f 8851 993f 2926 b3bf eede 5ebf
000002f0: 3261 d8bf 1481 c53f 5fd7 b83f a461 bd3f
00000300: e977 bdbf bc2f 84be 0608 05c0 77a7 e5bf
00000310: e809 08c0 41a9 923f bee7 cdbf 3070 81bf
00000320: 0af4 18be 24d2 c83f ac39 ddbf 373c c8bf
00000330: 9eff d0bf c0aa bd3f bcc9 a2bf e990 ca3f
00000340: b595 aa3f 92ee d43e 371b abbf 35be bdbf
00000350: d47d 7a3f 841d a8bf f590 02bf 0858 923f
00000360: 930c 11c0 dc66 a3bf 8974 c43f 8af7 dbbf
00000370: bfa6 2dbf 5592 d33f 2133 8d3f feef 743e
00000380: 5d25 efbf a253 ac3f f7af 05c0 97d6 84bf
00000390: 0de2 8ebf 19a7 87bf 2d4c c6be 1959 cd3f
000003a0: cdd3 56bf 3c95 cb3f a0d9 a53f d9e9 e6bf
000003b0: e7cf 9c3f 91f4 d0bf 760b cebf 283f 963f
000003c0: 30ed 8e3f f514 ca3f 9310 ffbf 2ca8 11bf
000003d0: 3689 c63f d5a9 0ac0 d273 c83f 24a9 07c0
000003e0: efd8 69bf dacb a4bf 0968 d3bf 5424 ee3e
000003f0: 49f2 bc3f bab6 91bf 2f84 d6bf 0d1d c5bf
0.22873795 1.5204757 -1.5890291 -1.5853842 -1.5664088 1.0695318 -1.1542934 1.715537
-1.302946 0.7618901 -1.1849024 -0.87469524 -2.4554145 -1.569532 -1.4982766 -1.351747
1.2989987 1.5560234 -1.9820225 -1.6513458 1.4312035 1.6539649 -1.202571 1.5866876
-0.61276776 0.0036702163 1.714413 -2.3872123 -1.7205005 -1.1454483 -1.3271046 1.5598577
-1.4786626 -1.3801786 -1.6118344 -2.0668905 -1.6745886 1.481723 1.2529945 1.3578557
-1.168474 -1.61047 0.4686405 -2.4396029 -1.5943211 -1.3513197 1.3930384 1.3891761
-1.5980918 -0.31641552 1.3450278 1.6957347 1.3022562 0.15087609 1.5941387 -1.4565265
0.9897195 -1.9886887 -1.7632811 -1.8280091 1.3304043 1.3088008 -1.6479342 1.2253126
1.4446657 -0.5325855 -0.92484057 1.1493394 1.6177957 1.7922609 -2.3780928 -1.4141854
0.8462428 1.6674106 1.4905398 1.5650667 0.5224752 -2.2468984 0.686048 -1.7800287
-2.462371 1.8199803 1.7685714 -2.1264992 0.91774523 -1.3733189 -1.0073498 -1.654795
1.3234594 -2.1617785 1.1924988 1.3220593 1.4052086 1.3178136 -2.1213293 -2.3517656
1.3382106 0.9045325 -2.1490054 -1.679603 1.4824655 1.5084955 -1.6138551 -1.1367813
-2.1400928 -1.855422 -1.58018 -2.0900269 -0.6679496 -1.3800144 -1.5724802 1.605362
-1.5597517 1.4667928 1.4980278 -2.2143698 -1.5367235 -1.513411 -1.6009593 1.3548571
1.3747396 -0.59450203 -1.997887 1.4253763 -2.33969 -1.3104105 -1.2148824 -1.7521977
-1.5275674 -2.3532903 -1.1312029 1.074654 -1.4954901 -1.073102 1.4919832 -1.000175
-1.6254132 -0.10026006 0.26978648 1.5717226 1.6869678 1.4339745 1.5413773 -1.2693752
-2.1165712 -1.4480743 1.3944973 -0.49376827 -1.7238948 -1.634154 -2.181397 -2.1958613
-1.3254132 1.451354 1.2846204 -2.3593204 1.5991724 -2.1436129 -1.1235486 -1.4103534
-1.4638455 -1.0397209 -2.3223817 -2.0647478 -0.89621216 0.382603 -1.1287755 1.3684224
-2.427898 -1.9096476 1.6012982 -1.5951822 1.6319157 1.274748 -1.7856513 1.5332044
-0.9626266 -1.3588636 1.6272532 -2.2795758 -0.23470356 -1.5382558 1.5228498 1.1838003
1.2823559 1.1978006 -1.399602 -0.87058914 -1.6904662 1.5430017 1.4440726 1.4795423
-1.4802219 -0.25817668 -2.0786147 -1.7941731 -2.1256046 1.1457902 -1.6086347 -1.0112362
-0.14936844 1.568913 -1.7283225 -1.5643376 -1.6328008 1.4817734 -1.2717814 1.5825473
1.3326937 0.41588265 -1.336768 -1.4823672 0.9784825 -1.3134007 -0.51002437 1.1433115
-2.2663925 -1.2765765 1.5348064 -1.7184918 -0.6783256 1.6529032 1.1031228 0.23919675
-1.8683277 1.3463023 -2.088865 -1.0377988 -1.1162735 -1.0597869 -0.38729993 1.6042815
-0.8391693 1.5904918 1.2957039 -1.8040115 1.2250947 -1.6324636 -1.6097248 1.1738024
1.1166134 1.5787646 -1.9926933 -0.56897235 1.5510623 -2.1666157 1.5660346 -2.1196985
-0.9134664 -1.287471 -1.6516124 0.4651209 1.476144 -1.1383889 -1.6759089 -1.539949

utn.0.bias f4 [256]
00000000: 88c9 2dc0 2dfd 293f 454e 9cbf a8b8 cfbf
00000010: 7e7d f0bf 6f30 49be 80eb f9bf 40a3 923f
00000020: 4caf e6bf 2cd0 a0bf ce13 edbf 8ff2 e8bf
00000030: a07f 563f 634c 07bf e20f d7bf 4e80 15c0
00000040: 73fa 27bf c8bb 183f fb0b e6be 4cc0 f5bf
00000050: 0852 513f 3652 c3be bb8f efbf 1b91 2c3f
00000060: 9bef 0ac0 29b6 69c0 c22f f3be 0808 343f
00000070: ba96 debe f688 3dbf 6708 ddbf c50d 2c3f
00000080: 59d3 96bf 81bf 97bf 9efd c2bf a817 e83d
00000090: 6f79 f1be e518 843e 2952 a73c 2505 92be
000000a0: f383 e4bf ca98 f1bf 5b44 b5bf 20d1 ab3e
000000b0: ccb9 98bf 0267 80bf 58d0 05be a46a ef3e
000000c0: 66a4 43bf cd80 55c0 b117 be3e dc14 513f
000000d0: 8cfa 893e 5fdf 2ac0 d5ff e7be f474 91bf
000000e0: e3b3 b7be f6b8 b9be f675 72be a755 88bd
000000f0: 967a fdbd 3284 7e3e a696 f2be 165b ac3d
00000100: 2bb0 ac3e f7a8 04c0 9305 47c0 b9b0 12bd
00000110: 9068 6d3f a53a 9b3f d6ba 113f 4388 a0bf
00000120: c4b8 55bf 460e 6dbe b801 ecbe e81d 06bf
00000130: 5ddc 77bf 4b8f f23e 40be d5bf aa92 e3be
00000140: c2ab 463f f12a a83f 5df3 9e3f 85ec 143f
00000150: 9642 39bf c41a 01c0 ffb1 59bf d831 debe
00000160: c7b4 34be 1109 c83e 0d47 653d 44aa 973e
00000170: e2e8 6dbe 38cd 653e cad5 c9bd 8579 1d3f
00000180: a77e 233e 2552 00bf bfc7 093e 5e00 cdbe
00000190: 4bcd e4bd 5e59 383f 3143 e0bf 1b4b e3bf
000001a0: 4ac7 8bbe 8cd6 1bc0 15b8 e5bf e6fe c33e
000001b0: 7f61 e8bf dc43 05c0 3e99 793d 33aa d4be
000001c0: 016a e0bf 43ca fd3d cad9 9dbe 4a91 fe3e
000001d0: f9e3 06c0 ec66 10c0 e849 24c0 ea9d 2cbe
000001e0: da45 043f 4f79 17c0 8c01 103e 5b03 333f
000001f0: ed4a 553f 5bed b2bf c70e c7bf d60f 553c
00000200: 3f19 60bf 6bd1 493f e376 91bf 6073 a43d
00000210: 9e85 a6bf 776f 09c0 ca9d 143f 18ef 0ac0
00000220: 7edd 13c0 1da5 3bc0 78f3 3ac0 a4b9 653f
00000230: 4e6e 723f 6590 613e ee1c 7fbe ebb1 a5bf
00000240: c984 e23e 14dc 82bf 6fcf 12be f729 e4bf
00000250: 3d4a d6be eab1 cfbf 9f41 193f 429f 123f
00000260: 9f36 04c0 5055 2a3f 955f 70be d2a2 a83e
00000270: 753f 813f e526 653d 058f 07c0 3c62 dfbf
00000280: 4f06 ffbf 8604 00c0 f043 ba3e 37a8 103f
00000290: e5e5 ecbf c176 15c0 e0e3 9cbf 2cea 0c3f
000002a0: ca5c 283f a904 18c0 5741 243d c922 d9bf
000002b0: 6d84 52be 43b2 a43e 415c 8bbf de5c 213f
000002c0: 6320 6cbf a807 92bf 33c2 cfbe 3cdc ac3d
000002d0: 38d6 3bc0 0a1e 05c0 f128 513f ffd3 58bf
000002e0: fa68 1bbf d3e0 33bf 3f4c ddbf 32ea 9ebf
000002f0: 7683 e3bf 7f65 4f3f af7b 2c3d 91b8 193f
00000300: cc2e 4fbf 533a 80c0 c87f dc3e 2e1d ffbd
00000310: 428d 013f c06d 1f3d 08f0 cfbf ef64 00c0
00000320: e6da 10c0 ad65 2c3f a582 a4bf 615f 8fbf
00000330: 11aa fbbf 67ab b5bd 1df8 a3bf 11d7 ecbe
00000340: fe9b df3e 1ad6 bbbf 4d9c 0cc0 aceb 07c0
00000350: 82b2 9cbf 471e e8bf e0f8 13c0 9792 563e
00000360: 202c ee3e e936 bbbf 721f 3a3f 7b2c e1bf
00000370: 2d6f 34c0 650f 373f 99de 16bf 6f00 a8bf
00000380: 77fe 4bbf f775 24be 49d8 b0be f1e7 9bbf
00000390: 7863 d2bf eadf 0dc0 0327 e0bf f1d8 5b3f
000003a0: 328f 2cc0 7021 a8bc c39f ca3d a93f f3be
000003b0: b53f 403e 0c20 b9bf 4e6f e2bc 2e65 8dbe
000003c0: 3d3d 40bf 4440 65be 2fc5 de3d c74a 0ec0
000003d0: ac9f d5be 862b f43e 4c3c 543f 7c24 a03e
000003e0: 631a c4bf 6b45 03c0 5a4e 2ebf af54 a8bf
000003f0: 008b 0e3d 018f 98bf b6ef 7ebf 9bf5 44bf
-2.7154255 0.6640194 -1.2211386 -1.6228228 -1.8788297 -0.19647382 -1.9524994 1.145607
-1.8022246 -1.2563529 -1.8521669 -1.8199023 0.8378849 -0.5285093 -1.6801722 -2.335956
-0.6561653 0.5966153 -0.44931015 -1.9199309 0.81765795 -0.3814866 -1.8715738 0.67408913
-2.1708744 -3.6517432 -0.47497374 0.70324755 -0.4347437 -0.7403711 -1.7268189 0.6720851
-1.1783248 -1.1855317 -1.5233648 0.11332637 -0.4716296 0.25800243 0.02042492 -0.2851955
-1.7852768 -1.8874753 -1.4161485 0.33557987 -1.1931701 -1.0031435 -0.13067758 0.46761048
-0.7642273 -3.3359864 0.3712745 0.81672454 0.26948965 -2.6698835 -0.45312372 -1.1363816
-0.3587943 -0.36273926 -0.23677811 -0.06656962 -0.12376897 0.24855116 -0.4738056 0.08415811
0.33728155 -2.0728128 -3.1097152 -0.035813067 0.92737675 1.2127272 0.56925714 -1.2541584
-0.83485055 -0.23149976 -0.4609506 -0.52389383 -0.9682062 0.4737495 -1.6698685 -0.44447833
0.7760583 1.3138105 1.2418019 0.581734 -0.7236723 -2.0172586 -0.85037225 -0.43397403
-0.17647086 0.39069417 0.055975962 0.2962209 -0.23233369 0.22441566 -0.0985523 0.6151355
0.15966283 -0.5012534 0.13455103 -0.40039343 -0.11171969 0.72011364 -1.7520505 -1.7757295
-0.27300483 -2.43497 -1.7946802 0.3828041 -1.8154753 -2.0822668 0.06093716 -0.41536102
-1.753235 0.12392094 -0.30830222 0.49720222 -2.1076643 -2.2562819 -2.5670109 -0.16857114
0.51669085 -2.366779 0.1406309 0.69926995 0.8331745 -1.3978685 -1.5551385 0.013004264
-0.8753852 0.7883517 -1.1364406 0.080298185 -1.3009527 -2.1474283 0.58053267 -2.1708431
-2.3103938 -2.9319527 -2.9211102 0.8973639 0.9469956 0.22027738 -0.2491338 -1.2944921
0.44241932 -1.0223413 -0.14336942 -1.7825307 -0.41853514 -1.622617 0.59865755 0.5727426
-2.0658338 0.66536427 -0.23473962 0.32936722 1.009749 0.055945296 -2.1181042 -1.7451854
-1.99238 -2.000276 0.36379957 0.56506675 -1.8507658 -2.3353732 -1.2257042 0.5504482
0.65766585 -2.3752844 0.040101375 -1.696374 -0.20558329 0.32167253 -1.0887529 0.6303233
-0.9223692 -1.1408587 -0.4057785 0.08440444 -2.9349499 -2.0799584 0.81703097 -0.8469848
-0.60707057 -0.7026493 -1.7288893 -1.2415221 -1.7774494 0.81014246 0.04211014 0.6004725
-0.8093078 -4.0071197 0.4306624 -0.124567375 0.5060617 0.038923025 -1.6245127 -2.0061605
-2.2633605 0.67342645 -1.285237 -1.1200982 -1.9661275 -0.08870583 -1.2810093 -0.46257833
0.436737 -1.4674714 -2.1970398 -2.1237593 -1.2241976 -1.813424 -2.3120651 0.20954357
0.4651804 -1.4626132 0.7270423 -1.7591699 -2.8192856 0.71507865 -0.5893341 -1.3125132
-0.7968516 -0.16060625 -0.34540012 -1.2180158 -1.6436605 -2.2167916 -1.7511905 0.858779
-2.69624 -0.020523757 0.098937534 -0.47509506 0.18774302 -1.4462905 -0.027640965 -0.27616256
-0.7509344 -0.22387797 0.108774535 -2.223314 -0.41723382 0.47689456 0.82904506 0.31277835
-1.5320553 -2.051112 -0.68088305 -1.3150843 0.03480053 -1.1918641 -0.9958452 -0.76937264

utn.2.weight f4 [128, 256]
00000000: 3c8e 8bbd e583 b5bd d2df d2bd b111 a8bd
00000010: 0dcb e6bd 2aab 49bd d793 d6bc d9c6 a0bd
00000020: 582f 43bd d593 7cbd 78f0 5dbd ace0 eabd
00000030: e9c6 35be 3485 10be 0daa f7bc b8ba 9fbd
00000040: ce32 0fbd 2b92 bfbd 293e c1bd 7d8c e6bc
00000050: a7a0 f0bd 42af a9bd 119d f4bd 76e1 83bd
00000060: 821f a5bd 64d1 b4bd 5917 4cbd 6814 00be
00000070: 2532 17be d1e1 8fbd c2cf c4bd cd1b c0bd
00000080: b89f c6bd 9dbc 2ebd 5142 18be 6a3d 09be
00000090: b2ef 05be 4d5b ee3b 1e4e eebd 621f d4bd
000000a0: 625e 01bb 96b1 02be 0e27 22bd d828 4fbe
000000b0: 000e 06be 0b7c dfbd 9946 ebbb 65a3 78bd
000000c0: 5583 24be f80a babd 9a65 aabd 4985 04bd
000000d0: 6f8e cfbd 2991 263c 6cb7 32bd c35f e7bd
000000e0: 12b0 c2bb 293b f7bd 9f10 80bd 6222 92bd
000000f0: 65bd 8cbd 145a d2bd fda7 e0bd b27c f0bb
00000100: f674 a3bd 4a09 fcbd b5c8 e7bc 63ea 2c3b
00000110: 6383 b2bd f426 fcbd bfcf 45be c567 92bd
00000120: 8284 57bd 376f 8cbd ae18 a4bc 3f65 c1bb
00000130: 3574 98bb 4a6d afbd 1d62 62bd 50a2 27be
00000140: 5337 4abe dc8c 78bc b504 3bbd 2328 dcbd
00000150: f20c d6bd 1585 4bbc 436c b0bc 9e48 31bd
00000160: 4551 cfbd 71d3 0ebe b14e cdbd 7970 9b38
00000170: f665 8fbd 6279 b4bd b9c6 12be 108a 1fbe
00000180: d55f b6bd bb98 72bd dc41 16be 01fa 1ebe
00000190: 8658 023c 3d9f bfbd a4bf 8ebd 2c1b 87bc
000001a0: f489 26be bd21 66bd 8b97 3fbd 6f79 e9bd
000001b0: fec9 c2bd 53c5 553b ea18 b5bd 1989 babd
000001c0: 8130 e8bd 1056 bebd 3955 8e3c b225 11be
000001d0: cdab 07be 401e 88bd 90a9 a9bc 2e17 01bd
000001e0: 71de 34bd 76f5 4ebd 5c11 b4bd 0dce a9bd
000001f0: 28eb 25be 091b 1ebe 30a6 f6bd 120e 9cbd
00000200: a677 04be 0abb f4bd 7a64 78bd 7ea1 69bd
00000210: d4fa 13be 5095 cf37 4c18 cebd d0ea 6bbc
00000220: c9dd e5bd 0b02 8fbd 3705 3ebc d971 c3bd
00000230: 87c1 6ebc 936b c8bd 10f5 b9bd 7bf9 d0bd
00000240: 053e fcbd a7f0 20bd 586e 9bbd 199b 27bd
00000250: 3eb4 f7bd b4d4 f9bd c8b7 a6bd 7fca 37be
00000260: a405 81bd c2c9 01bc 18a1 6abd 8e14 08be
00000270: c16f b9bd a5ee c1bd 375f 0abe 41d1 b9bd
00000280: eeb8 a3bd d60a 4abd a0ed 0abe c583 9dbd
00000290: 94ce a1bd 4e9c 56bd 136f 3fbd cd0c abbd
000002a0: d002 bfbd c66e dbbd ae11 5abd c3f9 c9bd
000002b0: 3ce3 2bbc f05e a7bc 97ba 1dbe 8545 eebd
000002c0: 56b7 41bd 46f1 98bd 160e e3bb 026a 5cbe
000002d0: d47d 2abc 2dfe 80bc fc12 82bd 8a1f c3bd
000002e0: 3ce4 de3b d3cc abbd f464 7fbd 01df 89bd
000002f0: 87dc 0ebe 8f99 39bd fe13 d8bd d672 4dbd
00000300: 4581 18be aba2 63bd df9e e6bd 172c 68bd
00000310: 6ceb 14be 10e6 98bc 76ab debd 9570 b9bd
00000320: f988 e3bd b89b f8bd 9524 90bd 2fc4 00be
00000330: ab53 babd a21f ebbc 4c05 2dbd 0fd6 b83c
00000340: a425 6abc f0dc cabd 1dab 8dbd dbda debd
00000350: 84a7 9cbd ccd8 78bd f509 09b9 17e9 e6bd
00000360: bb9d c4bd 158c f8bd c3ce 9fbd fd7b 82bd
00000370: d5d3 9abd 6f3d 66bd a938 babd 15e6 a2bb
00000380: fba8 2abe 3a9f bfbd 0eeb 2dbe 32da febd
00000390: dc44 04be 2a6e 5dbd e21e 5cbc 96b5 aebd
000003a0: 03e8 c3bc d1d7 1c3c 8d32 74bc 3c26 18be
000003b0: 607c 86bd 984c 0abe 4654 1bbe d31f 50bd
000003c0: 39e7 b73b 8196 5c3c 5164 c8bd f90d 37bd
000003d0: 4ffc 6ebd 07ba b1bd bb22 c0bd e887 30be
000003e0: 5556 70bd e863 0dbd e367 21be 8382 973b
000003f0: 5485 d6bc acf3 01be cdcd 01be 890c 12bd
-0.068142384 -0.088630475 -0.102965966 -0.08206499 -0.112691976 -0.0492355 -0.026193542 -0.07850427
-0.047652572 -0.06166442 -0.054184407 -0.11468634 -0.1775166 -0.14113313 -0.030232454 -0.07799286
-0.03496056 -0.09354051 -0.09435684 -0.028143162 -0.11749392 -0.08285381 -0.119440205 -0.06439488
-0.0806265 -0.088290006 -0.049826954 -0.12507784 -0.14765222 -0.07025493 -0.09609939 -0.093803026
-0.09698433 -0.042660344 -0.14869048 -0.13402334 -0.13079718 0.0072740675 -0.116359934 -0.10357548
-0.0019740094 -0.12763056 -0.039588027 -0.20230424 -0.13091278 -0.10912331 -0.0071800468 -0.0607027
-0.16065724 -0.090841234 -0.0832016 -0.032353673 -0.10134589 0.010166445 -0.043631956 -0.11297562
-0.0059413994 -0.12071831 -0.0625317 -0.07135464 -0.06872062 -0.10271087 -0.10969541 -0.0073390836
-0.07981293 -0.12306459 -0.028293947 0.0026384823 -0.08716466 -0.12312117 -0.1931753 -0.07148699
-0.052616604 -0.0685715 -0.0200313 -0.005901962 -0.004652525 -0.08565767 -0.05526935 -0.16370511
-0.19747667 -0.015170302 -0.045658786 -0.10749843 -0.10451688 -0.012421866 -0.021535998 -0.043282144
-0.10122923 -0.13947846 -0.10024775 7.4119256e-05 -0.070018694 -0.088122144 -0.14333619 -0.1558001
-0.08904997 -0.059227686 -0.14673561 -0.15525056 0.007955676 -0.09356544 -0.06970146 -0.016492449
-0.16263562 -0.05618452 -0.046775382 -0.11400115 -0.09511183 0.0032618835 -0.088426426 -0.091081806
-0.113373764 -0.09293759 0.017374622 -0.14174536 -0.1324913 -0.06646395 -0.020710737 -0.031516246
-0.04415745 -0.05052706 -0.087923735 -0.08291254 -0.16202986 -0.1544 -0.120434165 -0.07619871
-0.12936267 -0.11949737 -0.060642697 -0.057038777 -0.14451152 2.4745852e-05 -0.10063228 -0.014399245
-0.11223943 -0.069828115 -0.011597923 -0.09543199 -0.014572508 -0.09786143 -0.09079945 -0.102038346
-0.12316517 -0.039292004 -0.07589406 -0.040919397 -0.12094925 -0.12198773 -0.08140522 -0.1794834
-0.06299904 -0.007921638 -0.057282537 -0.13289091 -0.090545185 -0.09469346 -0.13512884 -0.09073115
-0.07994257 -0.04932674 -0.13567209 -0.07691149 -0.0790073 -0.052395158 -0.046736788 -0.08352051
-0.09326708 -0.10714488 -0.053239517 -0.098620914 -0.010491189 -0.020431012 -0.1540321 -0.116343535
-0.047293983 -0.07467894 -0.0069291694 -0.21524814 -0.010405976 -0.0157462 -0.06351277 -0.095275
0.00680211 -0.083886765 -0.062352136 -0.06731988 -0.13951312 -0.04531246 -0.10550688 -0.050158344
-0.14893062 -0.055575054 -0.11260771 -0.056682672 -0.14542931 -0.01866439 -0.10872547 -0.090546764
-0.1111011 -0.12139076 -0.070382275 -0.12574838 -0.0909799 -0.028701607 -0.04224138 0.022563009
-0.014291201 -0.09905422 -0.06917403 -0.10881587 -0.076491386 -0.06075363 -0.00013069047 -0.11274927
-0.09600397 -0.121360935 -0.078031085 -0.06371305 -0.07559935 -0.05621093 -0.09092838 -0.0049712756
-0.16666023 -0.09356542 -0.16984197 -0.12443961 -0.12916893 -0.05406014 -0.013435097 -0.085307285
-0.023914343 0.009572939 -0.01490463 -0.14858335 -0.065666914 -0.1350578 -0.15168867 -0.0508116
0.0056122807 0.013463617 -0.09784759 -0.04469106 -0.05834609 -0.0867806 -0.09381624 -0.17239344
-0.058676083 -0.034519106 -0.15762286 0.0046237125 -0.026186623 -0.1269061 -0.12676163 -0.035656486

utn.2.bias f4 [128]
00000000: 5a42 cfbd 3c7d bfbe db17 98be 97c6 a8bd
00000010: 1bb0 69be 6961 973e 0d97 7b3e 4371 44bd
00000020: a377 cabd 7dd8 c43e 75e0 b6be 5f92 80be
00000030: d7d9 9bbe 4b09 aebe 71ad cebd 900c 55be
00000040: a314 0cbe e563 7fbe 154f 69be 755c fbbd
00000050: 4fd0 293e 4b1e 0abe 43cb 8dbe 6d94 43be
00000060: 6c78 80bd 9823 9bbe f0f8 16be 43c2 50be
00000070: d59d 24bd 30bd 46be c276 92be 44ea a63e
00000080: 597d a9bd 92d9 e1bd c3bd b8be 8cef eabd
00000090: b895 9e3e 5108 14be d086 94bd 979a a2bd
000000a0: cdc3 81be d7d6 e7bd fa36 b8bd 3d77 d6bd
000000b0: d5e4 19be 320c 10be b742 34bd 671c 06be
000000c0: 7981 3cbe c5c6 8fbe 0b44 29bd ecad 9abd
000000d0: 09e8 89be 4f17 c0bd c04b f3bd 6d7a 72be
000000e0: 7cda 19bd 59c1 a2be c80c 96be 6f47 73bd
000000f0: bc7c e83d 98d7 36be 2353 e7bd d3d4 273e
00000100: 342a abbe f268 00be 8f0c d8bd e2f7 bb3d
00000110: d5c0 abbc df71 85be f975 b1bc cb09 c5bd
00000120: 0ab8 14be e076 fe3d f3f5 b4bd 5ba8 ccbe
00000130: ca30 92bd 280e 66be 31ac 69bd 4318 0abd
00000140: da88 52bd e060 9fbc 02f9 e7bd 642b b1be
00000150: 0661 45bd bf34 f7bd 1a30 47be 75b2 34bd
00000160: 1ddc 37be fc32 1abe 39a3 fcbd f0c9 04be
00000170: f201 21be ba85 c2bd dc09 a1be 2358 06be
00000180: 60f7 c2bd 2ff3 bdbd d98c 9fbd e5de 643e
00000190: 301a b0be c323 88be 26df 7cbe 656c 8dbd
000001a0: e1cf d43d ce6f 98be dbe6 f6bc d60c 36be
000001b0: 584b d6bd 20f7 86bd 392a 183e 2d5f 3dbe
000001c0: 386c 3cbe fe13 123e 074f 9d3d d950 f9bd
000001d0: db67 a6be 83d0 a9bd 840f a0be fc6f 97be
000001e0: bda5 b6be d640 5fbe 31e7 d1bd bd7c 17be
000001f0: 5791 b4be 41d3 f43d b88f 70bd 0b7a babe
-0.101200774 -0.37400234 -0.297057 -0.08241003 -0.22821085 0.29566506 0.2456934 -0.047959577
-0.098861 0.38446417 -0.35718122 -0.25111672 -0.30439636 -0.33991465 -0.10091675 -0.20805573
-0.13679747 -0.2494045 -0.22784074 -0.12273494 0.1658337 -0.13488118 -0.2769414 -0.19099589
-0.06272969 -0.30300593 -0.147434 -0.20386605 -0.040189583 -0.19408107 -0.2860623 0.32600605
-0.08275861 -0.11027826 -0.36082277 -0.11471471 0.309736 -0.14456297 -0.07252276 -0.07939642
-0.25344697 -0.11320274 -0.08994861 -0.10471962 -0.15028699 -0.14067152 -0.044008937 -0.13096772
-0.18408765 -0.28081337 -0.041324656 -0.07552704 -0.2693484 -0.09379446 -0.118796825 -0.23679514
-0.03756188 -0.31788138 -0.29306626 -0.059394296 0.11351916 -0.1785568 -0.11295154 0.1638978
-0.33430636 -0.12540033 -0.1054927 0.09178139 -0.020965973 -0.2606344 -0.021662699 -0.096210085
-0.1452333 0.12425017 -0.088359736 -0.39972195 -0.07138212 -0.22466338 -0.05704898 -0.033714544
-0.051400043 -0.019455373 -0.11326791 -0.34603417 -0.048188232 -0.120706074 -0.19451943 -0.044115502
-0.1795506 -0.15058511 -0.1233582 -0.12967658 -0.15723398 -0.094981626 -0.31452835 -0.13119559
-0.09519839 -0.09274899 -0.077905364 0.22350653 -0.3439498 -0.26589784 -0.246945 -0.0690544
0.10391212 -0.297728 -0.030139377 -0.17778334 -0.104635894 -0.06590104 0.14859857 -0.18493338
-0.18400657 0.14265439 0.07681089 -0.121736236 -0.3250111 -0.082917236 -0.31261837 -0.29577625
-0.35673323 -0.21802077 -0.102491744 -0.14793678 -0.35267136 0.11954356 -0.05873081 -0.36421236

utn.4.weight f4 [15, 128]
00000000: 7609 49bd 84d9 a5bd c7e9 f73c 3f86 583e
00000010: 7c21 753d df55 43be 178c ebbe ea1d de3e
00000020: f486 a1bd 41a9 1ebe 6fd1 c83d db92 c0bd
00000030: a9c6 563d f30e c7bc efb8 6ebd fadf 8abe
00000040: a4da a4be 65b6 583d a1fe 113d 6d62 3dbd
00000050: 2e1e 893e 1e62 b43e 761f 7ebd 8cf9 65bc
00000060: d676 febd 75a1 b7bd eae6 8c3e ac52 babd
00000070: 39f4 193d 70d9 ccba 9658 84bd 3917 9dbe
00000080: 8553 3e3c b258 353d f708 41be 3928 2fbd
00000090: c22d f5be 0804 57bb a679 163d 48ef 6bbc
000000a0: 0339 173e cbe5 acbd 12a4 e33e d812 243c
000000b0: cdca 6c3e 015f 1ebf c9d8 55bc 7095 b3ba
000000c0: 863c dc3e 7920 08bc e147 86bd 040b 1f3d
000000d0: d26f 9bbc 4c2d 5d3e 39a6 913e de92 0ebe
000000e0: ee9c 873d 0422 d73d e715 c0bc dd35 64bc
000000f0: 3301 8a3e 8977 783e 497d ae3d ea08 0e3e
00000100: 869c a3bc d938 083d dfe3 da3e d286 f1be
00000110: f6f1 b3bc fb9a 02bd 58ed bdbd 1ca4 b6bc
00000120: f8d3 f5bc 0e17 283e 12b3 93be 93aa 6abe
00000130: d15e d93e f199 ccbd f8d7 813d 4c2d 88bd
00000140: 1f39 59bd 325e 69bd 66c6 7c3c 581f a7bd
00000150: aa23 dc3e 1518 9c3e 9041 05be 36f3 c83e
00000160: f2e6 4a3e 68d7 073e d7e7 203e 16b8 65bd
00000170: 6daa db3e f047 ccbd f15c 52bc 6af4 953e
00000180: e15b 13bd e7d7 ebba 64e0 d5bc 22ea bcbd
00000190: 4803 b23c 81f1 f3bc 3dde 04be 8f7e 22bd
000001a0: 08c3 8e3e 65bd 263d 0ae9 febd 9009 973e
000001b0: 0949 40bd f88c 98bc 3f06 f1be e7b6 e53c
000001c0: c760 3f3e 95be 803e 7ca2 673e 1c84 9c3d
000001d0: e18e 5fbe 41d3 6c3e c56c d3be 4947 edbd
000001e0: 65cc 9dbc ac06 72bd 939a 7bbd 4e33 413d
000001f0: cc67 643c 8dc7 bc3e 3e45 e93a 7f21 de3c
00000200: 19db 45bd 4886 f8bd 4099 493d 97fd 2bbe
00000210: 377f 1e3c e27f 2ebd 8050 463b 51af 58be
00000220: b465 e63b aac8 9d3c e8a7 88be c59d 443d
00000230: fb62 bbbd 10a2 03bd 1ff8 89bc 5708 02be
00000240: c10e f33b 71b2 f1bc 2a47 fbbc d5b6 08bd
00000250: 301b 39be ef28 87be 9004 f2bd 7da5 60bd
00000260: b03b 33be e72e 533c 4d69 e9bd a623 6cbd
00000270: 23d0 d3bd 2031 7d3d 0064 dfbc 7718 833c
00000280: 279e fe3b 27b9 b1bc bc8c c03d 2fff 463c
00000290: a0e1 aebd fe37 0ebe 0b16 9ebc 8fb4 08bc
000002a0: 695a 08be c863 55bc bafd 26bc a1df 343c
000002b0: 1396 1abc c465 a63e 2f05 8dbc 9960 95bd
000002c0: 9876 d5bb 74f3 c1bb ecb3 3ebc a510 19be
000002d0: 3906 01be cf5d 11be 40eb 03bf 2394 13bd
000002e0: 5438 a1bd 5417 37be 3cdb 8abd c64d 79bc
000002f0: 9d61 d9bd e94a 0ebe f9ea 90bd c7f2 69bc
00000300: b664 c03c 0074 d8bc 1079 16be b723 d1bc
00000310: efff 2b3c 59ff 143e 1a0a aebb 2605 44bc
00000320: cb49 b0bd 07e3 25be db65 35be 6e08 8dbe
00000330: f6b3 69be 1f54 efbc edd2 edbd 71a0 e63b
00000340: 5da7 89bc b645 99bb 9538 79bd 54cf bcbd
00000350: 60a0 75be 19a2 333d 47eb 0fbd a9de 14be
00000360: 7cb9 1bbe 6c69 28be 4995 9c39 60a0 febc
00000370: 1862 21be f58c 97bc 9b83 3abd 51bb 27be
00000380: fb6c 14bd 6a8d b3bd a7b0 91bb eb02 27be
00000390: 5ed7 f2be 762f d2bd dacc 55be a7a9 48ba
000003a0: 7fe9 21be bd28 f0bc cec7 a1bb 0af3 3fbe
000003b0: 78a3 c3bd c5b3 32bc 53fb 983c ca69 87bd
000003c0: 7508 3fbd 5a6b a5bd a1ae c1bd 13df 8abb
000003d0: 0cfc 5dbd 76c3 73bd c092 9fbd ee5b 5abe
000003e0: 8577 27be d7ee 9abd 2c70 7cba 66f2 04bd
000003f0: 207b 3abf 5202 57be 4aaf a0bd 9cb7 283e
-0.04908129 -0.080981284 0.03026284 0.21144961 0.059846386 -0.19075726 -0.46005318 0.43382198
-0.078870684 -0.15494253 0.09805571 -0.094030105 0.05243555 -0.02429912 -0.058281835 -0.27124006
-0.3219806 0.05290832 0.035643224 -0.046236444 0.26780838 0.35231107 -0.062041722 -0.014036547
-0.1242501 -0.08966342 0.27519923 -0.090978 0.037586424 -0.0015628766 -0.06462209 -0.3068178
0.011616592 0.04427404 -0.18851076 -0.04276297 -0.47886473 -0.00328088 0.036737107 -0.014400311
0.14767842 -0.08442267 0.44461113 0.010014258 0.23124237 -0.61863714 -0.013052174 -0.0013701152
0.43014926 -0.008308523 -0.065566786 0.038828865 -0.018974219 0.2159931 0.2844713 -0.13923213
0.06621729 0.10504535 -0.023447944 -0.013928858 0.2695404 0.24264349 0.0851999 0.13870588
-0.019972097 0.03325734 0.42751977 -0.47173172 -0.021965962 -0.031886082 -0.09273785 -0.02229505
-0.030008301 0.16415045 -0.28847557 -0.22916631 0.42455152 -0.099902995 0.06340021 -0.06649265
-0.05303299 -0.056974597 0.015428161 -0.08160275 0.4299596 0.30487123 -0.13013291 0.39248055
0.19814661 0.13265765 0.1571344 -0.05608376 0.42903462 -0.099746585 -0.012839542 0.29288036
-0.035976294 -0.0017993421 -0.026107974 -0.09224345 0.02173008 -0.029778244 -0.12975402 -0.039671477
0.27883172 0.040707964 -0.124467924 0.29499483 -0.04694465 -0.018621907 -0.47075078 0.028041316
0.18689261 0.25145403 0.22620577 0.07642385 -0.21831848 0.23127462 -0.41293922 -0.11585862
-0.019262502 -0.059088394 -0.06142671 0.04716807 0.013940763 0.36870995 0.0017797125 0.027115582
-0.04830465 -0.12134987 0.049218416 -0.16795956 0.009673885 -0.042602427 0.0030260384 -0.21160628
0.007031167 0.019260723 -0.26690602 0.048002023 -0.091497384 -0.032136977 -0.016841946 -0.12698494
0.0074175303 -0.029504033 -0.030673582 -0.033377487 -0.18076777 -0.26398417 -0.118172765 -0.054845322
-0.17503238 0.0128896 -0.11397038 -0.057651184 -0.10342433 0.061814427 -0.027269363 0.016002877
0.007770318 -0.021694733 0.09401843 0.012145801 -0.08539128 -0.13888547 -0.01929762 -0.00834383
-0.13315739 -0.013024278 -0.010192329 0.011039645 -0.009435195 0.32499516 -0.017214386 -0.07293815
-0.0065143816 -0.0059189145 -0.011639576 -0.14947756 -0.1260003 -0.14195941 -0.5153084 -0.036029946
-0.07872072 -0.17879993 -0.06780097 -0.015216297 -0.106143214 -0.13895763 -0.070760675 -0.014279074
0.023485523 -0.0264225 -0.14694619 -0.025529725 0.010498031 0.14550532 -0.005311263 -0.011964118
-0.08607825 -0.16199885 -0.17714636 -0.27545494 -0.22822556 -0.029214917 -0.116124965 0.007038169
-0.016803438 -0.0046774996 -0.060844976 -0.09219232 -0.2398696 0.04385576 -0.035136487 -0.14538063
-0.15207475 -0.16446465 0.00029865865 -0.031082332 -0.15760076 -0.01849983 -0.045535665 -0.1638005
-0.036236744 -0.08767207 -0.0044461074 -0.16309707 -0.47429937 -0.10262959 -0.20878926 -0.00076546747
-0.15811728 -0.0293163 -0.0049371487 -0.18745056 -0.095526636 -0.010907118 0.018674528 -0.066119745
-0.046638925 -0.08077116 -0.09457136 -0.0042380183 -0.05419545 -0.059512578 -0.07791662 -0.21324131
-0.16354187 -0.07565086 -0.0009629752 -0.03245773 -0.72844124 -0.20996979 -0.07845934 0.16476291

utn.4.bias f4 [15]
00000000: 0105 00bf 74a7 8a3d bfc2 18be 549b 92be
00000010: 6aa9 1dbd e2ee ef3d 9547 27be 777b 0f3e
00000020: 1e37 833e 9cdd 87be c26b d9bd cc27 263d
00000030: 3427 14ba 707b 97be d42d 0dbe
-0.50007635 0.067702204 -0.1491804 -0.2863413 -0.038491644 0.11715485 -0.163359 0.14011942
0.2562799 -0.26536262 -0.10616256 0.040565297 -0.00056515937 -0.29586363 -0.13787013

itn.0.weight f4 [256, 2]
00000000: 79ff 96bf 2dea 423f 383c 81bf 3367 9abf
00000010: 91b7 b73e 0ab4 a93f acb8 3e3f 19b6 12bf
00000020: e35f 83bf 021f 8b3f 605c 95bf 1506 6c3e
00000030: b926 7abf 173c 9cbf b9ee 7ebf 8d14 fd3c
00000040: 4f68 1fbf 3603 303f 7965 32bf f6dc f3bf
00000050: 0c56 fb3d 779d 47be c2c6 86bf 34e7 b7bf
00000060: 9780 e73e 5321 0bbf ee2f 973e b643 563e
00000070: efcd 333f 4922 23bf 2c84 87bf d07d c33e
00000080: b01d 7fbf 66ae b6be a1c3 44bf a05e e1bf
00000090: 1775 61bf 38ad 01bf 1316 83bf dba6 7abf
000000a0: 0cf7 6ebf 332d b7bf b63a 8abf 56d1 c7bf
000000b0: 180e 813d 3cb7 97bf 9a7b 9c3e d1bc 3d3f
000000c0: 36ce 9cbf 12e0 0c3f 02f8 333f a200 92be
000000d0: 7cea 853f 38be f7bd 76db 9dbf e268 233f
000000e0: 658e d5be 0baa 0ec0 0f55 513e b1e0 ab3c
000000f0: 5fd4 7fbf 4acc 48bf a316 7cbf 4604 a0bf
00000100: 8bd4 65bf ae00 a5bf 0ca2 93bf b2d7 fbbf
00000110: c4fe e03e 06e1 82bf c41e babe 4cf9 f5bf
00000120: 7573 d3bc e062 7d3f ad8c 82bf 2360 14bf
00000130: 1bbb e03e 7a4a a0bf 21c4 4b3e d975 6fbf
00000140: 5732 82bf 77ae 303f 84a0 71bf fda3 003f
00000150: 5444 e8bd ff05 c53e 7aa0 7abf 8e76 713c
00000160: 226d 80bf dea4 d3bf cc17 2e3d 08e1 c73e
00000170: bf80 3abf f218 dabe c2ea 45bf f6c5 4bbf
00000180: deb1 73be 21ee e0be ef60 4f3f ca5b a2bf
00000190: f0c3 85bf a5a1 993e c4fd 59bf 19d4 46bf
000001a0: ab0e 7ebf 8089 d7be d9be 61bf 47c6 e5bf
000001b0: f874 303f e347 2cbe dda9 50bf a780 c2bf
000001c0: 233d 163e 9d0f 3abf f37d 82bd 9763 5abe
000001d0: 57d9 8cbf c204 ec3e d956 87bf b1cf 00bf
000001e0: d6a3 90bf 91a2 bfbf 5de7 5bbf 5da5 6ebf
000001f0: dd6e c03e 83fb 91bf ec31 76bf fa67 aebf
00000200: e1ed 893e 8a02 76be cbfd 9fbf b4c2 b63e
00000210: b43a 6abf d5ac 1cbf d3d5 19bf e10a 00c0
00000220: 0182 253f c0b5 c1bf 395f be3e 00f2 88be
00000230: ad82 b03e 9606 68be 86d9 5fbf e183 88bf
00000240: e5dd 4b3f 0826 8dbe 0292 2c3e 333d 5dbf
00000250: 6c64 12bf 7a07 d1bf 9d52 74be 87a5 bbbe
00000260: a560 34bf 994e 9bbf f127 633f e14e 4ebf
00000270: d080 85bf 5f65 21be 1172 93bf 6445 833e
00000280: 695d 6abf 0390 85bf f947 66bf 59ba d63e
00000290: 3c1f 4bbf 5f13 8abf 0112 cb3e 0852 b5bf
000002a0: e0ca 0fbe 93aa 413f 73e3 823f 0745 7fbf
000002b0: b023 99bf 95a1 863e a6e5 2dbf 1326 eabf
000002c0: 3545 6e3d 4127 dd3f 6e6c 8bbf ff92 8d3f
000002d0: c9c3 3e3f a368 29be e0ba 66bf 99e5 54bd
000002e0: 6328 92bf ba26 86bf 78f5 7ebf e587 06be
000002f0: 412f 223f f166 2ebf 1654 8a3f 5a54 c3be
00000300: 7c69 183e a7b9 65bf ec59 82bf 7ae4 18bf
00000310: deb7 6bbf 5527 383f 43e4 2ebf 6f1e 9abe
00000320: 3d99 373e bc48 b9bf f8de 77bf a932 66bf
00000330: 025b 8bbf 35f2 513f 6818 683e d3c8 c0bf
00000340: 725e 72bf 4fa2 abbf 1f3a 2a3f aa48 38be
00000350: eb16 71bd 1edc 1f3f d188 46bd 8e45 793f
00000360: e735 a53e 374a d33f 1db9 87bf 10ad eebe
00000370: b2ea 103f e658 2fbf 9b80 603f 0e2b b7be
00000380: f451 90bf 3bcb 973f 9320 8bbf 0407 933e
00000390: 6299 04be 5fc2 32bf 27f1 85bf 656b 033f
000003a0: efc5 663d c990 863f 60dd 72bf 132f 83be
000003b0: b1b2 89bf 9337 863f 0e65 5fbf 6f83 abbf
000003c0: 853c 8dbf ede3 253f 6356 643f 97ed e7be
000003d0: 85d7 9fbe 218c 94be ef4c 86bf 7388 af3f
000003e0: e54a 7d3e 5627 b2bf 8518 c23e 1f61 adbf
000003f0: 5268 7fbf 2f4d 423e 1bed 92bf 2e99 6b3f
-1.1796714 0.76138574 -1.0096502 -1.2062744 0.35882238 1.3258069 0.74500537 -0.5730911
-1.0263637 1.0868838 -1.1668816 0.23049195 -0.97715336 -1.2205838 -0.9958301 0.030893588
-0.6226854 0.687549 -0.69686085 -1.9051807 0.122722715 -0.19493662 -1.0529406 -1.4367433
0.45215294 -0.54347724 0.29528755 0.20924267 0.70236105 -0.6372419 -1.0587211 0.38181925
-0.99654675 -0.3567993 -0.76861006 -1.7607002 -0.8806929 -0.50654936 -1.0241112 -0.9791085
-0.93345714 -1.4310669 -1.0799167 -1.5610759 0.06301516 -1.1852794 0.3056305 0.74116236
-1.225043 0.55029404 0.70300305 -0.28516108 1.0462184 -0.12096828 -1.2332599 0.63831913
-0.417102 -2.2291286 0.20442604 0.020981165 -0.9993343 -0.7843672 -0.9847204 -1.2501304
-0.8977744 -1.2890832 -1.1533828 -1.96752 0.4394437 -1.0224922 -0.36351597 -1.9216704
-0.02581189 0.98978996 -1.0199181 -0.57959193 0.4389275 -1.2522728 0.19899036 -0.93539196
-1.0171613 0.6901621 -0.9438555 0.50250226 -0.113411576 0.38481137 -0.9790112 0.014737738
-1.0033305 -1.6534688 0.042503163 0.39038873 -0.728527 -0.42597157 -0.77311337 -0.7959894
-0.2379832 -0.43931678 0.81007284 -1.2684262 -1.045042 0.30006137 -0.8515284 -0.77667385
-0.9924113 -0.42097092 -0.88181835 -1.7951134 0.6892848 -0.16824298 -0.8150919 -1.5195512
0.1467176 -0.72680074 -0.06371679 -0.21327053 -1.1003827 0.4609738 -1.0573379 -0.5031691
-1.1299999 -1.4971486 -0.8589991 -0.93221074 0.37584582 -1.140488 -0.96169925 -1.3625481
0.269393 -0.24024406 -1.2499326 0.35695422 -0.91495824 -0.6120122 -0.60091895 -2.000664
0.64651495 -1.5133591 0.37182024 -0.2674713 0.34474698 -0.22658762 -0.8744129 -1.0665246
0.7963546 -0.27568078 0.16852573 -0.8642151 -0.5718448 -1.6330407 -0.2385964 -0.36649725
-0.7045997 -1.2133361 0.8873282 -0.8058911 -1.0429935 -0.15761326 -1.1519185 0.25638878
-0.9154878 -1.0434574 -0.8995357 0.41939047 -0.79344535 -1.0787162 0.39662173 -1.4165659
-0.14042234 0.756509 1.0225662 -0.997147 -1.1964016 0.26295152 -0.6792854 -1.8292869
0.05817147 1.7277604 -1.0892465 1.1060485 0.74517494 -0.16543822 -0.901289 -0.051976774
-1.1418575 -1.0480568 -0.99593306 -0.13137777 0.63353354 -0.68125826 1.0806911 -0.38150293
0.14883989 -0.8973641 -1.0183692 -0.5972363 -0.92077434 0.71935016 -0.6831705 -0.30101344
0.1792955 -1.4475322 -0.968246 -0.8992105 -1.0887148 0.82010204 0.2266556 -1.5061287
-0.9467536 -1.3408908 0.66494936 -0.17996469 -0.058859747 0.6244525 -0.048470322 0.9737176
0.32267687 1.6507024 -1.0603367 -0.4661641 0.56608117 -0.68495023 0.87696236 -0.35775036
-1.127501 1.1858896 -1.0869316 0.2871629 -0.12949136 -0.69827837 -1.0464219 0.51335746
0.056341108 1.0512935 -0.9486904 -0.25621852 -1.0757657 1.048571 -0.8726357 -1.3399485
-1.1034094 0.6480091 0.89194316 -0.45298454 -0.31219116 -0.2901316 -1.0492228 1.3713516
0.24735601 -1.3918254 0.37909332 -1.3545264 -0.99768555 0.18974756 -1.1478609 0.9203061

itn.0.bias f4 [256]
00000000: 24bf dd3e c273 75bf 69cf 6dbf 8bdc a9bf
00000010: 189e 5cbe c9f6 6c3f 7728 ce3e 7889 f0be
00000020: 6dc9 60bf 90c2 26bf 2cd0 a1bf c7d1 3ebf
00000030: ab56 92bf 1564 c6bf 0b41 a5bf 0246 ae3e
00000040: d2ba bd3e 0ce5 953e 59a3 d6bf b727 623f
00000050: 47df c93e eba5 febe 8966 47bf 89b4 a9bf
00000060: 5469 713f 1d4e c0bf 8197 e5bf 36d8 4a3f
00000070: aa3d 133e b993 abbf 4443 063f 458b e7be
00000080: 00b0 943e 5713 81bf 62de 78bf fb1f 80bd
00000090: 09bc 87bf 8192 e4bd 0f56 08bf 8448 65bf
000000a0: c8ca 7ebc a8d0 a3be 94b2 d6bf df74 afbe
000000b0: 84ba 9ebf d323 d3bf 999f c8bf 0456 97bf
000000c0: a322 abbf 7f56 03bf 1829 df3e ade7 8a3d
000000d0: 682f 143f 5aa8 64bf 4de8 b6bf c1bc 533e
000000e0: 62ef 7abf 6a55 babf a736 d53e b908 213f
000000f0: b7f6 d9be b641 333d 4d3e 58bf ac1c f43e
00000100: 4feb 90bf 3062 803f 3c55 983d 29c0 4bbd
00000110: 9714 84be c153 8dbf a92b b4bf 0cd1 d1bd
00000120: 6323 c2bf a488 5abf ec7e cebe 4f95 bdbf
00000130: 6a2c 45bf c24b 92bf 67b4 9dbd c575 453f
00000140: 00f0 0a3f 644e 0abf c4d3 d13e bf00 0ebf
00000150: b13c adbf 92b3 9fbf 4ab7 813f 98ea 2a3e
00000160: b133 afbe c23b 4cbc 52ce b2bf 2f15 3dbe
00000170: 987c 903f d928 e83e bcc4 97bf afc7 d0bf
00000180: 81bc 6dbf 4fec 433f d833 ecbe 3677 bcbf
00000190: 5c49 bbbe fdbd 193f 763c a43d 8361 17bf
000001a0: 7203 ca3e da58 aebf 72d6 85bf 1789 7ebf
000001b0: 4880 39bf 9491 4d3f 8e39 96bf 54e6 c8bf
000001c0: 26b8 843d c6a8 233f 399d 8cbf 2edb 6a3d
000001d0: bc80 8bbf e822 053e 62ab 9c3b 4003 a2bf
000001e0: a3e2 883e 6535 c8bf 7767 adbf 4d67 a9be
000001f0: d431 67bf 473a 13bf 83ae b0bd cad0 c43e
00000200: 55a5 b7bf 1cc9 783f af7c b3be 2948 ccbe
00000210: 0538 95bf 48a8 49bf c4b1 0bbf 8af7 19bf
00000220: 198a 32bf a8a5 88bf ad06 fe3e 33e1 babb
00000230: ea90 bdbe 4d50 2abf a068 a4bf bda4 173e
00000240: a90d 213f cebd b2bf eaae 8fbf c8f8 87be
00000250: 3b84 1fbf afb9 89bf 1a58 123f 654d 7b3f
00000260: 8414 cebf 9081 c6bf 3506 d73e c671 90be
00000270: 9b95 3c3f dfd2 0abd a30f cdbf 1a6f 083e
00000280: aff6 d2be 17cf 053e 4b7e fb3e a6f3 863e
00000290: 5c17 14c0 3abf cebf 7166 00bf a0e1 91bf
000002a0: 789f 083f 1400 abbe 6a35 17bb c46a f03e
000002b0: a3d2 b1bf 8e29 e7be 542d 063f de6e cb3d
000002c0: b9c7 0ac0 39bd 143f c6e5 a7bf 6656 1e3f
000002d0: 2049 a2bf 6516 ac3e 3de4 e7be 4837 e6be
000002e0: c0fd 95be 8410 8abf f11e 8abf 3a52 4cbf
000002f0: af30 763f 9171 1bbf 3b44 70be 7e2f 953e
00000300: 49ab 74be 5d05 01bf fb10 a0bf f64c 87bf
00000310: 6cd2 5bbf e23f bfbf 6d84 0c3e ae26 8bbf
00000320: 179f e7be b2c5 9cbf da74 9fbf 77ed b4bf
00000330: 3a59 493d d868 a5bf aaf7 bebe 3a60 db3d
00000340: b001 3d3e 2549 553f d7a3 bfbf 83fb 123f
00000350: 3b6b 533f 09be cabf 5962 84bf fd94 123f
00000360: 0afa f1bf 0cb3 813f 521c 973d a8b2 413f
00000370: 8af2 d8bf fd18 fe3e 9486 77bf b5a6 513f
00000380: c15c 8cbf 9722 b6bf 4022 62be 068f b93e
00000390: 8f14 70bf 5bc9 a03e e8b9 9fbe 28d5 94bf
000003a0: 30e5 94bf f505 83bd 91da b43e 9803 2b3f
000003b0: 95f6 cd3d e88b 84be e82a ad3e 546f 1bbf
000003c0: 1e13 783f 4b5e e6be 6f64 243e aa7f 39bf
000003d0: 0876 ff3e 7a04 cfbe c032 233f d35c edbf
000003e0: 2092 433f 552f e7be 4e42 f93e 5feb 973e
000003f0: 488d 433f da6f b5bf 24b4 d9bd 67c1 98bf
0.4330989 -0.9587976 -0.9289461 -1.3270429 -0.21544683 0.92564064 0.40265247 -0.4697988
-0.8780735 -0.6514063 -1.2641654 -0.74538845 -1.1432699 -1.5499293 -1.2910475 0.34037787
0.37056595 0.2927631 -1.67686 0.8834185 0.3942816 -0.4973596 -0.7789083 -1.325822
0.9430134 -1.5023838 -1.793686 0.7923616 0.14378992 -1.3404456 0.5244639 -0.45223442
0.29040527 -1.0084027 -0.9721433 -0.062561 -1.0604259 -0.11160756 -0.53256315 -0.89563775
-0.0155512765 -0.3199513 -1.6773248 -0.34268853 -1.240067 -1.6495308 -1.5673705 -1.1823125
-1.3369945 -0.5130386 0.4358604 0.0678247 0.57884836 -0.89319384 -1.4289643 0.20677473
-0.9802152 -1.4557316 0.4164326 0.62903935 -0.4257104 0.04376384 -0.84470063 0.47678125
-1.132181 1.0029964 0.07438132 -0.049743805 -0.2579696 -1.1041185 -1.4075824 -0.10244951
-1.5167049 -0.8536475 -0.4033121 -1.481119 -0.77020895 -1.142937 -0.07700425 0.7713283
0.5427246 -0.54025865 0.40981877 -0.5546989 -1.3534147 -1.2476676 1.013406 0.16691053
-0.34219125 -0.012465419 -1.3969214 -0.18465112 1.1288023 0.45343664 -1.1856914 -1.6310939
-0.9286576 0.76532453 -0.46133304 -1.472388 -0.36579406 0.60055524 0.080193445 -0.59133166
0.39455754 -1.3620865 -1.0456069 -0.9942793 -0.72461367 0.8030026 -1.1736314 -1.569529
0.06480436 0.639294 -1.098548 0.057337932 -1.0898662 0.13001597 0.0047811726 -1.2657242
0.2673541 -1.5641295 -1.35472 -0.33086625 -0.90310407 -0.575108 -0.086270355 0.38440543
-1.434733 0.9718187 -0.35056064 -0.39898804 -1.1657721 -0.787724 -0.54568124 -0.6014334
-0.6974197 -1.0675554 0.49614468 -0.0057031154 -0.37024623 -0.6652878 -1.2844429 0.14808936
0.6291147 -1.3964174 -1.1225255 -0.26556993 -0.6231114 -1.0759791 0.5716568 0.9816497
-1.6100011 -1.5508289 0.41996923 -0.28211802 0.7366578 -0.03389251 -1.6020397 0.13323632
-0.4120383 0.1306728 0.4911979 0.26357764 -2.3139257 -1.6152108 -0.50156313 -1.139698
0.5336833 -0.33398497 -0.0023072609 0.46956456 -1.3892406 -0.4514889 0.52412915 0.099332556
-2.16844 0.5810123 -1.3116996 0.61850584 -1.2678566 0.33610836 -0.4529132 -0.4496405
-0.29295158 -1.078629 -1.0790693 -0.7981297 0.96168035 -0.60720164 -0.23463528 0.29137796
-0.23893465 -0.5039881 -1.2505182 -1.0570362 -0.85867953 -1.494137 0.13722391 -1.0871179
-0.45238563 -1.2247832 -1.2457535 -1.4134969 0.04915736 -1.2922621 -0.37298328 0.10711713
0.18457675 0.83314735 -1.4971875 0.57415026 0.82585496 -1.5839244 -1.0342513 0.5725859
-1.8904431 1.0132766 0.073784485 0.7566323 -1.6949017 0.4962844 -0.96689725 0.81895
-1.0965806 -1.4229306 -0.22083378 0.3624193 -0.9378137 0.31403622 -0.31196523 -1.162755
-1.1632442 -0.063976206 0.35323003 0.6680236 0.100567974 -0.2588799 0.33821797 -0.6071675
0.9690417 -0.44993815 0.16053937 -0.72460425 0.49894738 -0.40433103 0.63749313 -1.8543953
0.76394844 -0.451533 0.486834 0.2967176 0.76387453 -1.4174759 -0.10630062 -1.1934022

itn.2.weight f4 [128, 256]
00000000: 4ee1 e33e 6689 953e aaf3 c0be eae4 35bf
00000010: 19e1 e03e 16c8 613e b544 f53e 3b3d 1e3e
00000020: 183d e93d 82cc 2f3f b41a e4be 8d0f d03e
00000030: b271 14bf 37f3 02bf 126a 13bf 2596 2c3e
00000040: 1e6a 323e 7e77 913e 98a6 f13d 100c 283e
00000050: e03f d53e 21b1 163f 04b9 4fbe bdf2 b0be
00000060: 7afb 8b3e 179e 3cbf 6511 51bf 04f2 9c3e
00000070: 3064 e63c ef46 f2be 9a82 583e 2573 c83e
00000080: 91bb a63e 1258 863f e690 ebbe 187c df3b
00000090: 65cf b6bd 30ed 093e 0de1 f2be 2ef2 c9be
000000a0: 00fa a93e 8939 773e 67e2 48be c184 b83d
000000b0: f896 e53e 1cf2 93be 161a b3bb b3a2 f93d
000000c0: 1bf9 88be 27b2 1dbf 1236 123e 6093 093e
000000d0: 4ecb 443e d236 223f abda 3fbf 4df5 d73e
000000e0: 5e68 a4be a8c3 cdbe 66ab 9e3e fe64 b03e
000000f0: 7f1f e03e 45f2 ea3d 7252 dcbe 9554 d83e
00000100: e5af f1be 15bb 9a3e 8ec2 6b3e a250 d73e
00000110: 7f76 1cbf 141d 06bf f52b 14bf 5f47 c33e
00000120: ba5f 40bf 88cf a5be 9132 453e 1703 6dbe
00000130: 44ee ea3d ce87 36bf f950 003e 25d0 503e
00000140: 586f 2a3d 9606 933e 10ff 5dbc f849 ffbe
00000150: 16ba aebd 020d 25bf 242f 5c3e ae17 853e
00000160: e21a 8dbe 042a eb3e ee0e 2ebf a4b3 2e3e
00000170: 42b0 223e 458f 193e 5203 1abf d0a7 66bf
00000180: 50c8 a4be ec3a 3b3e fbcc a13e c47e 6fbd
00000190: 46d6 b6be fe88 673e 142f bf3e 93a3 aabe
000001a0: bd24 c93e d49b 36bf 7b49 4dbe 3b86 34be
000001b0: 0603 c7be 22ed 6e3e b309 1dbf 40ff 44bf
000001c0: 8777 f93e 1167 853e 5724 92be e204 053f
000001d0: 10cb 74be 59a3 bc3e d333 0f3f db3b 023f
000001e0: e19b d03e c3c2 45bf a1ed 65be 11a9 3a3f
000001f0: bf98 9fbe 165f fcbe 34ce 383e c66f 8e3e
00000200: 687b 933f 3784 3a3e 4bcb 0ebe a1e7 983d
00000210: 90cb d43e 5ae4 25be 81cb 8ebe 9bf7 06bf
00000220: 7e6b d1bb c779 d0be 89ca 613e aa88 063f
00000230: c85f d93e 5e97 0ebf c364 20bf 6311 ca3d
00000240: 0c4d a53e f2a8 dcbe 7b6c e5be 7e6f 573e
00000250: 7376 0bbf 5524 0fbf 56e5 b53e 4bf4 893e
00000260: 8bf6 0dbf 1ac3 38bf e73d 953e cefd de3e
00000270: 4859 063e bea1 5d3e c53a 8abe 259f 553e
00000280: 0844 ffbe 3d64 833e 5b6d 9d3e 9962 ed3e
00000290: be48 39be ffa2 0dbf 6f13 c63d e839 8cbe
000002a0: f4a2 843d 95ef 00bf 03b0 293e 97af 0e3e
000002b0: a97f 043e b75a d9be d747 7e3e ba4e b13e
000002c0: 1eb7 c33d 0543 4c3d 8c4b e4be 35e2 ad3e
000002d0: 66b4 28bf b697 aebd cc6f d73e 9606 a6be
000002e0: dbad b13e 8b9d 6f3d 2055 0bbf 55ca 0cbf
000002f0: f9a7 503e cc36 193e eb39 d73c 3c16 8e3e
00000300: dbf8 163e 7d40 193f 4065 523f 718e 603f
00000310: 125a dc3d ea40 fdbe bbd8 973e 96a3 9c3d
00000320: c9a5 39be 6a21 d7be fe6a 22bc 5ee7 18bf
00000330: c291 ec3e d0d9 0abf f778 893e 828e 253e
00000340: 951b 0d3f b7f4 873e 1266 1dbf a363 ad3e
00000350: 4514 843e d3e0 27bf 8195 bbbe 728d 183e
00000360: 1d81 5e3c c8ed 833e 6914 293f 8f57 883e
00000370: fc8d 4dbf 3c4e 9c3e 6ee3 913e 21d0 493e
00000380: 917b 16bf ea33 d63c f9f4 683e f477 893e
00000390: 6c83 293f 7a0c 073f 04cd d13e b6b0 e9be
000003a0: 9434 f0be 7d3a a43e 0653 6a3e ef36 b43e
000003b0: 464a bb3d 6f99 b23e 4147 363e d4a3 b13d
000003c0: 9e27 3f3e 1744 e8be 2a41 113e 497b c63e
000003d0: 42f1 d63e dc24 d93e 1517 113e 34ec f3bd
000003e0: 4f67 1a3e deab ae3e 947c b53e b530 cf3e
000003f0: 5edc dd3d 3372 2abf 7de9 933e 1dc9 27bf
0.4450783 0.2920639 -0.376859 -0.7105242 0.43921736 0.22048983 0.47903982 0.15453045
0.11388606 0.6867143 -0.44551623 0.40636864 -0.57985985 -0.51152366 -0.57583725 0.1685415
0.17423293 0.28411478 0.11799353 0.16410851 0.41650295 0.5886403 -0.20285422 -0.34560195
0.273403 -0.73678726 -0.81667167 0.30653393 0.028123945 -0.47319743 0.2114357 0.39150348
0.32564977 1.0495627 -0.46008986 0.006820213 -0.08926276 0.13469386 -0.47437325 -0.3944258
0.33198547 0.24143042 -0.19617616 0.09009696 0.44841743 -0.28895652 -0.005465756 0.121892355
-0.26752552 -0.61599964 0.14278439 0.13435125 0.1921818 0.633649 -0.74943036 0.42179337
-0.32110876 -0.40188336 0.30990142 0.3445205 0.4377403 0.114719905 -0.4303165 0.4225203
-0.4720451 0.30220857 0.23023435 0.42053705 -0.6111831 -0.5238812 -0.57879573 0.3814039
-0.7514607 -0.32384896 0.19257571 -0.2314571 0.11471227 -0.7130097 0.12530889 0.20391901
0.041610092 0.28715962 -0.013549581 -0.4986112 -0.08531587 -0.64472973 0.21502358 0.2599463
-0.27559572 0.45930493 -0.6799153 0.17060715 0.1588755 0.14996059 -0.60161316 -0.9009981
-0.32184076 0.18284196 0.316017 -0.058470502 -0.35710353 0.22610852 0.37340605 -0.33327922
0.39285842 -0.71331525 -0.20047562 -0.1762933 -0.38869494 0.23332646 -0.61342925 -0.7695198
0.48724005 0.26055196 -0.2854335 0.51960576 -0.23905587 0.36843374 0.5593845 0.5087258
0.40743926 -0.7725031 -0.2245393 0.72914225 -0.31171224 -0.49291295 0.1804741 0.2781965
1.1522036 0.18214498 -0.13944738 0.07466055 0.41561556 -0.1620039 -0.27889636 -0.52721566
-0.006390988 -0.4071791 0.22049917 0.5255228 0.42455888 -0.5569972 -0.6265375 0.098665975
0.32285345 -0.43097645 -0.44809327 0.21038625 -0.54477614 -0.55914813 0.35526532 0.26944193
-0.5545432 -0.721727 0.2914879 0.43553013 0.13119996 0.21643731 -0.26997963 0.2086149
-0.4985659 0.25662413 0.30747494 0.46364287 -0.18094155 -0.5532684 0.096716754 -0.2738793
0.06476393 -0.50365573 0.1657105 0.1393417 0.12939323 -0.42452022 0.24832092 0.34630376
0.09556411 0.049868602 -0.44588888 0.33961645 -0.65900266 -0.0852503 0.42077482 -0.324269
0.34702954 0.058499854 -0.54426765 -0.54996234 0.20376576 0.1496231 0.026272735 0.27751338
0.14743368 0.59864026 0.82185745 0.8771735 0.10759367 -0.49463588 0.2965754 0.07648389
-0.18129648 -0.4201768 -0.009913204 -0.5972804 0.46204954 -0.54238605 0.268501 0.16167644
0.5512021 0.2655389 -0.6148387 0.3386508 0.25796714 -0.6557743 -0.366375 0.14897707
0.013580588 0.2576735 0.6604677 0.26629302 -0.80294776 0.30528438 0.28493828 0.19708301
-0.587823 0.026147801 0.227497 0.2684933 0.6621616 0.5275341 0.40976727 -0.45642632
-0.46915114 0.32075873 0.22883233 0.3519816 0.09145026 0.34882686 0.17800619 0.08673826
0.18667457 -0.45364448 0.14185014 0.38765934 0.4198094 0.42410934 0.14168961 -0.119102865
0.15078472 0.341155 0.35446608 0.40466848 0.10833047 -0.66580504 0.28889075 -0.6554125

itn.2.bias f4 [128]
00000000: e765 b1be 37ab 9b3e 3251 423e 2bda 92bd
00000010: 28d4 4cbe 28de 33be 850e 19be c9b5 7abe
00000020: 7d49 03be 87f9 4dbe b477 5cbe 2088 a4bd
00000030: 1c47 73bd 73a5 d03d f6bc 88be 0643 89bd
00000040: fc57 46be 875e 713e 7768 eebd fab7 7dbe
00000050: fa3f babd f559 0a3d 3b9c 843e dfef 613e
00000060: 5662 8fbe 2c64 683e 14ef 0ebe 5bfe 4d3e
00000070: de14 f8bd 4677 57be 15d1 783e f8b9 9fbd
00000080: 2664 f43e 379a a33e 6716 24be 7d6c 94be
00000090: 17fc bb3e 69e0 0c3e fb50 883e e75b 88be
000000a0: c5db 69be 9deb 0d3e 4199 eebe 8b5e 3bbe
000000b0: 81c8 2c3e 70b3 11be 7e31 f13d aced 803e
000000c0: 541f 443e 6457 1e3e e321 83be fef9 fabd
000000d0: 748a 4fbe cdb1 463e 7fed 9c3e 611f 913e
000000e0: c17a 8bbd 2ff7 11be ed0b 0fbe 231d bbbd
000000f0: d7fa 9b3e da5d 923e 5808 143e a316 9b3d
00000100: 5df4 2abe 3982 5cbe fe29 84bd f7b6 b4be
00000110: a2e9 1dbe 7193 3f3b c3ad 60be d170 37be
00000120: 4f0a 8cbe 2849 3abe 8bfc 63be c804 56be
00000130: 9888 8c3e f74c 363d ee12 853e 8572 9e3e
00000140: be42 f93d 8af0 24be bf90 5fbc 9665 3ebe
00000150: c52a 34be e5e4 c6bc 5eec babd ddb1 24bc
00000160: 39e2 853e 0534 7dbe 66f2 a23e fc6b 31be
00000170: 8b6a 18be a043 8e3d 297b 6abe d81f 943e
00000180: ef06 75be b888 093e 7634 4abe 5b6d 6d3e
00000190: 358c 2bbe dfbd 5b3e 5429 483e f13e 51be
000001a0: f013 38be 7e11 b0be bda2 d6bd 6557 5b3e
000001b0: d598 36be 91d1 77be edb4 42be aa9c 25be
000001c0: 43c5 7abe 0cc2 683e 499c 493e c662 b5be
000001d0: 08d6 39be 14c0 313e edb7 913e e1c5 80bd
000001e0: e48a 383d d264 993e 316d 3ebe 1956 663e
000001f0: 4b46 1e3e 7573 78be 29e0 b83d 7e1d 70be
-0.34648058 0.30404064 0.18976286 -0.071705185 -0.20002806 -0.17565215 -0.14946945 -0.24483408
-0.12821002 -0.20114718 -0.21530038 -0.08033776 -0.059393987 0.10187807 -0.26706666 -0.06702237
-0.19369501 0.23571216 -0.11641019 -0.24777213 -0.09094234 0.033777196 0.25900444 0.2206416
-0.28004712 0.22694463 -0.13958389 0.2011656 -0.12113355 -0.21041593 0.24298508 -0.077991426
0.47732657 0.31953594 -0.16024171 -0.2898902 0.36715767 0.1375748 0.26624283 -0.26632616
-0.22837742 0.1385941 -0.46601298 -0.18297784 0.16873361 -0.14228606 0.11777018 0.2518133
0.19152576 0.15463024 -0.2561179 -0.122547135 -0.2026766 0.19403763 0.30649945 0.28344253
-0.06810523 -0.1425445 -0.13969393 -0.09136417 0.30464813 0.28587228 0.14456308 0.07572677
-0.1669478 -0.21534051 -0.06453322 -0.3529584 -0.15421155 0.002923217 -0.21941285 -0.1791413
-0.27351615 -0.1819197 -0.22264306 -0.20900261 0.27447963 0.044506993 0.25991005 0.30946746
0.12170933 -0.16107383 -0.01364535 -0.1859344 -0.1759444 -0.024279067 -0.09127115 -0.010052172
0.26149157 -0.24726875 0.3182556 -0.17326349 -0.14884393 0.06946492 -0.22898544 0.28930545
-0.23928426 0.1343106 -0.19746575 0.23186247 -0.16752703 0.21459149 0.19547015 -0.20434166
-0.17976356 -0.34388345 -0.104802586 0.21420057 -0.17831738 -0.24201037 -0.1901433 -0.16173044
-0.24489312 0.22730273 0.19688524 -0.3542692 -0.18148053 0.17358428 0.28460637 -0.062877424
0.04505433 0.29959732 -0.1859634 0.22493781 0.15456502 -0.24262793 0.0902713 -0.2344875
