ckpt/assistment/irt_with_theta.pt (torch, 14179 bytes, 3 tensors)

theta.weight f4 [1426, 1]
0	0x3f257be6	0.6464218
1	0x3e1568df	0.14590786
2	0x3fa9f456	1.327769
3	0x3f19f984	0.60146356
4	0xbea0f75e	-0.31438726
5	0x3ed72f1a	0.42028123
6	0x3e8fc308	0.28078485
7	0x3e8e0489	0.27737835
8	0x3f5dd2c7	0.86649746
9	0x3fa8f40e	1.319948
10	0x3f848ba4	1.0355115
11	0x3f2bbc93	0.67084616
12	0x3fabeb20	1.343113
13	0x3eb391fe	0.3507232
14	0x3d205c50	0.039150536
15	0x3f9360e2	1.1513941
16	0x3f8b54ac	1.0885215
17	0x3f2994da	0.66242754
18	0x3fc09a14	1.5047021
19	0x3f3f640d	0.7476204
20	0x3fbc47fd	1.4709469
21	0x3f942137	1.1572636
22	0x3f1e5801	0.61853033
23	0x3f78daaf	0.97208685
24	0x3eeae64f	0.45878837
25	0x3f4381de	0.76370037
26	0x3ea65fd1	0.32494977
27	0x3f1c7398	0.6111388
28	0x3f69c716	0.91319406
29	0x3e47ec4d	0.19523735
30	0x3edf2f11	0.43590596
31	0x3f2ecc40	0.6828041
32	0x3eb2d015	0.3492438
33	0x3f74d429	0.9563623
34	0x3f269b1e	0.6508044
35	0x3edb442d	0.42825451
36	0x3f46d764	0.7767241
37	0x3f2fe77e	0.68712604
38	0x3fc8a530	1.5675411
39	0x3f4ab2b6	0.7917894
40	0x3f8d82a4	1.1055493
41	0xbd867739	-0.06565709
42	0xbe8f5cf5	-0.28000608
43	0xbd20c2a0	-0.03924811
44	0x3eb13a1c	0.34614646
45	0x3f4d6676	0.8023447
46	0x3f89f55f	1.0778006
47	0x3c55edb7	0.013057164
48	0x3fe84b6f	1.814802
49	0x3f78834f	0.9707536
50	0x3e58fe5e	0.21190783
51	0x3f6b652d	0.91951257
52	0xbe6c8806	-0.23098764
53	0x3f839e88	1.0282755
54	0x3edc0805	0.42974868
55	0x3ebc3221	0.36756995
56	0x3e524534	0.20534211
57	0xbc7410e1	-0.014896602
58	0x3f5f3a3f	0.8719825
59	0x3ecc2d5d	0.3987836
60	0x3f436602	0.76327527
61	0x3f17f586	0.59359014
62	0x3ef89f65	0.48559108
63	0x3ec33837	0.38128826
64	0x3f48beac	0.7841594
65	0x3f545ee2	0.8295728
66	0xbeeaedef	-0.45884654
67	0xbeb8b93b	-0.3607882
68	0x3f11aa91	0.5690089
69	0x3f4a7c80	0.7909622
70	0xbd6d15e8	-0.05788222
71	0x3f00b2c0	0.5027275
72	0x3ff64a42	1.9241412
73	0x3ff98db4	1.9496369
74	0x3f8281bf	1.0195845
75	0x3e6229ee	0.22086307
76	0x3f27ab43	0.654957
77	0x3f905fa0	1.1279182
78	0xbe641994	-0.22275382
79	0x3f0de900	0.55433655
80	0x3f295155	0.6613973
81	0x3f766093	0.9624111
82	0xbd98b495	-0.07456318
83	0x3f31071e	0.69151485
84	0x3f2ee4d9	0.68317944
85	0x3eba8e26	0.36436576
86	0x3eced8c7	0.40399763
87	0x3e4010aa	0.18756357
88	0x3f2db427	0.67853016
89	0xbf263097	-0.6491789
90	0xbde79e81	-0.11309529
91	0x3de7b9fe	0.11314772
92	0x3d96beff	0.07360648
93	0x3ec2c369	0.3803971
94	0xbf6e15cd	-0.93002015
95	0xbf8f0e6c	-1.1176276
96	0x3eafff19	0.34374312
97	0xbe3fd919	-0.1873516
98	0xbe7c3aa2	-0.24631742
99	0x3f9bf562	1.218426
100	0x3da7c224	0.08191326
101	0x3ee0d507	0.43912527
102	0x3e6bf226	0.23041591
103	0x3fcd4bff	1.6038817
104	0x3eda9ba6	0.42696875
105	0x3e805840	0.2506733
106	0x3fafd69f	1.3737372
107	0x3d2ec938	0.042672366
108	0x3f682d2b	0.9069392
109	0x3f0c03b3	0.54693145
110	0x3caee3c0	0.021348834
111	0x3f645087	0.89185375
112	0x3f4501f3	0.769561
113	0x3fcb2a59	1.5872298
114	0x3f6331f6	0.8874811
115	0x3f0881fc	0.5332334
116	0x3fd38bc5	1.6527029
117	0x3f5741ae	0.84084594
118	0x3fa4e446	1.2882164
119	0xbe846dc8	-0.25865006
120	0x3fe12861	1.7590448
121	0x3ecfb1b7	0.40565273
122	0x3ff3c83f	1.9045485
123	0x3f8aed73	1.0853714
124	0xbe6c352b	-0.23067157
125	0x3fcb75e4	1.5895352
126	0xbf965e82	-1.1747591
127	0x3fe56f0f	1.7924517
128	0xbf6f3012	-0.93432724
129	0xbe425573	-0.18977909
130	0x3fb4fec7	1.4140252
131	0x3f638e21	0.88888747
132	0x3e0d9988	0.13828099
133	0x3f593c57	0.84857696
134	0x3f4d51fc	0.80203223
135	0x3e8ff5cd	0.2811722
136	0x3f912f63	1.1342586
137	0x3eaf6563	0.3425704
138	0x3ebb2c48	0.3655722
139	0x3f65f957	0.8983359
140	0x3e845a74	0.2585026
141	0xbda1bb8d	-0.078971006
142	0x3eba89c9	0.36433247
143	0x3dee5206	0.116367385
144	0x3f5f8ba5	0.87322456
145	0xbe324e26	-0.17412624
146	0x3f8f7bc8	1.120965
147	0x3f9ee59b	1.241382
148	0x3f657b79	0.8964153
149	0x3e5fe9ac	0.21866482
150	0x3f81f1e5	1.0151945
151	0xbe4a5de1	-0.19762374
152	0x3fb3c424	1.4044232
153	0x3f2d0a21	0.6759358
154	0xbf23db83	-0.64006823
155	0x3fd83673	1.6891617
156	0xbe19e701	-0.15029527
157	0x3fa65528	1.2994738
158	0x3fe94144	1.8223042
159	0x3f53a9ba	0.8268086
160	0x3d8da15b	0.06915542
161	0xbe962012	-0.29321343
162	0x400355b8	2.0521069
163	0x3dff1c0a	0.1245652
164	0x3eae4a69	0.34041145
165	0x3ec5e419	0.38650587
166	0xbdaeed55	-0.08541361
167	0x3f99ade3	1.2006191
168	0xbe777461	-0.24165489
169	0x3f819095	1.0122248
170	0x3fae19b7	1.3601598
171	0x3f060a0d	0.52359086
172	0x3fbf6eae	1.4955652
173	0xbe783904	-0.242405
174	0x3ef646cf	0.48100898
175	0x3f3b12c7	0.73075527
176	0x3e894aa2	0.26814753
177	0x3e3d80c6	0.18506154
178	0x3e4aa4fc	0.19789499
179	0xbfd5f69c	-1.6715884
180	0xbffaaf35	-1.9584719
181	0xc0009626	-2.0091643
182	0x3de8c3a2	0.11365439
183	0xbfa899cc	-1.3171935
184	0xbea5bef5	-0.3237225
185	0x3f5f1ba2	0.8715154
186	0xbf8b0b9b	-1.0862917
187	0x3ea8c397	0.32961723
188	0xbf12072a	-0.5704218
189	0x3f34d3a2	0.70635426
190	0x3eb23e8a	0.3481334
191	0x3fa1eab2	1.2649748
192	0x3eb6ac65	0.35678402
193	0x3f2f9d04	0.6859896
194	0x3f767f72	0.96288216
195	0xbd8dc200	-0.06921768
196	0xbf0f3dfe	-0.5595397
197	0x3fa46f8e	1.2846544
198	0x3fb779a3	1.4333996
199	0x3fa875fe	1.3161008
200	0xbf25ed18	-0.648149
201	0x3e9298e1	0.28632262
202	0x3fc7a01a	1.5595734
203	0x3fa76815	1.3078638
204	0x3ebb1a71	0.3654361
205	0x3d0980a8	0.03356996
206	0xbed90839	-0.42389086
207	0xbd69acbb	-0.057049494
208	0x3f7ade1c	0.9799516
209	0x3f668ba0	0.900568
210	0x3f231587	0.63704723
211	0x3fab9896	1.340594
212	0x3e35049e	0.17677543
213	0x3e9de8aa	0.3084157
214	0x3f1e72a2	0.61893666
215	0x3d985621	0.07438303
216	0x3da3cc60	0.07997966
217	0x3f853ed7	1.0409802
218	0xbf66667a	-0.90000117
219	0xbf8cd6ee	-1.1003091
220	0x3e509f19	0.20373191
221	0xbe897f52	-0.2685495
222	0x3ef6c1d0	0.48194742
223	0x3f3cf035	0.73804027
224	0x3f3eda62	0.74551976
225	0xc00ed643	-2.2318275
226	0x3fa6ef8a	1.3041852
227	0x3daa9f23	0.08331134
228	0x3f725935	0.9466737
229	0x3f552fb2	0.832759
230	0x3fcd4812	1.6037619
231	0x3ea929e0	0.3303976
232	0x3f20726a	0.6267458
233	0xbf521370	-0.8206091
234	0x3f962cc5	1.1732413
235	0x3fa7c2e3	1.310635
236	0x3f35f566	0.71077573
237	0x3e116123	0.14197211
238	0xbe96d3a9	-0.2945836
239	0x3e5d739d	0.21626134
240	0xbdb6e335	-0.08930055
241	0x3f35147b	0.70734376
242	0xbe1c88b5	-0.15286525
243	0xbe0f915d	-0.14020295
244	0x3d12c478	0.0358319
245	0xbf202f1e	-0.62571895
246	0x3d3bdb5e	0.0458635
247	0xbf1e7a4f	-0.6190538
248	0x3f2c2d6d	0.67256814
249	0x3ff1c117	1.8887051
250	0x3fcc5d76	1.5966022
251	0x3fba3179	1.4546348
252	0x3f7618f9	0.96131855
253	0x3f7e4543	0.99324435
254	0x3f89fa7b	1.0779566
255	0x3ed04547	0.40677854

alpha.weight f4 [903, 1]
0	0x4002f0de	2.0459514
1	0x3fea243e	1.829231
2	0x40256ac8	2.5846424
3	0x3f8f01eb	1.117246
4	0x3fcfb65c	1.6227527
5	0x3f895a9a	1.0730774
6	0x3fb257d4	1.3933053
7	0x3fa4b113	1.2866539
8	0x3f91d988	1.139451
9	0x3f7cda80	0.98770905
10	0xbe96abe7	-0.29428026
11	0x3f23ef76	0.64037263
12	0x3fdfe7dd	1.7492634
13	0x3f952052	1.1650488
14	0x3f62ecb3	0.88642424
15	0x3ff40d45	1.906655
16	0x3f7c71b3	0.9861099
17	0x401f5d19	2.4900572
18	0x3ff22927	1.8918809
19	0x3fa924b0	1.3214321
20	0x3f934e3b	1.1508249
21	0x3fa71f87	1.3056496
22	0x3eb99906	0.3624956
23	0xbdd58dc2	-0.10427429
24	0x3fb16af1	1.3860761
25	0x3f2682b5	0.65043193
26	0xbf0bf1cd	-0.54665834
27	0x3f91f630	1.1403255
28	0x3fa5500a	1.2915051
29	0x3f6e47e6	0.9307846
30	0x3faa5f70	1.3310375
31	0x3f26bc90	0.65131474
32	0x3f6362b0	0.8882246
33	0x3f84367c	1.0329127
34	0x3fb2ccd8	1.3968763
35	0x3eec1345	0.4610845
36	0x3f88fbaf	1.0701808
37	0x3f8ffe8d	1.1249558
38	0x3f87ac35	1.0599428
39	0x3fcd3b27	1.6033677
40	0x3fd81c4a	1.6883633
41	0x3ecf940e	0.40542644
42	0x3fa23281	1.2671663
43	0x3f85dd85	1.0458227
44	0x3ea8bed0	0.32958078
45	0x3fb1c0ba	1.388694
46	0x3fa31883	1.2741855
47	0x3f04f821	0.51941115
48	0x3f6b84fe	0.91999805
49	0x3fb71955	1.4304606
50	0x4001196d	2.0171769
51	0x3d7ac880	0.061226368
52	0x3fa50857	1.289317
53	0x3f9e3d4b	1.2362455
54	0x3ff40bee	1.9066141
55	0x4010c229	2.2618506
56	0x40154aad	2.3326828
57	0x401ab163	2.4170768
58	0x3fbc4869	1.4709598
59	0x3f0bcbe8	0.5460801
60	0x3f9a3a13	1.2048973
61	0x3fb68c97	1.4261655
62	0x3e05910f	0.13043617
63	0x3e54a616	0.20766482
64	0x3f7d23f8	0.9888301
65	0x3f84d3d2	1.0377142
66	0x3fddc61c	1.7326083
67	0x3f81da1f	1.014469
68	0x3df43445	0.11924032
69	0x3f24c10d	0.6435707
70	0xbf5a1a31	-0.85196215
71	0x3e9b0218	0.30275035
72	0x3f6881c7	0.90823025
73	0xbe58d559	-0.21175136
74	0x3d48a021	0.048980836
75	0x3eb2ab1d	0.34896174
76	0x3e8ed677	0.27898
77	0x3fe14333	1.7598633
78	0x3f4c3467	0.7976746
79	0x401016a9	2.251383
80	0xbe934636	-0.28764504
81	0x3fe4995a	1.7859299
82	0x401e765e	2.4759746
83	0x3fbfd4d3	1.4986824
84	0x3f8e804c	1.1132903
85	0x3f2b3455	0.6687673
86	0x3f6fab67	0.93620914
87	0x4000d6f1	2.013119
88	0x3fee110d	1.8598953
89	0x3fc72e3e	1.5560987
90	0x3ff071d3	1.8784736
91	0x3fc24db2	1.5179961
92	0x3f8fa62e	1.1222589
93	0x3fa04290	1.2520313
94	0x3fb0ca8a	1.381181
95	0x3f9bc879	1.2170554
96	0x3f6cc6eb	0.92491025
97	0x3fb6bca8	1.4276323
98	0x40139617	2.3060358
99	0x3fa042ff	1.2520446
100	0x3fa0a746	1.2551048
101	0x3fe3e651	1.7804662
102	0x3f977bce	1.1834657
103	0xbf70bafe	-0.9403533
104	0x3f53f97d	0.82802564
105	0x3ed04272	0.40675694
106	0x3fc47a56	1.5349834
107	0x4003dd47	2.0603807
108	0x3f971e38	1.1806097
109	0x3fa95b76	1.3231037
110	0x3fe8edf5	1.8197619
111	0x3fda541b	1.7056917
112	0x3fca4ed3	1.5805305
113	0x3f459608	0.77182055
114	0x3f3c280a	0.73498595
115	0x3f8cb60a	1.0993054
116	0x3fe33672	1.775099
117	0xbdc36fbe	-0.095427975
118	0x3f1222b3	0.57084197
119	0x3fbc288a	1.4699872
120	0x3fb21d06	1.3915107
121	0x3f0e2f58	0.5554099
122	0xbf6abdc6	-0.9169582
123	0x3e320c97	0.17387615
124	0x3da15189	0.0787688
125	0x3e4e4dc6	0.20146856
126	0x3e41828c	0.18897456
127	0x3eae7371	0.3407245
128	0x3f8700f5	1.0547167
129	0x3f81870f	1.0119342
130	0x3f233946	0.6375927
131	0x3f201fe1	0.62548643
132	0x3ee741b7	0.45167324
133	0xbfa19328	-1.2623034
134	0xbf12189c	-0.570688
135	0x3ecbca63	0.39802846
136	0x3ed4ccfb	0.41562638
137	0xbeefab1d	-0.46810237
138	0x3e481181	0.19537927
139	0xbf926d72	-1.143965
140	0x3db1f91c	0.08690092
141	0xbf115998	-0.56777334
142	0x3eebc75e	0.46050543
143	0x3f84868f	1.0353564
144	0x3f79dacf	0.975995
145	0xbe5c9e33	-0.21544723
146	0x3f572409	0.8403936
147	0x401670d8	2.3506374
148	0x3fa258a8	1.2683306
149	0x3f983f7b	1.1894373
150	0x3f6471f5	0.89236385
151	0x3fc8092d	1.56278
152	0x3fcde302	1.6084902
153	0x3f941137	1.1567754
154	0x3f3f3d19	0.747026
155	0x3fb07b07	1.3787545
156	0x3fd6d357	1.6783246
157	0x3ff10eca	1.8832638
158	0x4008661c	2.1312323
159	0x3f870f54	1.0551553
160	0x3f2a970b	0.66636723
161	0x3f99eb81	1.2024995
162	0x3f94d7ab	1.1628317
163	0x3f923a93	1.1424125
164	0x3f5e4a6d	0.86832315
165	0x3e4ae434	0.19813615
166	0x3f2cf0a1	0.6755467
167	0xbe94cf07	-0.290642
168	0x3fd7d73b	1.6862558
169	0x3ea455fe	0.32096857
170	0x40124610	2.2855263
171	0x3f9bf601	1.218445
172	0x3f9d6258	1.2295637
173	0x4004363f	2.065811
174	0x3f6f2fef	0.93432516
175	0x3facb11f	1.3491553
176	0x3fd7fa89	1.6873332
177	0x3fef3ca1	1.8690377
178	0x3fb76cc4	1.4330068
179	0x3f7d8118	0.99025106
180	0x3fe9420f	1.8223284
181	0xbb115daf	-0.0022181084
182	0x40073ca5	2.1130764
183	0x3fd2da19	1.6472808
184	0x3ffb1e8d	1.9618698
185	0x3f9a00b1	1.2031461
186	0x3f8a37a3	1.0798229
187	0x3fb1ac5e	1.3880727
188	0x3fb8f444	1.4449544
189	0x3f858874	1.0432267
190	0x3f2a6404	0.6655886
191	0x3f4e8da8	0.806849
192	0x4043702d	3.0537217
193	0x3ed31f2d	0.41234723
194	0x3ffe989f	1.9890326
195	0x3fbe1a9d	1.4851872
196	0x3fd1f34d	1.6402375
197	0x3ef9c3ed	0.48782292
198	0x3f50250f	0.81306547
199	0x3f419321	0.75615126
200	0x400a9d80	2.165863
201	0x3fa149f5	1.2600695
202	0xbef1ff48	-0.47265077
203	0xbc174762	-0.009233328
204	0xbd6e896c	-0.058236524
205	0x3f8c000f	1.0937518
206	0xbf1e17bb	-0.6175496
207	0x3f611208	0.8791814
208	0x3e92a2a5	0.28639713
209	0x3facb8c7	1.349389
210	0x3e34fbe4	0.17674214
211	0x3e0bf50c	0.13667697
212	0x3fb0c320	1.3809547
213	0x3fc9e167	1.5771912
214	0x3fd5189c	1.6648135
215	0x3d7d7786	0.061881565
216	0x3f105782	0.56383526
217	0x3ff7fb9a	1.9373658
218	0x3f8f5a2d	1.1199394
219	0x3ffbb935	1.9665896
220	0x3f83bf4a	1.0292752
221	0x3eddc59c	0.43314826
222	0x3fdf4e0a	1.7445691
223	0x3e335cd5	0.17515881
224	0xbea53f55	-0.3227488
225	0x3f9a41c6	1.2051322
226	0x3fab00ff	1.3359679
227	0x3f334afd	0.700363
228	0x3f8d1f64	1.1025205
229	0x3f3d51a5	0.73952705
230	0x3f79cf52	0.9758197
231	0x3f16190d	0.58631974
232	0x3fa4f4a8	1.2887163
233	0x40269191	2.6026347
234	0x3d4ec34d	0.050479222
235	0x3fc43d49	1.5331203
236	0x3f7a6339	0.9780765
237	0x3fa4de28	1.2880297
238	0x3e9ff827	0.31244013
239	0x3fbc441c	1.4708285
240	0x3e6886aa	0.2270762
241	0x3fa5a8e6	1.2942169
242	0x3f96b2eb	1.1773351
243	0x3fb87a6e	1.4412363
244	0x3ebcd239	0.36879137
245	0x3fda71fa	1.7066033
246	0x3fc93fe4	1.5722623
247	0x3ea2567e	0.31706613
248	0x3fa0a516	1.255038
249	0x3ffc6ecc	1.9721313
250	0x3f659ef8	0.8969569
251	0x3fa37b83	1.2772068
252	0x3f8be542	1.0929339
253	0x3faa3b06	1.3299263
254	0x3f78f011	0.9724131
255	0x3e0b1ddd	0.1358561

beta.weight f4 [903, 1]
0	0x3fc61851	1.5476171
1	0x3f76dbed	0.9642933
2	0x3f6d13a9	0.92608124
3	0x3fc8cc3b	1.5687326
4	0x3f8d5c8b	1.1043867
5	0x3f939a00	1.1531372
6	0x3f880d6b	1.0629095
7	0x3b931a43	0.0044892146
8	0x3ee5c30b	0.44875368
9	0x3cb4a28a	0.02205016
10	0xbd938fa5	-0.072051324
11	0xbd8ee5cf	-0.06977426
12	0x3f7cdbb0	0.98772717
13	0x3ea2b468	0.31778264
14	0x3f98bffc	1.1933589
15	0x3e680df9	0.2266158
16	0x3d7d155e	0.061787955
17	0x3d25d9e6	0.040491007
18	0xbebb4440	-0.36575508
19	0x3d4485ec	0.04797928
20	0xbd3a6962	-0.045510657
21	0x3e91e312	0.28493553
22	0x3ef9a990	0.48762178
23	0xbcda3404	-0.026636131
24	0x3fd19e21	1.6376382
25	0x3f0c3cec	0.5478046
26	0x3f6533d9	0.8953224
27	0x3f6bec3a	0.9215733
28	0xbfab5fe1	-1.3388635
29	0xbdadcd96	-0.08486478
30	0x3eb87098	0.36023402
31	0x3f53b1d5	0.82693225
32	0x3f870ff5	1.0551745
33	0x3e6c47a6	0.23074207
34	0xbf105b52	-0.56389344
35	0x3e2e6102	0.17029193
36	0xbf9698ad	-1.1765343
37	0xbe360c74	-0.17778188
38	0x3e30b3c0	0.17256069
39	0x3ec51467	0.38492128
40	0x3f86832b	1.0508779
41	0x3f8a0b9a	1.078479
42	0x3f7b8842	0.9825479
43	0xbe5fbf19	-0.21850242
44	0xbf008072	-0.5019599
45	0x3c681464	0.014165018
46	0xbf195355	-0.5989278
47	0xbeb75d9e	-0.35813612
48	0x3e93c5d6	0.28861874
49	0xbf9d01d2	-1.226618
50	0x3ea0e549	0.3142493
51	0xbf28f886	-0.66004217
52	0xbe8385ab	-0.25687918
53	0x3fc5059a	1.5392334
54	0x3ef69c47	0.48166105
55	0x3f9414a8	1.1568804
56	0x3fbbe2c6	1.4678581
57	0x3f866f40	1.0502701
58	0x3eb06ccf	0.34458014
59	0xbebf32d8	-0.37343478
60	0xbc523ed0	-0.0128323585
61	0x3ecb6210	0.39723253
62	0x3ed7e7d7	0.42169067
63	0xbe4b1216	-0.19831118
64	0x3dbff082	0.09372045
65	0x3e62e9ea	0.22159544
66	0x3f12855d	0.57234746
67	0x3ea35b5a	0.31905633
68	0xbf0606d0	-0.52354145
69	0xbf116124	-0.5678885
70	0x3f214623	0.62997645
71	0xbe04a02c	-0.12951726
72	0x3c282e87	0.010264999
73	0xbe90510e	-0.2818684
74	0xbec1d338	-0.3785646
75	0xbee04392	-0.43801552
76	0xbd6909fe	-0.056894295
77	0x3f6cd1b6	0.92507493
78	0x3c7308ef	0.014833673
79	0x3ec69804	0.38787854
80	0x3e54f303	0.20795827
81	0x3f058d31	0.52168566
82	0x3fba769a	1.4567444
83	0x3f85c0ef	1.0449504
84	0x3fafd6ec	1.3737464
85	0x3f9268bc	1.1438212
86	0x3f8b3ebb	1.0878519
87	0x3fc56dce	1.5424135
88	0x3ed985e4	0.42484963
89	0x3f7e6d68	0.9938569
90	0x3fe71db6	1.8055942
91	0x3f38a2a7	0.7212319
92	0x3cfb8159	0.030701326
93	0x3e8b6ef2	0.27233082
94	0x3eb85fb7	0.36010525
95	0x3e138f27	0.14410077
96	0x3f016cd2	0.5055667
97	0x3f4f77ba	0.81042063
98	0x3e647f91	0.22314288
99	0x3f31a3bd	0.6939047
100	0x3f36c3a9	0.71392304
101	0x3f38bdee	0.7216481
102	0x3e830fd1	0.25598004
103	0xbde274cd	-0.11057434
104	0x3f236de7	0.6383957
105	0x3cd746bc	0.026278846
106	0x3f02628d	0.50931627
107	0xbdd387ea	-0.10328658
108	0x3f02ebff	0.5114135
109	0x3efd598a	0.49482375
110	0x3e552cf4	0.2081793
111	0xbf050b15	-0.51970035
112	0xbf32da92	-0.6986476
113	0x3faf0bf6	1.3675525
114	0x3f5dbc6f	0.8661565
115	0x3eae1541	0.3400059
116	0x3f977db8	1.1835241
117	0xbd2cdcd6	-0.042202793
118	0xbeda353e	-0.42618746
119	0x3f44bf6c	0.76854587
120	0x3f8857b1	1.0651761
121	0xbe21585a	-0.1575636
122	0xbf223bf9	-0.6337276
123	0xbe6e7aef	-0.23289083
124	0xbfb97817	-1.4489774
125	0xbfa56d33	-1.292395
126	0xbd15cd95	-0.03657301
127	0xbe392a66	-0.1808258
128	0x3ebc7950	0.36811304
129	0x3f14a3e4	0.5806258
130	0xbf32a85b	-0.6978814
131	0x3d4baab9	0.04972336
132	0xbeb353ca	-0.35024863
133	0xbf61644e	-0.8804368
134	0xbf1680a0	-0.58790016
135	0xbf393e3b	-0.7236058
136	0xbe05d747	-0.13070403
137	0xbd5bf836	-0.05370351
138	0xbf22083f	-0.6329383
139	0x3cd537b6	0.026027542
140	0xbdcac24b	-0.0990034
141	0x3e4e68bb	0.20157139
142	0xbefd2b3f	-0.49447057
143	0x3f2d25e6	0.67635953
144	0xbef5b2c5	-0.47987953
145	0x3e507600	0.20357513
146	0xbe88c092	-0.2670942
147	0x3e83439a	0.25637513
148	0x3edc0b99	0.42977598
149	0x3f04143c	0.51593375
150	0x3f828e08	1.0199594
151	0x3f67377b	0.9031903
152	0x3f2f7d00	0.6855011
153	0x3fa5fc31	1.2967588
154	0x3e1233da	0.14277592
155	0x3f3cde69	0.7377687
156	0x3fb651a5	1.4243666
157	0x3f300268	0.6875367
158	0x3f9ab8b7	1.208762
159	0x3ec49c6c	0.3840059
160	0x3fad05d2	1.3517401
161	0xbd96cf64	-0.07363775
162	0xbe676e27	-0.22600614
163	0x3d943a10	0.07237637
164	0xbf15256b	-0.5826022
165	0xbc1bcbaa	-0.0095090065
166	0x3f26030e	0.6484841
167	0x3eba6ff7	0.36413547
168	0x3f585255	0.8450063
169	0x3e65f0c6	0.22455129
170	0xbec6f32a	-0.38857394
171	0xbd8efa82	-0.06981374
172	0xbf5ac732	-0.854602
173	0xbf55cf67	-0.83519596
174	0xbca47fd9	-0.020080494
175	0x3df3b378	0.11899465
176	0xbe925fb7	-0.2858865
177	0x3e27cf82	0.16387752
178	0xbef6ff25	-0.48241535
179	0xbe6a6f68	-0.2289406
180	0x3dba16fc	0.09086415
181	0x3f9eaf0d	1.2397171
182	0xbd57c249	-0.05267552
183	0xbf4d3868	-0.80164194
184	0x3f46615b	0.774923
185	0x3f0da2d3	0.55326575
186	0xbebc35a1	-0.36759666
187	0xbcce1216	-0.025155108
188	0x3f3376d2	0.7010318
189	0x3f8d9a6f	1.1062754
190	0x3f9fa671	1.2472669
191	0x3f87ef66	1.0619934
192	0xbeafdd75	-0.34348646
193	0x3db7714d	0.08957157
194	0x3f83cef8	1.0297537
195	0x3f2c2dc2	0.6725732
196	0x3f6bcc4d	0.92108613
197	0x3daa6803	0.0832062
198	0x3d66d93b	0.05635951
199	0xbf525d65	-0.8217376
200	0x3e9cc318	0.30617595
201	0x3fa99f6b	1.3251776
202	0x3f0d6eba	0.5524708
203	0x3f0b7e65	0.5448974
204	0x3d201aba	0.03908799
205	0xbf0b253e	-0.543537
206	0xbe5f0ae8	-0.21781504
207	0xbe055a7a	-0.13022795
208	0xbebec4df	-0.37259576
209	0xbe4de6c6	-0.20107564
210	0x3e3c2ca8	0.1837641
211	0xbe9c2319	-0.30495527
212	0x3ed359cb	0.41279444
213	0x3d102ac9	0.035197053
214	0xbd86d9f9	-0.06584544
215	0xbf492236	-0.78567827
216	0xbed20411	-0.41018727
217	0x3e6677bb	0.22506611
218	0xbe3b5327	-0.18293439
219	0x3f33eed4	0.702863
220	0xbe9c673c	-0.30547512
221	0x3fa0ed83	1.2572483
222	0xbec13f28	-0.37743497
223	0xbcc29dbe	-0.023756858
224	0x3dc7d7d9	0.097579665
225	0xbef87406	-0.4852602
226	0xbea76ba5	-0.32699314
227	0x3ec247ae	0.37945312
228	0x3ee5a23a	0.44850332
229	0xbe38d31b	-0.1804928
230	0xbd62f804	-0.055412307
231	0x3fac67b5	1.3469149
232	0x3ea953e4	0.33071816
233	0xbf0b3d9f	-0.543909
234	0x3f1af7be	0.60534275
235	0x3fb19823	1.3874553
236	0x3fcedeb0	1.6161709
237	0x3f85bd9e	1.0448492
238	0x3f0f4b0b	0.5597388
239	0x3f10d4b6	0.5657457
240	0x3e913ff3	0.28369102
241	0x3f599ab6	0.85001695
242	0x3fad39e5	1.3533293
243	0x3eb151e7	0.346328
244	0x3faa3cbd	1.3299786
245	0x3f828708	1.0197458
246	0xbf954875	-1.1662737
247	0x3e47abbb	0.19499104
248	0x3efe9179	0.49720362
249	0xbe4502ca	-0.19239345
250	0x3f4f1af9	0.8090053
251	0x3f43b3e0	0.7644634
252	0x3f8d2a8c	1.1028609
253	0x3fc50fbc	1.5395427
254	0x3f49d9ae	0.7884778
255	0x3ecc8713	0.39946803
