ckpt/assistment/irt_MFI_ip_with_tested_info.pt (torch, 289985 bytes, 12 tensors)

utn.0.weight f4 [256, 4]
0.1538168 -1.4077543 -1.6460694 -0.11741051 -1.4094436 -1.2239422 -1.4188039 -0.41795933
-0.048667967 -2.7048175 -1.4186896 -2.3838031 -0.7329061 -1.4758223 -1.1363907 -0.6187486
0.65246284 0.4227302 -2.0521123 -1.1410115 -1.0929196 -1.7958641 -1.6315215 -0.43067974
-0.39660257 -3.8310454 -1.1845524 -1.9307973 -1.7141054 -1.7569804 -1.7676002 -0.17223936
-3.31364 0.10904724 -0.104170136 0.06561238 -0.9952984 -1.5470902 -1.1733015 -0.94489896
-0.2498953 -1.6628932 -1.5403559 -0.13366747 -0.16701393 -2.799933 -0.10088092 -1.9364787
-2.2529376 -1.4350059 -0.8870461 -0.04769084 0.16324985 -2.5652373 -1.0100253 -0.23672356
0.14257808 -1.3550625 -1.3042587 -0.18735637 -0.7582698 -1.4963812 -1.5931963 -0.26747572
0.07378718 -2.9170327 -0.7479524 -2.4104931 0.53007054 -0.72399586 -1.958596 -0.7288103
-1.1689674 -1.4568872 -1.3462887 -0.4854969 0.113538146 -1.4132919 -1.0764148 -0.2453789
-2.8588843 0.97968584 0.8281715 -0.13248447 0.14415489 -1.565868 -1.2160817 -0.17351553
-0.20339495 -2.9925983 -0.4831887 -1.8653566 2.8339264 0.32822067 -0.46336392 -0.049837925
1.0045104 -1.7709079 -2.5426996 0.196969 0.74768066 0.38934824 -2.126845 -1.3523821
-3.7101576 0.11486456 -0.3014839 0.086166896 -0.8972213 -1.5826182 -1.5180236 -0.32286108
-0.34745383 1.4002179 -0.29926226 -2.0013988 -0.051459406 -2.6911957 -0.4550744 -2.3358188
-1.1668937 -1.5448989 -1.6420951 -0.23853837 -3.789342 -0.48465636 -0.32082778 -0.080073625
-0.45333427 -1.7027282 -1.1936867 -0.48883054 -1.0268362 -1.2887294 0.2349968 -1.3004445
-0.34364837 -3.2576816 -0.5664089 -2.3430333 2.2804544 -0.5379052 0.28392705 -0.8085811
-2.2150156 -1.1216589 -0.20374504 -0.6714777 -0.37402916 -1.5320833 -1.1106457 -0.49060827
-0.67683053 0.7931774 1.3031509 -1.2774513 0.33944598 -1.29219 -0.96778834 -0.3195475
-2.52229 -0.6682463 -0.9766316 -0.20526363 -0.43233892 -2.7006345 -0.6672083 -1.7843658
-1.0318967 -1.1756759 0.41151133 -1.2149963 -1.2500743 -1.7533249 -0.45841017 -2.0500062
-0.3230232 -3.1281996 -0.79216844 -0.9686966 -0.06736353 -2.5400357 0.08919636 -2.0501652
0.2963308 -2.1175077 -1.4823213 -2.3100443 -1.7994127 -1.1370779 -0.7749068 -0.80167794
-3.9175072 -0.0378988 -0.43743068 0.061842825 -1.0535738 -1.0847166 -1.3758043 -0.5128839
0.0826272 -1.4094417 -1.6692563 -0.13313341 -2.7016833 -0.72282743 -1.0938811 -0.14600843
1.1567178 -0.76751566 -0.24248435 -1.1067681 -0.86998695 -1.68711 -1.3629118 -0.4484281
-3.6709857 -0.15557404 0.50806224 -0.025070397 -0.24686548 -1.497419 -1.126434 -1.9069233
-1.8741145 -0.9330391 -1.3369383 -0.8768117 -0.9029342 -2.6516542 -1.3615179 -1.2725224
0.21312237 -2.9728997 -1.1542319 -3.0834267 -0.75271666 -3.2891066 -1.4039782 -1.3654873
-0.69114965 -2.0974317 -0.8843036 -1.5129626 0.33107957 -1.4530221 -0.4966842 -0.3969145
-0.41174 -2.5284357 -0.8862616 -1.329754 3.3953228 0.01853928 -0.13132718 0.034099683
00000000: 2782 1d3e 4b31 b4bf 67b2 d2bf ec74 f0bd
00000010: a668 b4bf 23aa 9cbf 5e9b b5bf c4fe d5be
00000020: 1058 47bd bb1b 2dc0 9f97 b5bf 3b90 18c0
00000030: bc9f 3bbf bfe7 bcbf 4075 91bf 4f66 1ebf
00000040: ce07 273f 1870 d83e cf55 03c0 aa0c 92bf
00000050: cae4 8bbf e0de e5bf b2d5 d0bf 0e82 dcbe
00000060: 7e0f cbbe d92f 75c0 6a9f 97bf 5e24 f7bf
00000070: ce67 dbbf bce4 e0bf b940 e2bf 845f 30be
00000080: ae12 54c0 2954 df3d 2757 d5bd c95f 863d
00000090: e0cb 7ebf 0d07 c6bf be2e 96bf e6e4 71bf
000000a0: 8ee4 7fbe afd9 d4bf 622a c5bf 20e0 08be
000000b0: b305 2bbe 1a32 33c0 a89a cebd 89de f7bf
000000c0: 2130 10c0 46ae b7bf 7415 63bf 7857 43bd
000000d0: f82a 273e d92c 24c0 8248 81bf a967 72be
000000e0: fdff 113e b072 adbf f3f1 a6bf 59da 3fbe
000000f0: f81d 42bf 6b89 bfbf dbed cbbf 94f2 88be
00000100: bc1d 973d aab0 3ac0 cf79 3fbf 8545 1ac0
00000110: b4b2 073f cb57 39bf 46b3 fabf 5093 3abf
00000120: b9a0 95bf 487b babf 3053 acbf 0d93 f8be
00000130: b086 e83d c0e6 b4bf f6c7 89bf 9b44 7bbe
00000140: f6f7 36c0 b1cc 7a3f 0c03 543f 02aa 07be
00000150: 579d 133e 5d6e c8bf 91a8 9bbf 0eae 31be
00000160: c446 50be bb86 3fc0 8264 f7be 01c4 eebf
00000170: 0d5f 3540 8a0c a83e 093e edbe da22 4cbd
00000180: cc93 803f 1cad e2bf 97bb 22c0 3eb2 493e
00000190: 0068 3f3f a758 c73e 3a1e 08c0 db1a adbf
000001a0: 3973 6dc0 1c3e eb3d 195c 9abe 4578 b03d
000001b0: 4cb0 65bf 3c93 cabf 994e c2bf 0c4e a5be
000001c0: 78e5 b1be 573a b33f e738 99be eb16 00c0
000001d0: 19c7 52bd 8d3c 2cc0 83ff e8be 0e7e 15c0
000001e0: c65c 95bf 3fbf c5bf 2c30 d2bf 6743 74be
000001f0: 9484 72c0 e124 f8be 8a43 a4be a4fd a3bd
00000200: 6e1b e8be fff2 d9bf baca 98bf ff47 fabe
00000210: 5e6f 83bf 16f5 a4bf 00a3 703e f774 a6bf
00000220: aef2 afbe db7d 50c0 2c00 11bf 42f4 15c0
00000230: f7f2 1140 28b4 09bf e35e 913e 2cff 4ebf
00000240: d1c2 0dc0 8592 8fbf 8aa2 50be f6e5 2bbf
00000250: c080 bfbe 4e1b c4bf a329 8ebf 0231 fbbe
00000260: c444 2dbf ad0d 4b3f a6cd a63f 8683 a3bf
00000270: ddcb ad3e 7b66 a5bf fac0 77bf bb9b a3be
00000280: 336d 21c0 3112 2bbf 8704 7abf a130 52be
00000290: 875b ddbe 32d7 2cc0 2ace 2abf 1966 e4bf
000002a0: 3115 84bf 8c7c 96bf 9db1 d23e 0085 9bbf
000002b0: 6f02 a0bf f36c e0bf bdb4 eabe 4d33 03c0
000002c0: 4c63 a5be 6c34 48c0 8dcb 4abf 80fc 77bf
000002d0: e4f5 89bd f28f 22c0 95ac b63d e835 03c0
000002e0: acb8 973e 3f85 07c0 b4bc bdbf c4d7 13c0
000002f0: 2853 e6bf c58b 91bf 4b60 46bf c43a 4dbf
00000300: 70b8 7ac0 c63b 1bbd eaf6 dfbe e74e 7d3d
00000310: 82db 86bf fed7 8abf 5b1a b0bf 5c4c 03bf
00000320: 7338 a93d 9668 b4bf 31aa d5bf 2054 08be
00000330: 61e8 2cc0 380b 39bf 4c04 8cbf 3c83 15be
00000340: 540f 943f e87b 44bf d14d 78be 94aa 8dbf
00000350: 77b7 5ebf 38f3 d7bf e573 aebf 5e98 e5be
00000360: 6ef1 6ac0 cd4e 1fbe 5e10 023f 6f60 cdbc
00000370: 4eca 7cbe 6dab bfbf fd2e 90bf 1016 f4bf
00000380: fce2 efbf a7db 6ebf cb20 abbf bb76 60bf
00000390: b226 67bf b4b4 29c0 3846 aebf 04e2 a2bf
000003a0: c03c 5a3e fd43 3ec0 dfbd 93bf dd56 45c0
000003b0: 0ab2 40bf b980 52c0 8fb5 b3bf 4ac8 aebf
000003c0: 2fef 30bf 523c 06c0 b961 62bf c2a8 c1bf
000003d0: 4383 a93e a1fc b9bf 644d febe 6138 cbbe
000003e0: 96cf d2be e4d1 21c0 0ae2 62bf 6135 aabf
000003f0: f84c 5940 b0df 973c a27a 06be 1cac 0b3d

utn.0.bias f4 [256]
0.33238524 -3.9847085 -4.3208375 -2.1621099 -0.658813 -4.1601996 -0.8439357 -3.5242813
1.9157654 -3.8871443 1.3996105 -4.710962 -3.572334 -2.8027277 1.20514 -3.6777668
-3.9015908 -0.7051153 -4.0781307 1.0443213 2.185725 -1.113258 -4.415654 1.8375669
-0.77395713 -0.78163564 1.4633585 -3.986666 -1.429017 -4.6622834 -4.1521926 -0.4729043
-2.7988005 -2.0934553 -4.5366325 -2.5697784 -2.5780885 -2.2025268 -2.1427386 0.858899
-2.4712825 -4.3150167 -2.2136838 -4.3765445 -0.7578998 -4.8673906 -1.5433091 -3.220428
1.3636866 -3.184592 0.9669372 -3.1969068 -2.114892 -3.6125557 1.7843337 -4.1212754
-1.4449495 -4.297246 -1.8536546 -4.154373 -4.0443416 0.9638669 -4.0445824 1.1119456
1.1637127 -3.749185 -4.5294952 1.6484697 1.7072812 -2.540646 -3.1943173 -4.8588953
-3.5002265 -0.7939563 1.2155993 -3.7638054 -4.028844 -1.974243 -5.079265 -3.78992
-3.8698597 -3.2712364 2.8565276 -3.3216305 -5.45587 -3.6987152 -3.7307348 -3.6850817
-3.6802404 -3.1862757 -2.990541 -2.0589573 -3.279412 -1.839936 -3.447188 -4.013727
-4.8242745 -2.990452 -3.2807002 -4.2998037 -4.2261634 -3.4127285 -3.995816 0.30012932
-4.0875416 -5.052639 1.479626 -4.8281393 1.200833 1.8457811 -3.3070226 -3.45443
-4.086925 -4.5997653 -3.782282 1.1581135 -1.5481974 -3.6987174 -0.60779506 -3.0752187
-3.4827635 -3.6194062 -3.5440052 -1.9588946 -3.3558648 -3.5088623 -3.3256314 -3.6933765
-3.800439 -2.9993715 0.6834022 -2.9455721 -4.12281 -2.4789662 -3.8147967 1.1105859
-4.207466 -0.5937976 -1.1464485 -3.4338505 -3.2597263 -3.0452733 -4.23953 -3.789708
-3.2814703 -3.02306 -4.0633407 2.160129 -3.6964283 -3.8044817 -4.3099566 1.1464369
0.10893246 -4.419907 -4.2924604 -2.556723 -2.8977315 -3.2403436 -1.7699288 -3.185524
-3.296872 -3.1215105 0.5659777 1.7053354 -2.977742 -1.7821336 -3.7642348 -2.9467995
-3.0694618 -2.6817217 -1.5709591 -1.2609332 -0.64693123 -1.6931685 -2.7003038 -4.0721135
-3.234209 1.0857235 0.13697688 -4.1429257 0.53429925 -3.1366923 -4.8828588 -5.1568656
-3.4147427 -0.60644597 -2.291588 -3.5662687 -4.2373037 -3.6427016 -4.393543 -5.811467
1.9513286 -0.14942074 0.6357751 -2.0149703 2.2136736 -4.6561546 1.0807749 -1.660858
-0.17492494 -3.3260245 -4.0712686 -3.9543653 -4.3264446 0.2759312 -3.6578176 -1.5771568
-4.2342772 -4.6375203 -3.1220999 -3.736955 -4.353032 -0.33931285 -0.17046964 -3.081272
0.5532689 -4.0823517 -1.0495579 -2.8114893 -3.1753073 -1.7748998 -4.597744 -4.4175262
-3.211201 -4.9339643 0.48252052 -3.5292575 -3.7475138 -3.2376685 -2.857559 1.2854766
2.158781 -2.799042 0.9723999 -4.3555613 -2.4935243 0.18336277 -3.4355292 -3.736935
-0.43796796 -1.1863756 -4.2644253 -2.9993248 -4.308805 -2.0524364 -1.5274462 -3.879186
-3.9890072 -3.5880463 1.0517532 -3.1920013 -3.5361195 -3.7840102 -2.7275803 -4.891235
00000000: 662e aa3e 7705 7fc0 4d44 8ac0 0260 0ac0
00000010: f8a7 28bf 5b20 85c0 2c0c 58bf d38d 61c0
00000020: cd37 f53f f9c6 78c0 7026 b33f 33c0 96c0
00000030: 1fa1 64c0 e45f 33c0 0742 9a3f 8860 6bc0
00000040: aab3 79c0 7082 34bf 0c80 82c0 52ac 853f
00000050: ebe2 0b40 3d7f 8ebf 0a4d 8dc0 6435 eb3f
00000060: 0e22 46bf 4619 48bf 554f bb3f 8925 7fc0
00000070: 07ea b6bf 6d31 95c0 c3de 84c0 8320 f2be
00000080: 8c1f 33c0 2cfb 05c0 182c 91c0 4077 24c0
00000090: 67ff 24c0 33f6 0cc0 a122 09c0 cee0 5b3f
000000a0: 7e29 1ec0 9e14 8ac0 ffac 0dc0 a70c 8cc0
000000b0: b905 42bf aac1 9bc0 278b c5bf 7e1b 4ec0
000000c0: 488d ae3f 5bd0 4bc0 3289 773f 1f9a 4cc0
000000d0: 645a 07c0 1d34 67c0 0c65 e43f 7de1 83c0
000000e0: 1bf4 b8bf 0a83 89c0 8e44 edbf a0f0 84c0
000000f0: 3f6b 81c0 fbbf 763f 386d 81c0 3c54 8e3f
00000100: 8af4 943f a6f2 6fc0 a0f1 90c0 0e01 d33f
00000110: 3188 da3f f299 22c0 b26f 4cc0 127c 9bc0
00000120: b603 60c0 b840 4bbf c298 9b3f 30e2 70c0
00000130: 4aec 80c0 ffb3 fcbf 5789 a2c0 0d8e 72c0
00000140: c8ab 77c0 f05b 51c0 59d1 3640 9895 54c0
00000150: 7d96 aec0 c0b7 6cc0 5cc4 6ec0 61d8 6bc0
00000160: 0f89 6bc0 f1eb 4bc0 0665 3fc0 f5c5 03c0
00000170: e3e1 51c0 0683 ebbf ba9e 5cc0 7470 80c0
00000180: 7560 9ac0 9163 3fc0 fef6 51c0 fe97 89c0
00000190: bb3c 87c0 256a 5ac0 73bb 7fc0 8daa 993e
000001a0: 24cd 82c0 38af a1c0 6364 bd3f 1e80 9ac0
000001b0: e5b4 993f 8e42 ec3f 42a6 53c0 6215 5dc0
000001c0: 17c8 82c0 4731 93c0 e910 72c0 103d 943f
000001d0: 552b c6bf c9b7 6cc0 7598 1bbf 62d0 44c0
000001e0: 99e5 5ec0 5aa4 67c0 fbd0 62c0 0fbd fabf
000001f0: 7dc6 56c0 3391 60c0 25d7 54c0 4860 6cc0
00000200: 643a 73c0 b4f5 3fc0 72f3 2e3f 4184 3cc0
00000210: 0fee 83c0 62a7 1ec0 a125 74c0 ae27 8e3f
00000220: 90a3 86c0 1f03 18bf d3be 92bf 35c4 5bc0
00000230: 5b9f 50c0 c2e5 42c0 3baa 87c0 938a 72c0
00000240: 9c03 52c0 d179 41c0 e306 82c0 8e3f 0a40
00000250: 4892 6cc0 a17c 73c0 2aeb 89c0 72be 923f
00000260: fb17 df3d e16f 8dc0 d65b 89c0 5aa1 23c0
00000270: 6f74 39c0 ca61 4fc0 078d e2bf a0df 4bc0
00000280: f3ff 52c0 d4c6 47c0 eae3 103f 6e48 da3f
00000290: 5393 3ec0 f41c e4bf 39e9 70c0 5d98 3cc0
000002a0: 1072 44c0 54a1 2bc0 3015 c9bf 4266 a1bf
000002b0: 499d 25bf bfb9 d8bf c7d1 2cc0 c14e 82c0
000002c0: 48fd 4ec0 fdf8 8a3f ab43 0c3e d992 84c0
000002d0: d6c7 083f 91bf 48c0 6140 9cc0 0b05 a5c0
000002e0: 258b 5ac0 0b40 1bbf 61a9 12c0 bf3d 64c0
000002f0: fe97 87c0 0622 69c0 e797 8cc0 8af7 b9c0
00000300: 23c5 f93f c001 19be 28c2 223f 46f5 00c0
00000310: d4ac 0d40 38ff 94c0 d556 8a3f ff96 d4bf
00000320: 861f 33be 96dd 54c0 d547 82c0 5214 7dc0
00000330: 3c72 8ac0 db46 8d3e af19 6ac0 46e0 c9bf
00000340: 337f 87c0 9166 94c0 7cd0 47c0 452a 6fc0
00000350: 0a4c 8bc0 6aba adbe 988f 2ebe 8f33 45c0
00000360: 08a3 0d3f a0a2 82c0 ea57 86bf 71ef 33c0
00000370: 3c38 4bc0 eb2f e3bf b820 93c0 605c 8dc0
00000380: 5184 4dc0 09e3 9dc0 ee0c f73e 5bdf 61c0
00000390: 44d7 6fc0 f635 4fc0 3fe2 36c0 7f8a a43f
000003a0: 7829 0a40 8123 33c0 33ef 783f c260 8bc0
000003b0: e795 1fc0 73c3 3b3e b6df 5bc0 f129 6fc0
000003c0: 563d e0be 28db 97bf 2c76 88c0 f0f4 3fc0
000003d0: bbe1 89c0 1e5b 03c0 5b83 c3bf 9544 78c0
000003e0: e54b 7fc0 8da2 65c0 d99f 863f c049 4cc0
000003f0: c84f 62c0 392d 72c0 ad90 2ec0 ff84 9cc0

utn.2.weight f4 [128, 256]
-0.65692604 -2.426338 -0.48289567 -2.820983 -1.1025254 -2.0766475 -0.6780382 -2.6650486
-1.2943128 -1.9185728 -0.8919269 -0.49928975 -3.1017213 -0.9127741 -0.7292768 -2.4020064
-0.26958892 -1.1345346 -2.1244566 -0.89805865 -1.5038416 -0.7666699 -0.5749011 0.13209037
0.24192832 -1.2446747 -1.4093355 -2.337062 -2.2074158 -0.40801033 -2.1612191 -3.4392457
-2.206388 -2.7229095 -0.44525352 0.07901722 -3.2574787 -1.9517052 -1.8803163 -0.7859686
-3.8805 -0.7257645 -2.821571 -1.0332861 -1.348454 -0.5034413 -0.58376807 -2.6089227
-1.635632 -2.7903821 -0.6929198 -3.5446029 -0.7398226 -2.3707814 -1.8158736 -1.0753449
-3.135983 -1.1547015 -0.33624986 -0.9358339 -1.2249877 -0.95648426 -1.0960532 0.3181867
-1.9771562 -2.5244267 -0.21193561 -0.13046937 -1.6475933 0.94877815 -2.7231612 -0.46013263
-2.6492715 -0.48980245 0.012753556 -2.1775627 -1.6087868 -0.7562712 -0.24325548 -1.3055375
-2.3135295 -0.9620451 -0.65997285 1.1181761 -0.16766392 -2.298461 -2.3851962 -2.6501346
-2.4137409 -2.6334226 -3.5763724 -0.7565619 -2.8598144 -3.8385324 -0.9969838 -0.2581978
-0.36001506 -2.9686584 -2.9175475 -0.20998931 -0.26866272 -3.022182 -1.0906739 0.35609877
-1.2852968 -0.27658233 -0.024532506 -0.40235892 0.012444345 -0.88890547 -2.860532 -2.0500083
-0.8735701 -0.1517756 -1.6167206 -1.5084437 -0.724699 -2.1649144 -1.1523902 -2.7460594
-2.7928865 -2.817223 -2.3679216 0.05549733 -2.1313818 -2.8326688 -0.60310584 -2.6034815
-2.1719015 -2.1757941 -0.7833275 -3.490225 -1.0074592 -1.8400658 -1.3782037 -2.1191225
-0.98909754 -0.5235814 0.14962277 -1.5226605 -2.730684 -1.924695 -0.34971526 -2.193964
-3.124013 -3.1832213 -1.1167164 -0.046057373 -2.2396977 -2.6005611 -0.69750595 -1.8837103
-0.86667687 -1.183199 -0.5504185 -0.426703 -2.7350578 -2.5200846 -0.9104773 -2.4148169
-2.656293 -2.9910908 -2.350773 0.10639773 -0.82777 -1.2228651 -2.4730654 -1.8165817
-2.6057527 -2.1872115 0.29510552 0.026979333 -1.063017 -0.6734158 -0.4419383 -1.6556442
-2.666219 -2.1975496 -3.2160003 -1.6334692 0.48773807 -0.68030256 -0.3033966 -0.36110187
-3.1934884 -3.1535056 -1.6570438 -2.5727952 -0.7524445 -2.608641 -0.37416872 -0.20361751
-1.6234246 -1.0000435 0.49264526 -3.0686278 -1.482951 -0.3359636 0.103892885 -3.4844172
-0.73217773 -0.5086674 -1.7641697 -1.8400419 -0.75500935 0.21927486 -0.9616576 -0.9795178
-1.2136203 -0.3007669 -2.5844858 -2.5250995 -0.87177545 -1.3946167 -1.4798658 -0.69260854
0.4067302 -0.53917456 -3.483241 -0.52665067 -2.1504314 0.011209007 -0.35717136 -0.5877277
-1.9674088 -0.26165912 -0.56374687 -1.904344 -1.8232349 -2.424596 -0.422478 -0.5628154
-0.113870285 -3.6519558 -0.92000616 -0.6638376 -3.6081023 -0.670481 -1.4957504 -2.2384562
-1.5120794 -2.5235898 -0.748158 -0.23007147 -1.23356 -2.2127962 -0.8166854 -1.580749
-2.0021288 -2.7795625 -0.7940402 -3.0599058 -1.5724554 -2.1237211 -0.24127114 -0.2756349
00000000: 4e2c 28bf 1f49 1bc0 1a3e f7be fc8a 34c0
00000010: 8d1f 8dbf cbe7 04c0 e993 2dbf 2890 2ac0
00000020: 0bac a5bf cb93 f5bf 5255 64bf e8a2 ffbe
00000030: 9a82 46c0 90ab 69bf e2b1 3abf 79ba 19c0
00000040: 8f07 8abe 6e38 91bf 19f7 07c0 2ce7 65bf
00000050: e27d c0bf 7b44 44bf b82c 13bf b342 073e
00000060: 0fbc 773e 8051 9fbf 1b65 b4bf 6c92 15c0
00000070: 4d46 0dc0 bbe6 d0be 6a51 0ac0 9a1c 5cc0
00000080: 7635 0dc0 2644 2ec0 45f8 e3be c8d3 a13d
00000090: 887a 50c0 7ad1 f9bf 34ae f0bf 3d35 49bf
000000a0: 1d5a 78c0 b4cb 39bf 9f94 34c0 b842 84bf
000000b0: 249a acbf 87e1 00bf d371 15bf 97f8 26c0
000000c0: 645c d1bf 9f95 32c0 3163 31bf c6da 62c0
000000d0: 0465 3dbf e2ba 17c0 8c6e e8bf e7a4 89bf
000000e0: f2b3 48c0 42cd 93bf f128 acbe cf92 6fbf
000000f0: 66cc 9cbf 27dc 74bf 794b 8cbf 5ee9 a23e
00000100: 7413 fdbf 3590 21c0 a605 59be c399 05be
00000110: 56e4 d2bf 20e3 723f 4648 2ec0 8196 ebbe
00000120: aa8d 29c0 63c7 fabe 4af4 503c 305d 0bc0
00000130: baec cdbf fd9a 41bf f717 79be da1b a7bf
00000140: de10 14c0 9648 76bf fbf3 28bf 6520 8f3f
00000150: 17b0 2bbe fc19 13c0 0ea7 18c0 ce9b 29c0
00000160: bb7a 1ac0 ff89 28c0 49e3 64c0 0aae 41bf
00000170: 3307 37c0 84aa 75c0 553a 7fbf 8132 84be
00000180: e553 b8be 80fe 3dc0 19b9 3ac0 7007 57be
00000190: 298e 89be 6e6b 41c0 349b 8bbf 9452 b63e
000001a0: 9b84 a4bf 339c 8dbe 65f8 c8bc fd01 cebe
000001b0: 5ee3 4b3c 4f8f 63bf f512 37c0 5633 03c0
000001c0: 4aa2 5fbf 106b 1bbe b3f0 cebf af14 c1bf
000001d0: e085 39bf f58d 0ac0 8681 93bf 70bf 2fc0
000001e0: a7be 32c0 624d 34c0 078c 17c0 2b51 633d
000001f0: 8f68 08c0 724a 35c0 2565 1abf 719f 26c0
00000200: 6f00 0bc0 3640 0bc0 2788 48bf d95f 5fc0
00000210: 6cf4 80bf 4787 ebbf fb68 b0bf b49f 07c0
00000220: 7f35 7dbf 6e09 06bf b636 193e 8ae6 c2bf
00000230: 87c3 2ec0 685c f6bf e10d b3be e869 0cc0
00000240: d4ef 47c0 e6b9 4bc0 90f0 8ebf a8a6 3cbd
00000250: 3557 0fc0 986f 26c0 c08f 32bf 6b1d f1bf
00000260: 89de 5dbf 1173 97bf 3ae8 0cbf d178 dabe
00000270: 300b 2fc0 1149 21c0 0a15 69bf 5c8c 1ac0
00000280: b400 2ac0 086e 3fc0 1173 16c0 0ee7 d93d
00000290: bce8 53bf d886 9cbf b446 1ec0 c085 e8bf
000002a0: a7c4 26c0 46fb 0bc0 1218 973e c303 dd3c
000002b0: f110 88bf fa64 2cbf bd45 e2be 26ec d3bf
000002c0: 55a3 2ac0 a7a4 0cc0 f3d2 4dc0 8515 d1bf
000002d0: ceb8 f93e 4f28 2ebf cd56 9bbe 58e2 b8be
000002e0: 1d62 4cc0 09d3 49c0 031a d4bf ada8 24c0
000002f0: 34a0 40bf f9f3 26c0 0b93 bfbe 1c81 50be
00000300: 61cc cfbf 6d01 80bf 003c fc3e 6664 44c0
00000310: 57d1 bdbf 6c03 acbe cbc5 d43d b100 5fc0
00000320: 0070 3bbf 0738 02bf 50d0 e1bf 7e86 ebbf
00000330: 4b48 41bf 9789 603e 312f 76bf aec1 7abf
00000340: e957 9bbf 1efe 99be 3768 25c0 3b9b 21c0
00000350: ad2c 5fbf cd82 b2bf 3e6c bdbf cb4e 31bf
00000360: f13e d03e 5807 0abf 6ced 5ec0 94d2 06bf
00000370: aba0 09c0 fca5 373c 2adf b6be 5375 16bf
00000380: 0dd4 fbbf 2ff8 85be b751 10bf 8bc1 f3bf
00000390: c35f e9bf 952c 1bc0 094f d8be ac14 10bf
000003a0: d334 e9bd a5b9 69c0 8685 6bbf 43f1 29bf
000003b0: 26eb 66c0 a5a4 2bbf c074 bfbf de42 0fc0
000003c0: d18b c1bf 7f82 21c0 4887 3fbf db97 6bbe
000003d0: 4be5 9dbf 749e 0dc0 4b12 51bf fc55 cabf
000003e0: e122 00c0 5ae4 31c0 3846 4bbf 7fd5 43c0
000003f0: 3846 c9bf 0ceb 07c0 c80f 77be 0520 8dbe

utn.2.bias f4 [128]
-0.4268699 -0.5932647 -0.52074945 -0.45406765 -0.38609582 -0.329882 -0.5980571 -0.19132775
-0.63906115 -0.48781046 -0.3421968 0.015447917 -0.38301277 -0.43292677 -0.7278007 -0.8289772
-0.23713812 -0.3276948 -0.2690354 -0.12781005 -0.32550094 -0.8622074 -0.28978345 -1.0494442
-0.41989657 0.06864285 -0.0899195 -0.19188575 -0.6224612 -0.6931814 -0.3169327 -0.6119552
-0.7514594 -0.2475775 -0.066415206 -0.75631046 -0.21878718 -0.8140386 -0.5999258 -0.11646591
-0.37330952 -0.8353271 -0.2678924 -0.5157464 -0.35759476 -0.48724148 -0.4504342 -0.36142823
-0.32625762 -0.6868387 -0.2480503 -0.21134225 0.15577655 0.05191332 -0.4098071 -0.53671825
-0.3052886 0.10424988 -0.39937896 -0.42513368 -0.7335083 0.032312743 -0.35906243 -0.2492016
-0.72278637 -0.7294998 -0.64047956 -0.05002677 -0.59365326 -0.69210076 -0.22518948 -0.28112003
-0.7309752 -0.23499504 -0.6958156 -0.7351262 -0.2613444 -0.65654445 -0.10570769 -0.6216339
-0.3601311 -0.45317212 -0.37956995 -0.2644631 -0.15358834 -0.497132 -0.8491246 -0.91176784
-0.66767937 -0.34222734 -0.4252592 -0.1882415 -0.4744038 -0.35783392 -0.3880145 -0.5567967
-0.4368597 -0.13401315 -0.13548091 -0.8014479 -0.6245249 -0.23337328 -1.16712 -0.055337846
-0.2130175 -0.66280276 -0.5813871 -0.6288375 -0.105683625 -0.5243211 -0.2262978 -0.48611283
-0.12636887 0.055457715 -0.31811023 -0.117080554 -0.5284759 -0.9729021 -0.11073597 -0.14259668
-0.4640393 -0.3169782 0.075399496 -0.47128013 -0.45069596 -0.2848411 -0.14865161 -0.4711677
00000000: b18e dabe 32e0 17bf d64f 05bf 8e7b e8be
00000010: 5aae c5be 4be6 a8be 451a 19bf 6ceb 43be
00000020: 8399 23bf 4bc2 f9be 6b34 afbe 4319 7d3c
00000030: 401a c4be 94a8 ddbe 2651 3abf da37 54bf
00000040: 56d4 72be 9dc7 a7be 02bf 89be a3e0 02be
00000050: 0fa8 a6be a0b9 5cbf 7f5e 94be 3054 86bf
00000060: affc d6be 9f94 8c3d b727 b8bd b37d 44be
00000070: 9e59 1fbf 5674 31bf 0145 a2be 19a9 1cbf
00000080: a55f 40bf f584 7dbe b204 88bd 909d 41bf
00000090: bf09 60be d564 50bf bd94 19bf ae85 eebd
000000a0: 6d22 bfbe ffd7 55bf 3129 89be f507 04bf
000000b0: a916 b7be b777 f9be 509f e6be 1f0d b9be
000000c0: 3d0b a7be a9d4 2fbf e600 7ebe 1a6a 58be
000000d0: e383 1f3e 10a3 543d 3cd2 d1be 5e66 09bf
000000e0: ca4e 9cbe f680 d53d 667b ccbe 1fab d9be
000000f0: 33c7 3bbf 5e5a 043d 08d7 b7be b42e 7fbe
00000100: 8708 39bf 80c0 3abf 78f6 23bf dfe8 4cbd
00000110: a9f9 17bf 842d 31bf 1298 66be f7ee 8fbe
00000120: 3121 3bbf 8aa2 70be f920 32bf 3b31 3cbf
00000130: efce 85be 4c13 28bf 467d d8bd 6623 1fbf
00000140: 1b63 b8be 2d06 e8be fe56 c2be b567 87be
00000150: 4346 1dbe 1688 febe 3b60 59bf 9e69 69bf
00000160: 09ed 2abf 6c38 afbe 93bb d9be 61c2 40be
00000170: 0ee5 f2be 0236 b7be d6a9 c6be 3b8a 0ebf
00000180: 13ac dfbe be3a 09be 82bb 0abe b12b 4dbf
00000190: dde0 1fbf 68f9 6ebe 3064 95bf f0a9 62bd
000001a0: 4221 5abe 71ad 29bf c9d5 14bf 7ffb 20bf
000001b0: a870 d8bd e839 06bf 9cba 67be c8e3 f8be
000001c0: d766 01be a127 633d 58df a2be eec7 efbd
000001d0: 324a 07bf 1d10 79bf 8ac9 e2bd dd04 12be
000001e0: 8f96 edbe f74a a2be 0d6b 9a3d a14b f1be
000001f0: 9fc1 e6be b1d6 91be 2138 18be e53c f1be

utn.4.weight f4 [15, 128]
-0.8873859 -0.19820252 -0.2084171 -0.16791539 -1.4558008 -0.88158035 -0.1242423 -3.05624
-0.26717502 -0.12838243 -0.36881375 -0.8309391 -0.57171035 -2.734747 -0.03296318 -0.196108
0.32357213 -2.0724804 -0.80099237 -2.094762 -1.0994852 -0.22462809 -1.0979888 0.29923853
-1.189478 -3.6855028 -4.7895865 -3.5918941 -0.4224406 -0.3871399 -1.8140792 -0.07219876
-0.36893514 -1.9493654 -0.83555096 -0.240347 -0.51508766 -0.14349556 -0.13044238 -1.9289176
-0.085353814 -0.0052643255 -2.6549304 -0.17976439 -2.9427185 -1.4523667 -3.0515563 -0.5620551
-0.3073631 -0.10257951 -4.266287 -0.9148531 -0.8194606 -4.964588 -1.1796741 -0.27689222
0.06432499 0.06560161 -3.4563057 -0.0045011034 -0.15357225 0.53020823 -0.61651754 -0.46969602
-0.1226447 -0.025154235 -0.02461811 0.31772792 -0.039950363 -0.32488397 -0.58837837 -1.0779158
-0.09258523 -4.1167474 0.029445564 -0.41105857 -3.6042771 -0.08398312 -0.78244376 -0.09869419
-1.158353 0.8873697 -0.43311474 -2.2766995 -0.006681063 0.2920262 -0.21520825 -0.031634178
0.04651538 -0.4809524 -2.7018492 -4.8824787 -0.22261706 -4.901923 -0.90057844 -0.40651226
-1.1375891 0.04745194 -4.603784 -0.47465134 -0.42695078 -0.187239 -0.035853863 -0.62569726
-4.169845 -0.11527515 -0.15500703 -0.08129339 -3.181012 -0.5243447 -2.7519977 -0.68595546
-2.3584192 -0.7504145 0.21628289 -5.030734 -1.3919841 -0.17867854 0.050707977 -4.2101827
-0.9615525 -1.0159574 -1.4965981 -0.16973656 -0.14539915 0.44826937 -1.7189465 -0.7644438
-2.8479743 -0.09780561 -0.20617151 -0.3814485 -0.68558675 -0.14193577 -0.20615476 -2.596106
-0.292016 -1.8112193 -0.18593092 -0.8192091 -1.8926295 -2.1544018 -0.15087049 -0.20729952
-0.24612647 -1.843516 -0.23899515 -4.7570186 -0.065801196 -0.4039616 -0.035889756 -0.9111445
-1.0366919 -4.5518837 -4.087356 -2.5761971 -2.0184085 -0.37709755 -3.3346956 0.035597388
-0.055726342 -0.95393777 -1.6080348 -0.23929939 -3.0220656 -0.045686316 -0.4526558 -4.9555945
-0.50855184 -0.8230941 -0.065639794 -0.030750621 -1.8272262 -0.5197492 -2.0625105 -1.5081817
-0.6269368 -0.15393166 -2.909043 -5.375441 0.75676185 -5.45161 -3.396588 -0.28809142
-0.7037411 1.0944896 -3.183917 -0.06344469 -0.09041147 -0.9104473 -0.82378393 -0.3218313
-0.07399201 -0.12635624 0.0015472316 -0.2616775 0.006297463 -0.16152592 -4.626009 -4.716075
-0.05594577 -2.352717 -2.90387 -0.015768165 -2.5563571 -2.6595979 -1.4569883 -0.02488239
-3.5977304 -4.43707 -0.06304511 -5.304387 -0.64116794 -0.49949768 -0.4142105 -0.12495486
-2.1006835 -2.7201293 -1.2066231 -3.935087 -0.3643172 -3.2965393 -0.9503646 -0.19923499
-0.9109903 0.0028084633 -3.6803312 -0.4865203 -0.113861 -0.31046414 -0.069897294 -0.63228124
-0.06265311 -0.1978426 -0.0108166635 -0.0921166 -4.0581803 -1.0192633 -5.4394903 -2.9685225
-0.020576356 -0.26178345 -0.5252296 -4.174493 -1.3855796 -0.9096216 -0.41746274 -5.070082
-0.34708193 -5.004587 -2.9092531 -0.37020952 -0.6243193 -0.2684296 -0.52551186 -0.39017025
00000000: b92b 63bf 9af5 4abe 4b6b 55be 03f2 2bbe
00000010: ae57 babf 40af 61bf bf72 febd 7099 43c0
00000020: 2acb 88be af76 03be 28d5 bcbe 6db8 54bf
00000030: 9c5b 12bf 1806 2fc0 6604 07bd 89d0 48be
00000040: 3fab a53e 85a3 04c0 d60d 4dbf 9510 06c0
00000050: eebb 8cbf e804 66be e68a 8cbf cb35 993e
00000060: d140 98bf 47df 6bc0 4b44 99c0 98e1 65c0
00000070: 224a d8be 3337 c6be bf33 e8bf f2dc 93bd
00000080: 11e5 bcbe ce84 f9bf abe6 55bf 861d 76be
00000090: c9dc 03bf 80f0 12be b092 05be c6e6 f6bf
000000a0: fbcd aebd 5d80 acbb 61ea 29c0 2814 38be
000000b0: 8055 3cc0 27e7 b9bf b34c 43c0 d8e2 0fbf
000000c0: b25e 9dbe 3515 d2bd 6c85 88c0 d033 6abf
000000d0: 2bc8 51bf e8dd 9ec0 90ff 96bf d1c4 8dbe
000000e0: d2bc 833d 235a 863d 1d34 5dc0 fe7d 93bb
000000f0: 0b42 1dbe babb 073f 18d4 1dbf ff7b f0be
00000100: 252d fbbd 4110 cebc ebab c9bc 3cad a23e
00000110: fea2 23bd 3157 a6be f79f 16bf 25f9 89bf
00000120: 539d bdbd 65bc 83c0 d337 f13c 4576 d2be
00000130: 7aac 66c0 58ff abbd 3c4e 48bf 2e20 cabd
00000140: e944 94bf a92a 633f 37c1 ddbe 72b5 11c0
00000150: d2ec dabb 7584 953e 8d5f 5cbe d792 01bd
00000160: e986 3e3d 653f f6be 19eb 2cc0 443d 9cc0
00000170: baf5 63be 8edc 9cc0 4f8c 66bf 6022 d0be
00000180: 859c 91bf f75c 423d 3352 93c0 8005 f3be
00000190: 4b99 dabe 95bb 3fbe 80db 12bd b22d 20bf
000001a0: 5f6f 85c0 6115 ecbd 2aba 1ebe 267d a6bd
000001b0: b395 4bc0 743b 06bf bb20 30c0 c79a 2fbf
000001c0: 57f0 16c0 2a1b 40bf 4379 5d3e c6fb a0c0
000001d0: 892c b2bf 82f7 36be 2bb3 4f3d d1b9 86c0
000001e0: 4e28 76bf e40a 82bf 8790 bfbf 6ccf 2dbe
000001f0: 84e3 14be 9083 e53e 7006 dcbf 97b2 43bf
00000200: 3645 36c0 4f4e c8bd a01e 53be 384d c3be
00000210: 9d82 2fbf 9c57 11be 3c1a 53be 9a26 26c0
00000220: 1f83 95be 09d6 e7bf ad64 3ebe b0b7 51bf
00000230: af41 f2bf b8e1 09c0 cb7d 1abe 5346 54be
00000240: 9408 7cbe 55f8 ebbf 25bb 74be 7f39 98c0
00000250: c7c2 86bd 0ed4 cebe 2301 13bd c440 69bf
00000260: 52b2 84bf 08a9 91c0 9fcb 82c0 6ae0 24c0
00000270: 9b2d 01c0 ee12 c1be a76b 55c0 91ce 113d
00000280: 4e41 64bd 4435 74bf 16d4 cdbf e60a 75be
00000290: 8669 41c0 9321 3bbd 80c2 e7be 3b94 9ec0
000002a0: 7430 02bf 4cb6 52bf 286e 86bd bae8 fbbc
000002b0: 8ce2 e9bf 490e 05bf 2c00 04c0 190c c1bf
000002c0: ee7e 20bf 43a0 1dbe c32d 3ac0 9d03 acc0
000002d0: 25bb 413f 9773 aec0 b361 59c0 b880 93be
000002e0: 6028 34bf 3c18 8c3f 4cc5 4bc0 4aef 81bd
000002f0: a629 b9bd 1313 69bf 81e3 52bf 12c7 a4be
00000300: 1f89 97bd 8863 01be 7acc ca3a 98fa 85be
00000310: f35a ce3b 0d67 25be 4408 94c0 16ea 96c0
00000320: 6427 65bd ea92 16c0 02d9 39c0 3d2c 81bc
00000330: 5b9b 23c0 da36 2ac0 987e babf 27d6 cbbc
00000340: 3741 66c0 7afc 8dc0 cb1d 81bd 8abd a9c0
00000350: 9523 24bf 29be ffbe 6613 d4be 55e8 ffbd
00000360: 9971 06c0 9916 2ec0 a072 9abf 77d8 7bc0
00000370: c987 babe 80fa 52c0 184b 73bf 4204 4cbe
00000380: a936 69bf 320e 383b 8c8a 6bc0 3019 f9be
00000390: f52f e9bd 28f5 9ebe 5026 8fbd 2fdd 21bf
000003a0: 4650 80bd 4097 4abe 6038 31bc a1a7 bcbd
000003b0: 9ddc 81c0 3877 82bf 4e10 aec0 46fc 3dc0
000003c0: bf8f a8bc 7b08 86be 7275 06bf 7295 85c0
000003d0: ac5a b1bf f6dc 68bf adbd d5be 1d3e a2c0
000003e0: b9b4 b1be 9425 a0c0 3431 3ac0 1a8c bdbe
000003f0: 64d3 1fbf 9b6f 89be f287 06bf 65c4 c7be

utn.4.bias f4 [15]
-0.022042729 0.11788398 -0.627337 -1.3533105 -1.2150955 -0.5955285 -0.49960873 -0.46004695
0.09700189 -0.36467883 -0.7006559 0.21362135 -0.40754595 -0.9203822 -0.71822447
00000000: f492 b4bc 286d f13d 2899 20bf 4739 adbf
00000010: 4088 9bbf 8e74 18bf b7cc ffbe 468b ebbe
00000020: eda8 c63d 2fb7 babe 2f5e 33bf 8ebf 5a3e
00000030: dda9 d0be 2b9e 6bbf 8fdd 37bf

itn.0.weight f4 [256, 2]
-0.6764922 -0.4241945 -0.7072639 -3.383836 -1.3192589 -0.7608719 -0.2894748 -4.1249785
-0.70052975 -1.5068113 -1.7274638 -1.5945247 -1.240343 -2.2919152 1.614884 -0.53831786
1.0094602 -0.70730126 0.06668241 -3.5461884 -1.3529131 -0.101827666 -1.6408232 -1.5910174
-0.8797602 -1.0903078 1.0283486 0.8474161 -1.3643184 0.031784218 1.0806098 -0.4747649
-1.8322619 -1.2891674 -1.4103782 -0.9260553 1.5798876 -0.40500313 0.6331568 -2.1899152
1.7408105 -1.0844331 -0.60806787 -3.576101 -1.7998807 -0.9469847 -1.4202588 1.0523798
-1.3568109 -0.10762051 -1.3386718 -0.1633958 -1.8752791 -1.9956713 -1.5633615 0.85497636
0.84575856 -1.065376 -1.3378042 -0.10031218 -1.4518701 -1.3076508 -1.7138987 -0.2350211
-1.0644644 1.5171672 -1.2358407 1.6101234 -1.4238492 -0.09026874 -1.4647028 0.7792248
-1.4200592 0.2806089 -1.5938637 -0.18275315 -1.3317723 -1.0935941 -1.3074878 -1.2566545
-1.4301933 0.44387296 -0.7430349 -3.3786569 -1.3733453 0.15684427 -1.3612852 -0.7421529
-1.3878707 -0.83420414 -1.873597 0.41548923 -1.0580654 -3.2203891 -1.4272323 -2.7287679
0.53956646 -1.0391613 -1.3153496 -0.47053036 0.3663809 -3.188812 -1.4416344 0.2013261
-1.0160818 -3.5583618 0.77529675 -2.2369592 -1.3352457 -0.2849761 -1.3986337 0.1385874
-1.3658451 0.6759129 -1.4395621 1.0739311 -1.3728644 0.040579602 -2.0199711 0.35613284
-1.5654278 -0.01477795 -0.55726296 2.1073368 -1.3533533 -1.1895951 -0.9547303 -2.946661
-1.37608 -0.5904654 -1.3403484 -0.92871124 -1.4484639 0.6481367 -1.212444 -2.708338
1.038414 -1.071803 -0.33721265 -3.058447 -1.668972 0.2739362 0.11096721 -3.8337564
-0.62003654 -0.4027305 -1.4938086 0.16765709 -1.8172759 -0.14774103 1.562352 -0.69993895
-2.9287398 -0.013766331 0.44479647 -1.8181446 -1.3858865 0.23321436 -0.87041885 -3.2107224
-1.3846469 -1.0079869 -1.729418 -0.51585245 -1.5181587 0.8497156 -1.4237763 0.104196556
-1.365224 -0.2798642 -1.4517893 0.23358509 -1.6336623 0.13147649 0.5584698 -3.0397446
-1.2723148 -4.07714 -1.3055836 1.6025953 -1.3797536 -0.075233646 -1.1769142 -0.8129576
-1.3398751 -0.6861537 -1.3101542 -1.1553919 -1.5336009 -1.6101891 -0.34911218 -4.1370754
-1.8819945 -1.8046125 -1.4788494 1.4355187 -0.04182656 -3.2574043 -0.08596628 0.7735896
1.4002697 0.58199877 0.61293507 0.8155307 -1.3912708 1.4074527 -2.3466835 0.5305282
-1.5208912 1.0328311 -1.2806302 -0.6049357 -1.4086071 -0.19992825 -1.4099365 -0.33773783
-1.3525412 -0.60713667 1.0036824 -0.91775995 -1.0117248 -0.6579187 -1.4593194 -1.1310352
-1.3422832 -0.28717417 -1.3401723 -0.32811248 1.0752625 -0.84073275 0.46690345 -0.09155135
-0.012750842 -4.2520456 0.24144427 -3.6894002 -1.2398704 -1.8321803 -0.7238128 2.786592
-1.4440153 0.9228081 -0.72585934 -3.0667746 -1.3404737 1.666335 -1.3608302 -0.07959731
-0.9694957 -2.8521628 -1.7532562 0.37072453 0.38501346 -2.1339953 -1.2119805 -1.9793787
00000000: 982e 2dbf 0630 d9be 3f0f 35bf c590 58c0
00000010: 7add a8bf 80c8 42bf 0a36 94be d3ff 83c0
00000020: eb55 33bf 31df c0bf 891d ddbf 6319 ccbf
00000030: 8fc3 9ebf bdae 12c0 85b4 ce3f 33cf 09bf
00000040: fe35 813f b211 35bf ca90 883d c0f4 62c0
00000050: 422c adbf 068b d0bd 7f06 d2bf 75a6 cbbf
00000060: f737 61bf 358f 8bbf eda0 833f 43f0 583f
00000070: fca1 aebf 2b30 023d 6c51 8a3f 6314 f3be
00000080: 8f87 eabf 7003 a5bf 4687 b4bf f611 6dbf
00000090: c239 ca3f 925c cfbe 9016 223f 9227 0cc0
000000a0: e1d2 de3f b4ce 8abf 56aa 1bbf d7de 64c0
000000b0: 7e62 e6bf 976d 72bf 0acb b5bf 62b4 863f
000000c0: fbab adbf 2468 dcbd 9959 abbf 3b51 27be
000000d0: 2509 f0bf 2872 ffbf 3b1c c8bf bbdf 5a3f
000000e0: a283 583f 3e5e 88bf 2b3d abbf 7970 cdbd
000000f0: e1d6 b9bf 1a61 a7bf 0861 dbbf 5fa9 70be
00000100: 5f40 88bf 8932 c23f 0730 9ebf 8618 ce3f
00000110: b140 b6bf d1de b8bd 627b bbbf 477b 473f
00000120: 80c4 b5bf f8ab 8f3e ba03 ccbf a423 3bbe
00000130: 8477 aabf e4fa 8bbf c35b a7bf 0eda a0bf
00000140: 9310 b7bf 5143 e33e 8937 3ebf ea3b 58c0
00000150: c7c9 afbf c99b 203e 983e aebf bcfd 3dbf
00000160: bfa5 b1bf 678e 55bf 07d2 efbf 01bb d43e
00000170: b06e 87bf db1a 4ec0 8caf b6bf 22a4 2ec0
00000180: 0721 0a3f 3d03 85bf 605d a8bf 5be9 f0be
00000190: 4796 bb3e 7f15 4cc0 7a87 b8bf 6e28 4e3e
000001a0: f80e 82bf 33bc 63c0 d979 463f 572a 0fc0
000001b0: 55e9 aabf 63e8 91be 6e06 b3bf dbe9 0d3e
000001c0: 03d4 aebf a108 2d3f 9243 b8bf 9376 893f
000001d0: 05ba afbf cc36 263d 3547 01c0 0b57 b63e
000001e0: f05f c8bf 371f 72bc c9a8 0ebf 9bde 0640
000001f0: ae3a adbf a744 98bf 3469 74bf 1896 3cc0
00000200: 6423 b0bf be28 17bf 8990 abbf 05c0 6dbf
00000210: 4467 b9bf 49ec 253f 5d31 9bbf 6955 2dc0
00000220: c0ea 843f d730 89bf 23a7 acbe 98bd 43c0
00000230: e0a0 d5bf 5e41 8c3e c742 e33d 445c 75c0
00000240: b7ba 1ebf b132 cebe 1f35 bfbf 4dae 2b3e
00000250: 7f9c e8bf 6d49 17be 26fb c73f 332f 33bf
00000260: 7970 3bc0 2d8c 61bc 5dbc e33e f6b8 e8bf
00000270: bb64 b1bf bfcf 6e3e c5d3 5ebf 7a7c 4dc0
00000280: 1c3c b1bf b705 81bf 925d ddbf e80e 04bf
00000290: 0653 c2bf f686 593f 4d3e b6bf 0165 d53d
000002a0: a9bf aebf 5c4a 8fbe 3bd4 b9bf ee30 6f3e
000002b0: d91b d1bf c6a1 063e e0f7 0e3f 2d8b 42c0
000002c0: 36db a2bf ee77 82c0 5d1d a7bf d821 cd3f
000002d0: c49b b0bf 1914 9abd 20a5 96bf fd1d 50bf
000002e0: 0781 abbf c5a7 2fbf 22b3 a7bf e2e3 93bf
000002f0: 094d c4bf ad1a cebf d5be b2be ec62 84c0
00000300: 32e5 f0bf 8bfd e6bf f04a bdbf 14bf b73f
00000310: 5452 2bbd 5079 50c0 170f b0bd f809 463f
00000320: 0a3c b33f dffd 143f 50e9 1c3f 9fc6 503f
00000330: 2915 b2bf 6927 b43f 1030 16c0 b2d0 073f
00000340: 90ac c2bf cf33 843f b1eb a3bf 11dd 1abf
00000350: 3d4d b4bf feb9 4cbe cd78 b4bf f9eb acbe
00000360: 1220 adbf 4f6d 1bbf aa78 803f 51f2 6abf
00000370: 3380 81bf 5c6d 28bf faca babf c3c5 90bf
00000380: f0cf abbf 7e08 93be c48a abbf 5cfe a7be
00000390: 34a2 893f 433a 57bf f80d ef3e 467f bbbd
000003a0: e8e8 50bc c210 88c0 2b3d 773e 221f 6cc0
000003b0: 13b4 9ebf e284 eabf cc4b 39bf 8657 3240
000003c0: 7ed5 b8bf 273d 6c3f ebd1 39bf 0946 44c0
000003d0: a494 abbf 774a d53f af2f aebf ea03 a3bd
000003e0: df30 78bf d689 36c0 b36a e0bf 9bcf bd3e
000003f0: 7c20 c53e 6193 08c0 2d22 9bbf 485c fdbf

itn.0.bias f4 [256]
-2.9559448 0.25742033 0.26133743 0.56167066 -3.1169648 -0.5683268 -0.08177532 -1.519528
-1.5011189 -0.6666802 0.39679408 -4.2219887 -3.31147 -1.7658516 -0.13031587 -1.4568548
-0.44441617 -0.35875684 -1.548363 -1.3064712 -1.1911252 0.31843802 -0.46873817 -0.7059403
0.27647433 0.23784523 -0.6893913 0.69277894 -1.3412106 0.06492541 -0.3346431 -0.7622419
-1.0126486 -0.73385954 0.5116355 -0.006412147 0.17405367 -0.4362043 0.030973138 0.61137456
0.69758457 0.54422444 -0.51526475 0.61031115 0.88671637 -1.9259347 -0.5643107 -0.39424074
-1.9590476 0.8286251 -0.22060488 1.1541169 -1.1427819 -0.89708066 0.5098643 0.61290056
0.32316902 0.17089705 0.9088442 -2.4399853 -0.7005178 -1.9997413 0.52668065 0.7677965
0.07220238 0.8120767 0.026893627 0.19572404 -1.4925945 -1.3395526 -1.6401632 -0.91528285
-2.8293116 -0.92734766 -0.7727186 -1.4362422 -3.1673305 -1.3538437 0.23817006 0.6051056
0.20685889 -0.62414736 0.6238678 -0.31395102 1.1139681 -0.20256586 -0.5107551 -0.14622565
-1.1192262 -1.6345799 0.59930956 -4.8640943 0.6541871 0.9895444 -0.68376017 0.7986276
-0.743465 -0.25093734 -0.077084795 -2.314821 -1.8044921 -1.7980424 -1.9031981 -3.6131754
0.42433327 1.050861 -0.32106417 -0.035633117 -0.0020470838 -1.3522784 -3.970911 -0.19324267
0.80417764 0.92396635 -1.4890465 -1.6340803 0.32769373 -0.065966964 0.12624663 -0.96605766
-1.0306648 0.5476275 -0.78481376 0.9016778 0.79002064 -1.1414386 -0.84417725 0.60124046
0.040924314 -0.57558787 -1.4465162 0.47666478 -2.0339093 -0.111773156 0.10061137 -2.3506737
0.64612216 0.14843273 0.34011683 1.3154309 -1.0595932 -0.96969426 0.67291623 -0.014408045
0.23822224 0.08356818 0.6297414 -1.650869 0.10640182 -1.3447416 -0.8186661 -1.1517295
-0.8790672 -1.4771483 -1.4496099 -0.29670635 -0.31861442 -1.4941685 -1.8253654 -0.32674825
0.7438634 -0.022647783 0.48149064 0.5733613 0.1401867 0.55782956 -1.6437997 -0.16195711
-1.916374 -0.7747496 -0.17735803 0.43850943 -0.54540646 -1.9452564 -2.1347663 0.2414931
-0.18161947 -1.4025536 -2.0212286 -0.4599142 0.16349027 -0.18459304 -0.56372994 -0.18898217
-0.32541758 0.2924568 -0.029346239 0.18573987 -0.426543 -0.6532494 -0.9485972 0.72400385
-0.25081596 -1.0793725 -0.1482523 -0.5248381 -1.7761979 0.61213374 1.0748305 -0.88468325
0.1048542 0.4263631 -0.5812129 0.38542214 -1.3861222 0.09084028 -1.4065708 -1.4947364
-0.27872622 0.069444895 -0.66427946 0.9748112 -1.8057464 0.16742538 0.34739456 -1.2961441
-1.5894358 -0.060180433 0.63939846 -2.6696153 -0.74032533 1.2652116 -2.574414 0.58062166
0.7900357 0.3628845 0.59716594 0.716878 -2.9701886 1.3069657 0.3007738 -0.77447176
-0.6752043 -0.14939821 -0.6427355 0.79649407 -0.34209502 0.8215573 0.17451784 -0.15990445
0.21981692 0.32778224 0.3461175 -0.7817347 0.7572451 -0.92475164 -0.0064477185 -0.33501202
0.48954996 -1.5868063 -1.5633332 -0.65273553 -2.2796152 -2.4013808 -1.0148047 -0.21822985
00000000: 332e 3dc0 99cc 833e 05ce 853e a6c9 0f3f
00000010: 5a7c 47c0 dd7d 11bf d279 a7bd e57f c2bf
00000020: aa24 c0bf 8eab 2abf 9828 cb3e 881a 87c0
00000030: 20ef 53c0 6d07 e2bf 8671 05be 387a babf
00000040: 848a e3be faae b7be c230 c6bf 733a a7bf
00000050: ca76 98bf 4f0a a33e 73fe efbe 81b8 34bf
00000060: 0b8e 8d3e b38d 733e f37b 30bf f659 313f
00000070: caac abbf 9df7 843d 5756 abbe 4922 43bf
00000080: 789e 81bf 38de 3bbf 8bfa 023f fd1c d2bb
00000090: 203b 323e 2c56 dfbe 61bb fd3c 0b83 1c3f
000000a0: e794 323f 4b52 0b3f 64e8 03bf 5a3d 1c3f
000000b0: d8ff 623f 0785 f6bf ab76 10bf ecd9 c9be
000000c0: 12c2 fabf c620 543f 3fe6 61be 1aba 933f
000000d0: ad46 92bf 14a7 65bf 7786 023f 0de7 1c3f
000000e0: 6976 a53e a3ff 2e3e 03aa 683f b828 1cc0
000000f0: 2255 33bf 86f7 ffbf 8bd4 063f 508e 443f
00000100: d7de 933d 42e4 4f3f 0650 dc3c e26b 483e
00000110: 560d bfbf 7676 abbf def0 d1bf fa4f 6abf
00000120: 7113 35c0 a866 6dbf e3d0 45bf c9d6 b7bf
00000130: 8bb5 4ac0 c04a adbf dae2 733e 33e8 1a3f
00000140: d1d2 533e 1fc8 1fbf cdb5 1f3f 30be a0be
00000150: 8296 8e3f 6d6d 4fbe d9c0 02bf 2dbc 15be
00000160: ce42 8fbf ea39 d1bf 5a6c 193f a9a6 9bc0
00000170: ce78 273f c852 7d3f e80a 2fbf dc72 4c3f
00000180: b953 3ebf dc7a 80be a2de 9dbd 0726 14c0
00000190: 99f9 e6bf 4126 e6bf ff9b f3bf 443e 67c0
000001a0: 3642 d93e 9d82 863f 8662 a4be 08f4 11bd
000001b0: 5e28 06bb 7517 adbf 6823 7ec0 68e1 45be
000001c0: 96de 4d3f 0f89 6c3f 1399 bebf 8b29 d1bf
000001d0: 79c7 a73e b019 87bd cc46 013e 8e4f 77bf
000001e0: d3ec 83bf 5131 0c3f 8ee9 48bf 5bd4 663f
000001f0: cb3e 4a3f a91a 92bf 001c 58bf e5ea 193f
00000200: 41a0 273d ba59 13bf 7127 b9bf 680d f43e
00000210: 922b 02c0 53e9 e4bd 550d ce3d 7071 16c0
00000220: 4368 253f c0fe 173e cb23 ae3e 0a60 a83f
00000230: c0a0 87bf e23d 78bf 3d44 2c3f b90f 6cbc
00000240: 88f0 733e cb25 ab3d bb36 213f ad4f d3bf
00000250: 33e9 d93d 7e20 acbf 1a94 51bf df6b 93bf
00000260: 8c0a 61bf 3213 bdbf d18c b9bf e5e9 97be
00000270: 6e21 a3be ea40 bfbf 93a5 e9bf 8c4b a7be
00000280: d56d 3e3f d887 b9bc f185 f63e cec7 123f
00000290: 1a8d 0f3e ebcd 0e3f 0768 d2bf 16d8 25be
000002a0: be4b f5bf fd55 46bf 589d 35be 4f84 e03e
000002b0: c29f 0bbf 29fe f8bf 03a0 08c0 f849 773e
000002c0: 74fa 39be e086 b3bf cf5b 01c0 e079 ebbe
000002d0: fe69 273e f505 3dbe 9b50 10bf 8b84 41be
000002e0: 229d a6be e6bc 953e 8667 f0bc 9832 3e3e
000002f0: d863 dabe 5a3b 27bf 44d7 72bf 5158 393f
00000300: f36a 80be e128 8abf 73cf 17be ca5b 06bf
00000310: 745a e3bf ccb4 1c3f 0c94 893f 9a7a 62bf
00000320: ccbd d63d 444c da3e 5eca 14bf 0d56 c53e
00000330: 746c b1bf 780a ba3d 830a b4bf 8653 bfbf
00000340: 34b5 8ebe 2039 8e3d 380e 2abf 3a8d 793f
00000350: b322 e7bf 8f71 2b3e b3dd b13e 0de8 a5bf
00000360: a272 cbbf c27f 76bd 9eaf 233f fada 2ac0
00000370: f685 3dbf 74f2 a13f 33c3 24c0 9fa3 143f
00000380: c83f 4a3f ffcb b93e dedf 183f 5185 373f
00000390: 9217 3ec0 a74a a73f 06ff 993e c843 46bf
000003a0: 30da 2cbf d8fb 18be 508a 24bf 09e7 4b3f
000003b0: 1427 afbe 9451 523f ceb4 323e febd 23be
000003c0: b017 613e 13d3 a73e 5036 b13e c41f 48bf
000003d0: d1da 413f 86bc 6cbf 6247 d3bb b286 abbe
000003e0: 4ba6 fa3e 781c cbbf 4d1b c8bf ad19 27bf
000003f0: 37e5 11c0 39b0 19c0 1fe5 81bf a577 5fbe

itn.2.weight f4 [128, 256]
-0.25081033 -0.12287235 -0.18649508 -0.16075963 -0.116075926 -0.08540544 -0.076931536 -0.61276037
-0.5573692 -0.096768565 -0.25067294 -0.12043912 -0.092340946 -0.6115065 -0.32019874 -0.5233989
-0.062515974 -0.1630991 -0.56970394 -0.32520887 -0.52156675 -0.20531523 -0.11532096 -0.274965
-0.22365081 -0.21296558 -0.06098563 -0.44623902 -0.40597448 -0.27421263 -0.16305037 -0.14115523
-0.46707293 -0.3565413 -0.24275409 -0.3607572 -0.18664253 -0.1317098 -0.17642151 -0.25182515
-0.29305097 -0.23416756 -0.14099178 -0.18717566 -0.2265336 -0.10499008 -0.14249997 -0.04303053
-0.37601745 -0.17500679 -0.1562175 -0.32144907 -0.08952191 -0.31716293 -0.2609165 -0.26414397
-0.38313055 -0.35513544 -0.318073 -0.025972262 -0.10610607 -0.5741251 -0.20385337 -0.14528207
-0.09493178 -0.14957637 -0.3856209 -0.16057149 -0.5382711 -0.16567254 -0.058184676 -0.12731045
-0.18270762 -0.0910575 -0.05649106 -0.6074577 -0.010904929 -0.21540877 -0.31307298 -0.2014266
-0.10603141 -0.12225599 -0.38506234 -0.1866624 -0.31628886 -0.117624365 -0.04812864 -0.20483743
-0.05226156 -0.28468344 -0.37046936 -0.10649617 -0.23037142 -0.19461067 -0.054894917 -0.259753
-0.09252176 -0.439265 -0.2234825 -0.48634446 -0.625504 -0.49791154 -0.14980534 -0.099718995
-0.35938963 -0.27739364 -0.1266549 -0.2144365 -0.16824463 -0.45779344 -0.10467065 -0.1207937
-0.19173944 -0.24180792 -0.575337 -0.45791784 -0.1826743 -0.10854367 -0.18778744 -0.44366688
-0.15690982 -0.13349761 -0.4930705 -0.2559737 -0.20594345 -0.113893695 -0.31798837 -0.14550298
-0.11530372 -0.16456348 -0.5672661 -0.23246808 -0.17561872 -0.32438606 -0.13697672 -0.30864668
-0.29492426 -0.20616366 -0.25469452 -0.27947828 -0.056338035 -0.40432924 -0.37388793 -0.23309058
-0.5116003 -0.1168445 -0.25509393 -0.5714367 -0.23790696 -0.69248843 -0.07734935 -0.38874117
-0.18494338 -0.079205394 -0.26364052 -0.12763451 -0.22321318 -0.5899279 -0.03961852 -0.2644715
-0.26358226 -0.17766191 -0.18750955 -0.16875583 -0.14142011 -0.20343965 -0.64297736 -0.119439565
-0.4767975 -0.09671523 -0.15727437 -0.26667243 -0.06930028 -0.090896785 -0.26502076 -0.39921683
-0.3018768 -0.5505384 -0.052985374 -0.12306081 -0.14361574 -0.31627187 -0.23958734 -0.1793503
-0.11904605 -0.2418439 -0.48708645 -0.037409663 -0.29296383 -0.16807789 -0.29108107 -0.13064589
-0.1202044 -0.40915623 -0.29891628 -0.07332332 -0.57444435 -0.18426827 -0.30965874 -0.51942736
-0.3524247 -0.38698384 -0.3464112 -0.1374199 -0.18043992 -0.24880493 -0.61257124 -0.36039668
-0.44151354 -0.53389686 -0.38757306 -0.23494437 -0.56516665 -0.3288872 -0.24417794 -0.15989958
-0.58224577 -0.09300446 -0.2723009 -0.22627053 -0.13511807 -0.21858133 -0.16570026 -0.20317225
-0.19574903 -0.35333765 -0.39644864 -0.19630915 -0.20059088 -0.3168877 -0.39795986 -0.21729691
-0.4525495 -0.12925424 -0.32791877 -0.20607565 -0.33932185 -0.23362324 -0.3996064 -0.077290505
-0.2198266 -0.19104248 -0.22449584 -0.33795297 -0.14585912 -0.39243346 -0.15365323 -0.061041668
-0.13123041 -0.543786 -0.37984046 -0.46439546 -0.121837184 -0.20820498 -0.52993387 -0.32444316
00000000: 366a 80be 80a4 fbbd 91f8 3ebe 2c9e 24be
00000010: 37b9 edbd 0ce9 aebd 488e 9dbd dddd 1cbf
00000020: bfaf 0ebf 992e c6bd 3458 80be c9a8 f6bd
00000030: 401d bdbd b18b 1cbf 17f1 a3be 78fd 05bf
00000040: 6008 80bd 7303 27be 1ed8 11bf c781 a6be
00000050: 6685 05bf 283e 52be 652d ecbd 36c8 8cbe
00000060: b804 65be a613 5abe 11cc 79bd 7179 e4be
00000070: e3db cfbe 9965 8cbe adf6 26be ff8a 10be
00000080: 2f24 efbe 958c b6be 8794 78be 2bb5 b8be
00000090: 381f 3fbe efde 06be d7a7 34be 3aef 80be
000000a0: c70a 96be 9fc9 6fbe 2660 10be faaa 3fbe
000000b0: 6df8 67be 0a05 d7bd 83eb 11be c840 30bd
000000c0: 5c85 c0be fb34 33be 7bf7 1fbe f994 a4be
000000d0: 4357 b7bd 2e63 a2be d996 85be e13d 87be
000000e0: b029 c4be 50d4 b5be 77da a2be c8c3 d4bc
000000f0: 244e d9bd ddf9 12bf f0be 50be d3c4 14be
00000100: 986b c2bd 8c2a 19be 1a70 c5be da6c 24be
00000110: 23cc 09bf 10a6 29be 0e53 6ebd ac5d 02be
00000120: b517 3bbe 5b7c babd 2b63 67bd 5982 1bbf
00000130: 96aa 32bc 1e94 5cbe 1a4b a0be c642 4ebe
00000140: ff26 d9bd 5961 fabd e426 c5be 6e24 3fbe
00000150: 9df0 a1be 0be5 f0bd 8922 45bd e7c0 51be
00000160: 3810 56bd 07c2 91be 29ae bdbe aa1a dabd
00000170: 7ce6 6bbe 0548 47be 7ed9 60bd 58fe 84be
00000180: 0c7c bdbd 58e7 e0be 99d8 64be 2402 f9be
00000190: 0821 20bf 43ee febe 9266 19be 7939 ccbd
000001a0: eb01 b8be 8a06 8ebe d2b1 01be 3e95 5bbe
000001b0: 5248 2cbe e763 eabe 915d d6bd b062 f7bd
000001c0: 5857 44be 7f9c 77be 4949 13bf 3574 eabe
000001d0: f90e 3bbe 254c debd 5a4b 40be 4e28 e3be
000001e0: f8ac 20be 99b3 08be bd73 fcbe fc0e 83be
000001f0: d7e2 52be 1941 e9bd 5fcf a2be bcfe 14be
00000200: 5b24 ecbd 5483 28be 5a38 11bf 1d0c 6ebe
00000210: 65d5 33be ee15 a6be a043 0cbe f006 9ebe
00000220: 5000 97be 911c 53be 5267 82be c717 8fbe
00000230: b6c2 66bd 3e04 cfbe 3d6e bfbe 4caf 6ebe
00000240: 3df8 02bf 2b4c efbd ac9b 82be ad49 12bf
00000250: e29d 73be ec46 31bf 5669 9ebd 1509 c7be
00000260: cc61 3dbe 7036 a2bd e4fb 86be 9fb2 02be
00000270: ff91 64be 8405 17bf 0747 22bd cf68 87be
00000280: 41f4 86be 01ed 35be 8102 40be 54ce 2cbe
00000290: 6fd0 10be 7c52 50be 2a9a 24bf bb9c f4bd
000002a0: cd1e f4be a212 c6bd 880c 21be 4a89 88be
000002b0: 4eed 8dbd 1828 babd cdb0 87be 2666 ccbe
000002c0: 998f 9abe 16f0 0cbf 3107 59bd 4e07 fcbd
000002d0: 0110 13be 63ee a1be 6256 75be 9ba7 37be
000002e0: 6ace f3bd eda5 77be 6563 f9be e03a 19bd
000002f0: 5bff 95be 9c1c 2cbe 9408 95be 09c8 05be
00000300: b92d f6bd ed7c d1be 8e0b 99be 892a 96bd
00000310: c90e 13bf d2b0 3cbe 978b 9ebe 31f9 04bf
00000320: 0371 b4be bf22 c6be cf5c b1be cdb7 0cbe
00000330: 3ec5 38be b8c6 7ebe 78d1 1cbf ea85 b8be
00000340: 100e e2be 77ad 08bf fa6f c6be 4295 70be
00000350: c3ae 10bf e763 a8be c809 7abe b7bc 23be
00000360: 0f0e 15bf 1f79 bebd 066b 8bbe 76b3 67be
00000370: 645c 0abe c9d3 5fbe 54ad 29be 630c 50be
00000380: 6f72 48be ace8 b4be 51fb cabe 4405 49be
00000390: b267 4dbe 1b3f a2be 65c1 cbbe 1583 5ebe
000003a0: 91b4 e7be 395b 04be f8e4 a7be 7f05 53be
000003b0: 98bb adbe ee3a 6fbe 3699 ccbe 7c4a 9ebd
000003c0: 391a 61be a4a0 43be 3de2 65be 2c08 adbe
000003d0: 185c 15be 0aed c8be 4657 1dbe d406 7abd
000003e0: 4461 06be 8f35 0bbf 737a c2be 3ec5 edbe
000003f0: c685 f9bd b033 55be bfa9 07bf 6a1d a6be

itn.2.bias f4 [128]
-0.5514366 -1.1009037 -0.60184616 -0.089764155 -0.8408438 -0.5518822 -0.40466413 -0.2930298
-0.23969744 0.42839265 -0.51872367 0.051566955 0.2610318 0.2420466 0.7717707 -0.6940946
-0.6819188 -0.72099996 -0.57827336 0.72806025 -0.70676255 -0.3926843 -0.6134934 -0.8732582
-0.5969519 -0.63489306 -0.92923015 0.6926268 0.29222435 -1.2388903 -0.70437294 -0.6342774
0.18011954 -0.8122032 -0.48447427 -0.37780598 -0.7479944 -0.63358206 -0.5254391 -0.5902652
-0.54275507 -1.0713379 -1.3726422 -0.6872137 -0.083045684 -0.6621611 -0.54090893 0.8212616
-0.6831608 -0.58594555 -0.6030826 -0.4052337 -1.0107177 -0.5315942 -1.3093618 -0.53621364
-0.7348209 -0.55437976 -0.5320325 -0.23621267 0.16440387 -0.6094079 -0.70466113 -0.52225655
-0.62073594 -0.7185635 0.5703124 -0.75707036 -0.65866685 -0.41412497 -0.45642784 -0.84159404
-0.6164748 -0.46612993 -0.6045902 -0.8462282 0.20395266 -1.4002845 -0.65493494 -0.6313744
-0.6170709 -0.96655685 -0.67812985 -0.5777549 -0.5782615 0.5589652 -1.3621014 -0.49226016
1.1249756 -0.95340496 1.1974328 -0.5157979 -0.5141767 -0.7923685 -0.54415935 -0.680826
-0.87405866 0.07903224 -0.50567245 -0.10223974 -0.69278985 -0.65043205 -0.5608254 -0.17548108
-0.48044497 -0.5404606 -0.5592518 -0.7686089 -0.77317566 0.3167872 -0.17477372 -0.22017889
-0.5443371 -0.59350336 -0.54989463 -0.49633723 -0.88882786 -0.607368 0.181288 -1.481547
-1.1618019 0.021985633 -0.5706214 -0.83353597 -0.18669538 -0.9260161 -0.20582588 -1.1401545
00000000: f32a 0dbf 6aea 8cbf 9712 1abf 45d6 b7bd
00000010: 8a41 57bf 2748 0dbf 2330 cfbe 0008 96be
00000020: 3f73 75be 4856 db3e 13cb 04bf df37 533d
00000030: f6a5 853e 10db 773e c492 453f 2fb0 31bf
00000040: 3b92 2ebf 7493 38bf b909 14bf 2862 3a3f
00000050: 64ee 34bf eb0d c9be e70d 1dbf d98d 5fbf
00000060: d7d1 18bf 5a88 22bf 07e2 6dbf fd4f 313f
00000070: 6e9e 953e f593 9ebf c951 34bf 0160 22bf
00000080: 4271 383e 8dec 4fbf 030d f8be c96f c1be
00000090: 907c 3fbf 6f32 22bf 2d83 06bf 9f1b 17bf
000000a0: fff1 0abf 9a21 89bf bdb2 afbf 3ded 2fbf
000000b0: db13 aabd 6483 29bf 0279 0abf 333e 523f
000000c0: a0e3 2ebf 8700 16bf 9f63 1abf cb7a cfbe
000000d0: 335f 81bf 8f16 08bf 2b99 a7bf 4c45 09bf
000000e0: 391d 3cbf d5eb 0dbf 4833 08bf bce1 71be
000000f0: 7d59 283e 2802 1cbf ac64 34bf 9bb2 05bf
00000100: 8de8 1ebf c7f3 37bf feff 113f 5dcf 41bf
00000110: 649e 28bf 3008 d4be e9b0 e9be b572 57bf
00000120: 4bd1 1dbf 95a8 eebe 6cc6 1abf 69a2 58bf
00000130: f7d8 503e 863c b3bf d1a9 27bf c1a1 21bf
00000140: 5cf8 1dbf 4570 77bf eb99 2dbf bfe7 13bf
00000150: f208 14bf 5818 0f3f 5759 aebf 8609 fcbe
00000160: 33ff 8f3f 5912 74bf 7a45 993f 550b 04bf
00000170: 16a1 03bf a9d8 4abf 074e 0bbf 9d4a 2ebf
00000180: 4fc2 5fbf a8db a13d c073 01bf 1263 d1bd
00000190: ad5a 31bf b782 26bf 4192 0fbf 50b1 33be
000001a0: e2fc f5be a05b 0abf 202b 0fbf 8ec3 44bf
000001b0: d7ee 45bf ef31 a23e e2f7 32be 9376 61be
000001c0: ad59 0bbf d6ef 17bf e5c5 0cbf ea1f febe
000001d0: 398a 63bf 787c 1bbf 90a3 393e 55a3 bdbf
000001e0: edb5 94bf 371b b43c 3e14 12bf 9d62 55bf
000001f0: 132d 3fbe 640f 6dbf 05c4 52be 95f0 91bf
