ckpt/assistment/irt_MFI_ip.pt (torch, 286913 bytes, 12 tensors)

utn.0.weight f4 [256, 1]
000000 47 96 cd 3f 99 ca c5 3f 18 86 c2 bf bc 3a c1 bf
       1.6061486 1.5452453 -1.5197172 -1.5096049
000010 21 4f a8 bf d5 9e 86 3f 98 1d 47 bf 03 92 d8 3f
       -1.3149148 1.0517222 -0.7777953 1.6919559
000020 42 ff 5a bf 56 e2 82 3f d9 1f 80 bf 00 80 16 bf
       -0.8554574 1.0225322 -1.0009719 -0.5878906
000030 07 f5 17 c0 05 8e ab bf 87 00 a0 bf 94 9b a4 bf
       -2.3743303 -1.3402716 -1.2500161 -1.2859979
000040 58 50 a6 3f 3a 45 c0 3f 69 ed d6 bf 0f b8 c0 bf
       1.2993269 1.5021126 -1.6791202 -1.505617
000050 1d ec c3 3f 65 f2 cf 3f aa e6 6a bf 4f 0e c5 3f
       1.5306431 1.6245848 -0.91758215 1.5394992
000060 11 4a 36 bf 70 f4 bd 3f 54 28 e6 3f 1c ad 15 c0
       -0.71206766 1.4840221 1.7981057 -2.3386908
000070 a9 fa be bf 50 2a 8b bf 60 0f 8c bf 02 e6 ca 3f
       -1.4920245 -1.0872288 -1.0942192 1.5851443
000080 15 d6 9f bf 6d 7f 6e bf dc 3e c1 bf f4 96 03 c0
       -1.2487208 -0.93163186 -1.5097308 -2.0560884
000090 43 06 c2 bf 9e 0f c8 3f a5 fc a0 3f 9a a9 a7 3f
       -1.5158161 1.5629766 1.2577101 1.3098633
0000a0 3c 7c 28 bf 95 2a c0 bf b3 92 65 3f a5 f2 21 c0
       -0.65814567 -1.5012995 0.8967697 -2.5304348
0000b0 d6 06 b0 bf 25 77 7b bf 7c c6 af 3f cb 52 af 3f
       -1.3752086 -0.98228675 1.3732448 1.3697141
0000c0 3c 48 af bf 90 df 91 bf 47 95 af 3f 05 d6 db 3f
       -1.3693919 -1.1396351 1.3717431 1.7174689
0000d0 0e e4 af 3f 0c d1 93 3f 8d 17 ca 3f 2e 70 97 bf
       1.3741472 1.1548171 1.5788437 -1.183111
0000e0 6e 22 9f 3f 46 e1 cd bf 40 e0 c9 bf 58 91 dd bf
       1.2432382 -1.6084373 -1.5771561 -1.730998
0000f0 6a a0 a8 3f 60 77 ab 3f bb 14 af bf eb 79 a6 3f
       1.3173954 1.3395805 -1.3678201 1.3005956
000100 5b c0 b5 3f 3b df f4 be 44 89 b3 bf b9 55 95 3f
       1.4199327 -0.4782656 -1.4026265 1.1666785
000110 29 b0 cd 3f 49 89 de 3f ad 80 0f c0 aa ce 80 bf
       1.6069385 1.7385646 -2.2422287 -1.0063069
000120 f1 04 88 3f cf 0e da 3f a2 6f c7 3f 1a d3 cc 3f
       1.0626508 1.7035769 1.5580943 1.6001923
000130 8f 88 49 3f 11 08 14 c0 ca f6 97 3f cd 9e c7 bf
       0.78723997 -2.3129923 1.1872189 -1.5595337
000140 57 65 1e c0 53 27 e0 3f 0b d6 da 3f 77 44 08 c0
       -2.4749353 1.7512001 1.7096571 -2.1291788
000150 60 c3 76 3f 34 5a 91 bf e1 d3 77 bf bf 15 c0 bf
       0.9639187 -1.1355653 -0.96807677 -1.5006636
000160 47 a2 9d 3f 88 d9 fb bf 18 77 ae 3f 58 b3 b6 3f
       1.2315148 -1.967576 1.3630095 1.4273481
000170 40 c0 b3 3f 5f e1 a7 3f 69 17 06 c0 82 24 0a c0
       1.4043045 1.3115653 -2.0951788 -2.1584783
000180 9d 20 af 3f 04 12 8d 3f e5 50 02 c0 78 2b c3 bf
       1.3681828 1.1021123 -2.0361874 -1.5247641
000190 b1 71 c9 3f e2 cf c4 3f aa b8 b7 bf 20 48 45 bf
       1.5737821 1.5375941 -1.435323 -0.7706318
0001a0 ac f9 f6 bf e7 4c cc bf 1f 63 bb bf 46 83 02 c0
       -1.9294944 -1.5960969 -1.4639624 -2.0392623
0001b0 56 b8 e5 be c0 fa 39 bf 2a cd c2 bf 5d 92 c4 3f
       -0.448672 -0.7264824 -1.5218861 1.5357167
0001c0 1f 12 b5 bf 48 68 c4 3f 31 93 bc 3f 09 ec 05 c0
       -1.4146155 1.5344324 1.4732419 -2.0925314
0001d0 52 9c aa bf ca 03 b0 bf 14 55 ca bf d1 62 99 3f
       -1.3328955 -1.3751156 -1.5807214 1.1983281
0001e0 18 8d bc 3f 20 01 df be 5c 52 f6 bf 28 4d c5 3f
       1.4730558 -0.43555546 -1.9243884 1.5414171
0001f0 78 02 19 c0 12 d0 7c bf dc e2 30 bf 49 3e d3 bf
       -2.3907757 -0.9875499 -0.6909616 -1.6503383
000200 56 1f 7b bf d8 37 07 c0 73 40 45 bf 04 bc 8d 3f
       -0.9809469 -2.1127834 -0.77051467 1.1073003
000210 14 2a a5 bf 1f 1b 49 bf 36 cf c3 3f fd e0 6e bf
       -1.2903466 -0.7855701 1.5297611 -0.93312055
000220 0b f3 a6 bf fc 04 ba 3e 17 72 d5 bd 5d b5 c6 3f
       -1.3042921 0.36331928 -0.104221515 1.5524098
000230 09 e0 d7 3f d4 5d be 3f 6f 83 cf 3f 6a 0a 37 bf
       1.6865245 1.4872384 1.6211985 -0.71500266
000240 ef d6 03 c0 f3 7a 9f bf 30 79 af 3f 41 0d 63 bd
       -2.0599935 -1.2459396 1.3708858 -0.05543256
000250 96 1d bd bf 81 86 c6 bf 79 bf 06 c0 3d 82 0e c0
       -1.4774654 -1.5509797 -2.1054366 -2.226699
000260 9f 53 91 bf 0c b2 bd 3f 6d 7c 9c 3f 00 43 0e c0
       -1.1353644 1.481996 1.2225472 -2.2228394
000270 a9 03 d1 3f e4 20 09 c0 66 3d 99 bf 77 a7 93 bf
       1.6329242 -2.1426325 -1.1971862 -1.1535481
000280 07 ad 9b bf 3c 67 7e bf 3d 8c 0e c0 18 b9 02 c0
       -1.2162179 -0.99376273 -2.2273095 -2.0425472
000290 c2 9e 47 bf a1 a4 ab 3f ab 99 3e bf 3d 64 b3 3f
       -0.7797662 1.3409616 -0.7445323 1.4014965
0002a0 8c 20 1b c0 1c 26 ca bf d2 89 cf 3f b8 1b bc bf
       -2.4238615 -1.579288 1.6213934 -1.4695959
0002b0 c8 c8 c9 3f 0e cd a7 3f 5e cd d7 bf 09 64 c1 3f
       1.5764399 1.3109453 -1.6859548 1.5108653
0002c0 e4 40 7a bf bd 60 86 bf e9 32 c2 3f b3 24 00 c0
       -0.97755265 -1.0498272 1.5171787 -2.00224
0002d0 56 4f c1 bd d9 7f b4 bf b2 ed c7 3f 89 59 9b 3f
       -0.0943896 -1.4101516 1.5619414 1.2136699
0002e0 fb 73 a8 3f 33 a4 9f 3f 34 32 8f bf 78 1b 16 bf
       1.3160394 1.2471985 -1.1187196 -0.58635664
0002f0 cf 4f d5 bf ae 50 cc 3f ad ca ba 3f 3d ca bf 3f
       -1.6664981 1.5962121 1.4593102 1.4983593
000300 47 87 9e bf e7 83 2f 3e cb ea fc bf ba 70 d9 bf
       -1.2385033 0.1714016 -1.9759153 -1.6987526
000310 9a f4 02 c0 93 15 a7 3f b0 b2 bc bf 13 f7 0a bf
       -2.0461793 1.3053459 -1.4742031 -0.54283255
000320 0c 1e af be 9f ec cb 3f 58 7d ca bf f8 04 b6 bf
       -0.3420261 1.5931586 -1.5819502 -1.4220266
000330 3f a6 c1 bf 03 d6 b5 3f a2 ee 57 bf 78 84 d4 3f
       -1.5128859 1.4205936 -0.843485 1.6602926
000340 75 72 aa 3f 9f 32 54 3f 9a 87 82 bf 74 66 a9 bf
       1.331618 0.8288974 -1.0197632 -1.3234391
000350 51 6e 97 3f b6 cc 8a bf 5c f5 10 bf 96 ef a9 3f
       1.1830541 -1.0843723 -0.5662439 1.3276241
000360 cf 56 0c c0 1d 6a 75 bf 8e f1 c1 3f d5 a9 cf bf
       -2.1927984 -0.9586504 1.5151842 -1.6223704
000370 a0 0a 9a bf 07 2a d5 3f 8d fb 8b 3f 40 54 ff 3e
       -1.2034492 1.6653451 1.0936142 0.49868965
000380 58 56 d4 bf 54 45 aa 3f 9b 14 ea bf 8c 7a 18 bf
       -1.658885 1.3302407 -1.8287538 -0.5956199
000390 d5 41 55 bf 34 42 ef be 11 c2 87 be b3 aa cb 3f
       -0.83303577 -0.46730196 -0.26515248 1.5911468
0003a0 bb f8 d6 3c 6f 07 cd 3f 89 77 a4 3f 28 08 d0 bf
       0.02624165 1.6017894 1.2848979 -1.6252489
0003b0 cc fc b7 3f 8e e8 ca bf ba 25 c5 bf c2 0a 97 3f
       1.4374022 -1.585222 -1.5402138 1.1800158
0003c0 69 b4 92 3f d1 96 bf 3f e3 33 e0 bf e2 f9 68 be
       1.1461307 1.49679 -1.7515835 -0.22751573
0003d0 3b e4 bd 3f 09 1e 07 c0 20 a4 c7 3f 33 67 07 c0
       1.4835275 -2.1112082 1.5596962 -2.1156738
0003e0 ba 30 38 bf e6 76 9b bf b5 83 94 bf 84 ba 58 3f
       -0.7194935 -1.214566 -1.1602694 0.846596
0003f0 7b 45 bf 3f 3a 18 40 bf d4 5e a7 bf 2f 6c a9 bf
       1.4943079 -0.75036967 -1.3075814 -1.323614

utn.0.bias f4 [256]
000000 5b e6 69 c0 fd e9 3a 3f 92 5f df bf 2a 24 08 c0
       -3.6546848 0.7301329 -1.7451041 -2.1272073
000010 af 42 1c c0 3b 2e 4e bf c7 48 40 c0 48 4c b0 3f
       -2.44157 -0.8053929 -3.004442 1.3773279
000020 c7 f8 2a c0 e3 e9 e8 bf 69 93 29 c0 7a e6 25 c0
       -2.6714342 -1.8196377 -2.6496222 -2.5921922
000030 c0 c0 3a 3f 9c 95 4e bf d4 5d 0f c0 87 9e 36 c0
       0.72950363 -0.80697036 -2.2401018 -2.8534257
000040 6f ee a4 bf 7f 7c 00 3f 28 88 90 bf b3 cd 16 c0
       -1.2885264 0.50189966 -1.1291552 -2.356305
000050 e2 7d 80 3f c5 48 25 bf d3 dc 28 c0 ed bd 29 3f
       1.0038416 -0.6456416 -2.638478 0.6630543
000060 5a 3d 3b c0 05 63 33 c0 d4 60 45 bf e6 bd 29 3f
       -2.9256196 -2.8029187 -0.77100873 0.6630539
000070 eb f0 44 bf 36 b7 2d bf 93 c2 1d c0 ca ca 39 3f
       -0.7693011 -0.6785768 -2.4650009 0.72575057
000080 1e 49 d5 bf 72 29 eb bf 00 13 03 c0 c7 8a 17 be
       -1.6662939 -1.8372023 -2.0480347 -0.14799033
000090 17 96 28 bf 3e ad 4c 3e dd 28 bb be 5a af 55 bf
       -0.6585402 0.19987962 -0.36554614 -0.8347069
0000a0 2b c8 14 c0 53 ed 18 c0 cd 18 08 c0 0c 90 9c bd
       -2.3247173 -2.3894851 -2.1265137 -0.07644662
0000b0 80 b1 e6 bf 4a 03 c2 bf 79 bd 12 bf e8 95 3c 3e
       -1.8022919 -1.5157254 -0.5732036 0.1841656
0000c0 18 8a 82 bf 4a f4 4c c0 66 ba 5b 3e af 32 78 3f
       -1.0198393 -3.2024102 0.21457824 0.9695234
0000d0 e5 81 5d 3e 63 aa 20 c0 bb 46 45 bf 3b 45 d2 bf
       0.21631582 -2.5103996 -0.7706105 -1.6427377
0000e0 66 26 61 be 9e dc 95 bf 8f a9 d7 be 3a 10 5c be
       -0.21987304 -1.1707952 -0.4212155 -0.21490565
0000f0 b7 7e 03 bf e4 2c c8 3c ac 13 56 bf f0 cc cf bd
       -0.51365227 0.024435468 -0.83623767 -0.101465106
000100 0b 37 ec 3d ff cb 4b c0 cc 85 59 c0 64 9c dd be
       0.11533936 -3.184326 -3.3987913 -0.4328338
000110 6a 3a 8c 3f 94 a3 c6 3f b2 60 aa 3e 3a d5 f1 bf
       1.0955327 1.551867 0.33276898 -1.8893197
000120 28 df 40 bf 2a 26 b4 be b8 f3 6a bf 17 39 81 bf
       -0.7534051 -0.35185367 -0.91778135 -1.0095547
000130 cd eb d5 bf 8b 72 c6 3e b8 7d 04 c0 d7 ed 3d bf
       -1.6712586 0.38759264 -2.0701733 -0.7419104
000140 a9 ba 11 3f 32 52 ca 3f 47 15 bd 3f 3b 89 28 3f
       0.56925446 1.5806334 1.4772118 0.658344
000150 1c 19 b2 bf 4c 29 2d c0 9b c0 76 bf 93 73 f1 be
       -1.3913913 -2.7056456 -0.9638764 -0.4715849
000160 82 6d 4a bf df 02 d3 3e 79 df 2b 3e e4 d8 ca 3e
       -0.79073346 0.41213128 0.16784467 0.396186
000170 e1 84 26 bf 28 d1 1c bd 44 3a 15 bf 71 12 16 3f
       -0.6504651 -0.038285404 -0.5829203 0.5862189
000180 92 aa 96 bd 6d 94 1e bf 4d 9b 7b be d0 3b bd be
       -0.073567525 -0.6194523 -0.24570961 -0.36959696
000190 67 f9 9a be a2 72 59 3f b1 91 14 c0 26 bf 25 c0
       -0.30268404 0.8494054 -2.3213923 -2.5897918
0001a0 2f bb 90 bf a7 71 37 c0 42 8f 12 c0 96 de f3 3e
       -1.1307124 -2.8663118 -2.2899938 0.47630757
0001b0 59 cf 2a c0 7a d1 42 c0 67 75 d7 3d 4c 5e 67 bf
       -2.6689055 -3.0440354 0.105204396 -0.9037826
0001c0 95 6b 0f c0 cc c7 9d 3d 28 37 37 bf a8 3b eb 3e
       -2.2409413 0.07704124 -0.71568537 0.45943952
0001d0 15 ff 29 c0 97 2e 34 c0 2f a4 3d c0 50 d3 5c bf
       -2.656194 -2.8153436 -2.963146 -0.8625994
0001e0 9b e0 38 3f ab be 39 c0 80 28 62 3e 86 09 63 3f
       0.7221772 -2.9022624 0.22085762 0.88686407
0001f0 98 a3 57 3f 4f 38 06 c0 80 c6 1b c0 08 74 45 3e
       0.84234 -2.0971868 -2.4339905 0.19282544
000200 5d 78 bf bf 22 62 45 3f 4d 79 cf bf 0e 72 02 bf
       -1.4958607 0.77102864 -1.6208893 -0.50955284
000210 30 72 f1 bf 36 0b 50 c0 58 cf 05 3f d8 64 35 c0
       -1.8862972 -3.2506843 0.52269506 -2.83428
000220 12 f3 3d c0 b1 04 c0 c0 e6 0c e1 c0 c3 12 6f 3f
       -2.9679608 -6.0005727 -7.0328245 0.93388003
000230 07 bb 92 3f f9 08 53 3e b3 bf 17 bf 44 1b 0b c0
       1.1463326 0.20608892 -0.59276885 -2.1735392
000240 67 8a eb 3e 64 0f c0 bf ea c7 16 bf da 71 97 c0
       0.4600403 -1.5004697 -0.58898795 -4.732648
000250 cd e5 17 bf 52 8a 07 c0 0a 55 21 3f bf 0f 15 3f
       -0.59335023 -2.1178174 0.63020384 0.5822715
000260 a9 8c 2e c0 97 0a 2b 3f ce 8c 45 bf 38 ed 41 be
       -2.7273352 0.66813034 -0.77167976 -0.18938148
000270 f4 f6 9f 3f c3 22 9b be 29 5f 2c c0 9c cd 18 c0
       1.2497239 -0.3029996 -2.693308 -2.3875494
000280 18 ae 2a c0 2c bc 27 c0 c7 a6 34 bd 1e 12 40 3f
       -2.6668758 -2.62086 -0.044104364 0.75027645
000290 87 72 31 c0 e0 39 31 c0 91 a5 08 c0 34 79 f0 3e
       -2.7726152 -2.7691574 -2.1351054 0.4696747
0002a0 1d a0 d5 3e 9c 47 36 c0 73 4b 89 bd e2 17 0a c0
       0.4172372 -2.8481207 -0.06703844 -2.1577077
0002b0 44 20 c5 be 57 9c aa 3d 47 6b da bf 39 a8 26 3f
       -0.3850118 0.08330601 -1.7063988 0.6510044
0002c0 ca 64 73 bf d6 f5 c8 bf 96 95 3b bf 26 92 12 bf
       -0.95075667 -1.5700023 -0.73275125 -0.57254255
0002d0 aa 95 c3 c0 aa ed 27 c0 e7 f5 65 3f 47 b1 be bf
       -6.1120195 -2.6238809 0.8982834 -1.4897851
0002e0 7a 8b a2 bf 88 b8 b4 bf ae ff 15 c0 f1 6c ed bf
       -1.2698815 -1.4118814 -2.3437304 -1.8548871
0002f0 5d 3f 0e c0 1f fe 85 3f 04 23 7f be be 1e 0d 3f
       -2.2226174 1.0468177 -0.24915701 0.55125034
000300 83 c7 9a bf 68 76 f2 c0 f9 60 04 3f 85 ba 8f bd
       -1.2092136 -7.576954 0.5171047 -0.07017998
000310 64 c2 3d 3f ae bd 9c 3d 6a be 08 c0 00 40 29 c0
       0.7412474 0.07653366 -2.136622 -2.6445312
000320 4f a6 85 c0 46 19 55 3f f0 0e f9 bf 18 b5 ca bf
       -4.1765513 0.8324169 -1.9457684 -1.5836515
000330 b3 86 1b c0 80 a5 05 bf 78 99 da bf 30 4f 57 bf
       -2.4300964 -0.5220566 -1.7078085 -0.84105206
000340 f6 22 24 3e a5 db d0 bf bd a9 3f c0 3c 8b 2e c0
       0.16028962 -1.631703 -2.994735 -2.7272482
000350 f5 4f f4 bf d2 1e 21 c0 a4 2f 4b c0 24 77 04 3e
       -1.9086901 -2.5175061 -3.1747828 0.12936074
000360 b6 70 7a 3e 90 ea 07 c0 f8 12 3e 3f 15 1b 0e c0
       0.24457058 -2.1236916 0.74247694 -2.220403
000370 f5 90 3f c0 a0 5d 75 3f dc 7b a6 bf 21 b6 89 c0
       -2.9932225 0.95845985 -1.3006549 -4.3034825
000380 85 33 d1 bf 95 2e 22 bf f6 64 9b bf 43 64 fb bf
       -1.6343848 -0.6335233 -1.2140186 -1.9639972
000390 66 19 1c c0 e7 2a 65 c0 15 29 64 c0 c2 51 65 3f
       -2.4390502 -3.5807436 -3.5650074 0.8957788
0003a0 1d 9d e6 c0 51 10 32 be ea 45 9d be 72 ed 43 bf
       -7.206679 -0.17389037 -0.30717403 -0.7653419
0003b0 ed 71 13 3f 35 b9 f1 bf 7a ff ed 3d db 33 15 bf
       0.5759571 -1.8884646 0.11620994 -0.5828225
0003c0 f3 9f be bf bf ea f8 be f3 6c de 3c c0 ca 72 c0
       -1.4892563 -0.48616597 0.02715156 -3.7936249
0003d0 3c 63 6b bf 56 f3 08 3f 18 e7 5e 3f ef e3 98 3e
       -0.91948295 0.534963 0.8707137 0.298614
0003e0 74 5c cd bf 13 12 2a c0 be ab af bf f6 48 d3 bf
       -1.604384 -2.6573532 -1.3724287 -1.6506641
0003f0 e6 72 93 be 98 0b e8 bf cb 63 db bf 45 ae 4e bf
       -0.28798598 -1.8128538 -1.7139829 -0.80734664

utn.2.weight f4 [128, 256]
000000 ac d7 be bd c7 52 48 be 45 84 1b be 55 9a 08 be
       -0.0931848 -0.19562827 -0.15187176 -0.13340123
000010 66 9b 1a be 64 df fc bd e3 84 0e bd 48 c6 38 be
       -0.15098342 -0.12347296 -0.0347947 -0.18044388
000020 c8 06 7e bd 45 a6 06 be 17 aa 95 bd 6c 06 0a be
       -0.062018186 -0.13149364 -0.07307833 -0.13479012
000030 a3 fb 6a be cf 37 4a be 0c 59 8e bd bb 88 d8 bd
       -0.22947554 -0.19747852 -0.06950578 -0.10572954
000040 77 25 25 be 4c d5 50 be 64 d3 12 be 80 99 b2 bd
       -0.16127573 -0.20393866 -0.14338452 -0.08720684
000050 45 02 5d be 5c 3f 5b be ce 8d 0d be fb dd 31 be
       -0.21582897 -0.21410888 -0.13823625 -0.17369835
000060 32 60 c5 bd 91 9d 09 be 59 26 3f be 69 50 37 be
       -0.096374884 -0.13439013 -0.18666972 -0.17901768
000070 fe 71 50 be 9a 6f 09 be 65 f0 f7 bd c2 93 4f be
       -0.20355985 -0.13421479 -0.121063985 -0.20271209
000080 d7 7b 10 be 83 78 9d bd 24 cd 4a be 20 32 3d be
       -0.14109741 -0.076890014 -0.19804817 -0.18476152
000090 ca 2d 41 be bb 7a d9 bd b6 f9 69 be f3 3e 65 be
       -0.18865123 -0.10619112 -0.22849163 -0.22387294
0000a0 84 a5 e4 bc ad 69 36 be ff 85 aa bd 4c 25 7c be
       -0.027910955 -0.1781375 -0.08326339 -0.24623603
0000b0 9b 87 32 be db ed 19 be ee ad 03 be 5a 33 26 be
       -0.17434542 -0.15032141 -0.12859318 -0.16230527
0000c0 6d 33 5c be 42 97 f4 bd 6d 8e 41 be 5d df 0e be
       -0.21503992 -0.11942913 -0.18901987 -0.13952394
0000d0 b7 db 4f be 17 97 f1 bc c7 87 3e be 79 77 20 be
       -0.20298658 -0.02949099 -0.18606482 -0.15670575
0000e0 53 c9 d8 bd ed 45 22 be fe af f8 bd 5c 3d 03 be
       -0.105852745 -0.15846987 -0.12142943 -0.12816375
0000f0 aa 64 48 be f6 c9 5a be 32 09 24 be af ae ec bd
       -0.1956965 -0.21366104 -0.16019133 -0.11556756
000100 ef 09 41 be 2d 69 0a be e0 90 52 bd 17 0f c6 bd
       -0.18851446 -0.13516684 -0.051407695 -0.09670847
000110 75 c9 42 be 82 d8 64 be 71 d9 78 be 4b cd d2 bd
       -0.19022162 -0.22348216 -0.24301697 -0.10293063
000120 36 40 0b be c5 3f 4c be b0 76 16 be 3d c8 07 be
       -0.13598713 -0.19946201 -0.14693713 -0.13259979
000130 ee b1 5c bd c3 87 0e be 18 53 03 be 55 3d 5c be
       -0.053880624 -0.13918976 -0.12824667 -0.21507771
000140 60 0e 7b be 98 5b e6 bd 67 5d 15 be ad 09 2c be
       -0.24517202 -0.11247939 -0.14586411 -0.16800566
000150 d2 a0 40 be e5 3a 14 bd 9d fc a2 bd d6 ba d6 bd
       -0.18811348 -0.03618898 -0.079583384 -0.10484855
000160 70 31 64 be ae 8f 4b be e1 9f 4d be a0 ff cd bd
       -0.22284484 -0.19879028 -0.2008052 -0.10058522
000170 33 7b 47 be 47 b3 3f be e6 3d 43 be dc 8e 5a be
       -0.1948059 -0.18720733 -0.19066581 -0.21343559
000180 2e b2 53 be 27 92 16 be db 18 49 be 28 62 62 be
       -0.20673439 -0.1470419 -0.19638388 -0.22107756
000190 af df de bd 10 ac 4c be 05 fb ec bd 09 a4 09 bd
       -0.10882508 -0.19987512 -0.11571316 -0.0336037
0001a0 84 3e 48 be ba 10 df bd c5 12 cc bd 5c f9 33 be
       -0.19555098 -0.10891862 -0.099645175 -0.17575592
0001b0 ae d6 ed bd 74 7a ee bb 76 98 20 be dd 5a 6f be
       -0.116132125 -0.007277781 -0.15683159 -0.23374505
0001c0 cf 66 26 be 1e 57 58 be 6d 2f e1 bd 69 29 4c be
       -0.16250156 -0.21126983 -0.10995374 -0.19937672
0001d0 32 8c 2f be 58 14 c7 bd f0 60 8e bd de 29 1b be
       -0.17143324 -0.09720677 -0.06952083 -0.1515269
0001e0 44 a3 11 be 53 00 92 bd 40 c9 1a be de f3 3a be
       -0.14222437 -0.07128968 -0.15115833 -0.1825709
0001f0 c8 03 5f be ab 5d 3d be b1 42 0d be 47 ce 12 be
       -0.21778786 -0.18492763 -0.13794972 -0.14336501
000200 08 22 2b be 35 5c 34 be 85 eb ce bd e4 37 0a be
       -0.167122 -0.17613299 -0.101035155 -0.13497883
000210 af be 3d be eb ef bf bb d6 f0 5a be 37 88 09 bd
       -0.18529771 -0.005857458 -0.21380934 -0.03357717
000220 9b d6 0c be 86 6a 8b bd 9b 9c 3c bc 96 17 48 be
       -0.1375374 -0.06807427 -0.011511947 -0.19540247
000230 21 f7 ec bd ad 6b 61 be 29 07 59 be 70 8f f8 bd
       -0.115705736 -0.22013731 -0.21194138 -0.121367335
000240 c3 f2 3b be cb 2f a8 bd fc e9 44 be f6 85 1a bd
       -0.18354325 -0.08212241 -0.19229883 -0.03772541
000250 b2 71 37 be e5 fe 35 be da 31 0e be 86 3e 73 be
       -0.17914465 -0.17773016 -0.13886204 -0.2375432
000260 6c 25 b1 bd 3d f7 de bd d9 80 32 be d3 50 32 be
       -0.08649716 -0.10887001 -0.17431964 -0.17413644
000270 68 5a 43 be 47 ee 14 be 37 53 2b be 8a 8f f5 bd
       -0.19077456 -0.1454402 -0.16730963 -0.119902685
000280 92 05 d6 bd 32 b0 94 bd 0f c9 39 be f3 df 10 be
       -0.10450281 -0.07260169 -0.18143104 -0.1414793
000290 a6 04 bf bd a1 3f c8 bd c7 72 8e bd 57 72 3d be
       -0.093270585 -0.09777761 -0.06955486 -0.18500648
0002a0 ef d8 10 be 66 b8 1f be ee ae 2e be 27 3e 1d be
       -0.14145254 -0.15597686 -0.17058918 -0.1535574
0002b0 14 a4 09 be 9b 29 f3 bd 6d 75 50 be ba 4e 65 be
       -0.13441497 -0.1187317 -0.20357294 -0.22393313
0002c0 04 cf d9 bd ea d6 f2 bd 56 c0 0b be f5 10 84 be
       -0.10635188 -0.11857398 -0.13647589 -0.25794187
0002d0 c3 9c 03 bc 44 63 6c bd b1 1b 2c be c7 81 58 be
       -0.00803298 -0.057711855 -0.16807438 -0.21143256
0002e0 7d cb ee bd b2 fc 50 be 7e 62 bd bd bc 6e d3 bd
       -0.11659906 -0.20408896 -0.092473015 -0.10323855
0002f0 55 e0 53 be e5 d7 14 be 8c b9 68 be 77 cb 20 be
       -0.20691045 -0.14535482 -0.2272703 -0.15702616
000300 58 8e 4c be af 38 59 bd a6 8d 33 be a9 81 fb bd
       -0.19976175 -0.053032573 -0.17534503 -0.1228059
000310 91 f4 57 be 94 a1 ec bd 52 c4 22 be 0d b4 e4 bd
       -0.21089388 -0.11554256 -0.15895203 -0.111671545
000320 60 63 ec bd 78 af 6a be dd 40 f5 bd e6 99 32 be
       -0.11542392 -0.22918499 -0.11975262 -0.1744152
000330 71 7e 1a be 8d 59 13 be 37 25 a9 bd 93 b4 db bd
       -0.15087296 -0.1438963 -0.08259051 -0.10727801
000340 a5 b2 e9 bd 18 70 20 be 3d b8 a8 bd 7c b1 11 be
       -0.11411027 -0.1566776 -0.08238266 -0.14227861
000350 37 e5 27 be a4 f0 af bd 46 79 55 bc 75 5b 4a be
       -0.16396032 -0.085908204 -0.013029402 -0.1976145
000360 70 f3 16 be c6 81 19 be 7a 5b 3d be 7f 54 05 be
       -0.14741302 -0.14990911 -0.18491927 -0.13020514
000370 db 25 e0 bd 60 1e 28 be 07 f4 40 be 7c 6e 30 bc
       -0.1094472 -0.16417837 -0.18843089 -0.010768529
000380 aa e8 51 be 77 92 59 be 7a 0d 58 be 7e 51 1f be
       -0.2049891 -0.21247278 -0.21098891 -0.1555843
000390 2a bd 1a be cc ef 74 bd 7b 08 b4 bc cf 95 3f be
       -0.15111223 -0.059799 -0.0219767 -0.18709491
0003a0 b7 52 83 bc 1a c1 e4 bd 09 f3 ff bd d2 8b 50 be
       -0.016030652 -0.11169644 -0.12497527 -0.20365837
0003b0 05 16 33 be 2c 2b 46 be a0 7a 62 be 7d 78 20 be
       -0.17488869 -0.19352406 -0.2211709 -0.15670963
0003c0 7e f1 ce bd f2 7f ed bd 23 24 1f be 2e ef 54 bd
       -0.10104655 -0.11596669 -0.15541129 -0.051985912
0003d0 fd f7 50 be 08 26 16 be 3f 83 4a be 46 59 6c be
       -0.204071 -0.14662945 -0.19776629 -0.2308093
0003e0 59 5e d5 bd a9 0a 84 bd 68 c5 46 be 03 68 5f bd
       -0.10418386 -0.06447346 -0.19411242 -0.054542553
0003f0 f1 2f 0f be 96 2d 26 be 17 37 27 be 77 77 bc bd
       -0.13983132 -0.16228327 -0.16329609 -0.092024736

utn.2.bias f4 [128]
000000 7e 9b 4c be 07 42 11 bf 31 16 42 be fe 99 79 be
       -0.1998119 -0.56741375 -0.18953778 -0.2437515
000010 77 90 69 be 4a 4b 0d 3f 4e 33 12 be 87 ad 53 be
       -0.22809015 0.55193007 -0.14277384 -0.20671664
000020 34 54 60 be 77 ce bd bd 55 d3 04 bf 75 aa 1b be
       -0.21907121 -0.09267896 -0.5188497 -0.15201743
000030 49 77 d1 be f0 1e 74 be 6c 30 4f be 28 9d 22 be
       -0.4091132 -0.23839927 -0.20233315 -0.15880263
000040 ab ca eb bd 31 31 51 be 0d b9 3d be c7 87 75 be
       -0.11513265 -0.20428921 -0.18527623 -0.23977576
000050 f5 9f ce 3a d2 76 b7 bd 44 71 bf be 26 00 5c be
       0.0015764224 -0.0895821 -0.37391102 -0.21484432
000060 67 e3 b7 be da 6e 38 be 46 6e a2 bd b5 93 b4 bd
       -0.35915682 -0.18011037 -0.07931189 -0.088172354
000070 67 c7 14 be fa 12 6c be 3a 41 80 be c0 40 7b bd
       -0.14529191 -0.23054114 -0.25049764 -0.061341047
000080 ae 85 3e be 48 c5 5f be 12 5f 90 be 1b 96 60 be
       -0.18605682 -0.218526 -0.28197533 -0.2193226
000090 57 31 fa bd 41 8c a6 bd ff 98 55 be 5d 22 d6 be
       -0.12216442 -0.0813222 -0.20859145 -0.41823092
0000a0 92 a2 81 be 21 d7 60 be 24 86 f4 bd 6e 93 53 be
       -0.25319344 -0.21957065 -0.11939648 -0.20661709
0000b0 a7 64 80 be b1 9c cc bd 0b e8 16 be 53 c0 6c be
       -0.25076792 -0.09990824 -0.14736955 -0.23120241
0000c0 00 56 c5 be b9 06 93 be 33 c7 72 3e fb 9e ae be
       -0.38542175 -0.28716066 0.23708801 -0.34105667
0000d0 77 6d bb be 4c f3 75 3e 10 0b b9 bc 72 87 1f be
       -0.36606953 0.24018592 -0.022588283 -0.15579012
0000e0 07 a1 3a be 33 86 cc be 27 ba 92 be 7b f5 5f 3e
       -0.1822549 -0.39946136 -0.28657648 0.21870987
0000f0 aa 5e 64 be 9b 60 86 be 38 01 d8 be 5f ad a1 bd
       -0.22301736 -0.2624558 -0.4218843 -0.07894396
000100 57 fa 8c be 6c 1a 6d be 9a 13 1b be df fa 56 be
       -0.27534744 -0.2315461 -0.15144196 -0.20994137
000110 08 ea 00 be 3d 45 33 be 00 1e 00 be 0a 31 26 3e
       -0.12589276 -0.17506881 -0.12511444 0.16229644
000120 66 30 60 be 28 f2 4f bd 0b 98 0a bf fb 15 6f be
       -0.21893463 -0.050768048 -0.5413825 -0.23348229
000130 5a a2 8a 3d 61 ba 97 be 9e 9c 4e be 1c 82 0b be
       0.06769247 -0.29634383 -0.20176932 -0.13623852
000140 97 2f 51 be 11 e1 02 be f6 32 5c be 08 4a 61 be
       -0.2042831 -0.12781169 -0.21503815 -0.22000897
000150 cb 9d a0 3e bc 33 0a be 5a 54 81 be 0d a7 c0 3d
       0.31370386 -0.13496298 -0.25259668 0.094068624
000160 a9 c6 37 bd b2 05 75 be 9d 42 4e be c5 24 20 be
       -0.04486719 -0.23927954 -0.20142598 -0.15639026
000170 e5 29 97 be 01 13 4d be 6e a9 c4 be f6 0e ed 3d
       -0.2952415 -0.2002678 -0.38410515 0.11575119
000180 6f 00 4a be f3 29 44 bd f6 f3 49 be d0 15 4a 3b
       -0.19726728 -0.04789157 -0.1972197 0.0030835755
000190 d6 ca df be 9d 16 e7 be e8 7b 80 3e 5e 8e 4b 3e
       -0.4370944 -0.4513444 0.25094533 0.19878528
0001a0 15 45 9e 3d 88 e3 65 be d1 7f 03 be 62 00 99 be
       0.0772802 -0.22450078 -0.12841727 -0.29883105
0001b0 d5 4c 5c be d6 b7 34 be e3 dd 82 be 11 c7 36 be
       -0.21513684 -0.17648253 -0.2555991 -0.17849375
0001c0 73 0a 4c be a7 d4 85 be 2e 2a be be 84 4d 45 be
       -0.19925861 -0.26138803 -0.37141556 -0.19267851
0001d0 94 3c a5 be 59 5e 87 be d5 3e e2 be 2c ad c8 be
       -0.3227278 -0.2643917 -0.44188562 -0.3919462
0001e0 b7 b0 8b be 27 45 a8 be a5 80 51 be be 4f c6 be
       -0.2728326 -0.3286526 -0.2045923 -0.38732713
0001f0 bb fc eb bd 05 a5 76 bd 57 71 46 be 3c 22 81 be
       -0.11522814 -0.06021597 -0.19379173 -0.2522143

utn.4.weight f4 [15, 128]
000000 0f cf 82 bd 08 69 36 be dc 96 8d bd b9 31 ff bd
       -0.063871495 -0.17813504 -0.0691354 -0.12460656
000010 60 f5 02 3d 13 eb 93 be 4d 6d e8 be ae 03 0d bd
       0.03197229 -0.28890285 -0.4539589 -0.034427337
000020 35 73 ff bd 6c 1f 96 be 6c 09 70 bd fd 26 0c be
       -0.12473146 -0.29320848 -0.058602735 -0.13686748
000030 2c 78 cb bd e3 7c 7a bd ad 0e be bd 80 c1 8c be
       -0.0993503 -0.061154258 -0.09280143 -0.2749138
000040 e6 fa a3 3e 62 62 fd bb cb 05 9e 3c 07 ca d7 bd
       0.32027358 -0.0077326754 0.019289872 -0.105365805
000050 dc 31 9f be 44 3c 47 be 19 2a b8 bd 21 98 8b 3b
       -0.31092727 -0.19456583 -0.089924045 0.0042600785
000060 07 ec e5 bb b0 bd ec bd c7 44 a5 be a2 d7 89 be
       -0.007016662 -0.115596175 -0.32279035 -0.26922327
000070 0f 4a 24 bb a7 c4 3d bb c6 5c aa bd dd 57 45 be
       -0.0025068556 -0.0028956325 -0.083184764 -0.19271798
000080 48 25 4d 3c e1 2b 06 3c a5 21 e4 bd 22 82 2a bd
       0.012521096 0.0081891725 -0.1113923 -0.04162801
000090 cc 5d 7d bd 32 1f a7 be 01 48 34 bd 9d 38 f3 3e
       -0.06185703 -0.32640988 -0.04401398 0.4750413
0000a0 38 57 af 3e 2c 36 19 be 24 b4 14 be 60 66 d0 3b
       0.3424623 -0.14962071 -0.14521843 0.0063598603
0000b0 ed 3f a7 bd f7 82 c5 be f9 6c 10 bd 33 0b 4a bd
       -0.0816649 -0.3857648 -0.035260174 -0.049327087
0000c0 ef 85 26 be 93 75 11 bd b1 32 ec be d9 11 c8 bb
       -0.16262029 -0.03551252 -0.46132424 -0.006105643
0000d0 6a a6 ce 3e 55 9b dd be 1a d4 9d be 6e fd fe 3c
       0.4036134 -0.4328257 -0.30825883 0.031126704
0000e0 1c 39 31 3b d2 27 1c 3f d8 8c e4 bc a4 9e cd be
       0.0027042096 0.6099826 -0.02789919 -0.40160096
0000f0 3e b9 88 be 11 a3 34 be 0e 03 40 3d fb 7e bb bd
       -0.2670383 -0.1764033 0.046877913 -0.09155079
000100 55 75 87 bd c4 15 fd 3c ef 65 7f be f2 b4 f9 bd
       -0.06614176 0.030894168 -0.24941228 -0.12192716
000110 58 41 8d bc ce e0 12 bd a4 54 fa bd 26 68 cc be
       -0.017243072 -0.03585892 -0.12223175 -0.3992321
000120 3f d7 2f bd 25 f1 bd 3d a4 f2 30 3f 13 a8 81 3e
       -0.042929884 0.0927451 0.6912024 0.25323543
000130 1c e5 b0 bd 22 26 5a be cb 2b f5 bc 9a a3 86 bd
       -0.08637449 -0.21303609 -0.029928109 -0.06574173
000140 fd ac b6 bd 50 11 83 bd 75 84 81 ba b3 aa 60 3d
       -0.08919714 -0.063997865 -0.0009881394 0.05485029
000150 bc 3d 97 be 23 e7 44 bc 6d 50 f2 bd b2 32 26 be
       -0.29539287 -0.012017998 -0.11831746 -0.16230276
000160 4d 00 75 be aa 24 ab 3d 91 71 8a be 69 7a 68 bd
       -0.23925896 0.083566025 -0.2703977 -0.056757364
000170 8a be 03 bd 6c 19 06 be ee bf 97 bd 64 85 09 be
       -0.032164134 -0.13095635 -0.074096546 -0.1342979
000180 93 9c 11 be 9a 83 31 be 13 5a ac bd 44 07 5f bd
       -0.14219885 -0.17335358 -0.08415618 -0.05445029
000190 7a a9 d2 3e 90 41 97 be c9 14 35 bf f0 f1 d2 be
       0.41144925 -0.29542208 -0.7073484 -0.4120021
0001a0 23 bd c4 3d c8 13 c0 bc 5d 01 0e be b0 ee a5 be
       0.096063875 -0.023446932 -0.13867708 -0.32408667
0001b0 ca 09 10 be ec 21 8e bd 0b e5 d3 be ac e5 8d bc
       -0.14066234 -0.06940064 -0.41385683 -0.01732143
0001c0 88 6a 8c bd e2 f6 bf be c3 11 ff bd 28 e9 4e 3d
       -0.06856257 -0.37493044 -0.1245456 0.050515324
0001d0 7c cb 6f 3e d5 7e 7f be 8a de 40 3f c8 ac 1e 3d
       0.23417467 -0.24950726 0.7533957 0.038738996
0001e0 1a 42 6a bd c3 20 8d be e3 c6 68 bd 33 1b 40 3d
       -0.057191946 -0.27564058 -0.0568303 0.04690094
0001f0 68 b2 a1 bd c8 77 cd bd ef e3 f2 bc 2d 11 44 bd
       -0.078953564 -0.10032612 -0.029649703 -0.047867943
000200 3c 1e a3 bc 10 76 dc be 90 e8 9d bd 85 6c 89 bf
       -0.019911878 -0.43058825 -0.077103734 -1.0736243
000210 13 51 76 bd 87 d1 22 bf 2c 50 d5 be 6d 79 14 bf
       -0.060135912 -0.63600963 -0.4166273 -0.5799778
000220 51 57 9d 3c bb 28 b6 bf d2 a0 d2 be 1a 3e 2f 3c
       0.019206675 -1.423118 -0.4113832 0.0106959585
000230 33 4a cd be 97 fc 79 3d be 9f 56 bd 5a 42 1c c0
       -0.40095672 0.061031904 -0.052398436 -2.4415498
000240 57 e3 1e bf c9 9c cb bb fd 71 bd bf 39 41 81 bd
       -0.62065643 -0.0062137586 -1.4800411 -0.06311268
000250 e4 a8 90 bf 6a 06 12 bf da 23 9f bd 32 df 19 3d
       -1.1301541 -0.5704104 -0.0777051 0.03756637
000260 50 cd c2 bd b1 ca 3d 3b 1b cd 5f bf 5c d5 57 c0
       -0.095118165 0.0028959925 -0.8742234 -3.3723974
000270 71 f3 ac 3b ed 14 b8 3d 29 99 cf 3d bb 81 10 bf
       0.005278044 0.08988366 0.10136635 -0.56447953
000280 11 d1 26 3c 6b 97 62 bd 4f 62 8b bf 62 81 02 3d
       0.010181681 -0.055320185 -1.0889376 0.03186167
000290 01 30 ed be 13 b7 09 bf f4 d2 f9 3c f1 cb 41 bd
       -0.46325687 -0.53794974 0.030496098 -0.047313634
0002a0 0a 8e e5 be a8 cc 3f bd 32 9f 88 bf 45 42 15 3d
       -0.4483493 -0.046826035 -1.0673583 0.036440153
0002b0 b3 0a 42 ba 03 b5 63 3e 19 3f 7a bd 05 19 93 bc
       -0.0007402107 0.22237019 -0.06109533 -0.017956266
0002c0 5b 34 3d bb 08 a3 04 3d b2 f5 27 be 2f 15 09 be
       -0.0028870318 0.03238204 -0.16402319 -0.13386987
0002d0 34 23 d3 be 1f 62 2a bf de e7 81 3f 28 11 c8 3d
       -0.41237795 -0.6655597 1.0148885 0.09768897
0002e0 14 c4 db bc 20 36 cf be ab 99 76 3d 25 93 5b be
       -0.026826896 -0.40470982 0.060205143 -0.2144285
0002f0 e0 9b 0d bf 49 67 42 bf a7 bd 6f bd 53 3f f2 be
       -0.5531597 -0.7593885 -0.058530476 -0.47313938
000300 d1 57 3a bd 99 70 83 bd 30 99 68 bf 52 07 95 bd
       -0.045493905 -0.06417961 -0.90858746 -0.07276787
000310 24 a8 21 bc 4e 05 3a 3d dd ab 25 bc 5b 58 73 be
       -0.009866748 0.045415215 -0.010111776 -0.23764174
000320 b0 bc 54 3d dd 01 95 bf 04 7e aa be 8e ac 48 bf
       0.05193776 -1.1641194 -0.33299267 -0.783883
000330 c6 e7 a1 3f 34 42 2c be 5d 17 b7 bd 81 73 29 3c
       1.2648857 -0.1682213 -0.08940003 0.01034248
000340 25 ca ae bc 60 6e af 3a 4f 9a 76 bc 44 6b 5f bf
       -0.021336624 0.0013384335 -0.0150514385 -0.8727305
000350 f7 59 b3 3f 9c 54 cd 3b a6 46 a4 3d 87 59 bc 3f
       1.401183 0.0062661897 0.080212876 1.4714822
000360 fb a7 63 bf cc 58 31 bf 39 60 21 be f8 ec d4 3d
       -0.8892819 -0.6927612 -0.15759362 0.10396761
000370 8c 5b 51 3d a3 a1 03 bd a4 8b b5 be 4f 70 c1 bf
       0.051112697 -0.03213657 -0.354581 -1.5112399
000380 15 19 9d 3c fa 92 8f bf f8 11 08 3d 3e 65 8e bf
       0.019177 -1.1216729 0.03322026 -1.1124647
000390 25 e9 a7 be 00 c2 a8 be 7c d3 4a bd 5b 54 21 be
       -0.32795063 -0.3296051 -0.049518093 -0.15754835
0003a0 e9 71 79 bf ee 67 d3 bd 34 ee e8 3b b7 27 53 bf
       -0.9743944 -0.103225574 0.007108474 -0.82482475
0003b0 b6 51 2d bd e3 aa a0 bd 89 cf f6 be 36 9b 29 3c
       -0.042314254 -0.07845094 -0.48205212 0.010351947
0003c0 f3 40 94 bd 11 70 77 bf b4 04 a7 be f0 3c ac 3c
       -0.072389506 -0.96655375 -0.32620776 0.021025151
0003d0 b3 29 1b bf 79 a1 52 be 0f bf 59 be fe 55 92 bf
       -0.606105 -0.2056941 -0.2126429 -1.1432493
0003e0 ae ff 6e bd fb 74 d4 bd ce a2 8c 3c a2 e0 f8 bd
       -0.058349304 -0.10373875 0.017167475 -0.1215222
0003f0 82 8b f5 bf 88 36 2a bf 09 c1 0b bd f2 a0 62 3d
       -1.91832 -0.6648946 -0.03411964 0.05532927

utn.4.bias f4 [15]
000000 c4 92 ed be 07 9a 3f be f7 5b 83 3a 1d a0 30 3d
       -0.46401036 -0.187111 0.0010021914 0.043121446
000010 79 4f 0c be 3a df b1 3d 5a 47 6d 3c 49 a7 6b be
       -0.13702191 0.08685155 0.014482344 -0.23013033
000020 fe 26 a3 bd 9c df e8 be b1 21 bc bd d4 49 4e 3e
       -0.079664215 -0.454831 -0.091861136 0.2014535
000030 01 e7 55 bd f0 02 90 bd 16 c1 4a be
       -0.052222256 -0.0703181 -0.19800219

itn.0.weight f4 [256, 2]
000000 b9 1e b6 bf 05 f5 2e 3f 68 e3 cb bf a9 44 85 bf
       -1.4228126 0.6834262 -1.5928774 -1.0411578
000010 70 64 e4 bd fb 88 12 40 d0 9d 7d 3f 9d 86 50 bf
       -0.111519694 2.2896106 0.9906893 -0.81455404
000020 f9 94 a7 bf 42 76 67 3f f6 57 ad bf fa df 38 3e
       -1.3092338 0.9041482 -1.3542469 0.1805419
000030 ff c8 a3 bf 37 33 98 bf a3 c0 a8 bf 6a 75 4d be
       -1.2795714 -1.189063 -1.3183788 -0.20064321
000040 7a 2a a5 bf 89 2e b3 bd f5 25 e9 be 49 c4 6f c0
       -1.2903588 -0.0874911 -0.4553677 -3.7463553
000050 51 5b 80 bf 34 6c 20 bf 5c c3 e9 bf f0 eb c5 bf
       -1.0027868 -0.62665105 -1.8262744 -1.5462627
000060 25 6c ee 3e 56 dd 80 bf 78 2a 8a 3d ab f4 1a 3f
       0.46566883 -1.0067546 0.067463815 0.60529584
000070 9d 9f 6b 3f 4f 81 83 bf 29 ef a3 bf e5 1d 0f 3e
       0.92040426 -1.0273837 -1.2807361 0.13976248
000080 a9 de 9f bf e7 c6 8b be 64 b0 28 bf f9 39 27 c0
       -1.2489825 -0.27300188 -0.6589415 -2.6129134
000090 e5 88 c2 bf 45 a1 b5 bd 1f 0e 95 bf 54 fa 68 bf
       -1.5198027 -0.0886865 -1.1644934 -0.9100697
0000a0 f0 e4 7a bf 16 63 06 c0 7c e4 ca bf 27 70 ee bf
       -0.9800558 -2.0997977 -1.5850978 -1.8627976
0000b0 0e 83 9b bc 39 8e 0e c0 b4 3c b3 be eb c6 c6 3f
       -0.01898339 -2.2274306 -0.3500725 1.5529455
0000c0 5d 57 b2 bf 83 71 c8 3e 25 c4 6c 3f a5 08 9b be
       -1.3932911 0.39149103 0.9248679 -0.30280033
0000d0 d0 75 9d 3f 76 38 d8 bc 88 37 b5 bf 8d fc 06 3f
       1.2301579 -0.02639411 -1.4157572 0.5272911
0000e0 ec cf ff be 93 f0 24 c0 ad b4 37 bf 9b cf a2 be
       -0.4996332 -2.5771835 -0.71760064 -0.31799015
0000f0 31 62 9e bf 42 5d 5d bf 7c 3a b4 bf f7 07 6e bf
       -1.2373716 -0.86470425 -1.4080348 -0.92980903
000100 79 8d 85 bf 18 e6 e7 bf 02 83 e6 bf f0 6f 0c c0
       -1.0433799 -1.8117094 -1.800873 -2.1943321
000110 e9 e9 19 3f c2 c6 cc bf e1 d4 56 bf b3 25 eb bf
       0.60122544 -1.5998156 -0.8391858 -1.837088
000120 c3 bd 34 bf 01 34 c6 3f 3e 4e aa bf ee 2c d6 be
       -0.70602053 1.548462 -1.3305128 -0.41831154
000130 e1 9a d6 3e 97 c3 e4 bf 69 cc 93 bc bc bb e3 bf
       0.41915038 -1.7872189 -0.018041806 -1.7791667
000140 f1 e8 a5 bf 4d 82 e3 3e 14 cb 9f bf c7 e6 1f 3e
       -1.2961713 0.4443535 -1.248385 0.15615378
000150 1a 73 c7 be df dc 9b 3f e9 87 a2 bf 2d cd af bd
       -0.38955003 1.217678 -1.2697726 -0.08584056
000160 82 85 ed bf 5b 5c d0 bf a3 79 14 bf ad f9 8e 3f
       -1.8556368 -1.6278185 -0.579981 1.1169945
000170 41 7b ec bf 1b e9 d0 bf 7b b8 ac bf 40 44 a2 be
       -1.8475114 -1.6321138 -1.3493799 -0.31692696
000180 50 33 93 bf b5 6f 9c bf e1 a8 7b 3f d7 72 c4 bf
       -1.1500034 -1.222159 0.98304564 -1.5347546
000190 67 cf a4 bf 05 d4 f5 3d d0 33 9b bf 68 64 28 bf
       -1.2875794 0.1200333 -1.2125187 -0.6577821
0001a0 1e bc 9b bf 7a 2c c5 be 9c 32 8e 3e cc fd 1d c0
       -1.2166784 -0.38510495 0.27772987 -2.4686155
0001b0 ce ca 3a 3f 75 67 02 be e0 df 7b bf ea 3a fb bf
       0.72965705 -0.12734778 -0.9838848 -1.9627354
0001c0 db 07 b9 bd 36 17 f9 bf 33 8e 01 c0 6d b7 24 be
       -0.090347014 -1.9460208 -2.0243042 -0.16085596
0001d0 87 cd ac bf 01 1e b4 3e 87 74 a0 bf 5b 34 0a bf
       -1.3500222 0.3517914 -1.2535561 -0.5398614
0001e0 5e 94 cd bf ac 84 89 bf 48 f1 96 bf ad 6b 3d bf
       -1.6060903 -1.0743613 -1.1792383 -0.73992425
0001f0 1b 22 09 3f a1 96 d9 bf 68 29 8d bf 79 58 e3 bf
       0.53567666 -1.6999093 -1.1028261 -1.7761375
000200 07 3a e2 bd f5 29 25 bf ed 07 b6 bf c8 a9 a4 3e
       -0.11046224 -0.64517146 -1.4221169 0.32160783
000210 c4 85 a1 bf 72 cf 3b bf 5c 7f 98 bd 67 16 68 c0
       -1.2618947 -0.7336341 -0.07446167 -3.6263673
000220 06 d2 51 3f 38 86 ec bf 19 e8 f9 bd 7b 2c 3b bf
       0.81961095 -1.847846 -0.12202472 -0.73114747
000230 6c 90 e4 3d 86 67 db be 54 77 99 bf 57 26 cc bf
       0.11160359 -0.4285242 -1.1989541 -1.59492
000240 5d 42 82 3f 88 58 99 be 2b 23 2f be ad 21 e0 bf
       1.0176502 -0.29950356 -0.1710326 -1.7510277
000250 fc 6f 85 bf 91 6a cf bf 51 e1 fe bf 84 3e 09 bf
       -1.04248 -1.6204396 -1.9912511 -0.53611016
000260 74 0d b1 bf 24 5e dc be a4 63 a7 3f 31 29 a3 bf
       -1.383223 -0.43040574 1.3077283 -1.2746946
000270 c2 ed a0 bf 50 57 5e bd af d5 a9 bf dd 89 d3 3d
       -1.2572558 -0.054282486 -1.3268336 0.1032903
000280 09 9c 8f bf cd a5 70 bf ac c5 9d bf 0d 23 a0 3c
       -1.1219493 -0.9400299 -1.232595 0.019547964
000290 db 1c 8b bf c7 2b 6c bf cb 3c bc 3e 8a 09 f4 bf
       -1.0868181 -0.922543 0.3676513 -1.9065411
0002a0 41 a9 1f bf 0d c7 e0 3f 92 cf c1 3f 89 4c a3 bf
       -0.62367636 1.7560745 1.514147 -1.2757732
0002b0 59 29 ae bf 3e 9c 6a 3e b8 d7 4b bf cd 34 15 c0
       -1.3606368 0.22911164 -0.79626036 -2.3313477
0002c0 d6 94 13 bf 3e 1e 02 40 e1 c3 aa bf b8 8a 7b 3f
       -0.5764898 2.0330958 -1.3341027 0.98258543
0002d0 6b 07 5f 3f 16 a6 d1 be 18 37 9a bf 27 04 2a be
       0.87120694 -0.40947026 -1.2048063 -0.16603146
0002e0 61 96 97 bf 03 99 93 bf a7 43 9e bf 2b 45 6d be
       -1.1842767 -1.153107 -1.2364396 -0.23170917
0002f0 df 4f 5b 3f aa 59 85 bf 90 24 c2 3f 70 e9 24 bf
       0.8566875 -1.0417988 1.5167408 -0.644187
000300 7b 67 0f 3d 28 e9 ed bf 4b b9 9b bf ff ae 1d bf
       0.035010796 -1.8586779 -1.2165922 -0.6159515
000310 22 96 9f bf 89 87 db 3e 8c 29 d3 bf db e9 0b bf
       -1.2467692 0.42876843 -1.6497054 -0.5465371
000320 ea c9 66 3d 12 b2 11 c0 de 8d 98 bf aa 3f 88 bf
       0.056344904 -2.2764935 -1.1918294 -1.0644429
000330 88 64 ae bf 65 b9 21 3f 2a 8d a2 3e 8c 12 01 c0
       -1.362443 0.63173515 0.31748325 -2.016757
000340 af 69 8e bf d5 5a e9 bf 5b 47 40 3f cc 83 46 be
       -1.1126002 -1.8230845 0.7510888 -0.19386214
000350 10 a8 23 bf 2f eb a5 3f 8a 2e 46 bf bf de b8 3f
       -0.6392832 1.2962397 -0.7741476 1.4442977
000360 92 e5 93 be 42 d4 0e 40 73 19 9e bf 43 20 fe be
       -0.28886086 2.2317052 -1.2351516 -0.4963399
000370 20 e2 38 3f 5b c9 98 bf 3e d7 94 3f 13 53 8c be
       0.7222004 -1.1936449 1.1628187 -0.2740713
000380 2d 78 b2 bf b3 3f 8c 3f 8c af a7 bf a0 65 04 3e
       -1.3942925 1.095694 -1.3100448 0.12929392
000390 64 52 b1 bf 29 ea a1 bf ae a4 a9 bf 06 73 88 3e
       -1.3853269 -1.2649585 -1.3253381 0.26650256
0003a0 aa 79 01 bf c0 73 df 3f e4 32 a1 bf d5 d9 11 bf
       -0.5057627 1.7457199 -1.2593656 -0.5697301
0003b0 b9 f5 ab bf 48 ec 62 3f 06 73 c7 bf c9 00 d3 bf
       -1.3434364 0.88641787 -1.5581977 -1.6484615
0003c0 8e 13 ae bf 17 e4 03 3f fc fe 9d 3f 57 f6 05 bf
       -1.3599718 0.5151991 1.234344 -0.5232901
0003d0 5b ac de bf f6 fc c5 be 57 8c aa bf 8d 3c a2 3f
       -1.7396349 -0.38669556 -1.3324078 1.2674729
0003e0 25 79 ad 3e 27 35 03 c0 44 2d 09 3f 54 99 e6 bf
       0.33881488 -2.0501192 0.53584695 -1.8015542
0003f0 de 10 a4 bf e4 1f 1c bd 05 9a ae bf 54 56 43 3f
       -1.2817647 -0.03811635 -1.3640753 0.763036

itn.0.bias f4 [256]
000000 53 95 b5 3e 06 1d 0e bf 67 4f 54 bf 23 07 8f bf
       0.35465488 -0.55513036 -0.8293366 -1.1174053
000010 b0 d3 a6 be d9 0d 71 3f e2 00 20 3e 3b c0 df be
       -0.3258338 0.94161755 0.15625337 -0.43701348
000020 ee d5 2d bf 84 5d ed bf 50 93 2d c0 f4 b6 4d be
       -0.67904556 -1.8544164 -2.7121162 -0.20089322
000030 ba eb 87 bf 53 12 e5 bf 88 61 84 bf 69 c8 b3 3e
       -1.0618813 -1.7896217 -1.0342264 0.35113838
000040 8f 72 cd 3e 7f 96 ae be be 8e a2 bf 8d 8a 4e 3f
       0.40126464 -0.34099194 -1.2699811 0.8068016
000050 45 8e cc bc 90 e8 20 bf 35 a9 1d bf 4a 31 bb bf
       -0.024970183 -0.6285486 -0.61586314 -1.4624417
000060 43 61 81 3f 52 f6 b2 bf 14 fe d8 bf 00 7b 4d 3f
       1.0107807 -1.3981421 -1.6952538 0.8026581
000070 22 fb 95 be 55 23 15 c0 7a 52 b5 3e a0 7a dd be
       -0.29293162 -2.3302815 0.35414487 -0.43257618
000080 23 c6 ec 3b 6f b2 6f bf a2 48 27 bf 9b 01 de be
       0.007225768 -0.93631643 -0.65345204 -0.433606
000090 c6 89 95 bf 25 7c 47 bd c9 c2 07 be e1 f5 49 bf
       -1.168267 -0.048702378 -0.13257898 -0.78890806
0000a0 51 89 d9 3c 01 71 e7 be 22 ff ee bf 8a 0f 01 ba
       0.026554735 -0.45203403 -1.867161 -0.0004923275
0000b0 e0 d2 25 bf 25 83 ff bf 7d 30 05 bf fa 8d 2a bf
       -0.64774895 -1.9961897 -0.5202711 -0.6662289
0000c0 03 ab 24 c0 6e 8d 04 be e5 b9 ef 3e 59 a0 0c 3c
       -2.5729377 -0.12944576 0.46821514 0.008583152
0000d0 7c 6b 12 3f a9 a7 17 bf 22 9f bd bf 13 5b 26 be
       0.5719526 -0.59240204 -1.4814188 -0.1624568
0000e0 e4 1f 56 bf 49 8e 0b c0 f5 af c1 3e f0 c3 fe 3e
       -0.8364241 -2.1805594 0.37829557 0.49758863
0000f0 81 7e 43 be 50 b8 72 bd 2c 44 06 bf 3a 85 04 3e
       -0.19091226 -0.059257805 -0.5244777 0.12941447
000100 dc 17 a8 bf d0 f9 83 3f 22 c5 9b bd eb d0 ef be
       -1.3132281 1.0310612 -0.076059595 -0.4683908
000110 bf 5c 9e 3e 10 4c be bf 38 68 d2 bf e7 4b d1 be
       0.30930135 -1.4866962 -1.6438055 -0.4087822
000120 6f aa b2 bf 3d e3 3b bf 5c 02 28 bf 7f be 0c c0
       -1.3958262 -0.73393613 -0.656286 -2.199127
000130 4a 95 a8 be f2 b4 30 bf ae 78 64 3e 83 ed 4b 3f
       -0.329264 -0.690261 0.2231166 0.7965929
000140 c7 82 01 3f a2 0b 2b bf dc 4c c7 3e 4c c9 87 be
       0.50590175 -0.66814625 0.38925827 -0.26520765
000150 11 4c a3 bf c9 34 3d bf b0 c0 88 3f 6d ef 8b be
       -1.2757589 -0.7390867 1.0683804 -0.27331105
000160 09 de 50 be 14 37 28 be 5b 2b 9f bf 88 b7 70 be
       -0.203972 -0.1642726 -1.2435106 -0.23507512
000170 50 67 86 3f 39 24 ec 3e bf 4f 62 bf d6 ea a5 bf
       1.0500278 0.46121386 -0.8840293 -1.2962291
000180 bd ba 59 bf 69 69 2d 3f 17 68 1d bf cc 0e 62 bf
       -0.85050565 0.6773897 -0.61486953 -0.8830383
000190 0b 35 37 be 5b 79 c8 3e 8b df c4 3d e4 8f 36 be
       -0.17891328 0.39155087 0.0961295 -0.17828327
0001a0 ca 5c 56 3d 01 03 aa bf ee 1a 88 bf ac 64 8f bf
       0.052334584 -1.3282167 -1.0633218 -1.1202598
0001b0 87 cd 33 bf 07 d5 42 3f 6e 0f 80 bf 6a 95 b1 bf
       -0.70235485 0.76106304 -1.0004709 -1.3873723
0001c0 33 cd 9c bd a9 bb 37 3f 19 fd 07 c0 44 6c 1b be
       -0.07656326 0.7177072 -2.1248229 -0.15178019
0001d0 27 8f 8a bf 21 23 1b bd 66 7c 2e be 07 e8 8d bf
       -1.0824937 -0.0378753 -0.17039642 -1.1086434
0001e0 61 d9 2c 3e fb 10 ab bf be b6 b3 bf 49 5c 07 bf
       0.16879798 -1.3364557 -1.4040143 -0.5287519
0001f0 20 09 1b bf 59 1f 92 bd 6f 2d 70 bd a0 bc ba 3e
       -0.605608 -0.07134885 -0.05863708 0.36472034
000200 56 40 ff bf 30 c6 6b 3f e6 d1 18 bf df f0 d2 be
       -1.9941509 0.92099285 -0.5969528 -0.41199395
000210 e3 65 78 bf 2b 8b 26 bf 5b 2b 39 be f4 77 78 be
       -0.97030467 -0.65056103 -0.18082945 -0.24264508
000220 60 11 a3 be 60 c2 fb bf 97 e9 0e 3f 9a 35 5c be
       -0.31849194 -1.9668694 0.5582518 -0.21504822
000230 34 ab e3 be b7 14 2e be 67 ee 8a bf 16 a4 fc 3d
       -0.44466555 -0.1700009 -1.0854005 0.123359844
000240 ce 5e de 3e 09 d8 d5 bf 1f 2d ce bf 00 49 31 3d
       0.43431705 -1.6706554 -1.610752 0.04328251
000250 bc 1e 75 be 6d bb 32 bf 82 d6 0f 3f ad a4 7a 3f
       -0.23937505 -0.6981724 0.5618669 0.97907525
000260 2e 7b bf bf a4 61 c3 bf 3a 76 74 3e ad 97 3b bf
       -1.4959466 -1.5264173 0.23873225 -0.73278314
000270 00 b4 3a 3f 5c 13 ba bd 7c ce 94 bf 91 eb c8 be
       0.7293091 -0.09085724 -1.1625514 -0.39242223
000280 cb 15 a4 ba 74 9e d3 3d c0 87 4a 3e b9 71 8e bd
       -0.0012518702 0.10332957 0.19778347 -0.069552846
000290 b6 3b e2 bf a0 0c ed bf 24 12 fe be 9e d9 91 bf
       -1.7674472 -1.8519478 -0.49623215 -1.1394536
0002a0 42 f7 ba 3e ba 38 02 3d 0e 6e 78 bd ab bb b4 3e
       0.36516768 0.03179238 -0.06065183 0.3529943
0002b0 a8 7a 9b bf ba 75 d2 bd 25 f4 d7 3e c7 06 44 bf
       -1.2146807 -0.10276361 0.42178455 -0.7657284
0002c0 a5 e3 1b c0 c8 32 0b 3f 5e fe b2 bf 48 34 1d 3f
       -2.4357693 0.5437436 -1.3983877 0.614079
0002d0 27 82 a0 bf 20 53 a3 3e 39 e2 0f bf c8 e1 94 bd
       -1.2539719 0.31899357 -0.56204563 -0.07269627
0002e0 ac d0 84 bf c1 ef 7b bf 95 76 8f bf 83 1b 21 bf
       -1.0376182 -0.9841271 -1.1208063 -0.62932605
0002f0 90 97 63 3f 2a 94 00 bf 4d 13 18 be e2 b3 9a bd
       0.8890314 -0.5022608 -0.14851113 -0.07553841
000300 ef 25 e0 bb d5 b4 1c bf 21 8d 92 bf df 0e 50 bf
       -0.0068404595 -0.6121343 -1.1449319 -0.8127269
000310 5a b2 8d bf 96 b9 f8 bf 2f d2 34 3e d5 8d 64 bf
       -1.1070054 -1.9431636 0.17658304 -0.8927892
000320 89 16 8b bf c8 5d 75 bf 41 2e a9 bf d8 57 bd bf
       -1.0866252 -0.95846224 -1.321724 -1.4792433
000330 0d 50 4c be 4a 11 b7 bf fc 0c 01 bf 3b 60 0b 3d
       -0.19952412 -1.4302151 -0.5041044 0.03402732
000340 65 4f 51 be 81 f2 3c 3f 6f 8f cb bf 61 3c aa 3e
       -0.20440443 0.7380753 -1.5903147 0.3324919
000350 e8 93 51 3f 3e 92 bf bf 11 fe 81 bf 99 33 17 3f
       0.8186631 -1.4966505 -1.015566 0.59063107
000360 31 92 a3 bf d0 d4 80 3f d9 f6 a0 bd 46 cd 01 3f
       -1.2778989 1.0064945 -0.078595825 0.5070385
000370 5a eb c4 bf 79 63 04 3f 2d d4 6a bf b7 4d 2e 3f
       -1.5384324 0.51714283 -0.91730005 0.68087333
000380 51 74 40 bf a6 14 86 bf 04 3d bb be 9c 0d db 3e
       -0.75177485 -1.0475051 -0.3656999 0.4278382
000390 88 78 dd bf 67 46 78 be 63 53 f8 be 90 e1 d3 bf
       -1.7302408 -0.24245606 -0.4850112 -1.6553211
0003a0 fe f2 86 bf 02 6d 73 be 5c 93 84 3e 97 f4 16 3f
       -1.0542905 -0.23772052 0.25893676 0.58966964
0003b0 8c 08 65 3d 10 83 9d be 8a 02 6b 3d 36 58 c3 bf
       0.055916354 -0.30764055 0.05737547 -1.5261295
0003c0 6a d6 79 3f 3b 3a b2 3d 95 4a 6a 3d 14 5e af be
       0.97592795 0.08702513 0.057200033 -0.34251463
0003d0 a6 f3 eb 3d f0 db a3 be 17 30 01 3f 0c 11 86 bf
       0.115210816 -0.32003736 0.50464004 -1.0473952
0003e0 f1 f4 27 3f 6b 8b 8a bf 73 a4 ca 3e 96 c2 a2 3d
       0.65608126 -1.0823797 0.3957859 0.079472706
0003f0 31 13 26 3f 59 4b cc bf 80 ed b2 be ab d2 62 bf
       0.64873034 -1.5960494 -0.34946823 -0.88602704
