ckpt/assistment/irt_MFI_ip.pt (torch, 286913 bytes, 12 tensors)

utn.0.weight f4 [256, 1]
000000 65 32 89 3e 5e 83 b0 3f 38 46 d2 bf c0 22 cb bf
       0.2679626 1.379009 -1.6427679 -1.586998
000010 fd 6c b4 bf c9 6d 76 3f e1 f9 87 bf 13 98 c5 3f
       -1.409576 0.9626127 -1.0623132 1.5437034
000020 b7 be 9c bf ca 4d 5c 3f d1 28 8a bf db 3b 86 bf
       -1.2245702 0.86056197 -1.0793706 -1.0487016
000030 44 e4 04 c0 7a 4b be bf 95 3e b7 bf d7 ed 98 bf
       -2.0764322 -1.4866784 -1.4315974 -1.1947583
000040 14 7d ad 3f e8 66 b6 3f b9 4e e5 bf 03 98 c0 bf
       1.3553796 1.4250154 -1.7914649 -1.504639
000050 be 17 97 3f ef d6 d5 3f 5b 0e 96 bf 10 91 b9 3f
       1.180412 1.6706218 -1.1723131 1.4497395
000060 2c d4 67 bf c5 b3 1a 3f 3b 8e e7 3f 93 f2 ff bf
       -0.90558124 0.60430557 1.809028 -1.9995903
000070 f4 1f cd bf 78 40 92 bf b8 67 a2 bf 24 ec bb 3f
       -1.6025376 -1.1425924 -1.2687902 1.4681439
000080 2d c8 c2 bf 7f 4a af bf c9 03 cf bf a1 f6 ed bf
       -1.5217339 -1.3694609 -1.617303 -1.859089
000090 b2 4e cc bf c4 33 c1 3f 79 7a 98 3f 19 76 af 3f
       -1.5961516 1.5093923 1.1912376 1.3707916
0000a0 6f 8a a5 bf 36 14 c2 bf d6 87 28 3f 8b 87 07 c0
       -1.2932872 -1.5162418 0.6583227 -2.117648
0000b0 e0 3d cc bf a5 34 ac bf a2 f6 af 3f 95 94 9c 3f
       -1.5956383 -1.3453566 1.3747141 1.2232844
0000c0 0c 35 d6 bf 27 83 44 bf b1 f1 9b 3f dc 9f d3 3f
       -1.6734939 -0.7676262 1.2183133 1.653316
0000d0 cd c2 98 3f 79 53 25 3f f6 86 d0 3f ef 52 be bf
       1.1934448 0.64580494 1.6291187 -1.4869059
0000e0 6b ac 86 3f 7a 4a e3 bf 6a f3 c8 bf 42 ae d5 bf
       1.0521368 -1.7757103 -1.5699284 -1.6693804
0000f0 0f 0a a7 3f 69 5c 9b 3f 77 68 c4 bf 66 0c 91 3f
       1.3049945 1.2137576 -1.534438 1.1331909
000100 2c d9 ad 3f 4f aa 45 bf 18 17 48 bf f7 f5 85 3f
       1.3581901 -0.77212995 -0.7816024 1.0465688
000110 5d 9c b6 3f 65 8d cf 3f 2c a7 f8 bf ed 35 b5 bf
       1.4266468 1.6215025 -1.9426017 -1.4157082
000120 da 1c 76 3f 9b 02 dd 3f 27 61 c9 3f 74 d3 ce 3f
       0.96137774 1.726642 1.5732774 1.615828
000130 0a 27 41 3f 98 2f fb bf ad 7f 5d 3f 00 27 d2 bf
       0.75450194 -1.96239 0.8652294 -1.6418152
000140 a0 1d 08 c0 ac 45 d0 3f dc 11 c8 3f cc bb f0 bf
       -2.1268082 1.6271262 1.563045 -1.8807311
000150 58 b8 6b 3f 5e af 99 bf c2 6f 8e bf a6 5a c3 bf
       0.9207816 -1.2006643 -1.1127856 -1.5262039
000160 96 e7 a1 3f 04 8d e7 bf 10 f8 94 3f 69 6d a2 3f
       1.26488 -1.808991 1.1638203 1.2689639
000170 b9 4c b5 3f d0 b4 96 3f 52 03 f6 bf f7 64 fc bf
       1.4164039 1.177393 -1.9219763 -1.9718312
000180 f2 1f a1 3f 42 38 70 3f ad aa ed bf 32 7e c4 bf
       1.2587874 0.9383584 -1.8567711 -1.5351012
000190 c7 73 cc 3f 5c 28 ac 3f 8b 3f c2 bf 45 a0 99 bf
       1.5972832 1.3449817 -1.5175642 -1.2002035
0001a0 b1 0a f7 bf a0 23 b9 bf 77 19 bb bf b7 2c e9 bf
       -1.9300138 -1.4463997 -1.4617146 -1.8216771
0001b0 f6 bb 6b bf 3f 63 9c bf 38 54 a9 bf 09 63 cb 3f
       -0.9208368 -1.2217788 -1.3228827 1.5889598
0001c0 05 7a bc bf 47 4b c3 3f d1 97 c4 3f 11 c9 f0 bf
       -1.4724737 1.5257348 1.5358831 -1.8811361
0001d0 9b a0 a5 bf 1c be a4 bf 39 34 b9 bf e0 37 a3 3f
       -1.2939638 -1.2870517 -1.4469062 1.2751427
0001e0 b4 ca 9a 3f c9 8b 80 bf 4e 63 e6 bf 23 8f 9f 3f
       1.209311 -1.0042659 -1.7999055 1.2465557
0001f0 9f 90 03 c0 c4 ce a7 bf cb d2 a6 bf b7 00 c7 bf
       -2.055702 -1.3109975 -1.3033079 -1.5547093
000200 d4 e4 ba bf 8f af f4 bf 4f fa 9d bf e2 de 65 3f
       -1.4601083 -1.9116076 -1.2342013 0.8979322
000210 f1 7b c2 bf e7 ba 7a bf 3e 21 b1 3f 69 3e 82 bf
       -1.5194074 -0.9794144 1.383827 -1.0175296
000220 5b 59 95 bf 6c f4 f3 3d cd c7 b4 be 46 a8 af 3f
       -1.1667894 0.11911854 -0.35308686 1.3723228
000230 80 9f c7 3f e8 04 b8 3f 42 18 d4 3f 28 a5 b1 bf
       1.559555 1.4376497 1.6569903 -1.3878527
000240 ce cb ea bf 9d 7d c0 bf 09 03 b4 3f 84 cc c3 3c
       -1.8343446 -1.5038334 1.4063426 0.023901232
000250 7a b0 c2 bf 7a 82 d0 bf 7f 86 f0 bf 84 fd f8 bf
       -1.5210106 -1.6289818 -1.8791045 -1.9452367
000260 00 c3 95 bf 67 df a2 3f b7 51 9b 3f f0 3c fe bf
       -1.1700134 1.2724427 1.2134312 -1.9862347
000270 c4 f5 b3 3f 99 3d f7 bf 62 c7 92 bf c3 9b a8 bf
       1.4059377 -1.9315673 -1.1467097 -1.3172535
000280 43 c2 a4 bf 3f 94 8d bf 44 1b fc bf 4b 38 e2 bf
       -1.2871784 -1.1060866 -1.9695821 -1.7673429
000290 f1 03 81 bf 6d 94 01 3f 9c 7a 90 bf 73 da 94 3f
       -1.0079328 0.50617105 -1.1287417 1.1629165
0002a0 fc fc 04 c0 48 09 bc bf b4 6b ce 3f 41 2d c6 bf
       -2.077941 -1.4690332 1.6126618 -1.548256
0002b0 23 63 d0 3f b2 87 8d 3f 38 1f e6 bf 53 d1 b0 3f
       1.6280254 1.1057036 -1.7978277 1.3813881
0002c0 62 13 8c bf 8d 3f b9 bf b1 19 ce 3f 79 7d f0 bf
       -1.0943415 -1.4472519 1.610159 -1.8788291
0002d0 72 fc 6c be de 5f ab bf f1 fb ac 3f be bb 97 3f
       -0.23143175 -1.3388631 1.3514386 1.1854169
0002e0 47 40 ab 3f 1f 54 a1 3f 39 b8 ac bf 57 54 85 bf
       1.3378991 1.2603797 -1.349372 -1.0416363
0002f0 1d dc d6 bf ab 30 b5 3f b6 5d ba 3f 73 c1 ad 3f
       -1.6785923 1.4155477 1.4559848 1.3574661
000300 26 c5 b9 bf e7 b3 2f 3e 9e 45 e4 bf ea ac c7 bf
       -1.451329 0.17158471 -1.7833745 -1.5599644
000310 e7 fc e3 bf 38 c1 8a 3f 91 57 ce bf 1b 2f 9a bf
       -1.7811555 1.0840216 -1.6120473 -1.2045625
000320 47 9a 0d bf a7 2d bb 3f bd 50 d9 bf d1 b2 cb bf
       -0.55313534 1.4623307 -1.6977764 -1.5913945
000330 b3 0c be bf 85 cc b7 3f f7 3b b1 bf 8e c9 d9 3f
       -1.4847625 1.435929 -1.3846425 1.7014635
000340 df e8 93 3f 2d 58 40 3f 3a 93 8a bf f6 a5 a4 bf
       1.1555442 0.75134546 -1.082618 -1.2863147
000350 4f 66 81 3f d7 a9 99 bf ac 77 6a bf 85 c3 74 3f
       1.0109347 -1.2004956 -0.91588855 0.9561084
000360 1a c8 f4 bf f5 5d 9c bf aa 73 ad 3f bf ae d5 bf
       -1.9123566 -1.2216173 1.3550923 -1.6693953
000370 60 1e 6b bf d8 d7 c8 3f d5 c0 8a 3f 90 84 6e 3e
       -0.91843224 1.569087 1.0840098 0.23292756
000380 73 86 e8 bf de f8 b0 3f 7b 83 f0 bf 92 6d 8f bf
       -1.8166031 1.3825948 -1.8790125 -1.1205313
000390 ee c7 8a bf a6 41 78 bf 2d 0e 29 bf 60 f1 ba 3f
       -1.0842264 -0.9697517 -0.66037256 1.4604912
0003a0 c1 1f 50 be e1 fa d1 3f 85 42 9a 3f 5f db d4 bf
       -0.20324613 1.6404687 1.205155 -1.6629447
0003b0 ef 59 99 3f cf 65 d3 bf 47 e0 ad bf 8a 16 95 3f
       1.198057 -1.6515445 -1.3584069 1.1647503
0003c0 00 53 91 3f 2d d3 c7 3f 4e 7c dd bf 68 d2 3d bf
       1.1353455 1.5611321 -1.730356 -0.7414918
0003d0 38 12 c5 3f 53 49 ef bf 1c c6 b2 3f 37 ac f2 bf
       1.5396185 -1.8694252 1.3966708 -1.8958806
0003e0 ce d9 9e bf ce a8 98 bf 22 41 c2 bf b5 2d 41 3f
       -1.2410219 -1.1926515 -1.5176127 0.7546037
0003f0 d4 2a be 3f 5b 96 9b bf 19 19 cc bf 41 ec c5 bf
       1.485682 -1.215526 -1.5945159 -1.5462724

utn.0.bias f4 [256]
000000 e3 5e c4 bf 4b 86 08 3f 9c 8c 3f bf 6f 33 81 bf
       -1.5341457 0.53329915 -0.7482393 -1.0093821
000010 f4 63 8c bf 2d 82 31 3e 63 c7 0a bf e2 b5 70 3f
       -1.0968003 0.17334814 -0.5421049 0.9402753
000020 09 1f 1c bf 88 02 f9 be 90 1c 55 bf eb 67 83 be
       -0.60984856 -0.48634744 -0.8324671 -0.2566522
000030 12 04 2f 3f 40 23 5f 3d ee 92 64 bf 83 d6 a4 bf
       0.68365586 0.054476976 -0.89286697 -1.2877964
000040 d8 3c 47 bf c9 36 a2 3e 3e f4 e7 be 8f 5d 9d bf
       -0.77827215 0.31682423 -0.4530353 -1.2294177
000050 ce 1b 59 3f 3c 76 01 bf 00 27 2e bf 3f 55 d3 3e
       0.8480805 -0.50571036 -0.6802826 0.41275975
000060 b0 c9 09 bf bf e5 a0 bf ca 6d 25 bf 52 40 28 3f
       -0.53823376 -1.2570113 -0.6462065 0.65723145
000070 69 9f a8 bc c1 c1 f9 3e 7a 91 61 bf 88 b6 ec 3e
       -0.020583825 0.48780635 -0.88112605 0.4623301
000080 34 4d 01 bf 5c bb bd be 81 d9 71 bf 9f 31 1e 3e
       -0.5050843 -0.37057006 -0.9447251 0.15448616
000090 8c f6 5e 3d 8e a9 ad 3d 8d e0 55 bd ac 1d f5 be
       0.054434344 0.084796056 -0.0522161 -0.478742
0000a0 fe e5 35 be 6f 85 9a bf a2 fc 13 be c2 b5 af bc
       -0.17763516 -1.2071971 -0.1445184 -0.021448974
0000b0 64 89 34 bf 4e 07 2d be cc 79 af be 3e 3b 98 3e
       -0.7052214 -0.16897318 -0.3427261 0.29732698
0000c0 b2 b2 d3 bd 25 97 b3 bf ba 54 88 3e ac 1e 0a 3f
       -0.10336818 -1.4030501 0.2662714 0.5395305
0000d0 e7 88 ad 3e 94 be 1c bf d9 4f 20 bf f7 38 f1 be
       0.3389351 -0.612283 -0.6262184 -0.47113773
0000e0 d0 25 72 3e 7f ac c7 be 78 76 21 3e d8 2d 9e 3e
       0.23647237 -0.38998792 0.15767848 0.3089435
0000f0 6d 19 93 be 4b 94 02 3e ef 12 3c 3d fa ef 18 3e
       -0.28730336 0.12751882 0.045916494 0.14935294
000100 80 9b 08 3e 53 22 e4 be 23 9a ea bf ee 28 94 3d
       0.13340569 -0.44557437 -1.8328289 0.07234369
000110 4f 2d 42 3f 47 30 82 3f ce 7d eb 3e 33 27 c1 be
       0.75850385 1.0170983 0.4599442 -0.3772522
000120 d7 ae 8b 3d 21 d7 bc be 0a 28 2e bf 57 7e 37 bf
       0.068204574 -0.3688288 -0.68029845 -0.71677154
000130 39 9a c0 3e 69 c8 fc 3e 1a 4d 54 bf 45 9f 58 3c
       0.37617663 0.4937165 -0.8293015 0.013221567
000140 e7 96 1a 3f 52 70 8a 3f 41 b7 83 3f 40 00 26 3f
       0.6038651 1.0815527 1.02903 0.6484413
000150 e0 70 8c be 6e 7b 81 bf 5a 93 cb 3e db 6c 73 3e
       -0.27429867 -1.0115793 0.39760858 0.23771994
000160 44 a5 c6 be c2 0e 12 3f 1e 44 b1 3e 1f ac d4 3e
       -0.38797963 0.5705377 0.34622282 0.41537568
000170 75 56 e2 be 48 e9 66 3e 7d 39 6d be 59 83 1a 3f
       -0.44206586 0.22549927 -0.23166461 0.6035667
000180 d6 28 a5 3c 39 49 33 3e 88 fb c1 3d 2b b5 6c 3e
       0.020161074 0.17508401 0.09471804 0.23115985
000190 22 de 86 be 6e 3e 17 3f c4 c9 89 bf 12 3c e9 be
       -0.2634135 0.59079635 -1.0764699 -0.45553643
0001a0 b0 0e 0b bf 40 47 d5 bf ee ce 96 bf 7e 28 0b 3f
       -0.54319286 -1.6662369 -1.17819 0.5435866
0001b0 ba 02 88 bd c4 44 08 bf bf 90 0b 3f 38 88 2c bf
       -0.06641145 -0.5322993 0.5451774 -0.67395353
0001c0 e4 ed 86 bf 52 bd 12 bd f4 2d 00 bf 04 d0 09 3f
       -1.0541348 -0.03582508 -0.5007012 0.5383303
0001d0 09 0e a3 bf 91 36 ad bf c7 dd dd bf d0 c9 cb be
       -1.2738658 -1.3532277 -1.7333306 -0.39802408
0001e0 11 86 24 3f 76 df 10 be 8b 03 e3 3e 1c 22 46 3f
       0.6426707 -0.14147744 0.4433864 0.77395797
0001f0 8b 55 44 3f 75 e9 11 bf fe f5 79 be e7 ef 13 3f
       0.7669303 -0.5699685 -0.24410245 0.57787937
000200 87 02 97 bd 54 66 47 3f fd a5 77 3c fe c7 c1 3e
       -0.07373529 0.77890515 0.015115258 0.37847894
000210 d0 4b 36 bf 88 c0 40 bf 90 38 aa 3e 72 40 5c bf
       -0.7120943 -0.7529378 0.3324628 -0.86035836
000220 9c 57 b5 bf 06 bb 93 bf 1d 8b f5 bf 7a 8f 40 3f
       -1.4167361 -1.154145 -1.9183079 0.7521893
000230 b7 e8 40 3f 08 3d 93 3d 5c a1 ee be 50 f2 30 be
       0.75355095 0.07189375 -0.46607482 -0.17279935
000240 0f 80 0c 3f 38 fb a5 be 8e 90 ae be db 77 ae 3d
       0.548829 -0.32418227 -0.3409466 0.08518954
000250 72 6b f7 3d 73 ec 86 bf e1 e8 37 3f 38 9e 1a 3f
       0.120810404 -1.0540909 0.7183972 0.6039767
000260 3a 77 89 bf 39 c5 17 3f b8 ed bf be 73 02 99 bc
       -1.073951 0.5928531 -0.37486053 -0.018677926
000270 10 23 70 3f 20 16 c4 3c d7 33 97 bf 7c 5c 5e bf
       0.938035 0.023936331 -1.1812695 -0.8685987
000280 c6 05 8d bf 72 55 55 bf 9b 9d fb 3d 99 05 48 3f
       -1.1017387 -0.83333504 0.1228592 0.7813354
000290 22 72 0a bf e6 bc 84 bf 50 e7 a3 be f1 b3 01 3f
       -0.540804 -1.0370147 -0.32012415 0.50665194
0002a0 5b 87 e5 3e 2a 52 d2 bf de 1a 02 be a0 81 83 bf
       0.4482983 -1.6431324 -0.12705562 -1.0273933
0002b0 30 60 b0 be ca 46 b5 3e 29 17 50 bf a9 88 e3 3e
       -0.34448385 0.3540557 -0.8128534 0.444402
0002c0 0d e9 bb 3e e0 c0 84 be 5a 89 09 bf a5 49 41 be
       0.3670124 -0.25928402 -0.53725207 -0.1887575
0002d0 21 a6 81 bf a2 e1 aa bf 80 01 2b 3f ea b8 45 bf
       -1.0128824 -1.3350108 0.66799164 -0.7723528
0002e0 00 b6 46 bf d0 e5 4a bf 9d 20 4e bf f3 da 42 3e
       -0.7762146 -0.79256916 -0.80518514 0.19028835
0002f0 05 e4 9c bf f8 b7 3f 3f 28 93 32 be fc 59 c5 3e
       -1.2257086 0.7489009 -0.17438948 0.38545215
000300 a2 9a 45 be 83 d8 fa bf 52 73 1e 3f 84 f6 b6 3e
       -0.19297269 -1.9597324 0.61894715 0.35734951
000310 e9 71 44 3f 23 71 ba 3e 6a 24 77 bf ce b6 b3 bd
       0.76736313 0.3641444 -0.9653994 -0.087751016
000320 48 b0 14 bf 45 0e 04 3f f8 e5 71 bf c3 01 0e bf
       -0.58081484 0.51584274 -0.9449153 -0.5547144
000330 39 5e a5 bf d9 63 9e be 58 de 11 be 38 b1 2b bf
       -1.291938 -0.30935553 -0.14244974 -0.6706729
000340 77 fd b3 3e b8 13 a9 3d 80 72 70 bf 87 16 a7 bf
       0.35154316 0.08255714 -0.93924713 -1.305375
000350 f2 4c 61 bf 9f 00 62 bf 53 94 c0 be b0 2a 19 3f
       -0.88008034 -0.882822 -0.37613162 0.5983076
000360 c8 7a da 3e 73 5f 11 bf 40 58 02 3f 8a 1d 9b bf
       0.426718 -0.5678627 0.5091591 -1.211839
000370 6c 47 b0 bf a7 04 12 3f 43 7c fa be 7c 6a a8 3b
       -1.3771796 0.5703835 -0.4892293 0.005139647
000380 ed 70 41 bf 92 71 af be 8b 79 14 bf 27 a8 08 3e
       -0.75562936 -0.34266335 -0.5799796 0.13345395
000390 5e 89 13 bf 97 c8 ba be 05 8d b2 3c 70 4b 29 3f
       -0.5763148 -0.36481163 0.021795759 0.66130733
0003a0 88 d7 ac bf e0 4b 40 be 0b 42 9d bd 18 93 96 bd
       -1.3503275 -0.18778944 -0.07678612 -0.07352275
0003b0 35 df f4 3e 22 9c 6a bf d0 48 19 3f 0f 48 f4 bd
       0.47826543 -0.9164449 0.5987673 -0.119278066
0003c0 06 1b 3c bf 06 1c c0 be a2 17 e8 3e 03 7e 44 3d
       -0.73478734 -0.3752138 0.4533053 0.047971737
0003d0 eb 7e 30 bf 18 bc 13 3f de ed 1b 3f c8 f3 df 3e
       -0.6894366 0.57708883 0.6090983 0.43740678
0003e0 86 8d 4d 3e b2 8c 93 bf 4f 5e fe bd 7b d6 17 39
       0.20073518 -1.1527312 -0.12420332 0.00014480382
0003f0 0e b6 62 be d4 e4 60 bd b3 1a 0f bf bf 70 27 3e
       -0.22139761 -0.054905728 -0.55900115 0.16351603

utn.2.weight f4 [128, 256]
000000 20 d4 72 bd da fa 8c bd c2 c1 cd bc eb eb 7f bc
       -0.05928433 -0.06883784 -0.025116805 -0.015620212
000010 30 66 8e bd ac e1 16 bd f3 0a 05 bc ee 75 5c bd
       -0.069530845 -0.03683631 -0.008120286 -0.053823404
000020 77 ed c6 bc bd 62 5d bd e2 06 ac bc 61 a6 bb bd
       -0.024283154 -0.054049242 -0.020999376 -0.09162594
000030 fe 84 b1 bd 87 e2 a2 bd e4 95 88 3c f3 17 66 bd
       -0.08667944 -0.07953363 0.016673036 -0.056175184
000040 f1 9c 03 bd 03 8c 99 bd 9b 32 99 3c d3 db ce 3c
       -0.032132093 -0.07497408 0.018700888 0.025251305
000050 54 0f be bd 9d ee b4 bd 42 ea b9 bd 28 ab 3a bd
       -0.09280267 -0.08834574 -0.09077884 -0.045573384
000060 3c 90 79 bd 36 35 a2 bd 3a a3 71 bd f6 4b 1c bd
       -0.06092857 -0.079203054 -0.058993556 -0.03815838
000070 83 13 a3 bd 2f 96 11 bd ac ce 64 bd ae 95 9a bd
       -0.07962706 -0.035543617 -0.05586116 -0.075480804
000080 10 4b 10 bd fe fd d0 3b bb 10 a6 bd 49 78 37 bd
       -0.035227835 0.0063779345 -0.0810866 -0.044792447
000090 a7 42 8f bd df 66 97 3c ec 74 cf bd 19 ed c6 bd
       -0.06995135 0.01848167 -0.10129723 -0.097131915
0000a0 a0 ae 86 3c 44 86 9b bd 1f 48 f3 bc 3d 9c 58 bd
       0.01644069 -0.075939685 -0.029697476 -0.052883375
0000b0 92 cb 60 bd 2a ca 75 bd ff 2a fa 39 9f c9 27 bd
       -0.05488164 -0.06000725 0.0004771575 -0.040963765
0000c0 5c dd d9 bd c1 05 a4 bd 9c 65 85 bd 00 7b 6a bc
       -0.10637924 -0.0800891 -0.06513521 -0.014311552
0000d0 82 21 ad bd 0e 44 9b 3c ff 22 4b bd 59 e0 60 bd
       -0.08453657 0.01895335 -0.04959392 -0.054901455
0000e0 64 68 ba 3b 9f d1 53 bc 37 04 9e 3b 86 33 40 bc
       0.005688714 -0.0129283955 0.00482228 -0.011731034
0000f0 93 7b 6f bd 85 0a ad bd 51 97 53 bd 1f b9 0e 3c
       -0.05846746 -0.08449272 -0.05165798 0.0087111285
000100 3e 9d 83 bd 5d 83 d5 bd 79 ea 81 bc 67 76 97 3c
       -0.06426476 -0.10425446 -0.015858876 0.018489076
000110 70 d6 83 bd d2 9c cb bd 83 c1 d7 bd c4 cd eb bc
       -0.06437385 -0.099420205 -0.10534956 -0.02878464
000120 a3 51 3d bd 31 b6 91 bd fe 2f b5 bc 35 d5 39 bc
       -0.046220433 -0.071148284 -0.022117611 -0.011342336
000130 67 b8 df 3b 32 b4 f0 b9 da 7f 3a bd 39 5e d1 bd
       0.0068274024 -0.00045910623 -0.045532085 -0.1022305
000140 56 91 d8 bd b1 1a 29 3c 48 ed a4 bc 7f a7 be bc
       -0.10574596 0.010321305 -0.020132676 -0.023273228
000150 a3 27 c1 bd 8d d6 85 3c b2 42 2d 3c 6b 76 09 3c
       -0.09431388 0.016337657 0.010574983 0.008390049
000160 d8 2e ba bd 5e ec 94 bd 30 09 b1 bd 7e e6 77 3c
       -0.09090966 -0.07271646 -0.086443305 0.015130637
000170 0d 22 85 bd 53 89 93 bd 90 97 55 bc 14 05 9f bd
       -0.06500635 -0.07203927 -0.013036624 -0.077646405
000180 ce 5b 96 bd 29 75 44 bd 43 67 5a bd 58 98 c6 bd
       -0.07341729 -0.047963295 -0.053321134 -0.09697026
000190 76 e4 3f 3c b8 43 95 bd c3 70 82 bc ae 8b 20 3c
       0.011712184 -0.07288307 -0.01592291 0.009798927
0001a0 82 90 34 bc 04 7b dc bc a0 44 8c 3c 97 59 27 bd
       -0.0110207815 -0.026914127 0.017122567 -0.040856924
0001b0 4c cd 9b bd e8 66 83 3c 9f b5 0e bd e5 1e c4 bd
       -0.07607517 0.01604028 -0.034841176 -0.09576205
0001c0 fb e6 66 bd 6f 15 ad bd a8 6c 90 3c b5 3c 75 bd
       -0.056372624 -0.08451354 0.017629936 -0.059872348
0001d0 72 46 c4 bd 50 6e 2f bd e0 d1 27 3b 88 7a b1 bc
       -0.09583749 -0.04282981 0.0025607273 -0.021664873
0001e0 87 15 cd bc b4 8b 24 bd 6a 45 cb bc e8 13 7a bd
       -0.02503468 -0.040172294 -0.024813373 -0.06105414
0001f0 a7 4d 99 bd f5 33 d2 bd fc 13 bd bd cb e8 b7 bc
       -0.07485514 -0.10263816 -0.09232327 -0.022449872
000200 5b aa aa bd c0 7c 28 bd 2e c9 e0 bc 99 a0 1e bd
       -0.08333274 -0.041134596 -0.02743968 -0.038727377
000210 fd 70 a8 bd 72 a7 82 3c b7 63 a6 bd c1 e0 07 3c
       -0.08224676 0.015948985 -0.08124488 0.008293332
000220 04 e6 b7 bd bd 6a 72 bd 1d 64 09 bc f3 a6 93 bd
       -0.08979419 -0.059183825 -0.008385685 -0.072095774
000230 e4 10 bf 3b 8a 91 ae bd dc b5 b9 bd 26 c2 95 bd
       0.005830871 -0.08523853 -0.0906789 -0.073124215
000240 18 cf 22 bd b8 73 53 3c b7 db 8c bd 2f 9d bb bc
       -0.03974828 0.0129060075 -0.06877845 -0.0229021
000250 4e 54 81 bd 51 bb 4d bd 6b df 94 bb 5d 5c c8 bd
       -0.06314908 -0.050227467 -0.004543235 -0.09783242
000260 a3 ec 0c bd 5e 73 5a 3c 2a ff 41 bd 61 f8 9b 3a
       -0.03440536 0.01333317 -0.047362484 0.0011899584
000270 14 e4 87 bd 4f 93 6c 3b fa c1 ce bd 46 5a 4d bd
       -0.06635299 0.0036098545 -0.10095592 -0.05013492
000280 69 f5 4f bd 1c 28 b7 bc 9a aa bf bc 0a 35 47 bb
       -0.05077115 -0.022357993 -0.023396779 -0.0030396604
000290 8f bf 5c bd 4a 4f 2f bd 36 80 4d bb 16 ad 7c bd
       -0.053893622 -0.042800225 -0.0031356937 -0.061688505
0002a0 7a d1 c3 3b 4d 47 9d bd 57 26 47 bd 8f a4 29 bd
       0.0059758993 -0.07679615 -0.048620548 -0.0414167
0002b0 2b c7 43 bc e7 5e 75 ba f0 c3 4a bd ee 16 c7 bd
       -0.011949341 -0.000936015 -0.049503267 -0.0972117
0002c0 39 f6 8e bc 90 26 dc bc f7 05 4a bc 92 3f ad bd
       -0.017451392 -0.026873857 -0.012330524 -0.08459391
0002d0 44 c9 72 bb 64 d4 b2 3c 6a ba 27 bd bd 86 bb bd
       -0.0037046233 0.021829791 -0.040949263 -0.09156559
0002e0 e9 37 41 3c 81 d8 9f bd 97 3a de bc a1 81 1f bd
       0.011793115 -0.07804967 -0.027127547 -0.038941983
0002f0 41 10 80 bd e7 08 c7 bc 19 39 c6 bd e0 a8 fa bc
       -0.062531 -0.024296237 -0.09678859 -0.030598104
000300 e3 80 b0 bd 59 64 49 bd 6a c3 2a bd 29 a5 92 3b
       -0.08618333 -0.049167965 -0.041690268 0.004475255
000310 19 8c a3 bd 4e 6c 63 bb c3 a6 3d bd 18 09 9b bd
       -0.07985706 -0.0034702006 -0.046301614 -0.07570094
000320 61 5a cc bd 06 9c d2 bd 3c 38 bb 3c 67 16 6f bd
       -0.09978176 -0.10283665 0.022853963 -0.058370974
000330 1b da 02 bd d4 30 bb bc e9 45 73 bb db de 90 3c
       -0.031946283 -0.022850432 -0.0037120527 0.01768439
000340 e9 ff dc 3b 72 da b5 bd 98 d3 55 bd f6 65 9a bd
       0.006744374 -0.08879556 -0.052203745 -0.07538979
000350 da 37 8f bd 7a de da bc c3 25 56 3c 93 89 c0 bd
       -0.06993075 -0.026717413 0.0130705265 -0.0940124
000360 e4 16 34 bc fb a0 9d bd 63 0b 6b bd 50 99 80 3c
       -0.010991786 -0.0769672 -0.057383906 0.015698105
000370 cf 4e 64 bd be 8f 23 bd b3 2c a6 bd 72 d0 10 3c
       -0.05573922 -0.039932005 -0.081139944 0.00883876
000380 8d 56 46 bd 1e 2c ad bd cd 78 c2 bc 24 f5 bd bd
       -0.048422385 -0.0845568 -0.023739243 -0.092752725
000390 bc 82 c1 bd 4a 2f 29 bd 91 26 1d 3b eb 41 83 bd
       -0.09448764 -0.041304864 0.0023979286 -0.06409057
0003a0 e1 33 5e bc 25 73 54 3c dd 6f d1 38 4a 98 a1 bd
       -0.013562174 0.012966906 9.986733e-05 -0.07890375
0003b0 0e 1c 51 bd ed 8a 70 bd 34 7f cd bd 9c 90 27 bd
       -0.051052146 -0.05872624 -0.10034028 -0.040909395
0003c0 26 46 56 3c 52 a9 5d 3c bf b2 2b bd 39 6e 06 bd
       0.013078248 0.013529139 -0.041918512 -0.03281996
0003d0 04 d1 7a bd f9 aa 3e bb fc 40 93 bd 20 a6 bc bd
       -0.06123449 -0.0029093607 -0.07190129 -0.09211373
0003e0 e3 a3 19 bd 54 a8 2b bb 22 11 d2 bd 79 49 6e 3c
       -0.03750981 -0.002619286 -0.10257174 0.014543884
0003f0 db 46 93 bc 94 5c ba bd 79 54 67 bd 8f 70 e8 3b
       -0.017978122 -0.09099689 -0.056477044 0.007093496

utn.2.bias f4 [128]
000000 eb 84 7a bd 2e 36 51 be 1f 06 3c 3c fc 8c 64 bd
       -0.061161917 -0.20430824 0.011476069 -0.055798516
000010 a3 16 04 bd a3 ee 15 3d 2a 22 a5 bd 9e 0c 89 bd
       -0.03224815 0.036604535 -0.08063157 -0.0669186
000020 0c c6 47 3b 75 28 c3 bd eb 98 38 be 11 89 e5 3c
       0.0030483035 -0.09529201 -0.18027084 0.02801946
000030 d2 4e 6e bd 89 17 a8 bd 77 c5 2a bd 59 fb b8 bd
       -0.058180638 -0.08207614 -0.041692223 -0.09032316
000040 a9 c8 c0 bd 2b 27 48 3c 3e 2a 93 bd 7f db e9 bc
       -0.09413273 0.01221637 -0.071857914 -0.028547047
000050 d5 02 b9 3d 19 54 55 bc ec aa b8 bd 81 46 63 bd
       0.09033743 -0.013020539 -0.09016976 -0.05548716
000060 8e 84 68 bd ea fa de 3c 55 8a 27 bd 21 f9 80 be
       -0.05676704 0.027219255 -0.040903408 -0.2519007
000070 d1 cc 3d 3c df a3 4e 3d a2 e4 28 bd 21 19 32 bc
       0.011584477 0.05044925 -0.041233666 -0.010870249
000080 6c d0 3b bd 7b 2f 11 bb 5f 68 d4 bc b4 d3 a2 bd
       -0.045853063 -0.0022153545 -0.025928674 -0.079505354
000090 c1 2b ed 3d 8b a6 89 bd bc 5a 1b 3d 3a 56 31 bc
       0.11580611 -0.06721219 0.037928328 -0.010823781
0000a0 d0 be 8c be 00 04 5d bc 30 1f 70 bd 1f bf 84 bd
       -0.27489328 -0.013489723 -0.058623493 -0.06481766
0000b0 4c 6d ba 3b 98 e9 f9 bd a9 b6 37 3d bf 30 7d bd
       0.0056892987 -0.122027576 0.044851933 -0.061814066
0000c0 fb 9f 71 bd 16 e7 87 bd 49 5f 8a 3d be 60 bb bb
       -0.05899046 -0.06635873 0.067564555 -0.0057183197
0000d0 30 27 82 be 59 4d 6c bd 4e 89 76 bc 5f bc d0 3c
       -0.25420523 -0.057690952 -0.015047384 0.025480447
0000e0 77 04 8d 3c 1a d6 52 3e 6f 6a 79 bd 68 b9 62 3d
       0.017214043 0.20589486 -0.06089252 0.0553526
0000f0 c3 34 3b 3c b7 5a 49 bd 60 43 00 bd fb 8f 0b bd
       0.011426154 -0.049158778 -0.031314254 -0.034072857
000100 d1 f5 57 bd 80 ba bc bd f8 fe 06 3d f6 dc 04 3d
       -0.052724663 -0.092152596 0.032958 0.032437287
000110 10 56 27 3c 1d e4 53 3c 16 66 06 3d 34 b4 d9 3b
       0.01021339 0.012932804 0.0328122 0.0066437963
000120 f1 1b 45 3d 89 3b c3 3d b5 20 79 be d2 17 02 be
       0.04812235 0.0953284 -0.24328883 -0.12704399
000130 ce 30 e0 3d de 44 88 3c e3 dc 4c bb 1f b4 4f 3b
       0.10946809 0.016634401 -0.0031259588 0.0031693054
000140 96 dd 9c bb 31 c7 76 3c e2 ab 93 bd ce ed 85 be
       -0.0047871573 0.015062139 -0.072105184 -0.26157993
000150 fa 25 54 3e 81 8f 1a 3c 6d f7 15 bd e5 9f d2 3d
       0.20717612 0.009433628 -0.036612917 0.10284404
000160 80 46 9e bd 63 0d d8 bd 17 a7 9d bd 38 75 af 3c
       -0.077282906 -0.10549428 -0.076978855 0.021418199
000170 54 fd 68 bd c8 e7 b1 3b e4 2d d7 bd 7c 67 2b bc
       -0.056882218 0.005429242 -0.105068 -0.010461684
000180 89 e1 0b 3c f3 df 57 bc 34 94 7b 3c cc dc 86 3d
       0.0085376585 -0.013175952 0.015355159 0.065850824
000190 53 fa 64 be aa 06 4a be b9 33 06 be ce e2 2b 3d
       -0.22361116 -0.19729105 -0.13105668 0.041964345
0001a0 ca 17 03 3e 3b 3e 96 bc 42 c9 97 3d ae 72 73 bd
       0.12802044 -0.01834022 0.07411434 -0.05943554
0001b0 0f bc 6d ba c6 fe e3 3c 9f b7 b3 bd 0f cd a8 3b
       -0.00090688554 0.027831446 -0.08775257 0.005151398
0001c0 99 40 32 bd e6 92 28 bd 66 77 10 bd b8 49 e4 bc
       -0.043518636 -0.04115572 -0.035270117 -0.027867183
0001d0 4d c0 40 be 20 d8 d1 3c 31 f6 9f be 49 49 04 be
       -0.18823357 0.025615752 -0.31242517 -0.12918581
0001e0 0f c0 8c bd 73 50 57 be 58 d6 89 bd 8d 37 fa bb
       -0.0687257 -0.21026783 -0.06730336 -0.0076360167
0001f0 bf 15 61 be c5 5f 6a bd 93 61 15 bc 8a 36 a6 bd
       -0.21980952 -0.05722024 -0.009117502 -0.08115871

utn.4.weight f4 [15, 128]
000000 87 46 7f bd ae 1f 79 be 64 f1 c7 bc a8 96 12 be
       -0.06232312 -0.24328491 -0.024407096 -0.14315283
000010 42 8c aa 3d 26 ec c8 bd 97 1f 7b be 79 e9 81 bd
       0.08327533 -0.09810667 -0.2452377 -0.063433595
000020 6d 7b 73 bd 25 fb 35 be 8c 5e 71 bd 62 aa 93 bd
       -0.05944388 -0.17771585 -0.058928058 -0.07210232
000030 f8 c4 16 be db 93 0d bd 4d bd 6e bd e2 85 4c be
       -0.14723575 -0.034564834 -0.058286 -0.19972947
000040 4c 5a 71 be 10 51 3a 3d 06 d7 28 3d 1b e9 5b bd
       -0.23569602 0.045487463 0.041220687 -0.053689104
000050 fa f3 34 bd f7 c8 11 be 89 94 58 bd 72 d5 bc 3c
       -0.044177987 -0.14236818 -0.05287603 0.023050997
000060 27 01 be 3b ab a7 a9 bd 96 8d e2 bd 7b fe a6 be
       0.005798477 -0.08283933 -0.110621616 -0.32616028
000070 81 7c 3d 3c 79 1a 46 3d 63 10 43 bd db 31 28 be
       0.011565329 0.04836509 -0.04762305 -0.16425268
000080 05 b9 a3 3c b9 24 6d 3d ee ca 09 bd 94 e6 10 bd
       0.019985685 0.05789635 -0.033640794 -0.035376146
000090 07 56 b7 3b fc 61 f4 bd 6c 25 bc 3c ec 20 15 bd
       0.005594972 -0.119327515 0.022967063 -0.03640835
0000a0 7c 9b 51 be 65 19 9d bd 03 db e8 bd 02 78 35 3c
       -0.20469469 -0.07670859 -0.11369898 0.011075975
0000b0 c5 5b 91 bc 88 1c c4 bd 57 55 30 3a 34 e2 8c ba
       -0.017743954 -0.095757544 0.0006726584 -0.0010748566
0000c0 28 c6 89 bd 21 0a c1 3c 68 1d a4 bd 0a 13 82 38
       -0.067272484 0.0235644 -0.08013421 6.202429e-05
0000d0 28 e2 c0 bd 63 40 00 be 78 02 f7 bd 71 26 64 3d
       -0.09418136 -0.12524562 -0.12061018 0.055700723
0000e0 8e 79 42 3d 4d b4 00 bd 0f 63 fb 3c 25 78 7e bc
       0.047479205 -0.03142195 0.030686883 -0.015531574
0000f0 f1 09 d8 bd f7 1e 03 bd e2 55 88 3d b8 4d a9 bd
       -0.10548771 -0.032011952 0.06657006 -0.08266777
000100 7d 59 06 bd b5 9e 18 3d fc 4d 09 be 56 f6 69 bd
       -0.032800186 0.03726073 -0.13408655 -0.05711969
000110 cd 4b 34 bc 81 37 b7 3b c7 e5 b9 bd d4 b3 76 bc
       -0.0110044 0.0055913334 -0.0907703 -0.015057523
000120 0d e9 80 3a b1 d6 42 3e 0e 5c 5a be 5b 83 80 be
       0.000983508 0.19027211 -0.21324179 -0.25100216
000130 ba 89 8e 3e ab bc 91 bd 2a 23 e4 3c 95 3f 7d bd
       0.27839452 -0.07116064 0.027848799 -0.061828215
000140 42 04 80 bd 5a 10 69 bd 23 97 aa 3b 70 8e 10 be
       -0.06250812 -0.05690036 0.005206005 -0.14116836
000150 c0 7f 0c 3e cb 83 ce bb c1 83 68 bd df a4 4d 3e
       0.13720608 -0.006302332 -0.056766275 0.20082425
000160 00 91 8b be 4c b9 5a bd 25 97 1f be 48 e7 e8 bc
       -0.27259064 -0.05339937 -0.15585001 -0.028430596
000170 8c 1b 50 3d 3e 7f c0 bd 63 32 63 bd 2a bf bc bd
       0.05080752 -0.093992695 -0.055467974 -0.09216149
000180 09 87 a5 bd 04 a4 5a bd 9d aa f4 bc 59 75 90 bb
       -0.080823965 -0.053379074 -0.029866511 -0.00440852
000190 4d 26 08 be 8d 05 20 be 07 e4 2f be 5c c1 2b bd
       -0.1329586 -0.15627117 -0.1717683 -0.04193245
0001a0 3e 9e f5 3d 64 e8 f8 3c 75 e4 c5 bd 1f e8 18 be
       0.11993073 0.03038425 -0.09662715 -0.14932297
0001b0 15 30 8c bd 54 f1 0a bc a3 b4 47 be e1 9f a8 3c
       -0.068451084 -0.008480389 -0.19502501 0.020584049
0001c0 0f 74 68 bd f0 d5 33 be d1 77 0c 3d 45 6e a8 3d
       -0.056751307 -0.1756208 0.034293953 0.08224157
0001d0 c0 5f 4e be 36 34 dd bd fd 7b 19 be 78 88 5c be
       -0.20153713 -0.10800974 -0.14988704 -0.21536434
0001e0 1f 64 3e b9 09 04 0f be 5a c5 55 bd 91 87 9f 3d
       -0.0001815711 -0.13966383 -0.052190162 0.07789529
0001f0 1c 10 34 be 8b e6 64 be 04 5d 9e bc 2f 9d 62 bc
       -0.1758427 -0.2235357 -0.019331463 -0.013831421
000200 c9 dd b4 bc 21 98 ec be ff b6 4a bd eb 69 b4 be
       -0.022078412 -0.46209815 -0.049490925 -0.3523706
000210 de ce 0d bd 58 fb d0 be 03 b8 cb be 8f 3d 23 be
       -0.034621112 -0.4081676 -0.39788827 -0.15941451
000220 22 3b 76 3d 9f a3 8d be fc 00 8a be 00 6a 8a 3d
       0.060114987 -0.27663895 -0.26953876 0.06758499
000230 94 ff 93 be 05 b9 55 3d f2 bd 4b bd 12 35 cf be
       -0.28905928 0.0521784 -0.049741693 -0.40470177
000240 54 81 fc be 1c 26 d8 3c 22 08 c2 bd f8 78 47 bd
       -0.4931742 0.02638536 -0.094742075 -0.04869935
000250 75 86 91 be 0d 97 82 be 26 e2 72 bd c9 62 56 3d
       -0.28422895 -0.25505868 -0.059297703 0.052340303
000260 54 bb 8d bd ea 97 68 bb 4d da f1 bd 54 26 c9 be
       -0.06920496 -0.0035490938 -0.11809216 -0.39287055
000270 2d d9 b0 3c b8 b8 f9 3d 5c 63 de 3d 40 89 34 be
       0.021587932 0.121934354 0.10858795 -0.17630482
000280 83 16 9a 3c 4c 68 12 bd e1 33 e7 3d d7 0a eb 3c
       0.018809563 -0.035743997 0.11289192 0.028691692
000290 83 3c 30 be c4 0b 69 be 7e ab 94 3d 0a 1b 01 bc
       -0.17210583 -0.22758394 0.07259272 -0.007879982
0002a0 04 b5 b2 be 73 39 07 bd 48 15 b4 be 67 3c 1b 3d
       -0.3490373 -0.033013772 -0.35172486 0.0378994
0002b0 26 c0 26 3d ca e6 c0 bd 63 7d 74 bd 41 e1 96 bc
       0.04071059 -0.094190195 -0.05968989 -0.018417956
0002c0 f7 36 5f 3c ca ed 8a 3d e2 13 7d 3d 54 9f 27 bd
       0.0136239445 0.06783636 0.06178654 -0.04092343
0002d0 1d 04 b9 be 9b 1c 6b be 45 88 cf be 7d 29 cd 3d
       -0.3613595 -0.22960131 -0.40533653 0.10017679
0002e0 28 71 d2 3c ef f3 38 be 67 b9 c5 3d ab ec 03 bb
       0.025688723 -0.18061803 0.09654503 -0.0020130079
0002f0 1b 3a e5 be a9 9e 67 be 6b 7a 04 bd b6 ac a3 be
       -0.44770893 -0.22619118 -0.03234331 -0.31967705
000300 dd a5 2d bd f7 8a 83 bd de c1 50 be ad 3b 89 bd
       -0.042394508 -0.0642299 -0.20386454 -0.067008354
000310 8d 9f f0 bb a7 9a 8d 3d b2 02 b5 bc 80 52 99 bc
       -0.0073432387 0.06914263 -0.022096012 -0.018716097
000320 65 fb a3 3d 24 5e 2a 3e e4 76 c3 be 0b 6d ee be
       0.08006934 0.16637474 -0.38176644 -0.46567568
000330 62 f6 df 3e 3e c4 41 bd c5 3f 3d bc 9f 42 91 3c
       0.43742663 -0.04730629 -0.011550848 0.017731963
000340 91 e0 89 3c 9d 80 21 3b 3d f7 82 bc 0f d5 74 be
       0.016830714 0.002464331 -0.015987033 -0.239094
000350 bc 15 d1 3e 5d f2 84 3c 35 d9 f7 3d 7d c6 0a 3f
       0.40836895 0.016228849 0.12101976 0.5420912
000360 bf fc af be 85 b3 77 be fa 4a 1d be a9 5c dc 3d
       -0.34372517 -0.24189575 -0.15360633 0.10759861
000370 90 d2 9f 3d cd a3 cb bc d0 6f 0a be 2f 4c 61 be
       0.078038335 -0.02485838 -0.13519216 -0.22001718
000380 bc 4a 1e 3d 92 51 8b bd b3 27 34 3d de 48 2e be
       0.03864549 -0.06802668 0.043983173 -0.17019984
000390 ca dc 7b be c8 ef 8a be ca 7f 69 be 98 6b b3 3d
       -0.24595943 -0.27136064 -0.22802654 0.08760756
0003a0 71 1c ea 3b 8e a1 87 bd 38 a3 3b b7 6c 9e bf be
       0.0071445038 -0.06622611 -1.1184071e-05 -0.37425554
0003b0 6c 3a aa bc 49 18 17 bd 02 d9 94 be 79 a3 ce 3c
       -0.02077981 -0.036888395 -0.29071814 0.025224434
0003c0 82 36 7c bd 47 34 1e be d6 d2 ba bd 4c 00 0d 3c
       -0.06157542 -0.1544963 -0.09122245 0.008606028
0003d0 82 b8 93 be 1c d9 e4 bd 8d 3b 50 be 76 db f4 be
       -0.28851706 -0.11174223 -0.20335217 -0.47823685
0003e0 4e 54 cf bc c7 4e 4f be e7 93 59 3c 35 e1 89 bc
       -0.025308754 -0.20244895 0.013279892 -0.01683102
0003f0 92 17 ca be 1d f7 b6 be a5 97 aa bc f7 a8 93 3d
       -0.39471108 -0.35735407 -0.020824263 0.07209962

utn.4.bias f4 [15]
000000 cb 0d d7 bd 55 74 dc 3c 27 55 18 bd 86 38 02 bd
       -0.10500678 0.02691094 -0.037190583 -0.031792186
000010 9a fd 8a bc a0 7f 1f bd a4 e5 8b bd 85 fa 07 be
       -0.01696663 -0.038940072 -0.0683091 -0.1327916
000020 75 5d 0e 3a a9 a4 da bd c2 13 2b bd 6c 02 a5 3d
       0.00054307963 -0.10675938 -0.04176689 0.080571026
000030 ac 53 8f 3d 31 bb a3 bd c8 1b 73 bd
       0.06998381 -0.07994688 -0.059352666

itn.0.weight f4 [256, 2]
000000 a2 0c 8f bf 9d 10 29 3f 67 e2 39 bf fd a8 02 bf
       -1.117573 0.66040975 -0.7261109 -0.51039106
000010 60 95 99 3e d5 17 9f 3f 9b c4 58 3f 72 8c 1f bf
       0.29996777 1.2429148 0.84674996 -0.6232368
000020 17 51 6c bf ca 8d 55 3f 3c ef 8a bf c2 1e 7f 3e
       -0.92311233 0.8341948 -1.0854259 0.24914077
000030 44 2e 57 bf c0 0f 81 bf d8 11 50 bf 72 49 63 3d
       -0.8405497 -1.0082932 -0.8127723 0.055489965
000040 cf 9e 2b bf ab f9 20 3e 74 0b 81 be 78 29 26 c0
       -0.670392 0.15720241 -0.2520405 -2.596281
000050 a4 56 ca 3e a5 61 61 be 42 4c 68 bf a0 24 78 bf
       0.39519227 -0.22009905 -0.9074136 -0.96930885
000060 b8 47 1b 3f 4d f2 12 bf 51 80 ee 3e 40 17 fd 3e
       0.6065631 -0.5740097 0.46582273 0.494318
000070 3b d9 4f 3f 41 9f 39 bf 3c 09 68 bf 35 5c 78 3e
       0.8119084 -0.7250863 -0.9063909 0.24253924
000080 5c 41 50 bf 9f 6c 76 be 70 8e ef be 1a 5f 24 c0
       -0.8134973 -0.24064873 -0.4678836 -2.5683045
000090 d5 88 26 bf 59 57 14 3e cc b6 5c bf b5 58 6a bf
       -0.6505254 0.14486445 -0.86216426 -0.91541606
0000a0 75 83 24 bf 14 9e f6 bf a4 c4 32 bf d8 1f 88 bf
       -0.6426309 -1.9266992 -0.698313 -1.0634718
0000b0 7e 7b 80 3e 80 88 a2 bf dd 95 43 3e eb 89 88 3f
       0.25094217 -1.2697906 0.19100137 1.0667089
0000c0 7d 22 91 bf 28 ab d3 3e e6 86 54 3f 68 94 8c be
       -1.133865 0.4134152 0.8301834 -0.27456975
0000d0 a1 62 8a 3f ae 75 bf bd f9 6d 93 bf 74 48 0d 3f
       1.0811349 -0.093486175 -1.1517936 0.5518868
0000e0 46 21 b9 be b0 bb fa bf 15 07 c3 3e 2e f4 2a 3e
       -0.36158198 -1.9588528 0.3809134 0.1669471
0000f0 8e 5b 43 bf 17 b7 57 bf 58 7b 34 bf b9 6c 2a bf
       -0.76311576 -0.8426375 -0.7050071 -0.6657215
000100 24 2f 27 bf 69 42 c7 bf b1 b4 33 bf c6 dc 37 bf
       -0.65306306 -1.5567142 -0.7019759 -0.7182125
000110 bf 9c 0e 3f f6 7d 8e bf 9e 35 bf be 66 14 c2 bf
       0.55707926 -1.113219 -0.37345594 -1.5162475
000120 23 dd 1f be c6 99 8a 3f 22 ee 47 bf e6 fd eb be
       -0.156117 1.0828178 -0.78097737 -0.46092147
000130 3e 4b fd 3e 4d 21 a8 bf b2 5e bc 3e 4e 20 8b bf
       0.49471468 -1.3135163 0.36790997 -1.0869234
000140 1a 03 67 bf 81 e1 eb 3e 2f e7 49 bf a1 c1 9e 3e
       -0.9023911 0.46070483 -0.78868383 0.31007102
000150 e5 09 15 3e 01 ea 51 3f 92 30 46 bf 60 2e 0a 3c
       0.14554556 0.81997687 -0.7741786 0.008433908
000160 64 94 4d bf 02 ba 3c bf 31 02 7e 3d 39 06 42 3f
       -0.8030455 -0.73721325 0.06201381 0.75790745
000170 7c a4 58 bf da 38 5b bf d4 14 24 bf fe 44 28 be
       -0.84625983 -0.85633624 -0.6409428 -0.16432568
000180 0f ff e3 3d 20 b1 31 bf 74 93 4d 3f 28 7d 94 bf
       0.11132633 -0.69410896 0.8030312 -1.1600695
000190 a7 4d 68 bf b0 7a 40 3e 7b ca 26 bf 96 2b 20 bf
       -0.9074349 0.18796802 -0.6515271 -0.62566507
0001a0 7d 4b 5e bf 3d 26 b3 be 95 5f ea 3e 51 fa da bf
       -0.86833936 -0.3499011 0.45776048 -1.710764
0001b0 30 69 40 3f f9 d8 d1 bd 5d e8 17 bf cc f6 d6 bf
       0.75160503 -0.102464624 -0.59338933 -1.6794066
0001c0 03 5e 9c 3e c6 95 91 bf 26 a8 02 be ef f7 7f be
       0.30540475 -1.1373832 -0.12759456 -0.24996923
0001d0 0a fc 85 bf cb a7 cc 3e 85 9e 6c bf 4e aa f9 be
       -1.0467541 0.39971766 -0.9242938 -0.48762745
0001e0 74 d5 39 bf 3a d3 54 bf 94 57 1e bf de 2e 39 bf
       -0.7259133 -0.83134806 -0.61852384 -0.7233714
0001f0 9d fd 03 3f 68 f4 9a bf 96 2e 3b bf 7e 14 ce bf
       0.5155886 -1.2105837 -0.7311796 -1.6100004
000200 b3 86 11 3f 32 4f 8f be 0d 10 96 bf 05 00 b6 3e
       0.5684616 -0.2799011 -1.1723648 0.3554689
000210 34 37 37 bf 66 24 1e bf 26 28 8c be c3 4f 28 c0
       -0.7156861 -0.6177429 -0.2737438 -2.6298683
000220 12 f9 21 3f b2 26 be bf 66 1a 0a 3f d7 94 c1 be
       0.63270676 -1.4855559 0.5394653 -0.37808868
000230 17 a9 11 3f 33 7d 2a be 8a 38 1e bf 99 5a 8c bf
       0.56898636 -0.16649322 -0.6180502 -1.0965148
000240 ea e0 64 3f 36 c0 9d be 5a 39 91 3e 59 a5 96 bf
       0.8940569 -0.30810708 0.28364068 -1.176921
000250 52 d5 c8 be c5 40 9c bf f3 d7 fb bc c5 11 05 bf
       -0.3922525 -1.2207266 -0.030742621 -0.5198024
000260 7a 79 27 bf e3 af ec be 8b ae 85 3f f3 e9 87 bf
       -0.65419734 -0.4622794 1.0443891 -1.0618271
000270 37 4a 47 bf 73 8b 75 3c 3c 57 82 bf 32 b2 0b 3e
       -0.7784762 0.014986861 -1.0182872 0.13642195
000280 ee e6 36 bf 70 4d 72 bf 8f 6a 34 bf 76 ec 67 3e
       -0.7144612 -0.9464941 -0.70475096 0.22648796
000290 f7 5b 25 bf cd e3 6e bf f0 39 f8 3e 05 2a ba bf
       -0.6459345 -0.93316346 0.48481703 -1.4544073
0002a0 ef 3e 14 be ae 89 a7 3f c8 cb 9c 3f fb bb 93 bf
       -0.14477132 1.3088892 1.2249689 -1.1541742
0002b0 c1 be 8e bf c5 9d 89 3e e0 16 ff be 72 43 05 c0
       -1.1151963 0.2687818 -0.4982214 -2.0822415
0002c0 80 d5 95 be 2c c0 df 3f 18 98 7d bf ec 39 60 3f
       -0.2926445 1.7480521 -0.990602 0.8758838
0002d0 72 40 5b 3f b6 51 a4 be 4e ae 3d bf 8b 98 18 3b
       0.8564521 -0.3209359 -0.7409409 0.0023284282
0002e0 d9 bd 6f bf 5c 82 9e bf 8d 39 5d bf 56 8a 24 be
       -0.9364906 -1.2383533 -0.8641594 -0.16068396
0002f0 73 e0 4a 3f 48 71 30 bf 76 1b 9d 3f 3c 92 24 bf
       0.7924873 -0.68922853 1.2274005 -0.64285636
000300 a2 2f a7 3e 35 84 83 bf 07 33 61 bf d3 55 1a bf
       0.32653528 -1.0274721 -0.87968487 -0.6028721
000310 b1 d9 45 bf 7f 0b ff 3e 63 80 2a bf 16 b6 97 be
       -0.77285296 0.49813458 -0.6660215 -0.29631108
000320 da 52 92 3e 40 57 c0 bf 8f a0 4a bf 98 8a 80 bf
       0.28578836 -1.5026627 -0.7915124 -1.0042295
000330 16 5f 82 bf a0 77 1d 3f 3e ac d6 3e 33 0d c6 bf
       -1.0185268 0.6151066 0.41928285 -1.5472778
000340 eb da 34 bf 5d c1 cb bf b2 5e 42 3f 77 93 3a be
       -0.7064654 -1.5918385 0.75925744 -0.18220316
000350 96 5e 00 3d 6e 80 4b 3f 14 e0 3c be da 1f 75 3f
       0.031340204 0.79492843 -0.18444854 0.95751727
000360 7e cf 83 3d e8 0c b0 3f e7 d0 6a bf 3f ea f1 be
       0.0643606 1.3753939 -0.9172501 -0.47249028
000370 e6 4e 27 3f d1 02 40 bf 1f a9 77 3f f6 0b 9d be
       0.65354764 -0.750043 0.96742433 -0.30673188
000380 ca cc 88 bf 7c 1e 7b 3f 44 12 7d bf b0 1a 2a 3e
       -1.0687497 0.9809339 -0.98855996 0.16611743
000390 1e f6 85 3d 0d 07 6c bf 8a ee 7b bf 0e 28 c2 3e
       0.06541084 -0.9219826 -0.98410857 0.37921184
0003a0 4e e1 0c bd 9a a5 99 3f b1 83 56 bf 4b 16 b3 be
       -0.034394555 1.2003663 -0.83794695 -0.34977946
0003b0 52 02 7d bf ca d4 4f 3f b2 a5 fd be 8f 11 32 bf
       -0.98831666 0.81184065 -0.49540478 -0.6955804
0003c0 af 53 83 bf d6 80 09 3f 68 9f 83 3f 5b 56 03 bf
       -1.0259913 0.53712213 1.0283022 -0.51303643
0003d0 33 a7 bd be ab 84 ef be be 75 7b bf 58 0a 8a 3f
       -0.37041625 -0.46780905 -0.98226535 1.0784407
0003e0 11 32 ee 3e 23 b3 b9 bf 98 c0 02 3f 9f 98 af bf
       0.46522573 -1.4507793 0.51075125 -1.3718451
0003f0 fd 78 5a bf b2 97 97 3d 22 1d 88 bf 15 78 38 3f
       -0.85340863 0.074019805 -1.0633891 0.7205823

itn.0.bias f4 [256]
000000 89 a1 81 3e 67 6a f6 be 84 e2 f2 be 81 09 6b bf
       0.25318554 -0.48128054 -0.47438443 -0.91811377
000010 63 5e 7a be 6e f3 44 3f 37 e7 fa 3d 0a 30 9b be
       -0.24450068 0.76933944 0.12251132 -0.30310088
000020 1e 8b 3e be c9 09 46 bf 22 25 ec be a9 d7 dc bd
       -0.18607756 -0.7735868 -0.4612208 -0.107833214
000030 03 60 1c bf ab 87 7d bf 95 e8 51 bf 58 b8 a8 3e
       -0.61084 -0.9903514 -0.81995517 0.32953143
000040 c9 59 dc 3e 3e af d2 bb 21 14 58 bf e7 57 3d 3f
       0.4303725 -0.006429582 -0.84405714 0.73962253
000050 9c 27 1e 3e 80 e2 c0 be ee 8d 0c be 98 84 53 bf
       0.15444797 -0.37672806 -0.13726017 -0.82624197
000060 89 7b 58 3f a6 d5 8a bf 9d f6 b7 bf 22 9a 29 3f
       0.845635 -1.084645 -1.4372135 0.66250813
000070 90 d5 09 3e 7c ee 47 bf a7 50 e6 3e 30 8b a2 be
       0.13460374 -0.78098273 0.44983408 -0.31746817
000080 9c 81 38 3e 84 e9 72 bf 17 12 00 bf 12 de 2d 3e
       0.18018192 -0.94887567 -0.500276 0.16979244
000090 c5 4f 0f bf 54 ba f6 3d 1c 20 0c bc 74 a7 69 be
       -0.55981094 0.12047258 -0.008552577 -0.22817785
0000a0 b2 e9 2e 3d 79 d7 9b be 76 1f 89 bf 91 b5 09 3e
       0.042703338 -0.3043783 -1.0712726 0.13448168
0000b0 87 92 7b bf 2b 1d 8b bf 37 3d f5 be 86 99 85 be
       -0.9827046 -1.0868276 -0.47898266 -0.26093692
0000c0 5f 1b 11 bf e2 45 0d be 44 38 de 3e 7a 9b 42 3e
       -0.5668239 -0.1379619 0.43402302 0.19004622
0000d0 bb e6 fa 3e 28 27 99 be 58 fb 81 bf 24 f5 91 3d
       0.49004158 -0.29912686 -1.0154829 0.07126835
0000e0 61 fd 5a be f0 8c 67 bf d9 63 7b 3e 3e 1e c4 3e
       -0.21385719 -0.9044943 0.24549808 0.38304323
0000f0 a2 25 72 3d 8e 26 ff 3d 28 c2 d0 be 6a 8b 68 3e
       0.05911792 0.124585256 -0.4077313 0.22709432
000100 f4 25 c5 be 8b c8 57 3f 5b a6 53 3b f8 7e 73 be
       -0.38505518 0.8429038 0.00322952 -0.23778903
000110 dc 3b 1f 3e 71 eb 04 bf 4f d5 4a bf 8d be 44 be
       0.15550178 -0.51921755 -0.79231733 -0.19213314
000120 2c 79 8d bf 9d 7b 18 be 23 60 f9 3b 5e 4b 27 bf
       -1.1052604 -0.14890905 0.0076103373 -0.65349376
000130 55 ed a4 3d 9b 0c 26 bf f3 f3 9a 3e ea 0a 29 3f
       0.0805308 -0.64862984 0.30264243 0.6603228
000140 28 f8 18 3f 2c cb e8 be 03 2b 08 3f 85 65 e5 bd
       0.59753656 -0.45467508 0.5319063 -0.11201004
000150 1d d2 37 bf de e7 35 bf b0 d9 61 3f 8e 50 72 3d
       -0.7180498 -0.71056926 0.8822279 0.059158854
000160 bb da bf 3b f3 1c fc bd ff ef 5c bf 09 4f 32 be
       0.005854932 -0.12310209 -0.86303705 -0.17412962
000170 70 13 74 3f a7 e3 c8 3e 0c 9e 23 bf 8e 6d 96 bf
       0.9534216 0.39236185 -0.63913035 -1.1752183
000180 2d a7 ac be 5b 4e 1b 3f eb 45 e4 be c3 90 e9 be
       -0.33721295 0.60666436 -0.44584593 -0.45618257
000190 98 47 e7 3d fc 89 d2 3e a0 95 e6 3c 1c a9 e8 bd
       0.11292952 0.411209 0.028147519 -0.1136038
0001a0 a6 c0 46 3e d6 54 63 bf 84 b5 d8 be 7c eb 03 bf
       0.19409427 -0.88801324 -0.42325985 -0.51531196
0001b0 6f 5e ce be c7 ea 24 3f 55 6c 43 bf 1a 92 94 bf
       -0.40306422 0.6442074 -0.76337177 -1.1607087
0001c0 03 ef 61 bd 44 b7 18 3f 62 fd 76 be 7a 01 72 be
       -0.05515958 0.5965464 -0.24120095 -0.23633376
0001d0 67 6d 1d bf cf 41 02 be 2f 8d 17 be a0 82 51 bf
       -0.6149506 -0.12720416 -0.14799951 -0.8183994
0001e0 e9 59 b3 3d 17 ed 93 bf 1c 09 07 bf ea 30 da be
       0.087573834 -1.1556729 -0.52748275 -0.42615443
0001f0 b7 a1 c5 be 2f d9 61 bd 63 ef 46 bd 28 cc 99 3e
       -0.3859994 -0.055138763 -0.04856814 0.3003857
000200 3a 96 b7 bf f6 b0 54 3f f1 e3 55 be 3b db 45 be
       -1.434272 0.8308252 -0.20887734 -0.19321911
000210 37 11 32 bf 2a a0 55 be 1c 37 de 3d f9 7e 2a be
       -0.6955752 -0.20861879 0.10850355 -0.16649999
000220 d9 aa b2 3c ea d3 d9 be c6 57 f7 3e 4e 2a 57 be
       0.021809982 -0.4254449 0.48309153 -0.21012232
000230 3f d6 8c bd 1d 37 68 be 18 21 5f bf 15 cf 16 3e
       -0.06876802 -0.22677274 -0.8715987 0.14727433
000240 b8 42 e3 3e aa b4 68 bf a0 0c 08 bf 75 b5 1c 3e
       0.4438684 -0.9090067 -0.53144264 0.15303595
000250 e7 a8 84 be 9f da 22 bf 32 d1 d7 3e a1 f5 43 3f
       -0.25910112 -0.6361484 0.4215179 0.76546675
000260 53 1a 95 bf c1 48 91 bf 4f d5 a4 3e 24 ef 8d be
       -1.1648659 -1.1350328 0.32193992 -0.27721512
000270 53 85 25 3f 63 a9 87 bd 7f 29 41 bf f4 7a 40 3d
       0.6465656 -0.06624105 -0.75453943 0.046992257
000280 dd 89 83 3b d6 a2 87 3d 29 84 a4 3e a3 2c 4f 3c
       0.0040142373 0.06622855 0.3213208 0.01264492
000290 69 00 9b bf a1 56 91 bf bb e8 5d be eb c8 2d bf
       -1.21095 -1.1354562 -0.21670811 -0.678847
0002a0 b5 65 fd 3e df 68 da 3d 82 3a 4c 3d d9 e8 f0 3e
       0.4949166 0.10664534 0.049860485 0.4705265
0002b0 41 e2 42 bf 45 59 ad bd a0 29 c5 3e fa b2 4c be
       -0.76126486 -0.084642924 0.3850832 -0.19990149
0002c0 81 65 a0 bf b9 bb 17 3f ce 9d 3e bf 96 41 00 3f
       -1.2530977 0.5927082 -0.7445954 0.50100076
0002d0 33 5d 3d bf 5e 6d 09 3f 3b 9e e7 be c7 76 6e 3d
       -0.73970336 0.53682506 -0.45237908 0.058218744
0002e0 47 00 9c be 01 8b f9 be 82 38 e3 be 7c 3d 82 be
       -0.30468962 -0.48738864 -0.4437905 -0.25437534
0002f0 e1 91 4a 3f 1d 71 63 be 97 d6 a2 3c 8a 61 a6 3d
       0.79128844 -0.22211118 0.019877715 0.08124073
000300 0e a2 0f 3e cb 0c e8 be 86 ba 7c bf bd f1 63 bf
       0.14026663 -0.4532226 -0.9872211 -0.8904074
000310 23 54 b8 be 92 e3 76 bf 15 6c b8 3d ba 97 c0 be
       -0.3600169 -0.96440995 0.0900499 -0.37615758
000320 bc c5 44 be 2d 07 49 bf 7d ce f6 be 9c 46 6f bf
       -0.19216055 -0.78526574 -0.48204413 -0.93467116
000330 60 ff 7b bd 53 76 46 bf 53 70 cc be 9e a2 9e 3d
       -0.06152284 -0.775243 -0.39929447 0.077458605
000340 ea aa ea bd de 7e 2f 3f 6b ec 82 bf 08 8a a9 3e
       -0.114583805 0.6855296 -1.0228399 0.33113122
000350 0f 75 2a 3f fe 35 91 bf 77 35 b0 be 5c 32 16 3f
       0.6658487 -1.1344602 -0.3441579 0.5867059
000360 b8 20 62 bf 54 7b 54 3f 3b 47 9d bd c0 88 05 3f
       -0.88331175 0.83000684 -0.07679602 0.5216179
000370 4a 66 a9 bf 22 50 c1 3e ea bd f9 be 98 7f 28 3f
       -1.3234341 0.3775645 -0.48777705 0.6581969
000380 70 8d f4 be b0 58 0b bf 20 5b 87 be 68 70 b6 3e
       -0.47764158 -0.544322 -0.2643671 0.35632634
000390 ca 3c 30 bf 3c 60 cb bc ea 79 86 bd 66 7a 1a bf
       -0.68842757 -0.024826162 -0.06566222 -0.60343015
0003a0 5c 39 00 bf d9 c3 6e be 7c 94 64 3e 52 df cc 3e
       -0.50087523 -0.23316897 0.22322267 0.4001413
0003b0 47 31 17 3e 27 3e 62 bd 47 9d 90 3e 95 b2 dd be
       0.14764892 -0.055235054 0.28244993 -0.4330031
0003c0 ae 92 59 3f 6a 44 0f 3d a1 87 5b 3e fc d6 27 be
       0.8498944 0.034977354 0.21438457 -0.16390604
0003d0 12 64 65 3e 1c f6 e0 be c3 a1 02 3f bd 4f 61 bf
       0.22401455 -0.43937767 0.5102808 -0.88012296
0003e0 9b 39 1e 3f 2b 9b e5 be 1c a3 7a 3e 22 66 3e 3d
       0.6180665 -0.44844946 0.24476284 0.04648412
0003f0 6c 6f 31 3f 7a 11 71 bf 89 9c 38 be cf 64 3a bf
       0.6931064 -0.9416729 -0.18028463 -0.7281007
