ckpt/assistment/irt_KLI_ip.pt (torch, 287937 bytes, 12 tensors)

utn.0.weight f4 [256, 2]
0	0xbf758137	-0.9590029
1	0xbff7d0af	-1.936056
2	0x3e1f2118	0.15539968
3	0xbfd6c73f	-1.6779555
4	0xbfa52615	-1.2902247
5	0xc0116517	-2.271795
6	0xbf3c1a84	-0.7347796
7	0xc011611e	-2.2715526
8	0xbfb257c7	-1.3933038
9	0xbf9bf141	-1.2183
10	0xbe1238b5	-0.14279445
11	0xbf86257d	-1.048019
12	0xbf220c68	-0.6330018
13	0xbf43ca85	-0.76480895
14	0xc014133d	-2.3136742
15	0xbfc257d9	-1.5183059
16	0xbfd2b046	-1.6460044
17	0xbfe731f9	-1.8062125
18	0x3c9a1a84	0.018811472
19	0xc0030564	-2.047204
20	0xbea84ba8	-0.3287022
21	0xc0315fda	-2.7714753
22	0xbf5ef5c7	-0.87093776
23	0xbeaeba01	-0.34126285
24	0xbfe3e7fa	-1.7805169
25	0x3e838bcf	0.25692603
26	0x3eb684e8	0.35648274
27	0xbfebf440	-1.8433914
28	0xbfab5a63	-1.3386959
29	0xbe9896d8	-0.29802585
30	0xbf3ba589	-0.7329946
31	0x3edb2428	0.42801023
32	0xbde1a209	-0.11017234
33	0xbf6baf30	-0.9206419
34	0x3e647df3	0.22313671
35	0xbfba6a3e	-1.4563673
36	0xbef10d17	-0.470803
37	0xc00e04d7	-2.2190454
38	0xbf1dab56	-0.6158956
39	0xc050a853	-3.2602737
40	0x3e523ba0	0.20530558
41	0xc0050068	-2.0781498
42	0x3ea33fe6	0.31884688
43	0xbfcdb0fa	-1.6069634
44	0x3e3d30a4	0.18475586
45	0xc0059f53	-2.0878494
46	0xbf1f13da	-0.62139666
47	0xc03387d5	-2.8051655
48	0xc03057cb	-2.7553585
49	0xbfe2a0a2	-1.7705271
50	0xbed81121	-0.42200568
51	0x3fd89284	1.6919713
52	0x3f8abc45	1.0838705
53	0xbf0beeb6	-0.5466112
54	0x3e311962	0.17294839
55	0xc0083729	-2.1283667
56	0x3e95de78	0.29271293
57	0xbfe70b09	-1.8050243
58	0xbe10f0fc	-0.14154428
59	0xbf8ecae2	-1.1155665
60	0xbf0a7b63	-0.54094523
61	0xc0328c69	-2.78982
62	0xbfe23fdc	-1.7675738
63	0xbe1db054	-0.15399295
64	0xbe32223e	-0.17395875
65	0xbf9197e6	-1.1374481
66	0xbfd307ab	-1.6486715
67	0xc014fcdc	-2.3279333
68	0xbeebd06e	-0.46057457
69	0x3fac849b	1.3477968
70	0xbe1cc2e2	-0.15308717
71	0xbfa136be	-1.2594831
72	0xbf0bb5a1	-0.5457402
73	0x3f74dfaa	0.95653784
74	0xbec1f9de	-0.37885946
75	0xc03e9a3c	-2.9781637
76	0x3e707f1e	0.23485991
77	0xbfcf25fe	-1.6183469
78	0x3e943448	0.28946137
79	0xbfef0999	-1.8674804
80	0xbebb24e9	-0.36551598
81	0xc058045b	-3.3752658
82	0x3eac50b4	0.33655322
83	0xbfe98c9f	-1.8246039
84	0xbe816d43	-0.25278673
85	0xc00ae2e6	-2.1700988
86	0xbb81ed24	-0.003965037
87	0xbfdfd52a	-1.7486928
88	0x3e90bd21	0.28269294
89	0xc007f791	-2.1244853
90	0xbe9a6052	-0.30151612
91	0xc03a8a8c	-2.9147062
92	0xbe8abfde	-0.27099508
93	0xc0770a55	-3.8600056
94	0x3e57dc3b	0.21080105
95	0xbffc18e4	-1.9695096
96	0x400d0033	2.2031372
97	0x3da86608	0.08222586
98	0x3dd9c1b3	0.10632648
99	0xbff8b260	-1.9429436
100	0x3e80a2c0	0.25124168
101	0x3e9b2035	0.3029801
102	0xbeef5c88	-0.46750283
103	0xbf39086d	-0.7227848
104	0xc0662433	-3.5959594
105	0xbf1f9b7d	-0.6234663
106	0x3d881c1c	0.066459864
107	0xc00c3db4	-2.191266
108	0xbfb1d42f	-1.3892878
109	0xbfb09361	-1.3794976
110	0xbf31dae5	-0.6947463
111	0x3ee28ebc	0.44249523
112	0xbf101e54	-0.5629628
113	0xc015f891	-2.3432963
114	0x3e9f3df8	0.31101966
115	0xc00257a8	-2.0366
116	0xbe7eb700	-0.24874496
117	0xc05094cd	-3.259082
118	0xbe85c583	-0.26127252
119	0xc079d156	-3.9034019
120	0x3fcd2c48	1.6029139
121	0xbe176851	-0.14785887
122	0xbfcb532c	-1.5884757
123	0xbf0c41f7	-0.54788154
124	0x3da47bed	0.080314495
125	0xc000c452	-2.0119824
126	0xbf4aac4b	-0.7916915
127	0xbf085a23	-0.5326254
128	0x3e528aa1	0.20560695
129	0xbfd5c977	-1.6702107
130	0xbfbe9745	-1.4889914
131	0x3eb21d3a	0.34787923
132	0xbf0bfac2	-0.546795
133	0xbfdae758	-1.710185
134	0xbe638077	-0.22216974
135	0xc02e3184	-2.7217722
136	0x3fc1fdcd	1.5155579
137	0xbf3511be	-0.707302
138	0xbf7c544c	-0.98566127
139	0xbecac8a1	-0.39606193
140	0x3fd96e82	1.6986849
141	0x3c5d870c	0.013520967
142	0x40739402	3.8059087
143	0xbe51f4e9	-0.20503582
144	0xbe089a5d	-0.13340135
145	0xbf77a48f	-0.9673547
146	0x40007495	2.0071156
147	0xbf0f3a16	-0.5594801
148	0x3e3b65ef	0.18300603
149	0xbff4d00c	-1.9125991
150	0xbbcbe5a2	-0.0062224427
151	0xbfde2e5c	-1.7357898
152	0xbf68b808	-0.9090581
153	0xc026758e	-2.600925
154	0x3ebda6b7	0.37041256
155	0xbfffce59	-1.9984847
156	0x3e6a9cca	0.22911373
157	0xbff634c6	-1.9234855
158	0x3dc1d267	0.09463959
159	0xc017de26	-2.3729339
160	0xbe064f23	-0.13116126
161	0xbf890760	-1.0705376
162	0xbf1bdf33	-0.6088745
163	0xbf918058	-1.1367292
164	0xbe4cf846	-0.20016584
165	0xc08135da	-4.0378237
166	0xbfb4a3f6	-1.4112537
167	0xc0065370	-2.0988426
168	0xc074b482	-3.8235173
169	0xbe201f5a	-0.1563696
170	0x4069cf59	3.6532805
171	0x3af285f1	0.0018503052
172	0xbff309db	-1.8987383
173	0xc009d4e2	-2.1536183
174	0xbf32382b	-0.69616956
175	0xc03402be	-2.8126674
176	0x3dad06ff	0.084486
177	0xbfed7e9d	-1.8554264
178	0x3e8dc943	0.27692613
179	0xbfedff59	-1.8593551
180	0xbdd858cb	-0.10563811
181	0xbfb32111	-1.3994466
182	0xbfe07065	-1.75343
183	0xc0130eea	-2.2977853
184	0xbd6e60a3	-0.05819763
185	0xbfe6708e	-1.8003099
186	0xbe1521b2	-0.14563635
187	0xbf941017	-1.156741
188	0xbf18f81a	-0.5975357
189	0xc0383d38	-2.8787365
190	0xbe106c35	-0.14103778
191	0xc0083467	-2.1281984
192	0xc053fd84	-3.3123484
193	0xbec7f0ea	-0.3905099
194	0x3cc5b3ca	0.024133582
195	0xbffa38e4	-1.9548612
196	0xbfbafd4c	-1.460855
197	0xbfd1f680	-1.6403351
198	0xc05131d2	-3.2686658
199	0xbfb71a24	-1.4304852
200	0xbf09009d	-0.5351656
201	0xc03d749c	-2.9602423
202	0x3e5c7650	0.21529508
203	0xbfe7e2b8	-1.8116064
204	0xbf0ed0cf	-0.55787367
205	0xbf8f122a	-1.1177418
206	0xbedbe2b5	-0.429464
207	0xc01d5983	-2.4585884
208	0xbfa3bf3f	-1.2792739
209	0xc029a845	-2.6508954
210	0xbe06552e	-0.13118431
211	0xbf3539ee	-0.7079152
212	0xbe1bd43f	-0.15217684
213	0xbf25cc1b	-0.64764565
214	0xbea580c0	-0.3232479
215	0xc063a763	-3.5570915
216	0x3de3b351	0.11118186
217	0xbffdd618	-1.9830961
218	0x3e8f7829	0.28021362
219	0xbfd1e72d	-1.6398674
220	0xbf3401ee	-0.70315444
221	0xbeddfa1d	-0.43354884
222	0x400f0ab1	2.2350276
223	0x3d925c84	0.07146552
224	0xbff8427b	-1.9395288
225	0x3e4c146b	0.19929664
226	0xbe19bfac	-0.15014523
227	0xbf64b1ad	-0.8933361
228	0xbf9538e5	-1.1657988
229	0xbf42b933	-0.7606384
230	0xbf0a0bf3	-0.53924483
231	0x3f7111b1	0.9416762
232	0xbef67cb6	-0.48142022
233	0x3fb1a767	1.3879212
234	0x3e92c36b	0.28664717
235	0xc008c8f2	-2.1372647
236	0x3e9771b2	0.2957893
237	0xc00ec53c	-2.2307882
238	0xbfeb1ad3	-1.8367561
239	0xbfd28ecd	-1.6449829
240	0xbf101ce7	-0.562941
241	0xbfbe72ea	-1.4878819
242	0xbfc6fe41	-1.5546342
243	0xbfb71a05	-1.4304816
244	0x3ec1ef48	0.3787787
245	0xbfefaf62	-1.8725398
246	0x3eaf0846	0.34186
247	0xbff47038	-1.9096746
248	0xbe03fdf5	-0.12889846
249	0xbf66e9f8	-0.9020076
250	0xc0332d1f	-2.799629
251	0xbe5bc49a	-0.21461716
252	0xbe11d6ad	-0.14242049
253	0xbfc705a8	-1.5548601
254	0xbeaff7ad	-0.3436865
255	0xbf289539	-0.65852696

utn.0.bias f4 [256]
0	0xc073b76f	-3.808071
1	0xbeed605c	-0.4636258
2	0xc038adb1	-2.8856013
3	0xc0720857	-3.781759
4	0xc04ee272	-3.2325711
5	0xbfeef8b6	-1.866965
6	0x3f48ec14	0.78485227
7	0xbfa0c633	-1.2560486
8	0xc01eb64b	-2.4798763
9	0xbfe7699a	-1.8079102
10	0xc0906b02	-4.5130625
11	0xc050e93e	-3.264236
12	0xc02d82bb	-2.7111042
13	0xbdcf8cd8	-0.10134286
14	0x3ff722a5	1.9307448
15	0xc027a4fe	-2.6194453
16	0xbf4e630a	-0.8061987
17	0x3e0f8e2d	0.1401908
18	0xc06f510d	-3.739322
19	0xc053ba6f	-3.308254
20	0xbf95715a	-1.1675217
21	0xbeb13615	-0.34611574
22	0xbf9f9836	-1.2468326
23	0xc0788c65	-3.883569
24	0xbfe6460a	-1.7990124
25	0xc0298759	-2.648886
26	0xc02a6e35	-2.6629765
27	0xbf7f5c60	-0.9975033
28	0xbea2449c	-0.3169297
29	0xbf38864f	-0.7207994
30	0xc08db74b	-4.4286246
31	0xc029c97f	-2.6529233
32	0xbff9156a	-1.945966
33	0xc0076286	-2.1153884
34	0xc025fdaf	-2.5936086
35	0xbfb2ea5d	-1.3977772
36	0xc029a220	-2.6505203
37	0xc087b892	-4.2412806
38	0xbecd6394	-0.40115035
39	0xbf3fc150	-0.74904346
40	0xc093c512	-4.6178064
41	0xbe4a3dea	-0.19750181
42	0xc03b9fee	-2.9316363
43	0xbfb47d7b	-1.4100794
44	0xbeea9317	-0.45815346
45	0xc0a2f686	-5.092593
46	0xc093f722	-4.6239176
47	0xbc24ea84	-0.0100656785
48	0xc0483ec1	-3.1288302
49	0xbf9aed3e	-1.210365
50	0xc07d4270	-3.95718
51	0xbe29e6dc	-0.16591972
52	0xc00567fb	-2.0844715
53	0x3dea6e66	0.11446838
54	0xc044f5af	-3.0774953
55	0xc023ded1	-2.5604746
56	0xc058d469	-3.3879645
57	0x3e88c791	0.26714757
58	0xc062e42f	-3.5451772
59	0xc0916d90	-4.5446243
60	0xc01a1c58	-2.40798
61	0xc0356861	-2.8344958
62	0xbf3c0013	-0.73437613
63	0x3f94f691	1.1637746
64	0xbec3dc16	-0.3825385
65	0xc037e89a	-2.8735719
66	0xbf8af593	-1.0856193
67	0xc047df9d	-3.1230233
68	0xbfbe25a3	-1.4855236
69	0xc05d0df8	-3.4539776
70	0xc0483a41	-3.1285555
71	0xbf4584ff	-0.7715606
72	0xbf69b27b	-0.91287965
73	0xc0228170	-2.5391502
74	0xbe7f301f	-0.249207
75	0xbe84de06	-0.2595064
76	0xc0443955	-3.0659993
77	0x3f0400dd	0.5156382
78	0xbf1731cc	-0.5906036
79	0xbffbd171	-1.9673291
80	0xc026f074	-2.608426
81	0x3f568428	0.83795404
82	0xc0a4c553	-5.1490874
83	0xc021803c	-2.5234518
84	0xc001aedd	-2.0262978
85	0x40032e56	2.0497031
86	0xc00692e0	-2.1027145
87	0xc05bcc1c	-3.4343328
88	0xbff20ae2	-1.8909571
89	0xbe3817b2	-0.17977789
90	0xc03fe50a	-2.9983544
91	0xc0033a96	-2.0504508
92	0xc087be74	-4.2419987
93	0xc013366d	-2.300197
94	0xc067779f	-3.616676
95	0xc09b2d22	-4.8492594
96	0xbffde3f7	-1.9835194
97	0xbf90a082	-1.1298983
98	0xc038b1c5	-2.8858502
99	0xbffcf089	-1.9760906
100	0xc06dd8c8	-3.7163563
101	0xbf13fcf2	-0.5780784
102	0xc051a603	-3.2757576
103	0xc0723d80	-3.7850037
104	0xc0507236	-3.256971
105	0xbfa21228	-1.2661791
106	0xbf141c24	-0.5785544
107	0xc09b20d3	-4.847757
108	0xbf9a654c	-1.2062163
109	0x3e4bc66b	0.19899909
110	0xc04a8818	-3.1645565
111	0xc03da9a4	-2.963479
112	0xc024b217	-2.5733697
113	0xbffd56eb	-1.979215
114	0x3f52a45e	0.82282054
115	0xc01e01fa	-2.4688706
116	0xc0282c04	-2.6276865
117	0xbeef145d	-0.46695223
118	0x3da3988b	0.0798808
119	0xc0137b5f	-2.304405
120	0xc074fa0a	-3.8277612
121	0xc0350ba7	-2.8288362
122	0x3ee6c092	0.45068794
123	0xbe685164	-0.22687298
124	0xbffd7491	-1.9801198
125	0xc012cf67	-2.2939088
126	0xc044a588	-3.0726032
127	0xbcad37bf	-0.021144746
128	0xc0001f42	-2.0019078
129	0xbf0cd509	-0.55012566
130	0xc01dd31a	-2.4660096
131	0xc086214a	-4.1915636
132	0xbfcf858b	-1.6212629
133	0xbfe5cca1	-1.7953073
134	0xc034de6c	-2.8260756
135	0x3f316f5b	0.6931054
136	0xbff7e2f9	-1.9366142
137	0x3e3a93e4	0.18220478
138	0xbf47e46d	-0.78082925
139	0xc041e17d	-3.0293877
140	0xbee84d61	-0.45371535
141	0xc01c4822	-2.4419026
142	0xc02a8ae7	-2.664728
143	0xc02602cf	-2.5939214
144	0xc0110c94	-2.2663927
145	0xbfd1b60c	-1.6383681
146	0xbfe3e33b	-1.780372
147	0xbf38516b	-0.71999234
148	0xbf0450c8	-0.5168576
149	0xbf9e3cf0	-1.2362347
150	0xc044d2a7	-3.0753572
151	0xc003c039	-2.0586073
152	0xbd47d218	-0.048784345
153	0xc0750352	-3.8283277
154	0xbf6d7f9e	-0.92772853
155	0x3fe178b1	1.7614957
156	0xbfe2d9d5	-1.7722727
157	0xc0699a1b	-3.6500309
158	0xc007ad3f	-2.119949
159	0xc03189d9	-2.7740386
160	0xc0a76981	-5.231629
161	0xbfd11a37	-1.6336125
162	0xc070dcb3	-3.7634704
163	0xc097831f	-4.734756
164	0xbfa19551	-1.2623693
165	0x3defa7db	0.11701938
166	0xc0710ad1	-3.7662852
167	0xc032a6d7	-2.791433
168	0xc081172b	-4.034078
169	0xc091bdbc	-4.554411
170	0xbf8b65b3	-1.0890411
171	0xc0a86ee2	-5.2635355
172	0xc0819b64	-4.0502186
173	0xc058247f	-3.3772275
174	0xc02f5434	-2.7395144
175	0xc02fdb81	-2.7477725
176	0xc03529cb	-2.8306758
177	0xc00f0f4e	-2.2353091
178	0xc04e1b72	-3.2204251
179	0xbff1c23e	-1.8887403
180	0x3f378c11	0.716981
181	0xc091bad3	-4.5540557
182	0xc0804440	-4.0083313
183	0xbeeb417f	-0.45948407
184	0x3faf4711	1.3693563
185	0xc03edc04	-2.9821787
186	0xbf95059b	-1.1642336
187	0xbf133dbc	-0.57516074
188	0xc0662e98	-3.5965939
189	0xc08a67c8	-4.3251686
190	0xc0348785	-2.8207715
191	0xc02c4371	-2.6916163
192	0xc01e7341	-2.4757845
193	0xc0831a15	-4.096934
194	0xc05bac9f	-3.432411
195	0xbe620483	-0.22072034
196	0xbfaa37b2	-1.3298247
197	0xc072079b	-3.7817142
198	0xc004ca6c	-2.0748549
199	0xc040519d	-3.0049813
200	0xc030b52e	-2.7610583
201	0xc02b41c3	-2.6758888
202	0x3e993a52	0.29927307
203	0xc044a106	-3.072328
204	0xc042a3e5	-3.0412533
205	0xc001c02e	-2.0273547
206	0xbf6af0a8	-0.9177346
207	0x3ff413a8	1.9068499
208	0xbf1cfe98	-0.6132598
209	0xc01d7dc7	-2.4608018
210	0xbf4a6ba6	-0.7907051
211	0xc066d66e	-3.6068377
212	0xbdb4d390	-0.08829415
213	0xbe94ad14	-0.29038298
214	0xbfe9391b	-1.8220552
215	0xc0047e53	-2.0702102
216	0xc0755721	-3.833443
217	0xc017a0a7	-2.3691804
218	0x3e94950c	0.29019964
219	0x3ecf16f8	0.4044721
220	0x3e5aa9cc	0.21353835
221	0xc052de78	-3.2948284
222	0xc01ef10f	-2.483463
223	0xbff34e57	-1.9008282
224	0xbcaaa842	-0.020832185
225	0xc03b3edf	-2.9257123
226	0xc008b0c4	-2.135789
227	0xc02ef982	-2.7339787
228	0xc058caf1	-3.3873866
229	0xbf22f22b	-0.6365077
230	0x401ccd68	2.450037
231	0xbec68f9a	-0.38781434
232	0xc08f5792	-4.4794397
233	0x3e09d0a4	0.13458496
234	0x3ff0565d	1.8776356
235	0xc02864ee	-2.6311603
236	0xc083b346	-4.115634
237	0xbc545d49	-0.012961694
238	0xc001aa42	-2.0260167
239	0xc056b281	-3.354645
240	0x3f3f6f25	0.7477897
241	0xc0640351	-3.5627024
242	0xc0496590	-3.146824
243	0xc0830fa1	-4.095658
244	0xbfece30e	-1.8506792
245	0xc0768a70	-3.8521996
246	0xbf5c06f6	-0.8594812
247	0xc03ab246	-2.917131
248	0xbf4c2ae1	-0.7975293
249	0xc048c157	-3.1368005
250	0xc0287932	-2.6323972
251	0xc0230b96	-2.5475821
252	0xbf68254e	-0.9068192
253	0xc099742f	-4.7954326
254	0xc05b724e	-3.4288516
255	0xc0760aff	-3.8444211

utn.2.weight f4 [128, 256]
0	0xbde8ddea	-0.11370452
1	0xbed6e740	-0.41973305
2	0xbcd04f83	-0.02542854
3	0xbe035b98	-0.12827909
4	0xbd1241ad	-0.035707165
5	0xbe3b8f48	-0.18316376
6	0xbf89e08c	-1.0771651
7	0xbded619c	-0.11590883
8	0x3c961e7f	0.018325089
9	0xbe6fb02e	-0.23407051
10	0xbce46ab9	-0.02788292
11	0xbe8c4bc6	-0.2740156
12	0xbe952b8d	-0.2913479
13	0xbe84f1a2	-0.259656
14	0xbf9e97de	-1.2390096
15	0xbee99a7c	-0.45625675
16	0xbf1342ee	-0.57524
17	0xbf0dd634	-0.55404973
18	0xbe12d233	-0.14337997
19	0xbdccd2de	-0.10001157
20	0xbe4553a9	-0.19270195
21	0xbeb25c1e	-0.34835905
22	0xbe5b37e8	-0.21408045
23	0xbd0aeaeb	-0.03391544
24	0x3b77a1a5	0.0037785557
25	0xbf3351a2	-0.70046437
26	0xbe39705c	-0.18109268
27	0xbe4f1f57	-0.20226799
28	0xbeb3f09b	-0.35144505
29	0xbf0dd263	-0.5539915
30	0xbd8620c4	-0.06549218
31	0xbe050acb	-0.12992398
32	0xbe0d8dca	-0.1382362
33	0xbd884dcf	-0.06655466
34	0xbf1fcaf7	-0.62419075
35	0xbec5c9a3	-0.386304
36	0xbf197f88	-0.5996022
37	0xbcc066a3	-0.023486441
38	0xbeacad4c	-0.33725965
39	0xbe9536b5	-0.291433
40	0xbd620f9b	-0.055190664
41	0xbea2c1aa	-0.3178838
42	0xbe116a2a	-0.14200655
43	0xbe874210	-0.2641759
44	0xbe4b98c1	-0.1988249
45	0xbdebfcc8	-0.115228236
46	0xbcfe1830	-0.031017393
47	0xbea0c87a	-0.3140295
48	0xbeccd13e	-0.4000339
49	0xbe6abd54	-0.22923785
50	0xbe36c6d7	-0.17849289
51	0xbf0e697a	-0.55629694
52	0xbd8682ce	-0.06567918
53	0xbeb327c1	-0.34991267
54	0xbd105c23	-0.03524412
55	0xbf07708b	-0.529061
56	0xbddba8bc	-0.10725543
57	0xbe9a7829	-0.301698
58	0xbd5bedbe	-0.053693525
59	0xbd7e7b56	-0.06212934
60	0xbea9b9e3	-0.33149633
61	0xbd9e8669	-0.077404805
62	0xbe88a062	-0.26684862
63	0xbfa6046f	-1.2970103
64	0xbebf35f8	-0.37345862
65	0xbe8411a6	-0.25794715
66	0xbe527481	-0.20552255
67	0xbd37f975	-0.044915635
68	0xbed79565	-0.42106166
69	0xbe45e00e	-0.19323751
70	0xbe7add56	-0.24498495
71	0xbf38622e	-0.7202481
72	0xbf101b0f	-0.5629129
73	0xbe4e1c98	-0.20128095
74	0xbea6e974	-0.32599986
75	0xbee496e6	-0.44646376
76	0xbce3df41	-0.027816417
77	0xbeaab94f	-0.33344504
78	0xbe792544	-0.24330622
79	0xbdcbfc36	-0.09960215
80	0xbe4897d2	-0.19589165
81	0xbf5569de	-0.83364666
82	0xbd1713a7	-0.036883976
83	0xbb54976c	-0.0032438887
84	0xbeb4b2be	-0.3529262
85	0xbf9f162a	-1.2428639
86	0xbc3d7937	-0.011564544
87	0xbddf956a	-0.1091717
88	0xbe4d3e7f	-0.20043372
89	0xbeadccbf	-0.3394527
90	0xbdc8c5a7	-0.09803324
91	0xbdcabca0	-0.098992586
92	0xbd234e2f	-0.039869484
93	0xbe1069fa	-0.14102927
94	0xbd2b8429	-0.041874085
95	0xbd9cfcc7	-0.07665401
96	0xbd593e31	-0.053037826
97	0xbe9a00b3	-0.30078658
98	0xbd749b84	-0.059718624
99	0xbdd301af	-0.103030555
100	0xbd8b9309	-0.06815154
101	0xbe9de32c	-0.3083738
102	0xbe513c57	-0.20433174
103	0xbdfb14b1	-0.12259806
104	0xbdd09aae	-0.10185753
105	0xbeaae6be	-0.33379167
106	0xbed92695	-0.42412248
107	0xbd37a3b2	-0.044833846
108	0xbe4f47eb	-0.20242278
109	0xbe80938a	-0.25112563
110	0xbe9c0eff	-0.3048019
111	0xbf049a8b	-0.51798314
112	0xbe391f80	-0.18078423
113	0xbedd4708	-0.43218255
114	0xbefc9f18	-0.4934013
115	0xbf1015ae	-0.5628308
116	0xbf265bd7	-0.64983886
117	0xbe307098	-0.17230451
118	0xbe4ad859	-0.19809093
119	0xbdbedccd	-0.09319458
120	0xbe04a029	-0.12951721
121	0xbc530588	-0.012879737
122	0xbebaa8cb	-0.36456904
123	0xbe60cce3	-0.21953158
124	0xbe59733d	-0.21235366
125	0xbd84d6c2	-0.06486274
126	0xbe4213c0	-0.18952847
127	0xbf435f07	-0.76316875
128	0xbde6316a	-0.11239894
129	0xbe909903	-0.2824174
130	0xbce9859a	-0.028506089
131	0xbd60ccd5	-0.054882843
132	0xbec52f0c	-0.38512456
133	0x3c916dc3	0.017752534
134	0xbe765c1b	-0.24058573
135	0xbf6f6644	-0.9351542
136	0xbe18086d	-0.14846964
137	0xbeea8068	-0.4580109
138	0xbe7f21ad	-0.2491519
139	0xbddb2e29	-0.10702164
140	0xbe8a5977	-0.2702138
141	0xbf3e5de1	-0.74362
142	0xbf06c3c5	-0.5264247
143	0xbdf69611	-0.12040342
144	0xbd6a21c1	-0.057161096
145	0xbcdedab9	-0.027203904
146	0xbf196885	-0.5992511
147	0xbe760ee7	-0.24029122
148	0xbe99ed53	-0.30063877
149	0xbf0d9481	-0.55304724
150	0xbc8bdab2	-0.017072055
151	0xbde4ef12	-0.111784115
152	0xbe83353e	-0.25626558
153	0xbdd90a58	-0.10597676
154	0xbf61031c	-0.8789537
155	0xbf6f0c4d	-0.93378145
156	0xbe577f29	-0.21044602
157	0xbdef34e8	-0.11680013
158	0xbe70358d	-0.23457928
159	0xbe2920b8	-0.16516387
160	0xbccf7d1f	-0.025328217
161	0xbd1ac42f	-0.03778475
162	0xbdb4c01f	-0.08825707
163	0xbdcf16eb	-0.10111793
164	0xbe532bb0	-0.20622134
165	0xbed412fb	-0.4142073
166	0x3c4fe23f	0.012688219
167	0xbcc5fae1	-0.02416748
168	0xbd8de410	-0.06928265
169	0xbe2e47eb	-0.17019622
170	0xbef74fb6	-0.48303002
171	0xbdfc0860	-0.12306285
172	0xbde38d48	-0.11110932
173	0xbda67d08	-0.081293166
174	0xbdc9d1a3	-0.09854438
175	0xbed04485	-0.40677276
176	0xbd88b31a	-0.06674786
177	0xbd532ec6	-0.05155828
178	0xbde5b489	-0.11216075
179	0xbe66e47e	-0.225481
180	0xbee59eb4	-0.44847643
181	0xbdce4135	-0.10071031
182	0xbe11acc5	-0.14226063
183	0xbeb3c519	-0.3511131
184	0xbf53dff1	-0.8276358
185	0xbeaebf3c	-0.34130275
186	0xbe2bd85a	-0.1678175
187	0xbf06ff91	-0.52733713
188	0xbe15bb76	-0.14622292
189	0xbdf96480	-0.12177372
190	0x3e5ec625	0.21755274
191	0xbec71dcd	-0.38889924
192	0xbf370afa	-0.71501124
193	0xbd8834c6	-0.06650691
194	0x3b1423c5	0.0022604328
195	0xbf1b6ccd	-0.6071289
196	0xbe9c04a2	-0.30472285
197	0xbd89e7c6	-0.067336604
198	0x3c297c6a	0.010344604
199	0xbe9e0c77	-0.30868885
200	0xbef2b062	-0.47400194
201	0xbf062542	-0.524006
202	0xbe5efd66	-0.21776351
203	0xbe89dca7	-0.26926157
204	0x3be2e0ba	0.006923762
205	0xbde5e2d5	-0.112249054
206	0xbf011ffe	-0.5043944
207	0xbfb10425	-1.382939
208	0xbe98edaf	-0.29868838
209	0xbf22c625	-0.63583595
210	0xbe8e5068	-0.2779572
211	0xbd72f2ad	-0.059313465
212	0xbed10a39	-0.40828112
213	0xbeaa3e32	-0.33250576
214	0xbcf40128	-0.029785708
215	0xbe099451	-0.13435484
216	0xbd2a6e41	-0.041609053
217	0xbe39a04c	-0.18127555
218	0xbec99663	-0.39372548
219	0xbea567a8	-0.32305646
220	0xbf1a73cb	-0.60332936
221	0xbe54b023	-0.20770316
222	0xbf35fd18	-0.71089315
223	0x3bf26d4a	0.007398282
224	0xbeb993df	-0.3624563
225	0xbe47454c	-0.19460028
226	0x3b892a31	0.004185938
227	0xbeb8d0af	-0.36096713
228	0xbda0cdfb	-0.07851788
229	0xbf23d3de	-0.6399516
230	0xbfd2fd13	-1.6483482
231	0xbe974b8a	-0.2954982
232	0xbd83fcad	-0.064446785
233	0xbe8dceb4	-0.27696764
234	0xbfb473ba	-1.4097817
235	0xbf3524ae	-0.70759094
236	0xbd929960	-0.0715816
237	0xbeb833e8	-0.359771
238	0xbe16db56	-0.14732108
239	0xbddca7e9	-0.10774214
240	0xbf849f5b	-1.0361131
241	0xbd8c939f	-0.06864094
242	0xbe78cad2	-0.2429612
243	0xbd327e40	-0.043577433
244	0xbe73d8f4	-0.2381323
245	0xbdae681f	-0.08515953
246	0xbe863059	-0.2620876
247	0xbf3b380d	-0.731324
248	0xbe3e1c69	-0.18565525
249	0xbe8d96ef	-0.27654216
250	0xbe55712f	-0.20843957
251	0xbceabd6f	-0.028654782
252	0xbddacc2e	-0.106834754
253	0xbde30c32	-0.110863104
254	0xbdcea95e	-0.10090898
255	0xbd2731a4	-0.040818825

utn.2.bias f4 [128]
0	0xbf46c911	-0.77650553
1	0xbefa648d	-0.4890484
2	0xbf49d036	-0.7883333
3	0x3cf8052a	0.0302759
4	0x3df6e3e9	0.12055189
5	0xbecea761	-0.40362075
6	0x3e7ffce5	0.24998815
7	0x3e557bae	0.20847961
8	0xbc584aea	-0.013201455
9	0x3ddacc18	0.10683459
10	0x3e2de226	0.169808
11	0xbeb110fc	-0.3458327
12	0x3f0f5db9	0.56002384
13	0xbf3d82bb	-0.74027604
14	0xbc3e7ff4	-0.011627186
15	0xbe07e80c	-0.13272113
16	0x3f22e4a8	0.6363015
17	0xbf51875f	-0.81847185
18	0xbee16e40	-0.44029427
19	0xbdc2acd1	-0.09505618
20	0xb9bc476c	-0.00035911368
21	0xbf37770b	-0.7166602
22	0xbf54e6dc	-0.83164763
23	0xbf1f7aed	-0.62296945
24	0xbf3f343f	-0.74689096
25	0x3e4195cc	0.18904799
26	0x3ee5ffa3	0.44921598
27	0x3f06235d	0.5239771
28	0xbc01871c	-0.007905748
29	0x3ee162e4	0.4402076
30	0xbf3e658d	-0.74373704
31	0xbf2dfc3e	-0.67963016
32	0xbe7e99d1	-0.24863364
33	0x3e380099	0.17968978
34	0x3d9f2215	0.077701725
35	0xbf259c56	-0.64691675
36	0x3e14af74	0.14520055
37	0xbf3788cb	-0.71693105
38	0xbd90e5fb	-0.07075115
39	0xbe3f8a6f	-0.18705152
40	0xbdf120b2	-0.11773814
41	0x3ef33761	0.47503188
42	0x3e3ae5f3	0.18251781
43	0xbf078b35	-0.5294679
44	0x3e65efc7	0.22454749
45	0x3f1035df	0.563322
46	0xbf50be10	-0.8154001
47	0x3dfef411	0.12448896
48	0x3eb94294	0.36183608
49	0xbdcf67f6	-0.10127251
50	0xbed9fcc7	-0.42575666
51	0xbf3333fc	-0.70001197
52	0x3e7b7b7f	0.24558829
53	0x3e36737e	0.17817494
54	0x3e14b4ed	0.14522143
55	0xbe56bf77	-0.20971476
56	0x3ef6982f	0.48162982
57	0x3eac3887	0.33636877
58	0xbf4667a4	-0.77501893
59	0xbd5f36be	-0.054495566
60	0xbf0fb6fe	-0.561386
61	0xbe6337fc	-0.22189325
62	0xbf3cfd29	-0.7382379
63	0xbf451eb5	-0.7699998
64	0xbef5507d	-0.4791297
65	0xbf33a3d4	-0.70171857
66	0xbf3849e2	-0.71987736
67	0xbf440f13	-0.765855
68	0xbf229be8	-0.63519144
69	0xbb149f11	-0.0022677819
70	0xbeb73014	-0.35778868
71	0xbf4b6edf	-0.7946605
72	0xbf3580ad	-0.7089947
73	0x3f20c0a4	0.62793946
74	0x3eb22501	0.34793857
75	0xbf0e7fb2	-0.556636
76	0xbe4c71f9	-0.19965352
77	0xbf372bd9	-0.7155128
78	0xbf35f847	-0.71081966
79	0xbf2c7071	-0.6735907
80	0xbf34316c	-0.7038791
81	0xbf2a1e92	-0.66452897
82	0xbf2b2ed4	-0.6686833
83	0xbf32f8bc	-0.6991079
84	0xbf52d09e	-0.82349575
85	0xbf239c50	-0.6391039
86	0x3e91aef8	0.28453803
87	0xbf2d430d	-0.67680436
88	0xbf32c4ac	-0.6983135
89	0xbf2ca99e	-0.67446315
90	0xbe373709	-0.17892088
91	0x3f00845b	0.5020196
92	0xbf208f38	-0.62718534
93	0x3e824010	0.254395
94	0xbdf3f65a	-0.11912222
95	0xbf589279	-0.845985
96	0xbf43b57d	-0.76448804
97	0xbf32bb80	-0.6981735
98	0x3ec26a9c	0.37971961
99	0xbf455241	-0.77078635
100	0x3e85b989	0.26118115
101	0xbf09ef86	-0.5388111
102	0xbf46645f	-0.77496904
103	0xbf0dd578	-0.5540385
104	0xbd86db14	-0.065847546
105	0xbf4db40f	-0.8035287
106	0xbf5a0884	-0.85169244
107	0xbf40916b	-0.7522189
108	0xbf4a0973	-0.7892067
109	0x3e815d7a	0.2526663
110	0xbf3d2f1c	-0.7390001
111	0xbf2fccf9	-0.6867214
112	0xbf32bdd8	-0.6982093
113	0xbf36171e	-0.71129024
114	0xbee1f22d	-0.44130078
115	0x3e9411a8	0.2891972
116	0xbeb9b028	-0.3626721
117	0xbf41cbb8	-0.75701475
118	0xbe78e28d	-0.24305172
119	0xbf05a1e8	-0.52200174
120	0x3dd908de	0.105973944
121	0x3e818567	0.2529709
122	0xbf2df266	-0.67947996
123	0xbf579918	-0.8421798
124	0xbf153cd6	-0.58295953
125	0x3e3270fe	0.17425916
126	0xbed45dff	-0.41477963
127	0xbf4a7345	-0.7908214

utn.4.weight f4 [15, 128]
0	0xbd578040	-0.052612543
1	0xbff76581	-1.9327852
2	0x3d1ff56a	0.039052404
3	0x3e963f18	0.29345012
4	0x3e89218d	0.2678341
5	0xbd21c0fc	-0.039490685
6	0xbe4138ad	-0.18869276
7	0xbeea2925	-0.45734516
8	0x3ea669e0	0.3250265
9	0xbe6ed57e	-0.23323628
10	0x3e1df5b4	0.1542576
11	0xbf882784	-1.0637059
12	0x3e2e47e9	0.17019619
13	0xba98ef35	-0.0011667969
14	0x3dab9521	0.083780535
15	0xbf4a64d4	-0.790601
16	0x3e5a6d4e	0.21330759
17	0x3c925ad9	0.017865585
18	0xbec6213b	-0.38697228
19	0xbf234022	-0.63769734
20	0xbf02785d	-0.5096491
21	0xbd658158	-0.056031555
22	0xbcd4ff94	-0.026000775
23	0xc007d176	-2.1221595
24	0x3e1df56b	0.15425651
25	0x3eb996cd	0.36247864
26	0x3e979712	0.29607445
27	0x3e58c449	0.21168627
28	0xbf15de98	-0.58542776
29	0x3e13024d	0.14356346
30	0x3da44e43	0.0802274
31	0xbd364d6a	-0.04450742
32	0x402acfb5	2.6689274
33	0x3dbe9e4b	0.09307536
34	0x3e6b2a9f	0.22965477
35	0xbb906846	-0.0044069616
36	0xbeb0ad55	-0.34507242
37	0xbe0c3364	-0.13691479
38	0xbca35a25	-0.019940445
39	0xbf1e2bd1	-0.6178561
40	0xbf1c0a52	-0.6095325
41	0x3e35b1fc	0.17743677
42	0xbebbfd2f	-0.367166
43	0xbe2a9df5	-0.16661818
44	0x3dda2f54	0.106535584
45	0x3e714a52	0.23563507
46	0x3c0ea5b7	0.008706502
47	0xbe24e8b4	-0.16104394
48	0xbd1f01ec	-0.038820192
49	0x3e06fd68	0.13182604
50	0x3c6bafb9	0.014385157
51	0xbd9ae750	-0.075636506
52	0x3e3773dc	0.1791529
53	0xbf75201c	-0.9575212
54	0xbeec2605	-0.46122757
55	0x3d2cbbb2	0.042171188
56	0x3ede358f	0.43400237
57	0xbed2b375	-0.4115254
58	0xbd0b7ad0	-0.03405267
59	0x3ebd1e20	0.36937046
60	0xbf6bd86e	-0.9212712
61	0x3f764a9c	0.96207595
62	0xbc5b9bf1	-0.013403879
63	0xbe48a959	-0.19595851
64	0xbff27bfa	-1.8944085
65	0xbc327a73	-0.010893452
66	0xbd6ae1a1	-0.057344083
67	0xbd77901b	-0.060440164
68	0xbdc3b1d6	-0.09555404
69	0x3d07caf9	0.033152554
70	0xbf37ff59	-0.71874005
71	0x3e1b0eae	0.15142319
72	0xbd9d7f99	-0.07690353
73	0x3e7c3fcf	0.24633716
74	0x3e17c7e0	0.1482234
75	0xc04e5dec	-3.2244825
76	0x3dbb9d1c	0.091608256
77	0xc02f05fa	-2.7347398
78	0xbd8c35ea	-0.06846221
79	0xbdd86ad7	-0.10567253
80	0xbc9e0fff	-0.019294737
81	0xbd516914	-0.0511256
82	0xbcda095d	-0.026615793
83	0x3b4e8df3	0.0031517714
84	0x391bf933	0.00014874786
85	0xbcefdd36	-0.029280286
86	0x3da5bb83	0.08092406
87	0xbfd95bda	-1.6981156
88	0xbdcfc2bc	-0.101445645
89	0x3d3eb24d	0.04655676
90	0xbf7f6e02	-0.99777234
91	0x3e89cf65	0.26916042
92	0xbda0d486	-0.07853036
93	0x3e1b7aba	0.15183535
94	0x3e39641e	0.18104598
95	0xbd5f70bb	-0.054550868
96	0x3d0e5716	0.03475102
97	0xbc9a43ee	-0.01883122
98	0x3e10cb0e	0.14139959
99	0xbe147682	-0.14498332
100	0xbdb6e034	-0.08929482
101	0xbe211596	-0.1573089
102	0xbceedf86	-0.029159319
103	0x3d337a81	0.043818
104	0xbf39ee7d	-0.7262953
105	0x3e0c8079	0.13720883
106	0x3d027125	0.031846184
107	0xbd2d5ebf	-0.042326685
108	0x3e7d654f	0.24745677
109	0x3e1f3313	0.15546827
110	0xc0154618	-2.3324032
111	0xbd748d33	-0.05970497
112	0xbd656d0d	-0.056012202
113	0xbd20f899	-0.03929958
114	0xc08fe412	-4.4965906
115	0x3e328ee7	0.17437325
116	0xbda37b11	-0.079824574
117	0x3b7ecaeb	0.0038878273
118	0xbf1ee007	-0.6206059
119	0xbfc12f76	-1.5092609
120	0xbec0dc6b	-0.37668166
121	0x3e2045ff	0.15651701
122	0xbe09d1fe	-0.13459012
123	0x3e8b0724	0.27153885
124	0xbfe92030	-1.8212948
125	0xbe7e468a	-0.24831596
126	0xbf96d377	-1.1783284
127	0x3d7d8c89	0.061901603
128	0xbd2d439f	-0.042300817
129	0xc00d56c1	-2.20842
130	0xbe8c7f18	-0.27440715
131	0x3dc453f8	0.09586328
132	0x3e8a78c1	0.27045253
133	0xbe87f699	-0.26555327
134	0xbf4e2489	-0.805245
135	0xbf359720	-0.70933723
136	0x3e88869a	0.26665193
137	0xbf1dbbf7	-0.61614937
138	0x3e2c44d9	0.16823138
139	0xbf9b8b93	-1.215197
140	0x3d88d615	0.06681458
141	0xbd286106	-0.041108154
142	0x3e0603b2	0.13087347
143	0xbe2090ce	-0.15680239
144	0x3d0a743f	0.033802267
145	0xbe7be9c0	-0.24600887
146	0xbfd3d318	-1.6548796
147	0xbf7e91d5	-0.9944127
148	0xbd5a90d0	-0.05336076
149	0x37617350	1.3437893e-05
150	0xbe4ef5e5	-0.20210989
151	0xbfd34d36	-1.6507938
152	0x3de10634	0.10987511
153	0xbb2b5d76	-0.0026148236
154	0x3f5f76c6	0.8729061
155	0x3d59c02e	0.053161792
156	0xbf36aee5	-0.7136062
157	0x3c6e96b0	0.014562294
158	0xbc2a8a5b	-0.010408963
159	0x3cd0b8ba	0.02547871
160	0x3e32cc1b	0.17460673
161	0xbdbe9ff7	-0.093078546
162	0x3d1aa632	0.037756152
163	0xbc38e941	-0.011286081
164	0xbf35a8d9	-0.70960766
165	0xbd245df6	-0.04012867
166	0x3e6e34fd	0.23262401
167	0xbc76b5c4	-0.015057985
168	0x3d2379d3	0.039911103
169	0x3e984881	0.29742816
170	0xbf27e097	-0.6557707
171	0xbe2bae5e	-0.16765735
172	0xbe3f9403	-0.18708806
173	0x3d4b5ec2	0.049650915
174	0xbd339783	-0.043845665
175	0x3ebd97f9	0.37030008
176	0x3f4cf2d0	0.80058
177	0xbdf8ae14	-0.12142578
178	0xbf7b596a	-0.9818331
179	0xbc9ab416	-0.0188847
180	0xbc8516e9	-0.016246276
181	0xbea640f2	-0.32471424
182	0xbf35c831	-0.7100859
183	0xbdf71337	-0.12064212
184	0x3f676d9a	0.90401614
185	0xbf36f5d6	-0.71468866
186	0xbe26e5ab	-0.16298549
187	0x3d80c17b	0.062869035
188	0xbf19a14e	-0.60011756
189	0x3f29d2d6	0.66337335
190	0xbe802d7f	-0.2503471
191	0xbe538ba6	-0.2065874
192	0xbf1d90f3	-0.615493
193	0x3cd6bdab	0.026213488
194	0xbe037623	-0.12838034
195	0xbdeb3592	-0.11484827
196	0xbdc30897	-0.09523123
197	0xbc405ff9	-0.011741632
198	0xc03e36dc	-2.9720984
199	0x3debb23f	0.11508607
200	0xbe58e5c8	-0.21181405
201	0x3e145e04	0.14488989
202	0x3ea78940	0.327219
203	0xc0993ba4	-4.7885303
204	0xbcfa3c8a	-0.030546445
205	0xbfcb27b6	-1.5871494
206	0xbbed6c35	-0.0072455653
207	0xbd8214e2	-0.06351639
208	0xbdc518af	-0.09623849
209	0xbd80c593	-0.06287684
210	0x3d2ccbbd	0.042186487
211	0x3d47f772	0.048819967
212	0xbf8b49c1	-1.0881883
213	0x3c2ee94d	0.01067574
214	0xbe331ac1	-0.17490675
215	0xc00688aa	-2.1020913
216	0xbbe8bd4c	-0.007102644
217	0x3d872be2	0.06600167
218	0xbfae6449	-1.3624355
219	0x3e5abfee	0.21362278
220	0x3da3cce1	0.07998062
221	0x3e807fe2	0.25097567
222	0xbd972610	-0.07380307
223	0x3b409de7	0.0029390992
224	0xbdd7c085	-0.10534767
225	0xbdcbbd70	-0.09948242
226	0x3e390936	0.1806992
227	0xbc4d1ebf	-0.0125195375
228	0xbe1802f5	-0.14844878
229	0x3eaa4d36	0.33262032
230	0x3cae3105	0.021263609
231	0xbe43de38	-0.19127738
232	0x3da8e028	0.082458794
233	0x3e32c512	0.17457989
234	0xbdb91d9f	-0.09038853
235	0xbd82c50a	-0.063852385
236	0x3dd920e2	0.10601975
237	0x3e8d3e95	0.2758681
238	0xbfe91b9b	-1.821155
239	0xbe693623	-0.22774558
240	0x3c37060a	0.011170873
241	0x3d20dcdc	0.039273128
242	0xc0a7c414	-5.2426853
243	0xbe80ec5b	-0.25180325
244	0xbd30896b	-0.043099802
245	0xbd43f508	-0.047841102
246	0xbf8e2cd3	-1.1107429
247	0xbf43543a	-0.76300395
248	0xbf118897	-0.56849045
249	0x3eaaaf0f	0.33336684
250	0xbe2708ec	-0.16311997
251	0x3dce044d	0.10059414
252	0xbf3d07c6	-0.73839986
253	0xbf09ec32	-0.5387603
254	0xbff9dba3	-1.9520153
255	0xbcf75381	-0.030191185

utn.4.bias f4 [15]
0	0x3e2013ca	0.15632549
1	0x3d98d555	0.07462565
2	0x3b2e7f28	0.0026626084
3	0x3d9401e8	0.07226926
4	0x3e1581b2	0.14600256
5	0xbe304ea3	-0.17217498
6	0x3e215076	0.1575335
7	0x3d0e9c97	0.034817304
8	0xbe1ef7db	-0.15524237
9	0x3e380fe1	0.17974807
10	0xbdb3d0c8	-0.08780056
11	0xbdecfac6	-0.11571269
12	0xbd6c67c6	-0.057716154
13	0x3d313bfe	0.043270104
14	0x3e57e887	0.21084796

itn.0.weight f4 [256, 2]
0	0xbf77e893	-0.96839255
1	0xbf88a50e	-1.0675371
2	0xbf9a28e3	-1.2043728
3	0xbf3aea83	-0.73014086
4	0xbd36b6f0	-0.044608057
5	0x3f3a4500	0.72761536
6	0xbfbd5f26	-1.4794662
7	0xbbb9b73b	-0.0056675947
8	0xbfabde01	-1.3427125
9	0xbf22b10a	-0.6355139
10	0xbfadda53	-1.3582252
11	0xbfeb7e6e	-1.8397958
12	0xbd471b54	-0.048610047
13	0xbfd5ee9d	-1.6713444
14	0x3e048650	0.12941861
15	0xbf510ba1	-0.8165837
16	0xbffb4e0e	-1.9633195
17	0xbe3e73e3	-0.18598895
18	0x3a5d4e23	0.0008442124
19	0xbf048bdd	-0.51775914
20	0xbfb3a78f	-1.403551
21	0x3e89e596	0.26932973
22	0xbfb75459	-1.4322616
23	0x3f06296d	0.5240696
24	0xbfb67cb9	-1.4256812
25	0xbfa5be09	-1.2948619
26	0xbfd12fcc	-1.6342711
27	0xbffff651	-1.9997045
28	0x3f332631	0.6998015
29	0xc0078b20	-2.1178665
30	0xbfa6ac25	-1.3021284
31	0xbdae8b69	-0.08522684
32	0xbf98a5c4	-1.1925588
33	0xbee255ec	-0.44206178
34	0x3e77f8ec	0.2421605
35	0x3ec9d18a	0.39417678
36	0xbcca57c9	-0.024700062
37	0xbff4d0bf	-1.9126204
38	0xc0042527	-2.0647676
39	0xbcd1b09b	-0.025596907
40	0x3fc425bf	1.5324019
41	0xbf462304	-0.7739718
42	0x3eb895b4	0.36051714
43	0xbff06e6b	-1.8783697
44	0xbfa4bd2f	-1.2870234
45	0x3d4a2e8c	0.049360797
46	0xbfaa2ae9	-1.3294345
47	0x3e1e501c	0.15460247
48	0xbe8065aa	-0.25077564
49	0x402590e6	2.586969
50	0x3dea2c6f	0.11434256
51	0xbf62df25	-0.8862174
52	0xbf88c2d2	-1.0684454
53	0xbf441d26	-0.76606977
54	0xbf9df37a	-1.2339928
55	0xbf4112e2	-0.7541944
56	0xbf9f46d5	-1.2443491
57	0xbf0bb7ef	-0.54577535
58	0xbfa731f2	-1.3062117
59	0xbeb574b0	-0.35440588
60	0xbeccf1b2	-0.4002815
61	0xbff3bff6	-1.9042957
62	0xbf9a72f4	-1.2066331
63	0xbf8adfc7	-1.0849541
64	0x3e81f1a2	0.25379664
65	0xbfe8f5a3	-1.8199962
66	0xbfa957b4	-1.322989
67	0xbe418828	-0.18899596
68	0xbf9afdf7	-1.2108754
69	0xbfede003	-1.8583988
70	0xbf974168	-1.1816835
71	0xbf4797c9	-0.7796598
72	0xbf9b1ca2	-1.2118113
73	0xbf6b1deb	-0.91842526
74	0xbe1a4706	-0.15066156
75	0xbf00318c	-0.500756
76	0xbfca98ea	-1.5827916
77	0xbee61294	-0.4493605
78	0x3c2be6a2	0.010491999
79	0x3fa94be4	1.3226285
80	0xbf96449d	-1.1739689
81	0xbf29ea76	-0.66373384
82	0x3f93a007	1.1533211
83	0xbf2016b4	-0.6253464
84	0xbfc6dd7b	-1.553634
85	0xbeb30a87	-0.3496897
86	0xbfb39589	-1.403001
87	0xbf1eb24c	-0.6199081
88	0xc000cced	-2.0125077
89	0x3da081d3	0.07837262
90	0xbf820f0e	-1.0160844
91	0xbfd818b4	-1.6882539
92	0xbf9ed1c4	-1.2407765
93	0xbe1e949c	-0.15486377
94	0xbf8acd6a	-1.0843937
95	0xbfa31cf7	-1.2743214
96	0xc001165a	-2.0169892
97	0xbd4f041e	-0.050541036
98	0xbf8bc80e	-1.0920427
99	0xbfc91102	-1.5708315
100	0x3e32ab04	0.1744805
101	0xbf60bae6	-0.87785184
102	0xbfa8debd	-1.3192974
103	0x3ef1941b	0.47183308
104	0xbf102ca6	-0.5631813
105	0xbf401f06	-0.7504734
106	0xbf6d4380	-0.9268112
107	0xc024c22f	-2.574352
108	0xbfba5d6f	-1.4559764
109	0x3f34b94f	0.7059526
110	0xbfa35d2d	-1.276281
111	0xbfa1263f	-1.2589797
112	0xbf861d56	-1.0477703
113	0xbf7081c2	-0.93947995
114	0xc000cbae	-2.0124316
115	0xbd0549ae	-0.03254097
116	0x3f1f2d7e	0.6217879
117	0xbf10ee06	-0.56613195
118	0x3ea380f5	0.31934324
119	0xbfd234b8	-1.6422338
120	0xbf9c262e	-1.2199152
121	0xbeaee450	-0.34158564
122	0xc0006a80	-2.0065002
123	0x3edae218	0.4275062
124	0xbfa81675	-1.3131853
125	0xbeba32e8	-0.36366963
126	0xbfa59ac3	-1.2937855
127	0xbf8c9bf7	-1.0985097
128	0xbff0fc96	-1.8827083
129	0xbf2ab6de	-0.66685283
130	0xbfb6627e	-1.4248807
131	0xbe4be74b	-0.1991245
132	0xbfcbd794	-1.5925164
133	0xbf55c164	-0.83498216
134	0xbfb18d18	-1.3871183
135	0xbf29aed0	-0.6628237
136	0xbfb1e86e	-1.3899057
137	0xbfe3d602	-1.7799685
138	0xbfa1d1b1	-1.2642118
139	0xbf7a2f7e	-0.9772872
140	0xbfaa4d04	-1.3304753
141	0xbbd54255	-0.0065081515
142	0xbee9889a	-0.4561203
143	0x3ff59ca0	1.9188423
144	0xbd77bc4a	-0.0604823
145	0x3d3f34f3	0.046681356
146	0x3e1ef56a	0.15523306
147	0xc0075793	-2.11472
148	0x3db574c6	0.088601634
149	0x3ed4c034	0.4155289
150	0xbf25c607	-0.6475529
151	0xbf9b18c1	-1.2116929
152	0xbfa4d700	-1.2878113
153	0xbfa7851b	-1.3087496
154	0x3f6f74de	0.935377
155	0xbe997077	-0.29968616
156	0xbfc12c0c	-1.5091567
157	0x3d3f29f3	0.046670865
158	0xbfa7c807	-1.3107919
159	0xbe34a245	-0.17640026
160	0xbf9de0ab	-1.2334188
161	0xbf26b6c0	-0.65122604
162	0xbf93eaa5	-1.1555983
163	0xbec7206c	-0.38891923
164	0x3f3c982f	0.73669714
165	0xbd1695c5	-0.036763925
166	0xbfab9a81	-1.3406526
167	0xbf8e0099	-1.1093932
168	0xbf98bdd9	-1.1932937
169	0xbe86c330	-0.2632079
170	0xbf54ab0a	-0.83073485
171	0xbf3ad1d6	-0.72976434
172	0x3ebd55d3	0.3697954
173	0xbf41011c	-0.7539232
174	0xbfa6e160	-1.3037529
175	0xbdc4d1c9	-0.09610326
176	0x3f15a6d3	0.5845768
177	0x3ea1395c	0.31489074
178	0xbfb621d9	-1.422908
179	0x3f9d7200	1.2300415
180	0xbfb840bb	-1.4394754
181	0x3f5ed24c	0.8703964
182	0xbfa3456d	-1.2755562
183	0xbf83d7ca	-1.0300229
184	0xbc1b9153	-0.009495097
185	0xbfac7c3a	-1.3475411
186	0xbfa221c8	-1.2666559
187	0x3cb8f811	0.022579225
188	0xbfb01a66	-1.3758056
189	0xbfaae92c	-1.3352408
190	0xbfa69659	-1.3014632
191	0xbfd69a04	-1.6765752
192	0x3f38f930	0.7225523
193	0xbfe09ace	-1.7547243
194	0xbf400d1f	-0.7502002
195	0xbfd79c73	-1.684462
196	0xbfac8746	-1.3478782
197	0x3f05605b	0.5210015
198	0xbfb43af6	-1.4080493
199	0x3f216f7c	0.63060737
200	0xbf53e311	-0.8276835
201	0xbfb325c5	-1.3995901
202	0xbf9886aa	-1.1916096
203	0xc003bbca	-2.0583367
204	0xbfb5cf37	-1.4203862
205	0xc0071401	-2.110596
206	0xbf4667fe	-0.7750243
207	0xbf3ea703	-0.7447359
208	0x3d8a0493	0.06739154
209	0xbf9f43c1	-1.2442552
210	0xbfb573b1	-1.4175931
211	0x3f9188be	1.1369855
212	0xbf9c104c	-1.2192473
213	0xbea40708	-0.32036614
214	0xbfad6f03	-1.3549503
215	0x3e9c09ef	0.3047633
216	0xbfb137c0	-1.3845139
217	0xbebc5823	-0.36785993
218	0xbfe81626	-1.8131759
219	0xbf930f7e	-1.1489103
220	0xbf095553	-0.5364582
221	0xc04e0b9c	-3.2194586
222	0xbfb7f663	-1.4372066
223	0xbfe26730	-1.768774
224	0xbfab68cd	-1.3391358
225	0x3ea2532d	0.31704083
226	0x3f384b6a	0.7199007
227	0xc00c5fd4	-2.193349
228	0xbfb7524c	-1.432199
229	0xbf47a9de	-0.7799357
230	0xbf994b54	-1.1976113
231	0xbf8ca890	-1.0988941
232	0xbf68288e	-0.9068688
233	0xc0468a26	-3.102182
234	0xbf82e064	-1.0224729
235	0xbfe4dbab	-1.7879537
236	0xbf8f59f2	-1.1199324
237	0xbf167692	-0.58774674
238	0xc003795f	-2.054283
239	0xbe746141	-0.23865224
240	0xbf9ab2c5	-1.2085806
241	0xbec145bb	-0.37748513
242	0xbf9d4c16	-1.2288845
243	0xbfaff7c9	-1.3747493
244	0xbfa8094b	-1.3127836
245	0x3cde2ade	0.02712005
246	0xbf9ce2f5	-1.2256762
247	0xbead71d4	-0.33875906
248	0xbf7561cd	-0.9585236
249	0xc0396695	-2.896886
250	0xbded0867	-0.11573868
251	0xbef03285	-0.46913543
252	0xbfa27e13	-1.2694725
253	0xbf49440d	-0.7861946
254	0x3f4ea7ec	0.8072498
255	0xbf4e5134	-0.80592656

itn.0.bias f4 [256]
0	0xbe2b6e07	-0.16741191
1	0x3f517726	0.8182243
2	0xbfd3e377	-1.6553792
3	0xbf56383f	-0.83679575
4	0xbf368511	-0.71296793
5	0xc0254314	-2.5822191
6	0xbfc63554	-1.5485024
7	0xc0045dd8	-2.0682278
8	0xbff5bbb8	-1.9197912
9	0xc0024642	-2.0355382
10	0xbd58a959	-0.052895878
11	0x3f419ddc	0.756315
12	0xbf41877b	-0.7559735
13	0xbfc97a67	-1.5740479
14	0x3d8b55df	0.06803488
15	0xbf1962e3	-0.59916514
16	0x3f93478a	1.1506207
17	0xbfe891a9	-1.8169452
18	0xbfafc39e	-1.3731573
19	0xbfe61d8a	-1.7977765
20	0xbf90d277	-1.1314229
21	0xbf5103d5	-0.8164647
22	0x3f915ca7	1.13564
23	0x3f819050	1.0122166
24	0xbefc7428	-0.4930737
25	0xbfd6faa6	-1.6795242
26	0x3f22bb14	0.6356671
27	0xbe6fe700	-0.23427963
28	0xbe85bc3c	-0.26120174
29	0xbe831f9e	-0.2561006
30	0xbf4d346c	-0.80158114
31	0xbe883948	-0.26606202
32	0xbf9a29fd	-1.2044064
33	0x3e0a985c	0.13534683
34	0x3e3b0864	0.1826492
35	0x3e8c47a9	0.27398422
36	0xbf4049eb	-0.7511279
37	0xc0086016	-2.1308646
38	0xbf1b133c	-0.60576224
39	0xbfb140e3	-1.3847927
40	0x3e85b143	0.26111802
41	0xbfaafdbd	-1.3358685
42	0xbf8d03dc	-1.1016803
43	0xbf0f0fa6	-0.5588325
44	0xbff73ff8	-1.9316397
45	0xbfb6670f	-1.4250201
46	0x3f431e68	0.7621827
47	0x3e8a3e40	0.27000618
48	0xbfcc13cc	-1.5943542
49	0xbd2d37e1	-0.04228962
50	0xbff239ab	-1.8923849
51	0x3d89e46a	0.0673302
52	0xc01bd1bf	-2.434677
53	0xbe89f677	-0.2694585
54	0xbf143032	-0.5788604
55	0xbf9e43c3	-1.2364429
56	0xbcd1fe66	-0.025634002
57	0xbfe1d01c	-1.7641635
58	0xbfd623eb	-1.6729711
59	0xbf8a600a	-1.0810559
60	0x3f81b367	1.0132874
61	0xbfe573fc	-1.7926021
62	0xbe1d676c	-0.15371484
63	0x3e370b46	0.17875394
64	0xbf92fd23	-1.1483501
65	0xbe9fc07f	-0.3120155
66	0xbf64173a	-0.8909794
67	0xbf1f9b12	-0.62345994
68	0xbfa1b313	-1.2632774
69	0xc05e2dee	-3.4715533
70	0xbe3e54ed	-0.18587084
71	0xbf302456	-0.68805444
72	0xbff76249	-1.9326869
73	0x3dcf8fc9	0.10134847
74	0xbfd20926	-1.6409042
75	0xc0109e54	-2.2596636
76	0x3ca343da	0.019929815
77	0xbfd9bd2a	-1.7010853
78	0xbf8b8fc5	-1.090325
79	0xbec68aef	-0.38777873
80	0x3e805094	0.25061476
81	0x3f6ff67e	0.9373549
82	0xbfe70c3e	-1.8050611
83	0x3ea8b255	0.32948557
84	0x3ec0efb5	0.37682882
85	0xc04a80e2	-3.1641164
86	0xbfe73677	-1.8063496
87	0xbdc32379	-0.0952825
88	0xbfec9e7e	-1.8485868
89	0xbddd60b2	-0.10809459
90	0x3f07e794	0.53087735
91	0x3f39e700	0.72618103
92	0xbfc88dfc	-1.566833
93	0xbe1f2163	-0.1554008
94	0xbf0f2095	-0.5590909
95	0x3e76b7a9	0.24093498
96	0xbf32d753	-0.6985981
97	0xc002dce5	-2.0447323
98	0xbf58ceac	-0.84690356
99	0xbe52acb6	-0.20573696
100	0xbef9ad84	-0.48765194
101	0x3d3206df	0.043463584
102	0xbfb80d92	-1.4379141
103	0xc03a789e	-2.913612
104	0xbfc7fd60	-1.5624199
105	0xbe2f6ab1	-0.17130543
106	0x3f412e91	0.7546168
107	0x3ed90255	0.42384592
108	0xbf2ea441	-0.6821938
109	0xbf3cc905	-0.7374423
110	0xbf2bfba2	-0.67180836
111	0xbf9c988c	-1.2234054
112	0x3eb7470e	0.35796398
113	0x3eca1f0e	0.39476818
114	0xbf161638	-0.58627653
115	0xbf745956	-0.95448816
116	0xbda57c00	-0.08080292
117	0x3dacf0b1	0.08444346
118	0x3f08af26	0.53392255
119	0xbfaf006e	-1.3672006
120	0x3f4eb23d	0.8074072
121	0x3e0c7d7f	0.13719748
122	0x3f9168de	1.1360128
123	0x3fabe533	1.3429321
124	0xbdb0e132	-0.086367026
125	0xc011f05d	-2.2802956
126	0xbee5e435	-0.4490067
127	0xbfc8b5f2	-1.5680525
128	0xbe1f6d89	-0.15569128
129	0xbf2f1956	-0.68398035
130	0xbe50b8de	-0.20383021
131	0x3e7a1ba5	0.24424608
132	0xbfa780f7	-1.3086232
133	0xbedcfc83	-0.431614
134	0xbee5b893	-0.4486738
135	0xbf1c8ab1	-0.61149126
136	0xbfdf5294	-1.7447076
137	0xbede9daa	-0.43479663
138	0x3e2ffa6b	0.1718537
139	0xbffe405b	-1.986339
140	0xbe95387b	-0.29144654
141	0x3f3c262e	0.7349576
142	0xbf91382b	-1.1345266
143	0xbff61c48	-1.9227381
144	0x3e944c95	0.28964677
145	0xbfaf367e	-1.3688505
146	0xbf192a92	-0.5983058
147	0xbe523221	-0.20526935
148	0xbffc8400	-1.9727783
149	0x3f1d6f61	0.61498076
150	0x3fa649a9	1.2991229
151	0xbff5879e	-1.9182012
152	0xbf4f7d42	-0.81050503
153	0xc013ee03	-2.311402
154	0xbf871ae5	-1.0555083
155	0x3ea0a74e	0.31377643
156	0xbfd4d3d7	-1.6627148
157	0x3d9e3b2a	0.077261284
158	0xbff45b85	-1.909043
159	0xbfda1e05	-1.7040411
160	0xc0001920	-2.0015335
161	0xbf336c94	-0.7008755
162	0xbffbe844	-1.9680257
163	0xbf48554e	-0.78255165
164	0xbf0efcac	-0.55854297
165	0xbf8aefe7	-1.0854462
166	0xbfe6d501	-1.8033754
167	0xbf7c8d62	-0.98653233
168	0xbfd218ff	-1.6413878
169	0xbfc749b8	-1.5569372
170	0xbcb70e25	-0.022345612
171	0xbf86cd43	-1.0531391
172	0xbf02c276	-0.51077974
173	0xbe499d89	-0.19689001
174	0xbfa5bebb	-1.2948831
175	0xbf277083	-0.65406054
176	0xc07de9c0	-3.967392
177	0x3eab7a38	0.33491683
178	0xbfe34ed1	-1.7758428
179	0x3f2f0711	0.6837016
180	0xbefcc556	-0.49369305
181	0xbfe2caf2	-1.7718184
182	0xbfbb7736	-1.4645755
183	0xbdcb7ecc	-0.09936294
184	0xbf241862	-0.64099705
185	0xbf6ebb52	-0.9325458
186	0xbe886d20	-0.26645756
187	0xbcbeebf6	-0.023305874
188	0xbdf8f2e7	-0.12155705
189	0xbf2cebfc	-0.67547584
190	0xbffa373a	-1.9548104
191	0xbfed36cd	-1.8532349
192	0x3ef64a7f	0.4810371
193	0xbf9ac429	-1.2091113
194	0xc002097d	-2.031829
195	0xc008fdad	-2.1404831
196	0xc02b40ce	-2.6758304
197	0xbf9a6ae3	-1.2063869
198	0xc057107e	-3.3603816
199	0x3f720433	0.9453766
200	0xbf9efc62	-1.2420771
201	0xbec089a8	-0.37605023
202	0xbf842bfd	-1.0325924
203	0xbfabbd98	-1.3417234
204	0x3f006a65	0.50162345
205	0xbf6b8cde	-0.9201182
206	0xbf67d7b6	-0.90563524
207	0xbe1ef9b7	-0.15524946
208	0xbfcfc4f4	-1.623198
209	0xbeaa5606	-0.33268756
210	0xbc8e4332	-0.017366026
211	0xbf8fe1fc	-1.124084
212	0xbfded680	-1.740921
213	0xbff53321	-1.9156228
214	0x3e87bd7a	0.26511747
215	0xc015d195	-2.3409169
216	0x3b0385a9	0.0020068681
217	0xbe94ac4f	-0.2903771
218	0x3e9ecac2	0.31014067
219	0xbe4dc30b	-0.20093934
220	0xbf384484	-0.71979547
221	0xc03a450c	-2.9104643
222	0xc001a1ec	-2.025508
223	0xc01ba721	-2.4320757
224	0xbf98b1bf	-1.1929244
225	0x3ebadc71	0.36496308
226	0xbfc370ba	-1.5268776
227	0xbeb98381	-0.36233142
228	0xbe55046d	-0.2080247
229	0xbfebd86d	-1.8425423
230	0x3f71b407	0.94415325
231	0x3f307f64	0.6894438
232	0x3f2ebd9c	0.6825807
233	0x3ea7b6ff	0.32756802
234	0xbf81eba2	-1.0150034
235	0xbfd5dd79	-1.6708213
236	0xbeeac572	-0.45853764
237	0x3ee5ae24	0.4485942
238	0x3fb40fca	1.4067318
239	0x3ea53574	0.32267344
240	0xbfdcb856	-1.7243755
241	0x3ee527b1	0.44756845
242	0xbeb96d85	-0.3621637
243	0xbfe8e6a0	-1.8195381
244	0xbff32147	-1.899453
245	0xbf15afc1	-0.58471304
246	0xc004d36c	-2.0754042
247	0xbfe1099d	-1.7581059
248	0xbfe7080c	-1.8049331
249	0xbfe6c63a	-1.8029244
250	0x3f0ec17e	0.55763996
251	0xc00950c7	-2.1455553
252	0x3d48cedf	0.049025413
253	0xbe325882	-0.17416576
254	0xbfbc4b44	-1.4710469
255	0xbe69df05	-0.22838981

itn.2.weight f4 [128, 256]
0	0xbf1cde64	-0.6127684
1	0xbf3db1c0	-0.7409935
2	0x3e9ed420	0.31021214
3	0x3f087acb	0.5331237
4	0x3e50cb4d	0.20390053
5	0x3e9e928b	0.30971178
6	0xbfc61216	-1.5474269
7	0xbf7ea4d9	-0.9947029
8	0x3f698271	0.9121466
9	0xbf0f3377	-0.55937904
10	0x3e898b3e	0.26864046
11	0x3ea0f4c7	0.3143675
12	0x3f0c4aeb	0.54801816
13	0x3f8b3a32	1.0877135
14	0xc01364fc	-2.3030386
15	0x3e94bbf3	0.29049644
16	0xbf445430	-0.7669096
17	0x3e2c6148	0.16833985
18	0xbfb9d0fd	-1.4516903
19	0x3fac7542	1.3473284
20	0xbf6a6bfb	-0.91571015
21	0xc000b4f5	-2.0110447
22	0xbe878add	-0.26473132
23	0xbdbae957	-0.09126537
24	0x3d216379	0.039401505
25	0xbf898582	-1.0743868
26	0xbf3d3224	-0.73904634
27	0xbeb85fa4	-0.36010468
28	0xbe13d9f5	-0.14438613
29	0xbd47943b	-0.048725348
30	0xbf745d70	-0.95455074
31	0xbdec75df	-0.115459196
32	0xbff534fc	-1.9156795
33	0xbdcf9e66	-0.10137634
34	0x3edec08b	0.43506274
35	0xbeee0c71	-0.46493867
36	0xbe774f01	-0.24151231
37	0xbeeecc6d	-0.4664034
38	0x3ec9a11d	0.39380732
39	0x3ea93b90	0.33053255
40	0xbf087ccf	-0.5331544
41	0xbf5f6d2d	-0.87275964
42	0x3ef6567e	0.48112863
43	0x3e72a6a7	0.23696385
44	0x3f90c715	1.1310755
45	0x3d854d09	0.06508834
46	0xbe979497	-0.29605553
47	0xbf10a1ac	-0.5649669
48	0x3f9ee7ca	1.2414486
49	0xbd42b3a1	-0.04753459
50	0xbf8604e1	-1.0470239
51	0x3ed3d05c	0.41369903
52	0xbf5986bb	-0.8497121
53	0x3f4bc7be	0.7960166
54	0x3f4a39dc	0.78994536
55	0x3de624d1	0.11237491
56	0xbf1d0915	-0.61341983
57	0x3f95aa33	1.1692566
58	0xbf2d8691	-0.6778346
59	0xbfeb3b30	-1.8377438
60	0xbf13745d	-0.5759943
61	0x3fb8e729	1.4445544
62	0xbe1718d3	-0.14755563
63	0xbe5cdf2f	-0.21569513
64	0x3f6c5062	0.92310154
65	0x3dd29c78	0.1028375
66	0x3efeda25	0.49775806
67	0x3d3e98f8	0.0465326
68	0x3f5d1e3e	0.8637427
69	0xbc65e00a	-0.014030466
70	0x3dec7214	0.11545196
71	0x3e6363b2	0.22206
72	0x3cbfd02d	0.023414696
73	0xbfe881e1	-1.8164636
74	0x3e0b31e0	0.13593245
75	0xbf5f957f	-0.8733749
76	0x3c4b3980	0.012403846
77	0xbed866fa	-0.42266065
78	0x3f12b118	0.57301474
79	0x3e228282	0.15870097
80	0xbe9a00b1	-0.30078653
81	0xbf0eb414	-0.5574353
82	0xbe47f5da	-0.19527379
83	0xbe87a990	-0.26496553
84	0xbe7b84c1	-0.2456236
85	0xbeea5e52	-0.45775086
86	0xbf6c589b	-0.923227
87	0x3c8781cc	0.016541384
88	0x3e04d75b	0.12972777
89	0x3f88249c	1.0636172
90	0x3f0f0db6	0.55880296
91	0xbf3427e1	-0.7037335
92	0xbfb979bf	-1.4490279
93	0x3e341779	0.17587079
94	0x3eb3d70e	0.3512501
95	0x3eb69ca5	0.35666385
96	0xc00057a1	-2.0053484
97	0xbed53cb3	-0.41647872
98	0x3f332206	0.6997379
99	0x3f075aa1	0.52872664
100	0xbf11fbd6	-0.57024896
101	0x3f632e04	0.8874209
102	0x3fb5a5d5	1.4191233
103	0xbf0d2422	-0.5513326
104	0xbfbafbb6	-1.4608066
105	0x3f8022e7	1.0010651
106	0xbed81459	-0.42203024
107	0x3e430740	0.19045734
108	0x3ea9fc76	0.33200425
109	0x3f8ec4c5	1.1153799
110	0x3f062d7c	0.52413154
111	0x3f69812b	0.9121272
112	0x3e749e82	0.23888591
113	0xc01c5cc6	-2.4431624
114	0x3ea1b5e9	0.315841
115	0xbe2aca3d	-0.1667871
116	0x3fb40fb0	1.4067287
117	0xbd5b13a9	-0.053485546
118	0xbf20a99c	-0.62758803
119	0x3faae3f6	1.3350818
120	0xbf01794f	-0.5057573
121	0xbe54f565	-0.20796736
122	0xbe441d63	-0.19151835
123	0xbf2cd63a	-0.67514384
124	0x3fa8fd66	1.3202331
125	0xbefa1061	-0.4884062
126	0xbc953cac	-0.018217407
127	0xbf88a133	-1.0674194
128	0xbe516be1	-0.20451309
129	0x3f37294d	0.71547395
130	0x3f72aaac	0.94791675
131	0xbe3a6bc2	-0.18205169
132	0xbfe00ecc	-1.7504516
133	0x3e8361cc	0.2566055
134	0x3e7f557e	0.24934956
135	0x3ec39c56	0.38205212
136	0xbf9e2a2a	-1.2356617
137	0x3f6eaf54	0.9323628
138	0xbedd5e0e	-0.4323582
139	0xbf858dc5	-1.043389
140	0xc003ddeb	-2.0604198
141	0x3eaba1f4	0.33521998
142	0xbfcb8aca	-1.590173
143	0xbf214995	-0.630029
144	0xbf4b2586	-0.7935413
145	0x3f9f6281	1.2451936
146	0x3e534dd0	0.20635152
147	0xbd39e0ae	-0.045380287
148	0x3f3c532d	0.73564416
149	0x3ec729fc	0.3889922
150	0xbf528897	-0.8223967
151	0xbecf2257	-0.40455887
152	0x3f7ea4c0	0.9947014
153	0xbf1eaf3d	-0.6198614
154	0xbeaba6e0	-0.33525753
155	0xbef5800c	-0.47949255
156	0xbf2f3d0f	-0.68452543
157	0xbedcdec5	-0.4313871
158	0xbe4553bc	-0.19270223
159	0xbe799129	-0.2437178
160	0x3f802254	1.0010476
161	0x3ed8b452	0.42325073
162	0xbf527ca4	-0.82221437
163	0x3dd9bf02	0.10632135
164	0x3f97fc35	1.1873842
165	0x3f503936	0.81337297
166	0xbf7b9b18	-0.9828353
167	0x3e871402	0.26382452
168	0xbf27b3c1	-0.6550866
169	0x3e5ae6ab	0.21377055
170	0xbea7a0d6	-0.32739896
171	0xbfce0a5c	-1.6096911
172	0xc005e3a0	-2.0920181
173	0xbf18a360	-0.5962429
174	0xbfa2a056	-1.2705181
175	0x3f85d4a6	1.045552
176	0x3caf4977	0.021397335
177	0x3ec2f17a	0.38074857
178	0xbf93f84f	-1.1560153
179	0xbeb8660e	-0.36015362
180	0x3e38d5e1	0.18050338
181	0x3fc2171c	1.5163302
182	0x3f1426a0	0.5787144
183	0x3e996963	0.29963216
184	0x3f80a427	1.0050095
185	0xbfc01a9d	-1.5008122
186	0x3f8eff04	1.1171575
187	0x3f74ae10	0.955781
188	0x3f0ad3f1	0.54229647
189	0xbf9ee975	-1.2414995
190	0x3ea31a7e	0.3185615
191	0x3fbdcdd0	1.4828434
192	0x3eb8ea57	0.36116287
193	0xbfc1f9e6	-1.5154388
194	0x3e2d15e2	0.16902879
195	0x3f430f2c	0.76195025
196	0xbf3040e7	-0.68849033
197	0xbfe44069	-1.7832156
198	0xbeca2a04	-0.3948518
199	0xbecf5be3	-0.40499792
200	0xbf4c90d4	-0.7990849
201	0xbba28cb3	-0.0049606203
202	0xbfd97d84	-1.6991429
203	0x3e8880d7	0.26660797
204	0xbee23346	-0.44179744
205	0xbee21329	-0.44155243
206	0xbfd8dac5	-1.6941763
207	0xbdef057f	-0.1167097
208	0xbf02be69	-0.5107179
209	0xbefa1d92	-0.48850685
210	0x3f931ae0	1.1492577
211	0x3e567cc8	0.20946038
212	0xbccea385	-0.025224457
213	0x3f5dce75	0.86643153
214	0x3eef26a4	0.46709168
215	0xbee08195	-0.43848863
216	0x3f35f3a2	0.7107488
217	0x3e252550	0.16127515
218	0xbe963e70	-0.2934451
219	0x3f75447d	0.9580763
220	0xbe469857	-0.1939405
221	0x3e28eb75	0.1649607
222	0xbf1b8caa	-0.6076151
223	0x3f4aa5f1	0.79159456
224	0xbff6b432	-1.9273741
225	0xbe80e10b	-0.25171694
226	0xbf294ba2	-0.6613103
227	0x3d3e31f6	0.046434365
228	0xc012ed0f	-2.295719
229	0x3f7c751a	0.9861618
230	0xbf26956c	-0.6507175
231	0xbed84135	-0.4223725
232	0x3f0b3dd1	0.543912
233	0x3e549fa2	0.2076402
234	0x3f47323b	0.7781102
235	0x3db2ee1c	0.08736822
236	0x3f696774	0.9117348
237	0x3ea10805	0.3145143
238	0xbebbc1fa	-0.3667143
239	0xbeb05221	-0.3443766
240	0x3fad6b41	1.3548356
241	0xbea487f1	-0.32134965
242	0x3ecea457	0.40359756
243	0xbe74349d	-0.23848195
244	0xbfb1a0ec	-1.3877234
245	0x3fbc6353	1.4717811
246	0x3fa98c7e	1.3246
247	0xbf7c9c3d	-0.986759
248	0x3dca1e4e	0.098690614
249	0x3cd64f8c	0.026160978
250	0xbe8693d4	-0.2628466
251	0xbecd6642	-0.4011708
252	0xc01243c5	-2.2853863
253	0x3f4a81b7	0.7910418
254	0xbf6a923d	-0.9162939
255	0x3dedbcb4	0.11608258
