ckpt/assistment/irt_ip.pt (torch, 286913 bytes, 12 tensors)

utn.0.weight f4 [256, 1]
1.4697841 1.5404941 -1.4723577 -1.4395237 -1.3115426 1.0962145 -0.8495979 1.6938062
-0.92175454 1.0976464 -1.074263 -0.65871865 -2.3861325 -1.4113994 -1.2267015 -1.3422892
1.3591299 1.5247613 -1.7023005 -1.4554517 1.5308021 1.6403172 -0.95525074 1.5716151
-0.78341615 1.5245659 1.8273349 -2.3244908 -1.5952041 -1.1378514 -1.1183137 1.5993724
-1.2338315 -0.9734187 -1.4150218 -2.1110325 -1.6344717 1.5536925 1.3160579 1.34739
-0.70220107 -1.4491459 0.93839806 -2.5199516 -1.3066337 -1.0126672 1.3922495 1.4043626
-1.5071172 -1.2544819 1.4046928 1.7081002 1.4007292 1.1623628 1.5904826 -1.1682106
1.2745955 -1.6697898 -1.6283233 -1.7885824 1.3298328 1.3665864 -1.4161944 1.3108374
1.4470898 -0.60026085 -1.4685576 1.1926982 1.6047648 1.7515981 -2.2709746 -0.92292523
1.1353933 1.7024173 1.5829177 1.6406744 0.9173746 -2.3059168 1.2259339 -1.6298985
-2.5112739 1.7769804 1.7182968 -2.181869 1.04482 -1.1780679 -0.8846088 -1.5482996
1.2860453 -2.0117836 1.3827771 1.4515905 1.4574155 1.3468711 -2.1535244 -2.2079906
1.4014486 1.1372312 -2.063866 -1.620608 1.5870565 1.5483094 -1.3791039 -0.8241498
-1.9740493 -1.5832772 -1.4178154 -2.069712 -0.48222107 -0.79794097 -1.5499667 1.5621148
-1.3560416 1.5349143 1.4937205 -2.0977006 -1.3568125 -1.4123127 -1.5864083 1.2649473
1.4879115 -0.4765866 -1.959405 1.5355737 -2.4014988 -1.0280755 -0.72151 -1.7319618
-1.090043 -2.1509447 -0.7751931 1.1345836 -1.3042412 -0.8612772 1.5339185 -1.0081373
-1.352185 0.3686622 -0.16284408 1.5803722 1.7041777 1.5076107 1.6399828 -0.71268046
-2.1049511 -1.1236018 1.3973898 0.024351617 -1.5347579 -1.5105567 -2.136434 -2.2623553
-1.1941847 1.5088503 1.287954 -2.2235403 1.6396989 -2.1382086 -1.2520556 -1.1613983
-1.2481179 -1.0458027 -2.2619812 -2.091838 -0.8492648 1.3496562 -0.79941136 1.4085397
-2.4257991 -1.566784 1.647954 -1.3793652 1.602134 1.3475496 -1.68286 1.5384634
-0.8825119 -1.1191388 1.5646621 -2.0511088 -0.086346745 -1.4012709 1.5780015 1.2928673
1.3786908 1.3278219 -1.1260954 -0.56455946 -1.5743804 1.6037518 1.473799 1.5209113
-1.2600971 0.25786418 -2.0132484 -1.7723603 -2.0516825 1.3107653 -1.4429326 -0.5635266
-0.34172156 1.6246794 -1.515003 -1.3151997 -1.478996 1.4460212 -0.9971713 1.7039604
1.344938 0.8970366 -1.0962983 -1.3587762 1.2663541 -1.1067417 -0.6621525 1.3303989
-2.2093534 -0.9584609 1.523657 -1.580706 -1.2775443 1.6676184 1.1810606 0.45869502
-1.6004009 1.3803979 -1.829832 -0.6966698 -0.91408443 -0.463203 -0.24022275 1.614261
0.07496484 1.6408801 1.3174503 -1.7434185 1.442429 -1.4945146 -1.6025975 1.2268078
1.2265158 1.523068 -1.8126092 -0.22388655 1.5258119 -2.1574135 1.558812 -2.1664658
-0.7981674 -1.2536594 -1.2109882 0.93554497 1.5063161 -0.8016251 -1.305166 -1.3897941
00000000: e321 bc3f e92e c53f 3876 bcbf 5042 b8bf
00000010: a1e0 a7bf c250 8c3f 3f7f 59bf a4ce d83f
00000020: 1bf8 6bbf ad7f 8c3f 7381 89bf c9a1 28bf
00000030: 65b6 18c0 bca8 b4bf 8e04 9dbf 22d0 abbf
00000040: f8f7 ad3f 612b c33f fce4 d9bf 3e4c babf
00000050: 53f1 c33f eaf5 d13f 508b 74bf af2a c93f
00000060: f68d 48bf fa24 c33f 1ce6 e93f 75c4 14c0
00000070: a62f ccbf 1da5 91bf e724 8fbf 3cb8 cc3f
00000080: 31ee 9dbf f831 79bf 6f1f b5bf 281b 07c0
00000090: 5e36 d1bf 65df c63f 9674 a83f 4777 ac3f
000000a0: 73c3 33bf 9d7d b9bf db3a 703f e346 21c0
000000b0: c63f a7bf 149f 81bf 3b35 b23f 27c2 b33f
000000c0: 37e9 c0bf dd92 a0bf f9cc b33f 07a3 da3f
000000d0: 184b b33f 4ec8 943f ef94 cb3f ed87 95bf
000000e0: f225 a33f acbb d5bf e66c d0bf 45f0 e4bf
000000f0: f637 aa3f 4eec ae3f dc45 b5bf 85c9 a73f
00000100: 3d3a b93f b2aa 19bf b2f9 bbbf 56aa 983f
00000110: ef68 cd3f 5e34 e03f a657 11c0 d444 6cbf
00000120: 9154 913f cfe8 d93f 0c9d ca3f 9e01 d23f
00000130: 10d9 6a3f 2494 13c0 67eb 9c3f 84a0 d0bf
00000140: b6b8 20c0 1874 e33f 26f1 db3f bea3 0bc0
00000150: a9bc 853f eeca 96bf b975 62bf ae2e c6bf
00000160: 229d a43f 10c1 00c0 d7fe b03f b8cd b93f
00000170: 978c ba3f 4666 ac3f 58d3 09c0 b84f 0dc0
00000180: ab62 b33f cb90 913f 6116 04c0 1570 cfbf
00000190: ab24 cb3f 012f c63f 7a86 b0bf 7bfb 52bf
000001a0: a6ad fcbf d4a8 cabf fa7a b5bf 2976 04c0
000001b0: aee5 f6be dc45 4cbf 4f65 c6bf 61f3 c73f
000001c0: c592 adbf 1278 c43f 3c32 bf3f ba40 06c0
000001d0: 08ac adbf aac6 b4bf 6d0f cbbf cbe9 a13f
000001e0: e273 be3f 2903 f4be c8cd fabf ae8d c43f
000001f0: 28b2 19c0 fa97 83bf e1b4 38bf edb0 ddbf
00000200: 8786 8bbf 14a9 09c0 0e73 46bf 093a 913f
00000210: 60f1 a6bf aa7c 5cbf 7157 c43f a50a 81bf
00000220: 6614 adbf 4bc1 bc3e 99c0 26be a349 ca3f
00000230: 7f22 da3f 63f9 c03f f5ea d13f 3a72 36bf
00000240: 85b7 06c0 2fd2 8fbf abdd b23f 0b7d c73c
00000250: f272 c4bf ec59 c1bf 56bb 08c0 6eca 10c0
00000260: 0bdb 98bf 0222 c13f addb a43f 7c4e 0ec0
00000270: a7e1 d13f 69d8 08c0 5c43 a0bf b3a8 94bf
00000280: 54c2 9fbf dddc 85bf 4dc4 10c0 ace0 05c0
00000290: 6b69 59bf 89c1 ac3f 39a6 4cbf 074b b43f
000002a0: 4b40 1bc0 618c c8bf 28f0 d23f 0a8f b0bf
000002b0: ba12 cd3f 817c ac3f f567 d7bf 5eec c43f
000002c0: 4dec 61bf f13f 8fbf d946 c83f 5e45 03c0
000002d0: 90d6 b0bd d85c b3bf f4fb c93f ad7c a53f
000002e0: f178 b03f 11f6 a93f e523 90bf f886 10bf
000002f0: 4c85 c9bf bd47 cd3f 72a5 bc3f 39ad c23f
00000300: dd4a a1bf c606 843e 10d9 00c0 b4dc e2bf
00000310: c44e 03c0 28c7 a73f 04b2 b8bf 4743 10bf
00000320: 21f6 aebe 7ff5 cf3f 9eeb c1bf 7758 a8bf
00000330: be4f bdbf 3917 b93f 9e46 7fbf 601b da3f
00000340: ee26 ac3f 31a4 653f 8153 8cbf 61ec adbf
00000350: e417 a23f b6a9 8dbf d482 29bf 834a aa3f
00000360: 0c66 0dc0 b25d 75bf 3107 c33f 9354 cabf
00000370: 9286 a3bf 8574 d53f fe2c 973f 13da ea3e
00000380: f0d9 ccbf e1b0 b03f ef37 eabf f458 32bf
00000390: 7001 6abf f228 edbe f4fc 75be 1ba0 ce3f
000003a0: 2b87 993d 5c08 d23f 36a2 a83f 5628 dfbf
000003b0: 83a1 b83f 414c bfbf ea21 cdbf 0a08 9d3f
000003c0: 78fe 9c3f e4f3 c23f 9403 e8bf 8442 65be
000003d0: ce4d c33f 1013 0ac0 2787 c73f 60a7 0ac0
000003e0: b354 4cbf e977 a0bf a901 9bbf e07f 6f3f
000003f0: f7ce c03f 4d37 4dbf ae0f a7bf c6e4 b1bf

utn.0.bias f4 [256]
-4.139811 0.7096894 -1.6693894 -2.0547981 -2.3731725 -0.90693986 -2.9298143 1.3260093
-2.6175942 -1.7112588 -2.5418215 -2.518697 0.7039387 -0.76189005 -2.1587129 -2.7793262
-1.2135963 0.4306489 -1.0514356 -2.3356364 0.90003246 -0.6492528 -2.521781 0.5983059
-2.8432298 -2.6803288 -0.7766372 0.63410306 -0.6659197 -0.73445296 -2.344156 0.66971904
-1.6058567 -1.6866065 -2.0120716 -0.12386343 -0.5693074 0.12211398 -0.3394558 -0.7861376
-2.2101283 -2.3637094 -2.0108297 -0.06271142 -1.7618928 -1.4674549 -0.5901787 0.14847872
-0.8942061 -3.0936708 0.18155229 0.8919462 0.18007846 -2.4071918 -0.79913676 -1.5725037
-0.20690133 -1.0653892 -0.39595595 -0.19327612 -0.5162949 -0.0153403785 -0.80658466 -0.11791289
0.076791026 -3.2756343 -3.2838807 -0.48460227 1.0345824 1.4902765 0.29801348 -1.9065219
-0.69673884 -0.3897593 -0.88987076 -0.99123865 -1.4428034 0.37212235 -1.9164344 -0.6573728
0.59091043 1.5251336 1.4322646 0.62772816 -1.2697349 -2.5746987 -1.1734086 -0.46425372
-0.7463712 0.41892722 0.119897 0.3668185 -0.6375686 -0.05663737 -0.5321686 0.5756249
-0.11364119 -0.6388852 -0.21559471 -0.35685006 -0.33601233 0.7926696 -2.2924492 -2.455474
-1.04548 -2.8477044 -2.2634284 0.4280877 -2.8609138 -2.852484 -0.042263124 -0.8965761
-2.223618 0.04232521 -0.6970976 0.41107577 -2.589 -2.7679384 -2.9367888 -0.8234308
0.64523387 -2.9306111 0.21867801 0.83950585 0.8057631 -2.0009394 -2.2056925 0.13923234
-1.3079668 0.72670555 -1.6400425 -0.59599364 -1.7712601 -3.2059808 0.47844842 -2.7077885
-2.883858 -5.5781446 -6.53321 0.90494317 1.0780962 0.15791205 -0.6209917 -2.1988971
0.43372026 -1.5571818 -0.5755981 -4.866745 -0.53593206 -2.0557523 0.5792191 0.5572561
-2.6369884 0.60052425 -0.7238363 -0.18445837 1.1962563 -0.26333413 -2.5798748 -2.297558
-2.5960402 -2.5294588 -0.029577432 0.6683122 -2.640804 -2.7114081 -2.0835984 0.4207893
0.41536772 -2.8274953 -0.108026296 -2.1717522 -0.4106155 0.09012858 -1.5938913 0.5934635
-1.1644008 -1.4159817 -0.7297304 -0.50035197 -6.018487 -2.6190464 0.87536997 -1.3757821
-1.2092851 -1.3130566 -2.2585673 -1.9722571 -2.1972303 0.99715304 -0.2823826 0.5041128
-1.1300693 -7.235035 0.4686126 -0.036488067 0.6913264 -0.003659796 -2.027003 -2.4186075
-4.0758076 0.7759707 -1.9014362 -1.5809703 -2.3884556 -0.5296204 -1.4411128 -0.8486656
0.10765724 -1.5982907 -2.8603053 -2.6589663 -1.753322 -2.4387004 -3.1511507 0.00571817
0.23334484 -2.1747026 0.69069713 -2.156673 -2.865785 0.87695897 -1.2129402 -4.0726576
-1.5718755 -0.62166506 -1.1321969 -1.7326589 -2.4073102 -3.3099363 -3.4491134 0.84843063
-7.008703 -0.19366406 -0.31701428 -0.6484074 0.46879444 -1.866856 0.020554494 -0.5649099
-1.432191 -0.4968926 0.0692083 -3.7915022 -0.9017826 0.5291812 0.79418325 0.30679566
-1.5058504 -2.6037095 -1.2579125 -1.5733595 -0.35410357 -1.674834 -1.6075804 -0.7630884
00000000: 5579 84c0 34ae 353f 8dae d5bf d081 03c0
00000010: 0fe2 17c0 362d 68bf 1482 3bc0 acba a93f
00000020: aa86 27c0 870a dbbf 34ad 22c0 5532 21c0
00000030: 5435 343f 3a0b 43bf 5a28 0ac0 7be0 31c0
00000040: 2057 9bbf 037e dc3e 7195 86bf 117b 15c0
00000050: 8768 663f 6e35 26bf dc64 21c0 932a 193f
00000060: 7af7 35c0 828a 2bc0 b2d1 46bf 9454 223f
00000070: b779 2abf 1c05 3cbf a706 16c0 b572 2b3f
00000080: b68c cdbf b9e2 d7bf c8c5 00c0 1cac fdbd
00000090: 21be 11bf e516 fa3d 27cd adbe 5040 49bf
000000a0: be72 0dc0 0447 17c0 6fb1 00c0 d86e 80bd
000000b0: b485 e1bf 90d5 bbbf f415 17bf ce0a 183e
000000c0: b1ea 64bf b4fe 45c0 d8e8 393e 9656 643f
000000d0: 7d66 383e 6e0f 1ac0 3a94 4cbf cd47 c9bf
000000e0: f1dd 53be ac5e 88bf bdba cabe 2dea 45be
000000f0: e72b 04bf 3656 7bbc 557c 4ebf 507c f1bd
00000100: 9d44 9d3d fea3 51c0 1a2b 52c0 ca1d f8be
00000110: 326d 843f 61c1 be3f 3995 983e e908 f4bf
00000120: 7a5d 32bf 888e c7be 92ce 63bf d1c1 7dbf
00000130: c8ad b8bf d286 be3e b94d f5bf 9549 28bf
00000140: e845 173f 9437 c33f 7254 b73f cbb2 203f
00000150: ac86 a2bf ddc7 24c0 4132 96bf aab2 edbe
00000160: 2f12 3fbf a17d d63e 8f8c f53d a2cf bb3e
00000170: b237 23bf 96fc 67bd 343c 08bf 275c 133f
00000180: b6bc e8bd fb8d 23bf dcc4 5cbe 0db5 b6be
00000190: cf09 acbe 65ec 4a3f 7db7 12c0 7c26 1dc0
000001a0: 4ad2 85bf ca40 36c0 03dc 10c0 502e db3e
000001b0: 3619 37c0 198f 36c0 191c 2dbd 0386 65bf
000001c0: c24f 0ec0 335d 2d3d fd74 32bf 8678 d23e
000001d0: 2db2 25c0 e725 31c0 59f4 3bc0 5ccc 52bf
000001e0: 0c2e 253f 228f 3bc0 21ed 5f3e dbe9 563f
000001f0: 7e46 4e3f 640f 00c0 112a 0dc0 ec92 0e3e
00000200: 756b a7bf 6009 3a3f eaec d1bf 0a93 18bf
00000210: a7b8 e2bf ca2e 4dc0 31f7 f43e 684c 2dc0
00000220: 2191 38c0 2980 b2c0 0e10 d1c0 5baa 673f
00000230: 0eff 893f b2b3 213e 50f9 1ebf bbba 0cc0
00000240: 9510 de3e bc51 c7bf 665a 13bf 60bc 9bc0
00000250: d832 09bf 7291 03c0 b447 143f 56a8 0e3f
00000260: 6bc4 28c0 f5bb 193f 564d 39bf a8e2 3cbe
00000270: ed1e 993f bbd3 86be ab1c 25c0 310b 13c0
00000280: 8625 26c0 a7e2 21c0 5f4c f2bc 8216 2b3f
00000290: ef02 29c0 b687 2dc0 ad59 05c0 b271 d73e
000002a0: 14ab d43e aff5 34c0 e43c ddbd fdfd 0ac0
000002b0: 323c d2be 5595 b83d a104 ccbf 39ed 173f
000002c0: 160b 95bf e33e b5bf 9dcf 3abf 1117 00bf
000002d0: 7297 c0c0 759e 27c0 3f18 603f a119 b0bf
000002e0: dbc9 9abf 3d12 a8bf 5e8c 10c0 ec72 fcbf
000002f0: 6c9f 0cc0 6c45 7f3f 7494 90be 890d 013f
00000300: 1ca6 90bf 6885 e7c0 feed ef3e 8374 15bd
00000310: c4fa 303f 30d9 6fbb 6bba 01c0 77ca 1ac0
00000320: 046d 82c0 04a6 463f 4362 f3bf 3c5d cabf
00000330: 75dc 18c0 3495 07bf 6276 b8bf 2642 59bf
00000340: 667b dc3d ca94 ccbf 3e0f 37c0 812c 2ac0
00000350: db6c e0bf ab13 1cc0 74ac 49c0 7d5f bb3b
00000360: f3f1 6e3e 542e 0bc0 87d1 303f ee06 0ac0
00000370: 0569 37c0 6280 603f a041 9bbf 3653 82c0
00000380: 3733 c9bf 7125 1fbf d4eb 90bf c4c7 ddbf
00000390: 5f11 1ac0 ffd5 53c0 46be 5cc0 c032 593f
000003a0: 4c47 e0c0 df4f 46be b24f a2be 07fe 25bf
000003b0: d305 f03e 23f5 eebf e661 a83c ef9d 10bf
000003c0: 0952 b7bf b568 febe 15bd 8d3d f9a7 72c0
000003d0: 39db 66bf 6b78 073f 984f 4b3f 5214 9d3e
000003e0: b5bf c0bf 2da3 26c0 4703 a1bf d863 c9bf
000003f0: 104d b5be f660 d6bf 32c5 cdbf c359 43bf

utn.2.weight f4 [128, 256]
-0.08111012 -0.1966805 -0.12888074 -0.10536348 -0.13227391 -0.1140016 -0.03397299 -0.18537858
-0.058233082 -0.12385236 -0.06757208 -0.13510045 -0.2396649 -0.19208615 -0.053616486 -0.09365431
-0.14083181 -0.20088243 -0.1271799 -0.05391599 -0.2163817 -0.19558682 -0.13536231 -0.17236374
-0.09604425 -0.12455687 -0.16241856 -0.18890658 -0.19917884 -0.13062748 -0.1127859 -0.2026417
-0.12675166 -0.07345069 -0.16992241 -0.18476327 -0.18536997 -0.099557 -0.22076237 -0.2092571
-0.02774424 -0.14837128 -0.07901366 -0.24984686 -0.15214019 -0.1432819 -0.113900006 -0.15775754
-0.20999628 -0.11325071 -0.18475126 -0.14092216 -0.19958127 -0.024329543 -0.16189417 -0.14451575
-0.10130034 -0.14483455 -0.11896431 -0.1278561 -0.18266936 -0.20728558 -0.15489109 -0.109750256
-0.18294214 -0.13216563 -0.042342745 -0.0876905 -0.19287974 -0.2290689 -0.24804801 -0.092495985
-0.13033113 -0.18382467 -0.12592156 -0.10980224 -0.052492 -0.14586054 -0.11885809 -0.21053079
-0.25592017 -0.118247114 -0.15128714 -0.17685202 -0.18140423 -0.029008133 -0.0713248 -0.101493835
-0.20965761 -0.2049355 -0.19639419 -0.09842493 -0.17919408 -0.18206988 -0.18207593 -0.22139592
-0.19850315 -0.14010064 -0.19456914 -0.21863851 -0.09646677 -0.20046681 -0.08869053 -0.033124726
-0.17466888 -0.07781636 -0.06813293 -0.18095079 -0.111516945 -0.008721808 -0.15427339 -0.20978849
-0.1351104 -0.20402698 -0.093097664 -0.2052161 -0.15304734 -0.08118056 -0.042506587 -0.13720003
-0.1415357 -0.07123797 -0.15451623 -0.18420534 -0.22886038 -0.17698623 -0.14125817 -0.1448773
-0.16622552 -0.18462893 -0.096571855 -0.12770218 -0.17001432 -0.0048486223 -0.21193217 -0.031086473
-0.12608746 -0.069128536 -0.013215412 -0.19759925 -0.11855714 -0.21384735 -0.19391482 -0.11736107
-0.19002295 -0.06725231 -0.1797775 -0.038242083 -0.1761516 -0.14615507 -0.1461677 -0.24549904
-0.07737765 -0.107970074 -0.16170259 -0.17299718 -0.19467 -0.1434518 -0.15604171 -0.108338796
-0.09348879 -0.06703927 -0.18350388 -0.14832303 -0.09341908 -0.089940146 -0.06559255 -0.18302014
-0.15005378 -0.12684558 -0.16109042 -0.122025125 -0.12049228 -0.1151441 -0.17579007 -0.22248134
-0.09814939 -0.11386223 -0.11797449 -0.25167626 -0.009246777 -0.033317275 -0.17012866 -0.19485688
-0.09582 -0.18545596 -0.08212994 -0.098422185 -0.16342694 -0.1479175 -0.21613725 -0.15529898
-0.1920054 -0.053315915 -0.1809952 -0.12420242 -0.21828645 -0.110224366 -0.13397838 -0.11634516
-0.11906741 -0.22970577 -0.086283825 -0.15421703 -0.11600064 -0.13130859 -0.08563222 -0.08343762
-0.10993221 -0.1507459 -0.07998792 -0.12561694 -0.15180477 -0.07745444 -0.012593236 -0.19271864
-0.15154852 -0.13798775 -0.18490797 -0.090679094 -0.10044299 -0.16522211 -0.17703459 -0.010993159
-0.17601295 -0.19849335 -0.1888432 -0.16047016 -0.14525023 -0.06522914 -0.026433198 -0.1887242
-0.016904525 -0.100865796 -0.11608947 -0.19854175 -0.1720055 -0.16148062 -0.22023858 -0.14774477
-0.08442097 -0.10048528 -0.15840572 -0.054269653 -0.17965335 -0.15467565 -0.19842231 -0.23671156
-0.10391446 -0.050946783 -0.18859175 -0.048857022 -0.1271045 -0.1620717 -0.14954685 -0.0879753
00000000: 101d a6bd 9d66 49be 50f9 03be cfc8 d7bd
00000010: d072 07be ac79 e9bd 4327 0bbd e2d3 3dbe
00000020: d085 6ebd 4ea6 fdbd 3b63 8abd c657 0abe
00000030: b76a 75be 3bb2 44be f69c 5bbd d5cd bfbd
00000040: 3736 10be 20b4 4dbe 733b 02be 03d7 5cbd
00000050: 2a93 5dbe e947 48be 6b9c 0abe 1f80 30be
00000060: d9b2 c4bd ac17 ffbd 0d51 26be ba70 41be
00000070: 8af5 4bbe 36c3 05be 4bfc e6bd 4e81 4fbe
00000080: 30cb 01be 516d 96bd 2400 2ebe 9532 3dbe
00000090: a0d1 3dbe 8ae4 cbbd 880f 62be 7e47 56be
000000a0: e347 e3bc a4ee 17be ead1 a1bd dbd7 7fbe
000000b0: a3ca 1bbe 7eb8 12be 6844 e9bd 318b 21be
000000c0: 4409 57be fdef e7bd 6f2f 3dbe e64d 10be
000000d0: 085f 4cbe c04e c7bc 96c7 25be f0fb 13be
000000e0: 8d76 cfbd 824f 14be 8fa3 f3bd b6ec 02be
000000f0: ad0d 3bbe ac42 54be c59b 1ebe bec4 e0bd
00000100: 2f55 3bbe 6d56 07be 966f 2dbd 1497 b3bd
00000110: 4482 45be 0a91 6abe 4c00 7ebe 896e bdbd
00000120: 8675 05be 893c 3cbe 95f1 00be ffdf e0bd
00000130: da01 57bd 775c 15be df6b f3bd 6295 57be
00000140: f807 83be 8b2b f2bd 04eb 1abe b218 35be
00000150: 08c2 39be 77a2 edbc bd12 92bd 00dc cfbd
00000160: 7cb0 56be 9dda 51be 8f1b 49be 0293 c9bd
00000170: a77e 37be 8770 3abe 1d72 3abe 9db5 62be
00000180: 6944 4bbe 8b76 0fbe 223d 47be c6e2 5fbe
00000190: 5f90 c5bd 2c47 4dbe 61a3 b5bd cbad 07bd
000001a0: 66dc 32be 2f5e 9fbd 4789 8bbd 2a4b 39be
000001b0: ff62 e4bd eae5 0ebc d8f9 1dbe cbd2 56be
000001c0: 615a 0abe 73ec 50be fda9 bebd 2b24 52be
000001d0: 71b8 1cbe fe41 a6bd 631b 2ebd 2a7e 0cbe
000001e0: bcee 10be 36e5 91bd 8139 1ebe 53a0 3cbe
000001f0: 605a 6abe e13b 35be fba5 10be b75a 14be
00000200: 0637 2abe 5e0f 3dbe 77c7 c5bd 5cc4 02be
00000210: 3c18 2ebe 31e1 9ebb bf04 59be 0fa9 febc
00000220: 121d 01be 4393 8dbd 7585 58bc 7557 4abe
00000230: 16ce f2bd cdfa 5abe 9b91 46be 005b f0bd
00000240: 6095 42be 94bb 89bd 9817 38be bba3 1cbd
00000250: 1661 34be ada9 15be fcac 15be 1a64 7bbe
00000260: 2c78 9ebd 6a1f ddbd 5d95 25be 2c26 31be
00000270: 9357 47be 07e5 12be 66c9 1fbe bbe0 ddbd
00000280: 0d77 bfbd e34b 89bd 71e8 3bbe fee1 17be
00000290: 8152 bfbd 8a32 b8bd 6355 86bd a269 3bbe
000002a0: b3a7 19be cfe3 01be e3f4 24be 4fe8 f9bd
000002b0: a8c4 f6bd abd0 ebbd 5002 34be 26d2 63be
000002c0: 8c02 c9bd 9a30 e9bd 9c9c f1bd b6db 80be
000002d0: cb7f 17bc b277 08bd 3536 2ebe 9088 47be
000002e0: 473d c4bd 2be8 3dbe be33 a8bd 9291 c9bd
000002f0: 6459 27be af77 17be 1553 5dbe b206 1fbe
00000300: 109d 44be ca61 5abd ce56 39be d75d febd
00000310: 7c86 5fbe 50bd e1bd a131 09be 5f46 eebd
00000320: 9dd9 f3bd fd37 6bbe 93b5 b0bd 12eb 1dbe
00000330: be91 edbd c275 06be f25f afbd 58e1 aabd
00000340: 2324 e1bd 225d 1abe b5d0 a3bd baa1 00be
00000350: b672 1bbe 6fa0 9ebd dc53 4ebc 0958 45be
00000360: 892f 1bbe a94c 0dbe 8458 3dbe f6b5 b9bd
00000370: 0eb5 cdbd fc2f 29be 8e48 35be a71c 34bc
00000380: bd3c 34be d741 4bbe 1d60 41be 4a52 24be
00000390: 7abc 14be db96 85bd 6f8a d8bc eb40 41be
000003a0: 5c7b 8abc ba92 cebd 51c0 edbd 874e 4bbe
000003b0: 3622 30be 2d5b 25be 3986 61be 684a 17be
000003c0: e7e4 acbd 3acb cdbd 1c35 22be db49 5ebd
000003d0: 0cf7 37be 4b63 1ebe 382f 4bbe 8464 72be
000003e0: 1bd1 d4bd 93ad 50bd 321e 41be 4d1e 48bd
000003f0: af27 02be 20f6 25be cf22 19be 652c b4bd

utn.2.bias f4 [128]
-0.19521111 -0.4023346 -0.23434529 0.32747528 -0.2294318 -0.041398715 -0.29147518 -0.07435936
-0.17898268 -0.13903819 -0.21474795 -0.13518609 -0.19712898 -0.26500058 -0.19493969 0.03211129
-0.10082862 -0.18822369 -0.34151962 -0.27007788 0.005175376 -0.21192761 -0.2455397 -0.20891705
-0.3851819 -0.17660348 -0.3359262 -0.22350095 -0.14860833 -0.17999548 -0.23447393 -0.027397282
-0.17964306 0.14459622 -0.24340433 -0.21394606 -0.21281274 -0.35677242 -0.15920214 -0.18539612
-0.4421458 -0.22055762 -0.01569084 -0.20465252 -0.20325309 -0.01881197 -0.14163929 -0.22072113
0.014832913 -0.2891648 0.24349895 -0.2715249 -0.21464966 -0.32056445 0.18334445 -0.1614156
0.3178331 -0.5125426 -0.28364587 -0.17708121 -0.10753259 -0.030563558 -0.19205134 0.3389315
-0.33665943 -0.22671019 -0.24511251 0.2040301 -0.1168905 -0.16833642 -0.114763625 0.17981184
-0.1641012 0.024401026 -0.43477657 -0.5551051 0.05832707 -0.2207512 -0.18727608 -0.13537633
-0.18976927 -0.12143276 -0.21123476 -0.4940348 0.29954234 -0.12617339 -0.23701188 0.09569753
-0.2566778 -0.3546572 -0.059858456 -0.15436922 0.14392689 -0.20894197 -0.26754743 0.005624187
-0.18806034 -0.06642932 -0.18864164 -0.008703803 -0.41264758 -0.45344636 0.079916455 -0.24471168
0.042899296 -0.27548125 -0.12217844 0.35695395 -0.20492487 -0.24305661 -0.21346465 -0.19361861
-0.19433463 -0.23003042 -0.15339375 -0.19151516 -0.28566462 -0.14512993 -0.29619667 -0.3166696
-0.2824214 0.08694754 -0.19811594 -0.33854008 -0.024583448 0.028991811 -0.21544145 -0.24073857
00000000: 6ce5 47be cdfe cdbe 36f8 6fbe d7aa a73e
00000010: 2bf0 6abe b391 29bd 3c3c 95be b849 98bd
00000020: 3c47 37be 0760 0ebe e3e6 5bbe 396e 0abe
00000030: 2edc 49be 28ae 87be 459e 47be 2187 033d
00000040: 3c7f cebd b6bd 40be a9db aebe a647 8abe
00000050: 3396 a93b 8d03 59be c26e 7bbe 5aee 55be
00000060: 9036 c5be 8bd7 34be 85fe abbe 6fdd 64be
00000070: c82c 18be bc50 38be ef19 70be 4470 e0bc
00000080: 5af4 37be 0811 143e fc3e 79be ad14 5bbe
00000090: 95eb 59be e0aa b6be e305 23be 7bd8 3dbe
000000a0: ef60 e2be dbd9 61be 148a 80bc 6e90 51be
000000b0: 9421 50be 8f1b 9abc e409 11be b804 62be
000000c0: bf05 733c 690d 94be ca57 793e 5005 8bbe
000000d0: 1fcd 5bbe 0621 a4be a6be 3b3e 224a 25be
000000e0: 05bb a23e fe35 03bf 083a 91be c754 35be
000000f0: 0c3a dcbd 6d60 fabc 1ba9 44be 6e88 ad3e
00000100: a05e acbe b726 68be c6fe 7abe 44ed 503e
00000110: 4964 efbd 6260 2cbe 3109 ebbd 9820 383e
00000120: 250a 28be a9e4 c73c 099b debe 5e1b 0ebf
00000130: 5ee8 6e3d 9a0c 62be 4dc5 3fbe 18a0 0abe
00000140: e052 42be bdb1 f8bd ed4d 58be 21f2 fcbe
00000150: 9d5d 993e 9933 01be 3eb3 72be 11fd c33d
00000160: 466b 83be a195 b5be 242e 75bd f712 1ebe
00000170: 9261 133e e2f4 55be fafb 88be 1a4b b83b
00000180: e492 40be 180c 88bd 462b 41be 659a 0ebc
00000190: 8b46 d3be 1f2a e8be 3dab a33d b395 7abe
000001a0: 2cb7 2f3d e10b 8dbe b138 fabd abc2 b63e
000001b0: d3d7 51be d5e3 78be 7a96 5abe f543 46be
000001c0: a8ff 46be 188d 6bbe 4013 1dbe 8d1c 44be
000001d0: a242 92be f19c 14be 17a7 97be 8522 a2be
000001e0: 8a99 90be 8d11 b23d e8de 4abe 2055 adbe
000001f0: 3a63 c9bc 3c80 ed3c af9c 5cbe 2c84 76be

utn.4.weight f4 [15, 128]
-0.06412394 0.02258102 -0.11568348 -0.32920557 0.022513382 -0.035344403 -0.3698005 -0.33143088
-0.114293694 -0.027435089 -0.38723835 -0.10556275 -0.093186334 -0.07802398 -0.09140141 0.011952998
-0.3822053 -0.016843341 0.123578556 -0.12850073 -0.43663055 -0.3224035 -0.06938773 0.0025167828
0.69098663 -0.14389698 -0.23954779 -0.13276903 -0.011223216 -0.016342036 -0.10340782 -0.2732261
0.011247187 -0.23855789 -0.11878677 -0.041262545 -0.56308407 -0.46731585 -0.03455995 -0.0397384
1.7615783 -0.12335794 -0.14339228 0.0048625846 -0.06954595 -0.05061369 -0.050495572 -0.038537923
-0.11725941 -0.044985794 -0.38063967 -0.084918424 0.056643065 -0.42615676 -0.21293585 0.015597923
0.8409725 -0.06504089 -0.04216916 -0.060015317 -0.25320363 -0.38918838 0.03560366 0.10651315
0.014223002 0.030697117 -0.39818105 -0.3497319 -0.014943871 -0.03505928 -0.11528908 -0.3185896
-0.04201759 -0.021187663 0.6467049 0.3350111 -0.48137787 -0.11146527 -0.03698862 -0.066430725
-0.10348279 -0.06538063 -0.0016271707 -0.010068894 -0.20934138 -0.015767058 -0.11284479 -0.27105966
-0.49716875 0.34712717 -0.27946737 -0.06300091 -0.26172712 -0.15499029 -0.0276667 -0.10491366
-0.15586905 -0.2712532 -0.0831737 -0.2734288 0.89084184 -0.20634513 -0.6015189 -0.11409562
-0.090497695 -0.041832782 -0.1328903 -0.27177852 -0.13165008 -0.08683131 -0.24025482 -0.035252847
-0.06662068 -0.5095406 -0.04287843 0.045126017 -0.5545864 -0.41071185 0.66258246 0.20985647
-0.055441227 -0.054866 -0.055967283 -0.014794144 0.29393867 0.10734386 -0.044314582 -0.054829266
-0.01876248 -0.45809767 -0.08181641 -0.38751614 -0.05332205 -0.8200949 -0.45661175 -1.1443784
0.03676048 -2.2747202 -1.9161292 0.042320736 -0.1881181 0.043289836 -0.040805377 -1.0397197
-2.0505843 0.0053083682 -0.090750106 -0.048127253 -1.353411 -0.4984502 -0.04952883 0.040248062
-0.12161284 0.017088812 -0.14270248 -0.7106817 0.003281131 0.115750514 0.13353917 -0.8004798
0.0142116 -0.075351186 0.10832881 0.034119185 -0.7286778 -0.86619014 0.07628759 0.018566176
-0.41635752 -0.03443147 -0.69264096 0.03331741 0.056915086 -1.7242793 -0.031553976 -0.0042242575
-0.028458215 0.040053137 0.016961757 -0.08381527 -0.57788056 -1.1783894 1.4029822 0.09874391
0.37340918 -0.4101613 0.06659887 0.029452724 -1.0937271 -0.8223277 -0.026586862 -0.55860996
-0.03871323 -0.060566958 -0.7393709 -0.0976535 -0.00014948135 0.057619926 -0.0023729037 -0.056527637
0.07383484 0.54385465 -0.70850366 -1.3702273 2.035026 -0.059828244 -0.06355995 0.010502589
-0.017536977 0.005170356 -0.012718812 -0.23708467 1.084924 0.014658497 0.09773472 0.1253434
-0.8575651 -0.24414971 -0.19478077 0.11011857 0.037851162 -0.016364006 -0.15910454 -0.95660645
0.04892947 -1.3002675 0.06455379 -1.0730867 -0.2981401 -0.24121074 0.023707 0.056023266
-1.3324571 -0.09612516 0.041192174 -0.432519 0.0015008058 -0.059313912 -0.31339234 0.009378236
-0.06817176 -0.7725378 -0.31486616 0.027706273 -1.2892853 -0.32369167 -0.24021186 -0.7086082
-0.047837086 -1.6370407 0.018393239 0.049666766 -0.56717676 -0.92000324 -0.03596935 0.070721366
00000000: 6a53 83bd d5fb b83c 76eb ecbd a28d a8be
00000010: fc6d b83c 4bc5 10bd 7e56 bdbe 4fb1 a9be
00000020: d012 eabd 8dbf e0bc 1b44 c6be 4831 d8bd
00000030: 7ad8 bebd 09cb 9fbd aa30 bbbd 82d6 433c
00000040: 6ab0 c3be 0cfb 89bc c116 fd3d b295 03be
00000050: 0a8e dfbe 1212 a5be 271b 8ebd 9cf0 243b
00000060: 80e4 303f bb59 13be 044c 75be 9bf4 07be
00000070: 94e1 37bc bcdf 85bc 7bc7 d3bd 4be4 8bbe
00000080: 1f46 383c 8548 74be 7a46 f3bd ea02 29bd
00000090: 4726 10bf 0644 efbe bc8e 0dbd bcc4 22bd
000000a0: 667b e13f 16a3 fcbd 6dd5 12be 5156 9f3b
000000b0: 1b6e 8ebd 4d50 4fbd 72d4 4ebd f1d9 1dbd
000000c0: b425 f0bd 0643 38bd 34e3 c2be b6e9 adbd
000000d0: 8f02 683d 3831 dabe db0b 5abe 6e8e 7f3c
000000e0: f949 573f 2834 85bd 92b9 2cbd 9fd2 75bd
000000f0: e8a3 81be b343 c7be 25d5 113d 9123 da3d
00000100: 9807 693c 8578 fb3c 63de cbbe 0f10 b3be
00000110: 23d7 74bc 529a 0fbd ae1c ecbd 2d1e a3be
00000120: a31a 2cbd c091 adbc 748e 253f 9386 ab3e
00000130: 2977 f6be e747 e4bd 6181 17bd d50c 88bd
00000140: c9ee d3bd 48e6 85bd ca46 d5ba 01f8 24bc
00000150: 965d 56be eb29 81bc 2b1b e7bd 55c8 8abe
00000160: e78c febe a7ba b13e 5916 8fbe 9f06 81bd
00000170: 1901 86be c6b5 1ebe 46a5 e2bc f9dc d6bd
00000180: 239c 1fbe b3e1 8abe f956 aabd dcfe 8bbe
00000190: 360e 643f 234c 53be 25fd 19bf f7aa e9bd
000001a0: db56 b9bd da58 2bbd 6514 08be 8e26 8bbe
000001b0: 47cf 06be 9dd4 b1bd 5c05 76be 4a65 10bd
000001c0: 6c70 88bd 4171 02bf 4ba1 2fbd 0fd6 383d
000001d0: 60f9 0dbf d348 d2be 019f 293f 9de4 563e
000001e0: 5716 63bd 2cbb 60bd f33d 65bd 2363 72bc
000001f0: 217f 963e 19d7 db3d 3583 35bd a794 60bd
00000200: c6b3 99bc c78b eabe 5d8f a7bd 8468 c6be
00000210: 3968 5abd bdf1 51bf 04c9 e9be fe7a 92bf
00000220: 2892 163d 0495 11c0 b943 f5bf 8258 2d3d
00000230: 08a2 40be af50 313d 8a23 27bd 8915 85bf
00000240: c63c 03c0 d2f1 ad3b 31db b9bd 1521 45bd
00000250: 923c adbf dd34 ffbe bede 4abd 27db 243d
00000260: 2710 f9bd d6fd 8b3c 9920 12be 3cef 35bf
00000270: 3e08 573b 9b0e ed3d 7ebe 083e 3fec 4cbf
00000280: c5d7 683c b951 9abd 7fdb dd3d 8fc0 0b3d
00000290: a18a 3abf a3be 5dbf ab3c 9c3d 1818 983c
000002a0: d02c d5be 0308 0dbd eb50 31bf d677 083d
000002b0: cb1f 693d 2fb5 dcbf be3e 01bd a46b 8abb
000002c0: 3421 e9bc c20e 243d 62f3 8a3c 57a7 abbd
000002d0: fbef 13bf 77d5 96bf ec94 b33f 3f3a ca3d
000002e0: 7d2f bf3e a900 d2be fd64 883d d746 f13c
000002f0: 40ff 8bbf 1184 52bf b1cc d9bc 1001 0fbf
00000300: c491 1ebd 0f15 78bd 6947 3dbf 8ffe c7bd
00000310: 18be 1cb9 df02 6c3d b882 1bbb 8689 67bd
00000320: b836 973d 0f3a 0b3f 7f60 35bf 9c63 afbf
00000330: de3d 0240 760e 75bd b82b 82bd 0d13 2c3c
00000340: b5a9 8fbc 176c a93b 9062 50bc 53c6 72be
00000350: cade 8a3f 312a 703c 2429 c83d 055a 003e
00000360: 6389 5bbf 6202 7abe 9c74 47be d885 e13d
00000370: d209 1b3d cf0d 86bc 4dec 22be 29e4 74bf
00000380: 456a 483d 2a6f a6bf c734 843d e85a 89bf
00000390: d2a5 98be f3ff 76be 2f35 c23c a778 653d
000003a0: f48d aabf 45dd c4bd 20b9 283d 2173 ddbe
000003b0: b0b6 c43a 25f3 72bd f674 a0be 2ca7 193c
000003c0: a39d 8bbd 0ac5 45bf 2336 a1be 44f8 e23c
000003d0: 4d07 a5bf eaba a5be 19fa 75be 5967 35bf
000003e0: d2f0 43bd 8d8a d1bf 6bad 963c 616f 4b3d
000003f0: 7f32 11bf 5585 6bbf 9954 13bd 5dd6 903d

utn.4.bias f4 [15]
-0.38310832 -0.001510171 0.13528565 -0.06243584 -0.16141897 0.017858215 -0.0003869674 -0.21011584
0.02390544 -0.096601896 -0.24827535 0.22662082 0.13004397 -0.02085197 -0.008125247
00000000: c626 c4be eef0 c5ba 5288 0a3e b9bc 7fbd
00000010: 044b 25be 644b 923c e3e1 cab9 9b28 57be
00000020: 57d5 c33c 37d7 c5bd e53b 7ebe 4a0f 683e
00000030: 3f2a 053e c0d1 aabc c21f 05bc

itn.0.weight f4 [256, 2]
-1.3967999 0.69671685 -1.6079044 -1.1530179 -0.13270958 2.370698 0.97746176 -0.83040035
-1.283147 0.8887633 -1.3274945 0.21037695 -1.3096628 -1.2131294 -1.2941118 -0.14354433
-1.2386256 -0.07422297 -0.5854216 -3.8815951 -0.9890936 -0.55386776 -1.8758991 -1.5323893
0.467415 -1.0424011 0.03087741 0.53681564 0.9134304 -1.0421466 -1.2429043 0.15678665
-1.2286091 -0.23917352 -0.7015701 -2.8143306 -1.4627278 -0.029103462 -1.1901656 -0.911453
-0.9881865 -2.3034608 -1.5973734 -1.8110886 -0.04023465 -2.2166517 -0.3352488 1.692999
-1.3650287 0.3938391 0.91962296 -0.35151055 1.2231152 -0.118651025 -1.3893181 0.5296515
-0.4834458 -2.8931553 -0.7115915 -0.31656206 -1.2453924 -0.8575131 -1.4035765 -0.9601258
-1.0480772 -1.984304 -1.8277304 -2.1465588 0.5918117 -1.6819806 -0.7842012 -2.1728165
-0.6301679 1.6428554 -1.3170812 -0.3713173 0.4447154 -1.8688049 0.005609196 -1.778158
-1.261917 0.43093678 -1.2175053 0.17782573 -0.34378684 1.291209 -1.2455461 -0.08444187
-1.8717581 -1.7950255 -0.49235943 1.2120668 -1.8733078 -1.654172 -1.328147 -0.27955973
-0.9301348 -1.1874186 0.95623404 -1.5577549 -1.2493875 0.1387289 -1.2002376 -0.6129259
-1.2091866 -0.3432697 0.34527645 -2.3117957 0.7315282 -0.18372467 -0.98187494 -2.1935437
-0.08742607 -1.9272289 -1.9113094 -0.036260728 -1.3189801 0.39426416 -1.2574023 -0.50705063
-1.6022644 -1.0800132 -1.1763532 -0.7211735 0.5322437 -1.7906494 -1.1192341 -1.9517343
-0.08050709 -0.6672453 -1.3901063 0.34053352 -1.2625022 -0.7184071 -0.15521143 -3.5504253
0.76512414 -1.934338 -0.110734746 -0.7497366 0.11275952 -0.43781453 -1.204677 -1.6463945
0.9982385 -0.36981034 -0.12428243 -1.8256017 -0.96896917 -1.9102081 -1.9588703 -0.22840627
-1.3444041 -0.36681533 1.30381 -1.2900989 -1.2267593 -0.051843204 -1.2990102 0.12149998
-1.1279547 -0.95182246 -1.1955407 0.043867756 -1.0841537 -0.9090286 0.4723647 -1.9618287
-0.5513128 1.9030274 1.5157491 -1.2884789 -1.3272129 0.2433173 -0.81643003 -2.5689144
-0.5441252 2.1970909 -1.3062273 0.96159214 0.87645197 -0.4832228 -1.1736361 -0.13969836
-1.2229975 -1.2329562 -1.2147897 -0.19118826 0.8546599 -1.050308 1.5086404 -0.7097789
0.055948123 -1.863429 -1.2275758 -0.5769174 -1.2102598 0.42875993 -1.6305069 -0.519967
0.06086486 -2.2271698 -1.2125864 -1.0858487 -1.3372003 0.6489746 0.4237288 -2.0420609
-1.1215174 -1.9683248 0.7633818 -0.2659458 -0.5722555 1.4525621 -0.69505113 1.523396
-0.28663015 2.4110441 -1.2384701 -0.45577037 0.70824146 -1.2351531 1.154585 -0.34961966
-1.3751487 1.0743467 -1.2804823 0.13883257 -1.1451476 -1.2564013 -1.3056239 0.33972853
-0.4584549 1.9288336 -1.2607347 -0.5428082 -1.3175671 0.8831052 -1.522443 -1.7067078
-1.3299891 0.54702616 1.2128717 -0.5815593 -1.7065585 -0.27356318 -1.3217517 1.2355568
0.42052332 -2.0245028 0.54737926 -1.9070601 -1.2597357 -0.0076748272 -1.3381855 0.7433062
00000000: 57ca b2bf 095c 323f d0cf cdbf 1796 93bf
00000010: 05e5 07be 84b9 1740 ef3a 7a3f 1e95 54bf
00000020: 293e a4bf fe85 633f 57eb a9bf 0e6d 573e
00000030: 08a3 a7bf d347 9bbf 75a5 a5bf 49fd 12be
00000040: 498b 9ebf 3602 98bd 31de 15bf 0e6c 78c0
00000050: 3d35 7dbf 47ca 0dbf 761d f0bf 5525 c4bf
00000060: 0551 ef3e 666d 85bf 9ff2 fc3c c06c 093f
00000070: 93d6 693f 0f65 85bf 7d17 9fbf ae8c 203e
00000080: 1043 9dbf e7e9 74be 199a 33bf fe1d 34c0
00000090: aa3a bbbf 626a eebc 5957 98bf fc54 69bf
000000a0: caf9 7cbf e76b 13c0 bb76 ccbf c0d1 e7bf
000000b0: 17cd 24bd 9fdd 0dc0 bba5 abbe 31b4 d83f
000000c0: 43b9 aebf 47a5 c93e 696c 6b3f 31f9 b3be
000000d0: 0a8f 9c3f 4fff f2bd 2dd5 b1bf 3e97 073f
000000e0: 3586 f7be 7529 39c0 dc2a 36bf 6c14 a2be
000000f0: 0569 9fbf fb85 5bbf 65a8 b3bf ceca 75bf
00000100: 6527 86bf acfd fdbf 12f3 e9bf 3861 09c0
00000110: f980 173f 244b d7bf 69c1 48bf 6d0f 0bc0
00000120: af52 21bf 1649 d23f 1e96 a8bf 4d1d bebe
00000130: bdb1 e33e 0035 efbf 59cd b73b ae9a e3bf
00000140: 7f86 a1bf bfa3 dc3e 37d7 9bbf f317 363e
00000150: d404 b0be 5646 a53f 0e6e 9fbf dcef acbd
00000160: c595 efbf 65c3 e5bf 8916 fcbe 0125 9b3f
00000170: 8dc8 efbf e8bb d3bf b900 aabf 7422 8fbe
00000180: 501d 6ebf 55fd 97bf c1cb 743f 8364 c7bf
00000190: eeeb 9fbf f30e 0e3e 63a1 99bf b6e8 1cbf
000001a0: a0c6 9abf 0cc1 afbe 13c8 b03e 76f4 13c0
000001b0: 6f45 3b3f 5222 3cbe 285c 7bbf 0563 0cc0
000001c0: 700c b3bd 70af f6bf c9a5 f4bf 2186 14bd
000001d0: 57d4 a8bf fedc c93e 8ff2 a0bf 12ce 01bf
000001e0: 0017 cdbf df3d 8abf be92 96bf d49e 38bf
000001f0: 2041 083f 0034 e5bf 1043 8fbf 6ed2 f9bf
00000200: e7e0 a4bd 97d0 2abf 01ef b1bf 695a ae3e
00000210: ac99 a1bf 87e9 37bf bfef 1ebe 2b3a 63c0
00000220: 2ddf 433f 6398 f7bf e6c8 e2bd bdee 3fbf
00000230: 77ee e63d 3a29 e0be db32 9abf 0ebd d2bf
00000240: 8f8c 7f3f c857 bdbe c987 febd 51ad e9bf
00000250: 5d0e 78bf b381 f4bf 43bc fabf 55e3 69be
00000260: 6f15 acbf 38cf bbbe 3fe3 a63f f621 a5bf
00000270: 7306 9dbf 8a59 54bd f745 a6bf fbd4 f83d
00000280: d260 90bf a3aa 73bf 7a07 99bf adae 333d
00000290: 8cc5 8abf 19b6 68bf c9d9 f13e 341d fbbf
000002a0: d622 0dbf 6796 f33f 1104 c23f e0ec a4bf
000002b0: 1de2 a9bf 2c28 793e 8f01 51bf 1869 24c0
000002c0: ca4b 0bbf 239d 0c40 7532 a7bf e72a 763f
000002d0: 285f 603f fb68 f7be b539 96bf 160d 0fbe
000002e0: 2f8b 9cbf 82d1 9dbf 3b7e 9bbf dbc6 43be
000002f0: feca 5a3f 7e70 86bf 211b c13f 12b4 35bf
00000300: dc29 653d d784 eebf 3421 9dbf dcb0 13bf
00000310: cbe9 9abf 6c86 db3e 73b4 d0bf 8f1c 05bf
00000320: 6e4d 793d f389 0ec0 0836 9bbf 17fd 8abf
00000330: 6129 abbf 3323 263f fbf2 d83e 20b1 02c0
00000340: e28d 8fbf 11f2 fbbf fd6c 433f 0c2a 88be
00000350: 567f 12bf 8eed b93f dfee 31bf a4fe c23f
00000360: 30c1 92be 8c4e 1a40 3086 9ebf bc5a e9be
00000370: 504f 353f 7f19 9ebf 71c9 933f 5901 b3be
00000380: df04 b0bf 3184 893f d8e6 a3bf 202a 0e3e
00000390: 3294 92bf c2d1 a0bf af1e a7bf e6f0 ad3e
000003a0: 9aba eabe 05e4 f63f c15f a1bf 7af5 0abf
000003b0: 0aa6 a8bf 2f13 623f 6adf c2bf 6775 dabf
000003c0: 153d aabf e809 0c3f 613f 9b3f 12e1 14bf
000003d0: 8270 dabf 7910 8cbe 292f a9bf ba26 9e3f
000003e0: d54e d73e 7491 01c0 0c21 0c3f 8c1a f4bf
000003f0: 053f a1bf 1e7d fbbb aa49 abbf 5149 3e3f

itn.0.bias f4 [256]
0.3509509 -0.57004505 -0.7171389 -1.1082616 -0.3252074 0.9401643 0.12616313 -0.43653303
-0.6254268 -1.8580377 -2.5018477 -0.220285 -1.0304276 -1.7620981 -1.019124 0.36427614
0.39676693 -0.3440858 -1.2608197 0.7595978 -0.015078815 -0.6488295 -0.66387993 -1.3222579
1.0071932 -1.3840644 -1.6863263 0.79953766 -0.2811926 -2.2235155 0.3334518 -0.45652345
0.011173211 -0.9744686 -0.6733389 -0.384675 -1.0207697 -0.055722456 -0.099545434 -0.760768
0.03411188 -0.43161735 -1.7675799 -0.0082814265 -0.6866943 -1.8777902 -0.54296064 -0.65655756
-2.3705602 -0.10654376 0.48249763 0.007257775 0.5596316 -0.5489942 -1.4527588 -0.15048704
-0.8121148 -2.2203145 0.38142595 0.47231948 -0.21405417 -0.06902314 -0.552563 0.122488245
-1.2323877 1.028967 -0.09083106 -0.5343088 0.29048035 -1.4211633 -1.6120218 -0.41784978
-1.3888272 -0.6910799 -0.6041308 -2.2676694 -0.32367644 -0.6564773 0.22232963 0.7967551
0.47777843 -0.64792395 0.37813213 -0.19227627 -1.1267902 -0.702979 1.0736269 -0.26401892
-0.05711042 -0.16243859 -1.2182758 -0.22790389 0.99799955 0.45688003 -0.8636591 -1.2798271
-0.8362941 0.64763266 -0.59749925 -0.87488693 -0.16766112 0.36047602 0.08941997 -0.12791306
0.052896842 -1.2929703 -0.88752025 -0.9854459 -0.55993736 0.73250884 -1.0103514 -1.3692021
-0.07925333 0.7157832 -2.0021157 -0.15452568 -0.92798394 -0.05361572 -0.1706223 -1.117307
0.16679752 -1.3276501 -1.4158263 -0.5339364 -0.5643722 -0.06638229 -0.059529874 0.36483416
-1.9888054 0.876539 -0.53168255 -0.39224565 -0.97193563 -0.6727642 -0.15666625 -0.22775096
-0.31409216 -1.8853303 0.56260043 -0.2144936 -0.46344188 -0.18727802 -1.0797806 0.13475421
0.39335567 -1.6280329 -1.524628 0.039835002 -0.28452256 -0.7230695 0.56160337 0.97296244
-1.362429 -1.5058174 0.2090207 -0.6736657 0.72366655 -0.0922446 -1.1565574 -0.34117684
0.032482333 0.111775756 0.18841848 -0.083137736 -1.7130283 -1.8313015 -0.46899715 -1.0208726
0.3379804 0.074983545 -0.059776425 0.343537 -1.1937641 -0.057653476 0.41223702 -0.7509995
-2.6452003 0.5253653 -1.3321123 0.6085341 -1.204222 0.31775087 -0.55102396 0.025635866
-0.9131713 -0.92655987 -1.0251158 -0.5782869 0.85648996 -0.46964955 -0.1334134 -0.07852549
-0.015051648 -0.6108827 -1.1872913 -0.8618465 -1.1126354 -1.903257 0.17776372 -0.85672843
-1.006745 -0.99645686 -1.2638406 -1.4400893 -0.20463437 -1.387368 -0.49619582 0.030490793
-0.21209548 0.7058369 -1.5533696 0.29646668 0.80429965 -1.4448503 -0.9745799 0.5971091
-1.2871109 1.0032728 -0.093286574 0.47643813 -1.5378033 0.51909524 -0.93407255 0.6400873
-0.7198186 -1.0708607 -0.34868047 0.43995422 -1.6237506 -0.22935294 -0.48804727 -1.6231029
-1.0304619 -0.23499225 0.25238037 0.5869183 0.05177986 -0.33052936 0.13304438 -1.437857
0.9649357 0.1116941 0.038013462 -0.36123887 0.11995387 -0.3850768 0.47809136 -1.0511119
0.6253047 -1.0555795 0.3929543 0.05265684 0.6127739 -1.546797 -0.3687183 -0.8843441
00000000: d6af b33e 79ee 11bf 6a96 37bf 84db 8dbf
00000010: 9681 a6be 9cae 703f e830 013e 4281 dfbe
00000020: f91b 20bf 2ed4 edbf 461e 20c0 6492 61be
00000030: 0de5 83bf 6e8c e1bf a872 82bf 6782 ba3e
00000040: 0925 cb3e 042c b0be 8a62 a1bf 0075 423f
00000050: 220d 77bc b119 26bf 09f4 29bf bf3f a9bf
00000060: b5eb 803f 0629 b1bf 8ad9 d7bf 80ae 4c3f
00000070: 7af8 8fbe 144e 0ec0 32ba aa3e 71bd e9be
00000080: d80f 373c c676 79bf f05f 2cbf 1ff4 c4be
00000090: 95a8 82bf 3b3d 64bd 7ade cbbd b1c1 42bf
000000a0: e6b8 0b3d f3fc dcbe 0f40 e2bf d2ae 07bc
000000b0: 33cb 2fbf 6e5b f0bf 78ff 0abf 2814 28bf
000000c0: 42b7 17c0 9d33 dabd ee09 f73e a1d2 ed3b
000000d0: 0444 0f3f e28a 0cbf 00f4 b9bf 4619 1abe
000000e0: c1e6 4fbf a219 0ec0 434a c33e dcd3 f13e
000000f0: 0431 5bbe 015c 8dbd c574 0dbf 1edb fa3d
00000100: e1be 9dbf 31b5 833f a305 babd 76c8 08bf
00000110: d7b9 943e aee8 b5bf bb56 cebf 68f0 d5be
00000120: 17c5 b1bf 9dea 30bf 51a8 1abf 7f21 11c0
00000130: ebb8 a5be e50e 28bf 61aa 633e 24f8 4b3f
00000140: 609f f43e 58de 25bf 899a c13e 12e4 44be
00000150: a93a 90bf 6ff6 33bf 9b6c 893f 7d2d 87be
00000160: 9eec 69bd 4d56 26be 76f0 9bbf a35f 69be
00000170: e67c 7f3f 2eec e93e c318 5dbf 60d1 a3bf
00000180: 5f17 56bf 41cb 253f b6f5 18bf 97f8 5fbf
00000190: 5baf 2bbe 5090 b83e d121 b73d a4fb 02be
000001a0: 5caa 583d 0d80 a5bf 8734 63bf 2f46 7cbf
000001b0: 0e58 0fbf b385 3b3f 3253 81bf 0442 afbf
000001c0: 924f a2bd 913d 373f aa22 00c0 fb3b 1ebe
000001d0: 5b90 6dbf 289c 5bbd 9db7 2ebe ea03 8fbf
000001e0: f8cc 2a3e 70f0 a9bf cc39 b5bf 0eb0 08bf
000001f0: b27a 10bf 70f3 87bd 99d5 73bd 8bcb ba3e
00000200: 2d91 febf dc64 603f 591c 08bf 6cd4 c8be
00000210: c6d0 78bf 463a 2cbf 1e6d 20be 8c37 69be
00000220: b0d0 a0be 8152 f1bf 9506 103f 36a4 5bbe
00000230: 4148 edbe cfc5 3fbe 4036 8abf 02fd 093e
00000240: ea65 c93e 6263 d0bf 0327 c3bf 072a 233d
00000250: f1ac 91be 151b 39bf 3dc5 0f3f 1114 793f
00000260: 1364 aebf a0be c0bf 8609 563e 5b75 2cbf
00000270: 3642 393f bdea bcbd 130a 94bf bbae aebe
00000280: 320c 053d b0ea e43d c6f0 403e 1e44 aabd
00000290: 8344 dbbf 1668 eabf 6520 f0be f4ab 82bf
000002a0: c40b ad3e f990 993d 20d8 74bd 15e4 af3e
000002b0: 43cd 98bf 0d26 6cbd bb10 d33e 8141 40bf
000002c0: f64a 29c0 577e 063f a882 aabf e4c8 1b3f
000002d0: f223 9abf 3eb0 a23e e80f 0dbf 4f02 d23c
000002e0: 98c5 69bf 0733 6dbf ff36 83bf 9c0a 14bf
000002f0: ed42 5b3f e875 f0be 869d 08be f9d1 a0bd
00000300: 309b 76bc cf62 1cbf 29f9 97bf f9a1 5cbf
00000310: d66a 8ebf ed9d f3bf b107 363e 8e52 5bbf
00000320: 05dd 80bf cc17 7fbf 87c5 a1bf d954 b8bf
00000330: ac8b 51be 4695 b1bf 610d febe d4c7 f93c
00000340: 8f2f 59be bab1 343f d1d4 c6bf 7bca 973e
00000350: 95e6 4d3f dbf0 b8bf 117e 79bf 24dc 183f
00000360: 0dc0 a4bf 3e6b 803f 080d bfbd b3ef f33e
00000370: bdd6 c4bf 6de3 043f 611f 6fbf c3dc 233f
00000380: 0846 38bf f711 89bf 3f86 b2be ae41 e13e
00000390: 0fd7 cfbf 7fdb 6abe 55e1 f9be d6c1 cfbf
000003a0: 2de6 83bf cfa1 70be 0038 813e 4740 163f
000003b0: 1e17 543d 253b a9be c93c 083e b30b b8bf
000003c0: 0706 773f e0bf e43d 01b4 1b3d 4df4 b8be
000003d0: 60aa f53d c928 c5be 64c8 f43e d68a 86bf
000003e0: f813 203f 3b1d 87bf 4e31 c93e b3ae 573d
000003f0: c0de 1c3f 72fd c5bf a5c8 bcbe 6064 62bf

itn.2.weight f4 [128, 256]
0.41549698 1.0593727 -0.8392541 -1.3785509 0.4409415 0.061438624 0.7258106 0.3203453
0.25753865 0.525922 -0.16386218 1.2746297 -0.99977565 -0.5961816 -1.1722008 0.10170264
0.16376975 0.26152495 0.6457184 0.09711694 0.54662585 1.2426586 -0.34194398 -0.4224253
0.07556759 -1.4227289 -1.5510926 0.1555893 -0.048030697 -0.4975057 0.29618508 0.7272822
0.5096251 1.7890488 -0.88021296 0.13467334 -0.2146818 0.26363677 -0.8623819 -0.56519246
0.31657836 0.32862446 -0.13463068 0.1251482 1.7027923 0.072168395 1.4331931 0.38852802
0.46178895 -1.2567929 0.062281013 0.24176696 0.15462191 -0.6388053 -1.3526242 0.5918604
-0.35182342 0.6201475 0.28704154 0.33813912 0.7713985 0.22652932 -0.8246542 0.62463826
-0.7985163 0.11891867 0.4396975 0.090476155 -1.1184938 -0.7106923 -0.9937203 0.84170544
-1.4487176 -0.3899805 0.40110976 0.68990916 0.30169103 -1.4775704 0.07477313 0.065973766
0.012995552 0.38839063 -0.022052772 -0.8732564 -0.33398128 -1.5257213 0.013155659 0.3043168
-0.6720438 0.43068266 -1.3138083 0.23864965 0.055630878 0.11534767 -1.2162118 -1.6897391
-0.45573592 0.14746523 0.426417 0.72041845 -0.53296345 0.31263313 0.37375408 -0.74940354
0.6155425 -1.3364987 -0.35884377 -0.24480027 -0.774028 0.16372523 -1.0570921 -1.5183735
0.45706356 0.15496735 0.5885161 0.6535876 -0.55423325 0.5270098 0.57072586 1.3458637
0.42529368 -1.5374173 0.7059211 0.7105848 -0.7284917 -0.9441272 0.24513629 0.17379114
0.05941273 0.06377626 0.11089892 0.17403597 1.5192071 -0.42225054 -0.6048602 -0.9164157
0.4272231 -0.3162628 0.0927563 0.6137537 0.91732794 -1.2173775 -1.2580446 0.124096856
0.38829693 -0.42530477 -0.37953895 0.36974874 -0.9900855 -1.2090427 0.27643943 0.1118433
-0.89197904 -1.3162303 0.48370665 0.6961539 0.080065005 0.30250138 -0.6706088 0.5781339
-0.85297257 0.25622284 0.4541224 0.8073982 -0.23868316 -1.0371592 0.179179 -0.6157923
0.13847074 -0.8136193 0.29048857 0.20653878 0.51291704 -0.8101292 0.24363059 0.30473483
0.8070538 -0.014205887 -0.6101701 0.21848966 -1.1495079 -0.11669121 0.56614053 -0.7109808
0.60472596 0.20838721 -0.74271494 -0.85659605 0.10848075 0.2317592 0.10627716 0.61043406
0.27993345 0.53336746 1.763906 1.8079903 1.1159676 -0.72767794 0.30271557 0.36486638
0.19781001 -0.8467681 0.3064156 -1.0962137 0.77220154 -1.056843 0.3916158 0.21780922
0.9617768 0.22109282 -0.93494767 0.481664 0.16648771 -1.1238171 -0.3791541 0.06404173
0.7988294 0.072476506 0.65304565 0.38565677 -1.5571382 0.23952997 1.1071434 0.168893
-1.1759667 -0.3565354 0.3018971 0.16252385 0.6139847 0.74109274 0.87646633 -0.5755951
-0.8068637 0.41533473 0.2381842 0.28755552 0.16323625 0.8347148 0.058791377 0.032564007
0.06432857 -0.86158216 0.294593 0.7597746 0.6358434 -0.837453 0.1525139 1.079377
0.1086916 0.22083224 0.319964 0.6254668 0.1247478 -1.1411225 0.67850566 -1.3084219
00000000: 05bc d43e 8699 873f 5bd9 56bf 5b74 b0bf
00000010: 16c3 e13e 11a7 7b3d b9ce 393f 4d04 a43e
00000020: 1bdc 833e d3a2 063f 7dcb 27be 1127 a33f
00000030: 4cf1 7fbf 5b9f 18bf ad0a 96bf 7949 d03d
00000040: 42b3 273e 99e6 853e cd4d 253f 3fe5 c63d
00000050: acef 0b3f 700f 9f3f 4813 afbe 2148 d8be
00000060: 2ec3 9a3d fb1b b6bf 348a c6bf cd52 1f3e
00000070: d6bb 44bd 11b9 febe 92a5 973e 2b2f 3a3f
00000080: ca76 023f 8dff e43f a355 61bf cfe7 093e
00000090: 8cd5 5bbe 66fb 863e 0fc5 5cbf 74b0 10bf
000000a0: 8f16 a23e 7741 a83e a0dc 09be da26 003e
000000b0: 19f5 d93f 06cd 933d df72 b73f 25ed c63e
000000c0: 9a6f ec3e 97de a0bf 601a 7f3d c291 773e
000000d0: 3555 1e3e bf88 23bf ca22 adbf 2a84 173f
000000e0: 3322 b4be fdc1 1e3f 1cf7 923e 9220 ad3e
000000f0: 5f7a 453f 4df7 673e 8a1c 53bf 4be8 1f3f
00000100: 906b 4cbf a28b f33d 0820 e13e 904b b93d
00000110: ce2a 8fbf eeef 35bf 7464 7ebf 027a 573f
00000120: 946f b9bf 86ab c7be 425e cd3e e39d 303f
00000130: 3f77 9a3e 0721 bdbf a822 993d 411d 873d
00000140: 4ceb 543c 23db c63e 04a8 b4bc bb8d 5fbf
00000150: 98ff aabe d64a c3bf d58a 573c 69cf 9b3e
00000160: 100b 2cbf 7082 dc3e df2a a8bf 9360 743e
00000170: 34dd 633d 663b ec3d d4ac 9bbf 5f49 d8bf
00000180: 3856 e9be 2001 173e 5453 da3e 586d 383f
00000190: 4b70 08bf 7311 a03e b25c bf3e e9d8 3fbf
000001a0: 3194 1d3f 6412 abbf 5fba b7be ecac 7abe
000001b0: b326 46bf 96a7 273e cb4e 87bf 105a c2bf
000001c0: 3c04 ea3e c3af 1e3e fea8 163f 8451 273f
000001d0: 3be2 0dbf 1dea 063f 171b 123f 4345 ac3f
000001e0: 18c0 d93e 17ca c4bf 3fb7 343f e3e8 353f
000001f0: 6f7e 3abf 52b2 71bf 0205 7b3e 4ef6 313e
00000200: c35a 733d 219d 823d f91e e33d 7c36 323e
00000210: 6175 c23f 3931 d8be 1ed8 1abf 389a 6abf
00000220: fcbc da3e 33ed a1be 04f7 bd3d f61e 1d3f
00000230: 01d6 6a3f 07d3 9bbf 9b07 a1bf 7e26 fe3d
00000240: dbce c63e 8cc1 d9be ee52 c2be b54f bd3e
00000250: 3e76 7dbf e9c1 9abf 7889 8d3e 1a0e e53d
00000260: bd58 64bf 3c7a a8bf 66a8 f73e 2437 323f
00000270: 1ff9 a33d 76e1 9a3e 05ad 2bbf 9500 143f
00000280: 695c 5abf a42f 833e bb82 e83e a6b1 4e3f
00000290: 5c69 74be a2c1 84bf b37a 373e 90a4 1dbf
000002a0: 46cb 0d3e 5b49 50bf ebba 943e e77e 533e
000002b0: 884e 033f a164 4fbf 4c7a 793e 3406 9c3e
000002c0: 149b 4e3f cfbf 68bc 1c34 1cbf c1bb 5f3e
000002d0: 1323 93bf cdfb eebd 96ee 103f d602 36bf
000002e0: 52cf 1a3f 7563 553e 9122 3ebf e149 5bbf
000002f0: 282b de3d 4952 6d3e d7a7 d93d 6845 1c3f
00000300: 7053 8f3e c58a 083f acc7 e13f 3a6c e73f
00000310: 07d8 8e3f 1a49 3abf 89fd 9a3e c4cf ba3e
00000320: b58e 4a3e cbc5 58bf 81e2 9c3e bb50 8cbf
00000330: 00af 453f a246 87bf de81 c83e 6109 5f3e
00000340: 0137 763f 2866 623e bb58 6fbf aa9c f63e
00000350: c17b 2a3e 3dd9 8fbf 7c20 c2be 4f28 833d
00000360: 1580 4c3f 906e 943d 002e 273f ce74 c53e
00000370: 4e50 c7bf 5847 753e e0b6 8d3f 49f2 2c3e
00000380: 1486 96bf cf8b b6be 4292 9a3e a76c 263e
00000390: 1a2e 1d3f 41b8 3d3f 1960 603f 335a 13bf
000003a0: 9f8e 4ebf c1a6 d43e 8fe6 733e 7a3a 933e
000003b0: 6727 273e deaf 553f 3acf 703d d661 053d
000003c0: b3be 833d a690 5cbf e5d4 963e 9780 423f
000003d0: a2c6 223f 5263 56bf 9b2c 1c3e 0729 8a3f
000003e0: b499 de3d d921 623e 52d2 a33e 981e 203f
000003f0: c67b ff3d 4d10 92bf 8cb2 2d3f 5e7a a7bf

itn.2.bias f4 [128]
-0.73094845 0.2167856 -0.12484518 -0.021203944 -0.3742174 -0.32085487 -0.2526105 -0.3973452
-0.5938539 -0.47981486 -0.43373132 -0.34288302 -0.041580766 -0.61375844 -0.5084492 -0.41557023
-0.4937268 -0.35642794 0.09199571 -0.4349013 -1.0355474 -0.36620778 -0.20734447 -0.4129814
-0.2704686 -0.15702853 0.33860707 -0.7225336 0.18813981 -0.3809435 -0.1365157 -0.426948
1.1088933 -0.1577909 -0.36745062 -0.98519856 0.7124478 -0.4624761 -0.6516172 -0.35392696
-0.37711492 -0.73110354 -0.86493844 -0.4192011 -1.0531799 0.3319061 -0.21968268 0.44783586
-0.72152424 -0.4696397 -0.84969354 -0.37045774 -0.663034 -0.35650164 0.5087866 0.30308965
-0.5151166 -0.34092396 -0.3380598 -0.3448395 -0.5363736 0.0696169 -0.73530436 0.010795585
-0.936012 0.5437782 -0.39152408 -0.52424616 -0.38753545 -0.31383717 -0.5868062 -0.43074894
-0.3667018 0.69717646 -0.033394054 -0.46414536 -0.47808716 -0.2824953 0.4141921 0.24412648
-0.61867875 -0.7511863 -0.7101799 -0.37796125 -0.34866196 -0.40146723 -0.30318436 -0.42185697
-0.56832236 0.67875534 -0.0941306 -0.2682051 0.24328138 -0.46769372 -0.46599004 -0.80016595
-0.2679368 -0.29264188 -0.42035693 0.9037669 -0.34885255 -0.23962463 -0.40742618 -0.4689432
-0.37766144 -0.35076946 -0.7957941 -0.06323189 0.817047 -0.104396656 -0.42468616 -0.107037686
0.3770574 0.17682968 -0.75750023 -0.058638014 -0.47351095 -0.46642783 0.6710672 -0.3029137
-0.7369669 -0.577019 -0.49295285 -0.7511917 -0.44656822 -0.9316999 -0.14466509 -0.38935807
00000000: 701f 3bbf 0bfd 5d3e d4ae ffbd e5b3 adbc
00000010: 6c99 bfbe 1747 a4be 2a56 81be d470 cbbe
00000020: cf06 18bf 4baa f5be 0812 debe 5d8e afbe
00000030: 9850 2abd 461f 1dbf ba29 02bf 9fc5 d4be
00000040: c2c9 fcbe b97d b6be 3f68 bc3d 62ab debe
00000050: d18c 84bf 967f bbbe 1c52 54be 4c72 d3be
00000060: dc7a 8abe 16cc 20be e85d ad3e f6f7 38bf
00000070: b9a7 403e 070b c3be c6ca 0bbe ee98 dabe
00000080: 37f0 8d3f f093 21be 7d22 bcbe f935 7cbf
00000090: fb62 363f abc9 ecbe 63d0 26bf ea35 b5be
000000a0: 3515 c1be 9a29 3bbf 9b6c 5dbf 87a1 d6be
000000b0: 99ce 86bf 99ef a93e 7ff4 60be be4a e53e
000000c0: d0b5 38bf 9d74 f0be 8485 59bf a3ac bdbe
000000d0: 99bc 29bf 6287 b6be d73f 023f 912e 9b3e
000000e0: aede 03bf 968d aebe 2d16 adbe ce8e b0be
000000f0: c84f 09bf 4e93 8e3d e83c 3cbf f7df 303c
00000100: 7c9e 6fbf 0c35 0b3f d875 c8be ff34 06bf
00000110: 0c6b c6be 44af a0be ee38 16bf 208b dcbe
00000120: 57c0 bbbe 287a 323f 34c8 08bd 76a4 edbe
00000130: d7c7 f4be 39a3 90be fd10 d43e 4bfc 793e
00000140: bb61 1ebf bf4d 40bf 5ace 35bf 2384 c1be
00000150: d283 b2be 1d8d cdbe fb3a 9bbe a3fd d7be
00000160: 937d 11bf e9c2 2d3f 8bc7 c0bd 2e52 89be
00000170: c11e 793e 8d75 efbe 3f96 eebe add7 4cbf
00000180: 032f 89be 28d5 95be 0639 d7be 445d 673f
00000190: cd9c b2be 2960 75be 2a9a d0be 5319 f0be
000001a0: d75c c1be 0e98 b3be 2ab9 4bbf b97f 81bd
000001b0: fe29 513f eacd d5bd 7770 d9be 9336 dbbd
000001c0: ab0d c13e d712 353e 89eb 41bf 6a2e 70bd
000001d0: 0770 f2be a1cf eebe 0fcb 2b3f 8117 9bbe
000001e0: dda9 3cbf 84b7 13bf 5164 fcbe 194e 40bf
000001f0: 97a4 e4be e283 6ebf 1623 14be f159 c7be
