ckpt/assistment/mirt.pt (torch, 40679 bytes, 2 tensors)

alpha.weight f4 [903, 10]
000000 6a df 2d bd 63 6a 01 3f ef 7a 9e bd 78 53 9d 3e
       -0.042449392 0.5055296 -0.077382915 0.30727744
000010 0f 58 e9 3d 87 2a 7f 3e 0d 8c 54 be 62 1b be be
       0.11393749 0.24918567 -0.2075655 -0.37130266
000020 b9 73 05 bd b6 c1 38 3e f8 5b ca 3d e3 0c ce 3e
       -0.032581065 0.18042645 0.09880823 0.40244207
000030 85 39 85 be 1a 73 cc 3e 35 1d 85 3c e9 9c 97 3e
       -0.26020446 0.39931566 0.016249279 0.296119
000040 a3 fd 91 be 58 dc c1 be 5e a6 7c bd 27 12 dd 3d
       -0.28513822 -0.3786342 -0.061682098 0.10794478
000050 57 e7 c8 3d a0 78 b1 3e 45 ad 4d be e2 99 cf 3e
       0.098097496 0.34662342 -0.20085628 0.4054709
000060 66 44 08 3e 9b ae 10 3e 23 9d eb 3d 3d 16 9c be
       0.13307342 0.14129107 0.11504581 -0.30485716
000070 9f 85 00 be 77 e7 ba 3e 4a fc 10 3e 8c fe e9 3e
       -0.12550972 0.3650472 0.1415874 0.45702016
000080 86 8e aa 3d 16 82 90 3e 2d 67 b6 3d eb 55 b8 3e
       0.083279654 0.28224248 0.08906398 0.3600305
000090 98 c4 d6 bd 97 24 26 be 4b da 48 bd 00 38 1d 3c
       -0.10486716 -0.16224895 -0.049036305 0.009595871
0000a0 58 a8 8b 3e 91 f1 86 3e 23 21 49 bd ff a5 06 3e
       0.27276874 0.26356176 -0.049103867 0.1314926
0000b0 7d fb cb 3c 82 37 d1 3e 9b ab 9e be d8 ee cb be
       0.024900192 0.40862662 -0.309903 -0.3983066
0000c0 07 a9 91 3e e9 ab 89 3e 8e 95 ec bd 29 14 92 3e
       0.2844927 0.2688897 -0.11551963 0.28531006
0000d0 3c 0f ad be 41 42 9c 3e 98 76 5b be 2b 47 40 3d
       -0.33800685 0.30519298 -0.21431959 0.04694287
0000e0 93 af a5 3d 9a c1 8c be 3c ec 59 be 33 53 48 be
       0.08090129 -0.27491456 -0.21281523 -0.19562988
0000f0 58 63 83 3e 69 1c b7 3e 1a be 9b be 92 af 7e 3e
       0.2566173 0.35763863 -0.30418473 0.24871662
000100 eb 81 a2 3d 7c f7 10 3e 3c 68 c6 be 70 b0 85 be
       0.07934936 0.14156908 -0.387514 -0.26111174
000110 98 1f 3a be 59 be ab 3e 48 b0 fa bd e7 d5 5a 3e
       -0.18176115 0.3354366 -0.12240654 0.2137066
000120 c7 f9 35 3d fa 3e 82 3e 74 95 8c 3d c1 a6 35 3e
       0.04442766 0.25438672 0.068644434 0.17739393
000130 f4 0f aa ba a5 b0 8c be b0 a0 ad bd 72 0b c9 3d
       -0.0012974725 -0.2747852 -0.08477914 0.09816636
000140 64 d6 28 be 59 fa e1 3e 5f 4e 15 3e 3f 6c a1 3e
       -0.16488034 0.44136313 0.14580677 0.31527898
000150 b7 07 90 3e 10 ec ba 3e 8f 06 5d bc ab e4 94 be
       0.28130886 0.36508226 -0.013490333 -0.2908071
000160 c4 44 a8 be 7c d3 97 be 66 06 51 be d9 f5 7e 3e
       -0.32864964 -0.29653537 -0.20412597 0.24898471
000170 2e dc 4f be bc 00 cc 3e 5e cf 06 3d 2b 10 24 3d
       -0.20298836 0.3984431 0.032912605 0.04005448
000180 16 48 9d 3a 16 f2 e6 bd 40 36 3c be a9 86 1b be
       0.0011999633 -0.11276643 -0.1838007 -0.15188088
000190 2b 41 83 3d 9e 68 8a 3c da 56 1e 3e 67 d3 23 3e
       0.06408914 0.016895588 0.15462819 0.15998612
0001a0 02 0a 15 be b2 88 1a 3d b5 90 1b be fc f8 48 be
       -0.14554599 0.03772802 -0.1519192 -0.1962623
0001b0 0c c1 d7 3d 79 dd e3 bd 3c 2f 90 be 40 87 61 3d
       0.10534868 -0.11126227 -0.28161037 0.055060625
0001c0 1b 35 3b 3e d7 40 4f 3c 38 42 2e be 2a 20 98 3e
       0.18281977 0.012649736 -0.17017448 0.2971204
0001d0 b0 bc d3 3c fa cd 78 bd 39 fe f2 3d b5 a1 1a 3d
       0.02584681 -0.06074331 0.118648954 0.037751872
0001e0 ca 70 18 be 0d 87 31 3e 22 3d 14 3d 5d d1 85 3e
       -0.14886776 0.17336674 0.036191113 0.26136294
0001f0 6e 4c 94 3e ae 2f 32 3e 37 a1 91 bb 2e f2 e1 be
       0.2896456 0.17401001 -0.004444267 -0.4413008
000200 51 93 16 bc 23 0b b5 3e 6e 7f 9f be ce 36 3e 3d
       -0.009190396 0.3536006 -0.3115191 0.046438985
000210 b2 0b 3d 3e 89 55 6f bc 5d 57 2d be e4 68 b9 3e
       0.18461493 -0.0146077955 -0.16927858 0.36212838
000220 cd f1 8c 3e 6e 72 8f be d7 f0 2b be 65 80 99 3d
       0.2752823 -0.2801699 -0.16791092 0.074951924
000230 38 4f 9d bd 7e eb 97 3e 31 f3 29 bd 53 2c 0a 3e
       -0.076811254 0.29671854 -0.04149169 0.13493471
000240 15 64 81 3d d0 c9 c5 3d 6d 62 1e be 4f d2 bf be
       0.06317917 0.09657633 -0.15467234 -0.3746514
000250 c8 0c 06 3d f3 7b 2c be 4f 20 af be 29 58 0f 3f
       0.032727033 -0.16844158 -0.34204337 0.55993897
000260 fa cd b2 3d d5 51 9c 3e 4f 66 39 3d 14 9b d2 3e
       0.08730693 0.30531183 0.045263585 0.4113394
000270 f7 66 5a be 09 b8 da be 52 2b 95 3e 3d cf 0a 3e
       -0.2132834 -0.42718533 0.29134613 0.13555618
000280 d6 15 e2 3d a4 76 a0 3d 25 d0 66 3d 64 98 00 3f
       0.11039321 0.07835129 0.056350846 0.5023253
000290 9c 09 20 be 96 8f de 3e 0f 23 c8 be 11 92 5a 3e
       -0.15628666 0.43468922 -0.39089248 0.21344782
0002a0 af 5c 83 3e 66 7b ae 3d 61 ce 07 be 03 ce f2 3e
       0.2565665 0.0851963 -0.13262321 0.474228
0002b0 89 86 c1 3e 78 6d e2 3e 66 42 0d 3e 1b 84 de 3e
       0.37797955 0.44224143 0.1379486 0.43460163
0002c0 2b 29 ca be fd 30 d2 be ed 66 b0 bd f7 03 0d 3e
       -0.39484534 -0.41053 -0.086133815 0.13771044
0002d0 23 73 dd be cd b4 03 3f 5b 39 69 bd 5a 66 df 3e
       -0.43251905 0.51447755 -0.056939464 0.43632776
0002e0 34 26 72 3d 2c af cc 3e 63 7b 75 be 47 cc c4 3c
       0.059118465 0.39977396 -0.2397285 0.024023188
0002f0 00 fe 65 3d e4 bb 9a 3e 45 58 c2 be 09 4d c7 3e
       0.056150436 0.30221474 -0.3795797 0.3892596
000300 12 a1 3f 3e 38 5a 0a 3f a2 35 59 3e 6d 74 fd 3e
       0.18713787 0.5404391 0.21211866 0.49502888
000310 96 d5 a3 bd f9 ed a6 be 55 72 c2 bc 00 2e 7b 3e
       -0.07999723 -0.32603434 -0.023736158 0.24529266
000320 a3 79 54 be de 1b d6 3e fb 02 a0 3e 7a 3d ee 3e
       -0.20749526 0.41818136 0.31252274 0.46531278
000330 88 45 7a 3c 4d fb c7 3e 16 7d 96 3e b2 64 52 be
       0.015275367 0.39058915 0.29392308 -0.20546225
000340 b9 cf 76 3e 17 6c a2 3e 00 88 f2 be 04 da 49 3e
       0.24102677 0.3172309 -0.47369385 0.19712073
000350 07 f5 a3 3d 81 92 f7 3e fa 6f 60 3e ec 2b bf 3e
       0.0800572 0.4835396 0.21917716 0.37338197
000360 f4 82 0f bd 28 ac 1a be ee a0 e5 3d 39 bf bb 3d
       -0.035036996 -0.15104735 0.112123355 0.09167332
000370 ae 04 74 be d6 5d 83 3e 9c 33 bc bd 64 a2 b3 3e
       -0.2382991 0.2565753 -0.09189531 0.35084832
000380 90 fa bb 3d b9 b2 be 3c 02 2d 5e 3e e0 f2 c7 be
       0.091786504 0.023278581 0.21696857 -0.39052486
000390 de 32 b4 bd 65 89 00 bd bb f3 50 be 40 29 77 3e
       -0.08798765 -0.03138103 -0.20405476 0.2413683
0003a0 7f 92 b1 bd 94 9e 9d 3e fb e9 10 be 2d aa 8a 3d
       -0.0867052 0.30785048 -0.14151756 0.0677074
0003b0 16 d7 10 3e fc 00 c2 bd 54 d9 f3 bd fd 21 cf 3c
       0.14144549 -0.09472844 -0.119066864 0.025284762
0003c0 a9 a8 13 bc 48 6c 5a 3e 03 c8 6d be 7d 76 83 3e
       -0.00901238 0.21330369 -0.2322083 0.25676337
0003d0 54 1d b9 3d 50 33 ba 3e 10 41 39 bd e3 d8 d2 bd
       0.09038797 0.36367273 -0.045228064 -0.10295274
0003e0 64 30 ae 3d b8 8b 62 be 9d fa b5 bc 5d d8 8a 3e
       0.085053235 -0.22123611 -0.022214228 0.27118197
0003f0 2b 1c 32 3d 11 f9 7b 3e a9 b8 12 be 0a b0 be 3e
       0.043483894 0.2460673 -0.14328255 0.37243682

beta.weight f4 [903, 1]
000000 9c 77 ae 3e 96 3e 24 3e 47 9b af 3e ef 88 be 3e
       0.3407563 0.160395 0.34298155 0.37213847
000010 9b 8e 96 3e cb 4a ac 3e db 56 8e 3e a7 42 28 3d
       0.29405674 0.33650813 0.2780064 0.04107919
000020 eb 5c 2b 3e fd e7 42 3e d5 26 c8 3b 4e e9 3a 3e
       0.16734664 0.19033809 0.0061081448 0.18253061
000030 8b f6 4d 3e cc d5 0a 3e 31 32 4d 3e f4 fc 30 3d
       0.2011358 0.1355812 0.20038678 0.043209985
000040 b3 51 a8 3a 97 2b 3a 3c 7d ae 01 be c6 45 f6 3d
       0.0012841731 0.011362932 -0.12664218 0.12025027
000050 a2 dd 23 3d 8a f3 9b 3c 87 b4 44 3e 29 d4 58 3d
       0.040006287 0.019037027 0.1920949 0.052936707
000060 a8 22 ac 3e e1 94 7e 3e 78 2d 46 3e 1b 42 ae 3e
       0.3362019 0.2486148 0.19353282 0.3403481
000070 cf 48 ae be da 27 cc 3d ca c9 61 3e a0 ed 3f 3e
       -0.34039924 0.099685386 0.22049633 0.1874299
000080 3f 39 5c 3e 8d 6d 0b 3e 81 85 1b bd 22 ac 26 3d
       0.21506213 0.13616009 -0.037969116 0.040691502
000090 91 3c 69 be cc 81 c4 3d 8c 75 26 3d 97 4c 05 3e
       -0.2277701 0.09595069 0.040639445 0.13017498
0000a0 6f 5a 8c 3e 7e 21 b3 3e 05 d2 0a 3e 0b f9 8a 3d
       0.27412745 0.3498649 0.13556679 0.067857824
0000b0 d4 14 75 bd 6d 63 dd 3d 8c 80 36 bc e7 6f 06 3b
       -0.059834316 0.108099796 -0.011139046 0.0020513476
0000c0 5a 47 06 3e 88 04 6e be 6c af 14 3e db 8f b1 bd
       0.13113156 -0.23243916 0.14520043 -0.086700164
0000d0 bc bf bb 3d 9e 12 c2 3e fb c6 87 3e 64 64 cf 3e
       0.0916743 0.3790483 0.26518998 0.4050628
0000e0 09 7f af 3e d3 66 ab 3e 5c be 66 3e b9 21 c5 3d
       0.34276608 0.33476886 0.22533554 0.09625573
0000f0 4d 13 1b 3e ac 39 8a 3e 33 60 76 3e 5c 1e 91 3d
       0.15144081 0.26997125 0.24060135 0.07085869
000100 4d 62 de 3d 5e 50 72 3e 8a 3d 99 3e 6d c7 11 3e
       0.10858593 0.2366347 0.29929763 0.14236231
000110 7f d1 ad 3d 1c 55 1d bb 4b 6f da 3d 28 69 68 3e
       0.08487224 -0.0024007028 0.10665759 0.22696364
000120 22 3d 35 3e ea 74 84 3b 4b 8f 98 3c 45 92 4a 3d
       0.17699102 0.0040422576 0.018623015 0.0494559
000130 2d 3d c8 3d 62 17 a1 3e a5 29 85 3d a9 13 9e 3e
       0.09777293 0.31463152 0.06502084 0.30874375
000140 00 28 fc 3d 21 9d 84 3e f2 14 ae 3e 5f 2a 97 3e
       0.12312317 0.2590113 0.34000355 0.29524514
000150 81 1e 97 3e 25 87 9d 3e 0f 6c 79 3e c6 b7 bb 3e
       0.2951546 0.3076717 0.24357627 0.36663646
000160 5f 2c 76 3e 15 7c ad 3e 73 72 8f 3e 1a 70 92 3e
       0.24040364 0.3388373 0.28017005 0.28601152
000170 3c 8e 1e 3e 73 0e 62 3e f4 89 6a 3e 24 e1 37 3e
       0.15483946 0.22075824 0.22904187 0.17956978
000180 1c 96 35 3e 2e 41 90 3e 24 51 8f 3e 63 0c b9 3e
       0.17733043 0.28174728 0.27991593 0.36142263
000190 ca e7 a7 3e 95 bc 9a 3e d8 66 5d 3e 68 4c 9b 3d
       0.3279403 0.30222002 0.21621263 0.07582933
0001a0 4f f9 83 3e bf 1f 9a 3c 04 4b 69 3e 81 22 88 3d
       0.25776145 0.018813966 0.22782522 0.06647206
0001b0 e1 aa b7 3d f7 60 4d 3e e6 b1 f0 3d 0a 38 dd bd
       0.089681394 0.2005652 0.117526814 -0.10801704
0001c0 f3 ae 80 bd e1 27 98 3e 9b fb 93 3e ba 46 33 3e
       -0.06283369 0.29717925 0.28902897 0.17507449
0001d0 56 9f a6 3e 63 6c 29 bc 75 63 28 bd c5 a6 60 3e
       0.3254344 -0.010340783 -0.041110475 0.21938618
0001e0 b5 8d 90 3e 31 60 60 3d b7 7c 04 be 41 fc 80 bd
       0.28233114 0.054779235 -0.129382 -0.062981136
0001f0 54 84 a7 be 2f ac 85 be ee 22 9d 3b d3 60 01 bc
       -0.32718146 -0.26107928 0.0047954237 -0.00789662
000200 13 7d 25 3e ae 6c 2e 3e 9e 80 23 be eb a6 52 3d
       0.16160993 0.17033646 -0.15967032 0.051428717
000210 fe 5f 84 bc bf 93 f1 bd b5 0c 6f bc 89 da 78 bd
       -0.016159054 -0.117957585 -0.014590432 -0.060755286
000220 a6 ba ee 3d 85 8a 88 bd 36 f3 56 bd 61 0b e4 3d
       0.11656694 -0.066670455 -0.052478038 0.11134983
000230 4a e0 b9 3d a1 66 01 3e d0 cd d8 3d e1 7d 9d 3e
       0.09075983 0.12636806 0.105861306 0.307601
000240 47 b0 a5 bd 6e cf 29 3e c0 b6 8e 3d b6 85 2c 3e
       -0.08090263 0.16583034 0.069684505 0.16847882
000250 2a cf 1e 3e 3a 37 34 3e 18 14 a3 3e 9f e7 b1 3e
       0.15508714 0.17599192 0.31851268 0.34747025
000260 68 c1 a7 3e c9 86 a5 3e 4f e1 5f 3e 8e 07 8a 3e
       0.32764745 0.32329395 0.21863292 0.2695889
000270 71 b8 a8 3e 47 39 a7 3e 61 d2 93 3e 84 30 5a 3e
       0.32953218 0.32660887 0.28871444 0.2130757
000280 29 58 79 3e a6 a4 31 3e f6 d4 ea 3d e3 b1 60 3e
       0.24350037 0.17347965 0.114664 0.21942858
000290 9a d1 fa 3d fe 4b fd 3d d8 33 8f 3e c8 76 74 3e
       0.122470096 0.1236801 0.2796924 0.23873436
0002a0 e9 2d 99 3e d1 61 14 3e e0 f1 90 3d 47 19 49 3e
       0.2991784 0.14490439 0.07077384 0.19638549
0002b0 57 2f 11 be 04 8e c6 bc ce d4 0e 3e c9 7a 55 3e
       -0.14178215 -0.02423764 0.13948366 0.2084762
0002c0 b7 49 cc 3d 76 51 91 3e a9 08 d9 3c 74 ee 1b bd
       0.099749975 0.28382462 0.026493387 -0.038069203
0002d0 f8 27 8a 3d 00 3e a9 3e 0e c7 9f ba d0 f2 2c be
       0.06745905 0.33055115 -0.001219006 -0.168895
0002e0 88 93 2f 3e 1e 12 c6 3d 73 2e 99 ba 17 75 42 3d
       0.17146122 0.09671424 -0.0011686817 0.047474947
0002f0 b2 40 f6 3d e2 de 58 3e 38 77 98 3e 95 78 74 3e
       0.120240584 0.21178773 0.29778457 0.23874123
000300 a8 c5 18 bd 0c 17 a8 3d aa c4 75 3e 92 6d a1 3e
       -0.037297875 0.08207521 0.24000803 0.31528908
000310 98 7c ab 3e af b7 03 3e 8f 82 66 3e 7e 36 72 be
       0.33493495 0.12863038 0.22510742 -0.236536
000320 16 bc 31 3d 7d 71 8f 3e db a3 34 3e 3e f9 9f 3e
       0.043392263 0.28016272 0.17640631 0.31244844
000330 4a be 75 3d a4 24 5f bd 97 e8 dd 3d a4 cf 08 bc
       0.059995927 -0.054478303 0.108353786 -0.008350287
000340 27 f3 b0 bc 64 29 90 bd ed 4f c6 3d fb 81 03 3d
       -0.02160032 -0.07039145 0.096832134 0.03210638
000350 5f 22 27 3e 01 df 6e 3e 46 8a 2d 3e a1 1e 9e bd
       0.16321705 0.23327257 0.16947278 -0.07720686
000360 54 bf 0e be 55 c8 2b 3e 9c c6 41 bd 20 b3 7b 3e
       -0.13940173 0.1677564 -0.04730855 0.2458005
000370 93 59 04 3e 35 27 a9 3e 2a 5c 8a 3e 35 7f ef 3d
       0.12924795 0.33037725 0.2702344 0.11694185
000380 bb 25 08 3e 83 89 9f 3c c9 ae dd 3d 0b f7 5e 3e
       0.13295643 0.01947475 0.10824353 0.21773927
000390 e2 76 8c 3e 28 e2 f5 3d 7c 2e d4 3d d0 1c a3 3e
       0.2743445 0.120060265 0.10360429 0.3185792
0003a0 db 4f 14 3e 71 a2 46 3c 28 6e 43 3e 2f f9 a9 3e
       0.14483587 0.01212369 0.1908499 0.33197924
0003b0 eb 07 93 3e 1c 34 69 3e 95 f0 12 3e 6a a6 33 3e
       0.28716978 0.22773784 0.14349587 0.1754395
0003c0 ca 52 41 3e 9b 94 8d 3e 44 69 bd 3e 2d 14 4d 3e
       0.18879238 0.2765244 0.36994374 0.20027228
0003d0 c8 aa 8e 3e 9d 2f 9a 3e f6 10 2e be b7 dd 94 3d
       0.2786467 0.3011445 -0.16998658 0.07268851
0003e0 12 00 5b 3e 16 26 bc bb 3a 91 9c 3e 9d 69 33 3e
       0.21386746 -0.005741845 0.3057955 0.17520757
0003f0 1a b1 a2 3e 59 52 cf 3e ad c6 86 3e ff 4b ca 3d
       0.31775743 0.40492514 0.26323453 0.09877776
