ckpt/assistment/ncd.pt (torch, 130447 bytes, 7 tensors)

k_difficulty.weight f4 [903, 22]
0	0xbf6f2a2e	-0.93423736
1	0x3c2109e6	0.00982902
2	0x3d5ccf3d	0.053908575
3	0xbdbb27e5	-0.09138469
4	0x3d812ab4	0.06306973
5	0xbc093439	-0.008374267
6	0xbd4b81d9	-0.04968438
7	0xbd63dfb7	-0.055633273
8	0xbdc162b0	-0.09442651
9	0xbd1337ce	-0.03594189
10	0x3b8abf67	0.0042342427
11	0x3d747997	0.05968627
12	0xbd31043f	-0.04321694
13	0xbd0fc2c7	-0.035097864
14	0x3c9aa503	0.018877512
15	0xba90ce26	-0.0011047765
16	0x3cbe8119	0.023254918
17	0xbd8ca7b5	-0.06867925
18	0x3d23f28a	0.040026225
19	0xbd69cc97	-0.057079878
20	0x3cbfc435	0.023408988
21	0xbbfd8d0e	-0.0077377623
22	0xbd8d0942	-0.068865314
23	0xbd90b66d	-0.07066045
24	0x3a2e24b1	0.00066430407
25	0xbb8b57f0	-0.0042524263
26	0x3d285ece	0.041106038
27	0xbca487b7	-0.020084245
28	0x3d076d18	0.033063024
29	0xbcc1c9f5	-0.02365587
30	0xbc2996fd	-0.01035094
31	0xbd273918	-0.040825933
32	0xbdc98c51	-0.09841216
33	0x3d618d0b	0.05506615
34	0x3ca4ede9	0.020132976
35	0x3d0362c3	0.03207661
36	0xbd6c239a	-0.05765114
37	0xbd43356e	-0.047658376
38	0xbc632aa1	-0.013865144
39	0xbc87753e	-0.016535398
40	0xbcd69315	-0.026193181
41	0xbb121410	-0.002228979
42	0x3c828257	0.015931292
43	0x3d23d436	0.039997302
44	0xbedad337	-0.4273927
45	0xbd1499cb	-0.03627948
46	0x3bd3c158	0.0064622574
47	0x3d80c980	0.06288433
48	0x3d19751b	0.037465196
49	0x3d1fa3ce	0.038974576
50	0xbcaf446e	-0.021394935
51	0x3d356f35	0.04429551
52	0x3c885979	0.016644226
53	0x3bfecd30	0.007775925
54	0x3c211f75	0.00983416
55	0x3d244acf	0.040110406
56	0x3d37d3de	0.044879787
57	0x3d078832	0.03308887
58	0x3d142684	0.036169544
59	0xbd78637e	-0.06064176
60	0xbd036c64	-0.03208579
61	0xbba3dda1	-0.0050007855
62	0x3c7a5773	0.015279639
63	0x3d6973e4	0.056995288
64	0xbcd7eddf	-0.026358543
65	0xbde307fd	-0.11085508
66	0xbf66bee7	-0.90135044
67	0xbb98b1cd	-0.0046598674
68	0x3d1f44c6	0.038883947
69	0xbd056daa	-0.032575287
70	0xbd9eb1b9	-0.07748742
71	0xbd8f0f07	-0.06985288
72	0xbd94c1b4	-0.072635084
73	0x3cc09e81	0.02351308
74	0xbd54b5b6	-0.051931106
75	0xbc18cec8	-0.009326644
76	0x3e23f762	0.16012338
77	0x3db40184	0.087893516
78	0x3d5ef382	0.054431446
79	0x3c71ada9	0.014750876
80	0xbdbba96a	-0.091631725
81	0x3cd30f79	0.025764214
82	0x3d02d228	0.031938702
83	0xbc1be349	-0.009514638
84	0x3d316072	0.043304868
85	0x3e1b6415	0.15174897
86	0xbe02a763	-0.12759165
87	0x3d4912e1	0.04909027
88	0xbe628d5f	-0.22124241
89	0xbdb20211	-0.086918004
90	0x3d14340a	0.03618244
91	0x3d271535	0.04079171
92	0xbcdaf9d2	-0.026730452
93	0xbae10f30	-0.0017170664
94	0xbca76602	-0.020434383
95	0x3d056236	0.032564364
96	0x3d95908c	0.07302961
97	0xbd998ea3	-0.07497909
98	0x3d13db3f	0.03609776
99	0xbde5d847	-0.11222892
100	0xbc7b146c	-0.015324693
101	0x3c87c4c1	0.016573312
102	0xbc884b30	-0.016637415
103	0xbd1803b3	-0.037112903
104	0x3d5493ee	0.05189889
105	0x3c04d3d2	0.0081071425
106	0xbd3a8902	-0.045540817
107	0xbd8364f7	-0.06415742
108	0xbc925007	-0.017860426
109	0x3d4ba197	0.04971465
110	0xbcddca49	-0.027073996
111	0xbc78b783	-0.015180471
112	0xbdd2d4a2	-0.10294463
113	0x3cc5958e	0.024119165
114	0x3d8de86f	0.06929099
115	0xbd08d817	-0.033409204
116	0xbd8189ac	-0.06325087
117	0xbdbd7535	-0.09250871
118	0xbbb0a6f7	-0.0053909975
119	0x3cbd43f1	0.023103686
120	0x3d194526	0.03741946
121	0x3d92dcf1	0.071710475
122	0x3d0133ac	0.03154342
123	0x3d40a50f	0.047032412
124	0xbd94e81a	-0.07270832
125	0x3ae87fb8	0.0017738258
126	0x3de8a86a	0.113602474
127	0xbd5ec5eb	-0.054387968
128	0x3d4fd6f6	0.050742112
129	0x3c859861	0.016308011
130	0x3c786602	0.015161039
131	0x3daadb4d	0.083426096
132	0xbe5ac541	-0.21364309
133	0x3cac26ba	0.02101456
134	0x3d340b3d	0.04395603
135	0xbda38186	-0.07983689
136	0x3ddfbba0	0.109244585
137	0x3c086d4c	0.00832684
138	0xbd4c2d0b	-0.049847644
139	0x3c6a759d	0.014310268
140	0xbd3ce755	-0.046119053
141	0xbbe2b600	-0.0069186687
142	0xbd661d27	-0.056180146
143	0xba20528a	-0.0006115815
144	0xbd1d056d	-0.038335253
145	0x3d272e30	0.040815532
146	0xbcef9b79	-0.02924894
147	0x3cb274dd	0.02178424
148	0x3bdad73b	0.0066784895
149	0xbcfe7e43	-0.031066066
150	0xbd860821	-0.06544519
151	0x3db70b5a	0.08937712
152	0xbc6eacc3	-0.014567557
153	0x3d5fb767	0.054618265
154	0xbcea9c17	-0.028638883
155	0x3e14e5e1	0.14540817
156	0xbd12b88f	-0.03582054
157	0x3cc2cf10	0.023780376
158	0x3cbffe3a	0.023436654
159	0x3d4559ce	0.048181348
160	0xbd4c2001	-0.04983521
161	0x3c532f63	0.012889716
162	0x3ccd5385	0.02506424
163	0x3d8a26e1	0.06745697
164	0xbd660c3c	-0.05616401
165	0xbc3728e2	-0.011179181
166	0x3d20d796	0.0392681
167	0x3c6e6449	0.014550277
168	0x3d0d63c9	0.03451899
169	0xbd91ff1f	-0.071287386
170	0x3d770f7f	0.060317513
171	0x3c26edde	0.010188548
172	0x3d0a37dd	0.03374468
173	0x3d55d5d9	0.052205894
174	0x3c84ef94	0.016227521
175	0x3d08b038	0.03337118
176	0xbd2d2a23	-0.042276513
177	0xbc8a6e71	-0.016898366
178	0xbdab57f3	-0.08366384
179	0xbc83e931	-0.016102405
180	0x3cdd8e74	0.027045466
181	0x3d293acb	0.041315835
182	0xbaf32e5a	-0.0018553243
183	0x3d84b798	0.0648033
184	0x3cbdabe9	0.023153262
185	0xbc46f9e2	-0.012144538
186	0xbd0007c0	-0.03125739
187	0x3d3a0c38	0.04542181
188	0x3d18161d	0.037130464
189	0x3d9a33c5	0.075294055
190	0x3c722cf7	0.014781228
191	0xbca4565a	-0.020060707
192	0x3dc4694b	0.095903955
193	0xbe012190	-0.1261046
194	0xbd02f5f7	-0.03197285
195	0x3d5ae1f0	0.053438127
196	0xbc23637b	-0.009972448
197	0xbd16727d	-0.03673028
198	0x3de0b8b5	0.1097273
199	0x3e85c826	0.26129264
200	0x3b7afbee	0.0038297134
201	0xbaaab7b9	-0.0013024724
202	0xbccada84	-0.0247624
203	0xbd330fd2	-0.04371626
204	0xbcce2a14	-0.025166549
205	0xbcc55ce0	-0.024092138
206	0xba109a63	-0.00055161695
207	0xbc66513b	-0.014057453
208	0xbcf81dba	-0.030287612
209	0xbc4a0d24	-0.0123322345
210	0x3b969ac8	0.004596088
211	0xbd03b0ce	-0.032151036
212	0x3d2a4d7e	0.04157781
213	0xbcf71151	-0.030159624
214	0xbc8b1161	-0.01697606
215	0xbceeeda4	-0.02916605
216	0xbc6cac25	-0.014445339
217	0x3bb82089	0.005619113
218	0xbc65ffe0	-0.014038056
219	0xbd616003	-0.055023205
220	0x3d533311	0.051562373
221	0x3f227de3	0.6347334
222	0xbdb9b453	-0.09067597
223	0xbd6466be	-0.055762045
224	0xbb4f13e3	-0.0031597547
225	0x3cd7ec0f	0.026357679
226	0x3c5e51cc	0.013569307
227	0xbd177c1d	-0.036983598
228	0x3c8140c5	0.015777955
229	0x3d228970	0.039681852
230	0xbd3c6cea	-0.046002306
231	0xbcc38434	-0.02386675
232	0xbd405c91	-0.04696328
233	0x3e049c4e	0.1295025
234	0xbdce4330	-0.10071409
235	0x3a4d99d9	0.00078430545
236	0xbdc5a118	-0.09649867
237	0xbdaeee59	-0.08541555
238	0xbd9df7f8	-0.07713312
239	0xbd0f6d27	-0.035016205
240	0x3d103867	0.03521004
241	0xbcb5af38	-0.022178277
242	0x3c0753c0	0.008259714
243	0x3f1f15cc	0.62142634
244	0x3c02fad2	0.007994371
245	0x3c2f9701	0.0107171545
246	0xbd19bbf7	-0.037532773
247	0x3bf07191	0.007337757
248	0xbbd17e4f	-0.006393231
249	0xbbbfe2dd	-0.0058559016
250	0xbcb332ba	-0.021874774
251	0x3cb30e46	0.021857392
252	0xbc9db0c8	-0.019249335
253	0x3d2cc2d6	0.042177998
254	0xbd178481	-0.0369916
255	0xbbf494b6	-0.007464017

e_discrimination.weight f4 [903, 1]
0	0x3f6689ad	0.90053827
1	0x3f4dcafd	0.8038786
2	0x3f755a23	0.9584066
3	0x3f5e95ba	0.86947215
4	0x3f37095b	0.7149865
5	0x3f6455ca	0.89193404
6	0x3f975bca	1.1824887
7	0x3f83d675	1.0299822
8	0x3f6bc236	0.9209322
9	0x3fdb000b	1.7109388
10	0x3f53cc32	0.8273345
11	0x3f9a71d2	1.2065985
12	0x3efee69a	0.4978531
13	0x3e9eccf1	0.31015733
14	0x3f8f75b4	1.1207795
15	0x3fc0c54b	1.5060209
16	0x3fb12c99	1.3841735
17	0x3fcb127f	1.586502
18	0x3fd93a18	1.6970854
19	0x3fbd7129	1.4800159
20	0x3f9d937d	1.2310635
21	0x3fb3a58b	1.4034895
22	0x3f42d538	0.76106596
23	0x3f340e01	0.7033387
24	0x3f7bb6fd	0.9832609
25	0x3f20ed92	0.62862504
26	0xbe46d19a	-0.19415894
27	0x3f6e4b8f	0.93084043
28	0x3fbd440c	1.4786391
29	0x3f975226	1.1821945
30	0x3f4ecb2f	0.80778784
31	0x3f7712e0	0.96513176
32	0x3f895b33	1.0730957
33	0x3f533d16	0.82515085
34	0x3fa35b22	1.2762187
35	0x3ede2247	0.43385527
36	0x3fd651bb	1.6743692
37	0x3e26da51	0.16294219
38	0x3f8a74f2	1.0816939
39	0x3f677cb2	0.90424645
40	0x3eeefa30	0.46675253
41	0x3f291829	0.6605249
42	0x3f012348	0.5044446
43	0x3f636344	0.8882334
44	0x3f6ed4ce	0.93293464
45	0x3f42408d	0.75879747
46	0x3f623d1b	0.8837449
47	0x3f6dda03	0.92910784
48	0x3f270319	0.652391
49	0x3fba292c	1.4543815
50	0x3f405817	0.75134414
51	0x3fbd33d4	1.4781442
52	0x3ec3d220	0.3824625
53	0x3ff7a60e	1.9347551
54	0x3fab0fa3	1.3364147
55	0x3f75c03c	0.9599645
56	0x3fda4009	1.7050792
57	0x3fa95eed	1.3232094
58	0x3f0a3725	0.53990394
59	0x3ee11aef	0.4396586
60	0x3f5dd3e4	0.86651444
61	0x3f8060a4	1.0029492
62	0xbee41058	-0.4454372
63	0x3f92b2ac	1.1460776
64	0x3fa1985d	1.2624623
65	0x3f68d21f	0.9094562
66	0x3f6118c7	0.8792843
67	0x3f65962b	0.89682263
68	0x3f4fdcf8	0.81196547
69	0x3fa589b5	1.293265
70	0xbd814b02	-0.06313135
71	0x3e8abec9	0.27098683
72	0x3ea84da2	0.3287173
73	0x3f7b2660	0.9810543
74	0x3eb6a1d0	0.35670328
75	0x3faada10	1.3347797
76	0x3f7afdff	0.9804382
77	0x3f6cb4f4	0.9246361
78	0x3f351c96	0.70746744
79	0x3f79645e	0.97418773
80	0x3eb7f7b7	0.3593118
81	0x3fa12d51	1.2591954
82	0x3f8b13d6	1.0865428
83	0x3f7a356a	0.97737753
84	0x3fa18076	1.2617328
85	0x3f807f14	1.0038781
86	0x3f844475	1.0333391
87	0x3f7b721b	0.98220986
88	0x3ef437da	0.4769886
89	0x3fa0155e	1.2506521
90	0x3fbe4844	1.4865804
91	0x3f97e246	1.1865928
92	0x3e9f8346	0.3115484
93	0x3f915a20	1.1355629
94	0x3f9a3b79	1.20494
95	0x3f79cb62	0.9757596
96	0x3faa840f	1.3321551
97	0x3fb719d4	1.4304757
98	0x3fad44fd	1.3536679
99	0x3faa7ed2	1.3319952
100	0x3fc63885	1.5485998
101	0x3f595d6d	0.8490818
102	0x3ef2bd55	0.47410074
103	0x3f9ee7ec	1.2414527
104	0x3f327688	0.69712114
105	0x3f3e4bd1	0.74334437
106	0x3ef644d5	0.4809939
107	0x3fdb63cc	1.713983
108	0x3fa4e168	1.2881289
109	0x3f9f1e8a	1.2431195
110	0x3f9d5169	1.229047
111	0x3fac4974	1.3459916
112	0x3fd1c19d	1.6387211
113	0x3fb24166	1.3926208
114	0x3fa21d03	1.2665104
115	0x3fa561f5	1.2920519
116	0x3fc269cc	1.5188537
117	0x3f5299a1	0.8226567
118	0x3f9ad582	1.2096407
119	0x3f27bc9e	0.6552218
120	0x3f5e8cf8	0.8693385
121	0x3ec1af95	0.3782927
122	0x3f7c40c4	0.98536325
123	0x3f680b3f	0.9064216
124	0x3fbbb9cd	1.4666077
125	0x3fd2b272	1.6460707
126	0x3f0a5650	0.5403795
127	0x3f48bc9a	0.78412783
128	0x3f6ff929	0.93739563
129	0x3f153318	0.5828109
130	0x3fcb9243	1.590401
131	0x3f2922e9	0.66068894
132	0x3f65c59e	0.89754665
133	0x3f98a475	1.1925188
134	0x3f56e599	0.8394409
135	0x3f85e083	1.045914
136	0x3edd3de4	0.4321128
137	0x3eb71e9e	0.35765547
138	0x3f45a835	0.7720979
139	0x3f3905e4	0.72274613
140	0x3eab3e8e	0.33446163
141	0x3fad8154	1.3555093
142	0x3f9b4b76	1.2132404
143	0x3fb9c715	1.451388
144	0x3fafae47	1.372506
145	0x3f28fac0	0.66007614
146	0x3f6434b9	0.8914295
147	0x3f938e4b	1.1527799
148	0x3f3caa6e	0.73697555
149	0x3f4240d1	0.7588015
150	0x3eeb03d9	0.45901373
151	0x3f97e061	1.186535
152	0x3fa4f68b	1.2887739
153	0x3fad584a	1.3542569
154	0x3fa9b68d	1.3258835
155	0x3fca7754	1.5817666
156	0x3fa43d65	1.2831236
157	0x3fcce4c2	1.6007311
158	0x3fd4042a	1.6563771
159	0x3eface48	0.48985505
160	0x3f94ddde	1.1630208
161	0x3f95420f	1.1660784
162	0x3f5765b2	0.8413955
163	0x3f83be1c	1.0292392
164	0x3f63c1ac	0.88967395
165	0xbe1e8d6d	-0.15483637
166	0x3f3648a5	0.71204597
167	0x3f6f1110	0.9338541
168	0x3f51328a	0.8171774
169	0x3f2a64f8	0.66560316
170	0x3fb0e05b	1.3818468
171	0x3f6acfdf	0.91723436
172	0x3faefdb2	1.3671172
173	0x3fbc9582	1.4733126
174	0x3f8cd57c	1.100265
175	0x3fb6c6fb	1.4279474
176	0x3fb7a92c	1.4348502
177	0x3f8b8c9e	1.0902288
178	0x3fbb8298	1.4649229
179	0x3f7157c2	0.9427453
180	0x3fa99f62	1.3251765
181	0x3f6dec5d	0.92938787
182	0x3fe516ff	1.7897643
183	0x3fcdd22b	1.6079763
184	0x3fa279aa	1.2693379
185	0x3f82cf0b	1.0219434
186	0x3f992d58	1.1966963
187	0x3f642807	0.89123577
188	0x3f12dbc1	0.5736657
189	0x3e0bdff3	0.13659649
190	0x3f953a81	1.1658479
191	0x3f90b822	1.1306193
192	0x3f90e360	1.1319389
193	0x3f933e32	1.1503356
194	0x3fa33399	1.2750121
195	0x3f6fbb51	0.936452
196	0x3f841f5d	1.0322071
197	0x3f6698b7	0.90076774
198	0x3f96dcb1	1.17861
199	0x3fd37348	1.6519556
200	0x3f8d3c60	1.103405
201	0x3f72141f	0.9456195
202	0x3f91e961	1.1399347
203	0x3fa9ae53	1.3256325
204	0x3f74e3da	0.95660174
205	0x3f1ced43	0.6129953
206	0x3f0ed68e	0.55796134
207	0x3f74f184	0.95681024
208	0x3f226e87	0.634499
209	0x3f5c6ca1	0.86103255
210	0x3f385e1a	0.7201859
211	0x3f8c033b	1.0938486
212	0x3f65fda7	0.8984017
213	0x3de67d3b	0.112543546
214	0x3f8a26a5	1.0793043
215	0x3f236016	0.6381849
216	0x3f64be1c	0.89352584
217	0x3f04f765	0.51939994
218	0x3f781ab4	0.96915746
219	0x3f273f8a	0.6533133
220	0x3f9d9144	1.2309957
221	0x3f6b69d3	0.9195835
222	0x3fc00798	1.5002317
223	0x3f9358d6	1.1511486
224	0x3f744c42	0.9542886
225	0x3f0da7a3	0.5533392
226	0x3f27e95a	0.6559044
227	0x3f82ca6a	1.0218022
228	0x3edb4994	0.42829573
229	0xbe1d5376	-0.15363869
230	0x3f513fc2	0.8173791
231	0x3f161a52	0.5863391
232	0x3f76ed3c	0.9645574
233	0x3fca4fce	1.5805604
234	0x3ead3a1b	0.33833393
235	0x3fadc432	1.3575499
236	0x3f99b686	1.2008827
237	0x3f6e04f3	0.929763
238	0x3f6efca0	0.93354225
239	0x3fa6a377	1.3018636
240	0x3fa8315e	1.3140066
241	0x3f7f1f92	0.9965755
242	0x3f94e8ef	1.1633586
243	0x3f06761d	0.52523977
244	0x3f0160cf	0.50538343
245	0x3f99fdcf	1.2030581
246	0x3fe9b4e4	1.8258328
247	0x3f902fc6	1.1264579
248	0x3f8b1dc4	1.0868459
249	0x3fc77842	1.5583575
250	0x3fa15c0d	1.2606217
251	0x3fa55d31	1.2919065
252	0x3fd3ea4e	1.6555879
253	0x3fe09dee	1.7548196
254	0x3f8dea6f	1.1087168
255	0x3f5ac0ab	0.8545024

prednet_full1.weight f4 [128, 22]
0	0x3fdb1452	1.7115576
1	0x3ff29ac1	1.8953477
2	0x3ff7c591	1.9357167
3	0x40028953	2.0396316
4	0x3fead2b2	1.8345549
5	0x3ffaf51a	1.9606049
6	0x3ff353fc	1.9010005
7	0x3fde2cd0	1.7357426
8	0x4001b603	2.026734
9	0x3ff3c667	1.9044923
10	0x3fe06e39	1.7533637
11	0x3fe8f837	1.8200749
12	0x3fe5818e	1.7930162
13	0x3fddaac5	1.731774
14	0x3fac4132	1.3457396
15	0x3fbb09ae	1.4612329
16	0x3ffbc46c	1.9669318
17	0x3fe455c2	1.7838671
18	0x3fadab9e	1.3567998
19	0x3fb0adf0	1.3803082
20	0x3ffd66c9	1.9796993
21	0x3fc4ce1f	1.5375403
22	0x3faba570	1.3409863
23	0x3fe9c3dd	1.8262898
24	0x3fd868a3	1.6906933
25	0x4002cd8f	2.0437963
26	0x3fcdf42e	1.6090143
27	0x3fe27d26	1.7694442
28	0x3fd005c0	1.6251755
29	0x3fdc633a	1.7217782
30	0x3ffaa215	1.9580714
31	0x3feff813	1.8747581
32	0x3fbe3989	1.4861308
33	0x3fbdb057	1.481944
34	0x3fcca64b	1.5988249
35	0x3fba8c31	1.4574033
36	0x3fada05f	1.3564566
37	0x3fb544e5	1.416165
38	0x3fcb80ab	1.5898641
39	0x3fb9548e	1.4478929
40	0x3fad8135	1.3555056
41	0x3fa96c22	1.3236125
42	0x3febbf87	1.8417825
43	0x3fcf4ff5	1.6196276
44	0x3fc67ad0	1.5506229
45	0x3fecf17b	1.8511194
46	0x3fe7c80b	1.8107923
47	0x3fe9142e	1.8209283
48	0x3ff1cf49	1.8891383
49	0x3fd8f547	1.6949853
50	0x3fcfe052	1.6240332
51	0x3fb0379d	1.3766972
52	0x3fe04e44	1.7523885
53	0x3fee2fd8	1.8608351
54	0x3fcf2603	1.6183475
55	0x3fe42075	1.7822405
56	0x3fd03df6	1.6268909
57	0x3fc64609	1.5490123
58	0x3fbd1731	1.4772702
59	0x3fb478c1	1.4099351
60	0x3fddabe9	1.7318088
61	0x3fc7043b	1.5548166
62	0x3fb3baac	1.4041343
63	0x3fd2f17a	1.6479943
64	0x40001dda	2.001822
65	0x3fd996e6	1.6999176
66	0x3fc208f6	1.5158985
67	0x3fe36436	1.7764957
68	0x3ff0e1af	1.8818873
69	0x3fd86304	1.6905217
70	0x3fcb4e82	1.5883334
71	0x3fcdf0e9	1.6089145
72	0x3fc2ac97	1.520892
73	0x3fbf380f	1.4938983
74	0x3fe5b7f1	1.794676
75	0x3ff1ad66	1.8881042
76	0x3fbdeb7d	1.483749
77	0x3fd4f913	1.6638511
78	0x3fd14bc4	1.6351247
79	0x3fb942c1	1.4473497
80	0x3f9723ac	1.1807761
81	0x3fc35d36	1.5262821
82	0x3fc69161	1.5513116
83	0x3fb35b5d	1.4012257
84	0x3f9a87ef	1.2072734
85	0x3fb45be4	1.4090543
86	0x3fe92f83	1.8217624
87	0x3fb92ac1	1.4466172
88	0x3f84f28f	1.0386523
89	0x3fd28f98	1.6450071
90	0x3fdecd0c	1.7406325
91	0x3fc5fa77	1.5467061
92	0x3f8087f0	1.0041485
93	0x3fbaf618	1.4606352
94	0x3f9efe7b	1.2421411
95	0x3f954cc1	1.1664048
96	0x3fb289a7	1.3948258
97	0x3faa2b2e	1.3294427
98	0x3fa19609	1.2623912
99	0x3f9cf7f4	1.2263169
100	0x3f97f31b	1.1871065
101	0x3f98f573	1.1949905
102	0x3f8a0553	1.0782875
103	0x3fbb04bd	1.4610821
104	0x3fc69c3e	1.5516431
105	0x3f97e46e	1.1866586
106	0x3f88d770	1.0690746
107	0x3f518ff5	0.81860286
108	0x3fcb5afa	1.5887139
109	0x3fa9ad7f	1.3256072
110	0x3fb5c650	1.4201145
111	0x3ff692c9	1.9263545
112	0x3fe4451d	1.7833592
113	0x3fe18362	1.761822
114	0x3fc91a81	1.5711213
115	0x3fdc1811	1.7194844
116	0x3fcbb9d3	1.5916084
117	0x3fd46321	1.6592752
118	0x40059fed	2.087886
119	0x3fe258e7	1.7683381
120	0x3fb9e988	1.4524393
121	0x3fd25b4a	1.6434109
122	0x3fc35344	1.5259786
123	0x3fcdc9c9	1.6077205
124	0x3fb0bbb9	1.3807288
125	0x3fcac29e	1.5840642
126	0x3fd67158	1.675334
127	0x3fcad1d5	1.5845286
128	0x3f99b99c	1.2009768
129	0x3fd717b2	1.6804106
130	0x3fecd9ac	1.8503928
131	0x3fcc2180	1.5947723
132	0x3f9d6378	1.229598
133	0x3fc62761	1.5480767
134	0x3fb9108e	1.4458177
135	0x3fd35033	1.650885
136	0x3f91d1c4	1.139214
137	0x3fe2540e	1.7681901
138	0x3fb5062f	1.4142512
139	0x3fc24ae0	1.51791
140	0x3fe22dc5	1.7670218
141	0x3fd88597	1.6915768
142	0x3fa3e7b5	1.2805086
143	0x3fb5ecf8	1.4212942
144	0x3fa40856	1.2815044
145	0x3f95c13f	1.1699599
146	0x3fb04420	1.377079
147	0x3fa9336a	1.3218815
148	0x3fc7ac82	1.559952
149	0x3fa78ccf	1.3089846
150	0x3fa0bc4c	1.2557464
151	0x3f916696	1.1359432
152	0x3fd30e48	1.6488733
153	0x3f9cfce4	1.2264676
154	0x3edc3162	0.43006426
155	0x3f54b54f	0.83089155
156	0x3eb83eb9	0.35985354
157	0x3f8c3814	1.0954614
158	0x3f1d1405	0.6135867
159	0x3f7b4622	0.9815389
160	0x3e95c1a9	0.29249313
161	0x3f18bea6	0.59665906
162	0x3f07df96	0.5307554
163	0x3e4bb55b	0.198934
164	0x3f8f1d41	1.1180803
165	0x3f57aedd	0.84251195
166	0x3f15f9ce	0.58584297
167	0x3ee80ec2	0.4532376
168	0x3f26e278	0.65189314
169	0x3ece21cf	0.4026017
170	0x3f3278cd	0.6971558
171	0x3f34a7c1	0.7056847
172	0x3f57e2a7	0.8433022
173	0x3ed076a9	0.4071553
174	0x3f2626ce	0.6490296
175	0x3f23bd0b	0.6396033
176	0x3fd1b3dc	1.6383014
177	0x3fe13025	1.7592818
178	0x3fe48bc1	1.785515
179	0x3fe04e9f	1.7523993
180	0x3fd4bab7	1.6619481
181	0x3fe9ec70	1.827528
182	0x3fc5da00	1.5457153
183	0x3fd34499	1.6505309
184	0x3ffbef0f	1.968233
185	0x3fcf4545	1.6193014
186	0x3fc43144	1.5327535
187	0x3fc163db	1.5108598
188	0x3fc95eaa	1.5732014
189	0x3fe47daf	1.7850856
190	0x3faf8359	1.3711959
191	0x3fc88382	1.5665133
192	0x3fd80aa7	1.6878251
193	0x3fa0da66	1.256665
194	0x3faacf55	1.3344523
195	0x3fa6a66a	1.3019536
196	0x3ff557d3	1.9167427
197	0x3fe4cfb0	1.7875881
198	0x3feb8b78	1.8401937
199	0x4006df94	2.1073961
200	0x4006cc9c	2.1062384
201	0x400b7fa9	2.1796668
202	0x3fed2cad	1.8529259
203	0x4000f47e	2.0149226
204	0x3ff1b5ec	1.8883643
205	0x40011bbc	2.0173178
206	0x40135046	2.3017745
207	0x3ffd60f3	1.9795212
208	0x401dcf54	2.4657793
209	0x3fec5e0f	1.8466204
210	0x3ff5d47d	1.9205471
211	0x4009004e	2.1406436
212	0x3fd21325	1.6412092
213	0x3feb8aea	1.8401768
214	0x40037aee	2.054378
215	0x3ff29c1e	1.8953893
216	0x3fd2d931	1.6472532
217	0x3fe01a01	1.7507936
218	0x40122336	2.283399
219	0x3fff4f85	1.9946142
220	0x3f93df15	1.1552454
221	0x3fc05e4b	1.5028776
222	0x3fc6f35c	1.5543017
223	0x3fd0acb3	1.6302704
224	0x3fa101f3	1.257872
225	0x3fd46ae1	1.6595117
226	0x3fa5282b	1.2902883
227	0x3fb2db64	1.3973203
228	0x3fcf0af9	1.6175224
229	0x3fd5dabe	1.670738
230	0x3f9c6e96	1.2221248
231	0x3fa74b21	1.3069803
232	0x3f9e89a1	1.2385751
233	0x3fb7eb98	1.4368773
234	0x3f8debd4	1.1087594
235	0x3f911133	1.1333374
236	0x3fcba24c	1.5908904
237	0x3f9a775a	1.2067673
238	0x3f9b3037	1.2124089
239	0x3fa0f036	1.2573307
240	0x3fcf7f38	1.6210699
241	0x3fbe2376	1.4854572
242	0x3fbcafa5	1.4741102
243	0x400c2644	2.1898355
244	0x40095569	2.145838
245	0x40085dd9	2.130728
246	0x3fcd0da3	1.6019787
247	0x400833b9	2.128157
248	0x400e7af9	2.2262557
249	0x3fdd1be7	1.727414
250	0x40058a31	2.0865595
251	0x3ff4e13f	1.913124
252	0x3fffaa07	1.9973763
253	0x3ff2e0fe	1.8974912
254	0x3fede744	1.8586202
255	0x3fd917e5	1.6960417

prednet_full1.bias f4 [128]
0	0xbee336ab	-0.44377646
1	0xbee914aa	-0.45523578
2	0xbe740e6f	-0.23833631
3	0xbf04c8f4	-0.5186913
4	0xbee8aa59	-0.45442465
5	0xbee2e65d	-0.44316378
6	0xbe70bcc9	-0.23509516
7	0x3d3531e4	0.044237033
8	0xbed3e1e8	-0.4138329
9	0xbf257145	-0.6462596
10	0xbe801a58	-0.250201
11	0xbf44d11c	-0.76881576
12	0xbef1bd7f	-0.47214887
13	0xbeaa5324	-0.33266556
14	0xbef4fd95	-0.47849718
15	0xbedd99bb	-0.4328135
16	0x3e53cd3a	0.20683756
17	0xbd807331	-0.06271971
18	0xbed18ca6	-0.4092762
19	0xbf882418	-1.0636015
20	0xbc1b2e97	-0.009471557
21	0xbefb5636	-0.4908921
22	0xbebbde51	-0.3669305
23	0xbed41add	-0.41426745
24	0xbf42af19	-0.7604843
25	0xbdd89da3	-0.10576942
26	0xbeade64c	-0.33964765
27	0xbf153fef	-0.5830068
28	0xbf11a17a	-0.5688702
29	0xbf0372f4	-0.5134728
30	0xbe7e9d85	-0.24864776
31	0x3ca2624e	0.019822266
32	0xbf2187fd	-0.63098127
33	0xbeb0f1ef	-0.3455958
34	0xbf60edec	-0.8786304
35	0xbef63afb	-0.48091874
36	0xbef5f72c	-0.4804014
37	0xbe3b45e4	-0.1828838
38	0xbe554277	-0.20826136
39	0xbe3f6022	-0.18689016
40	0xbf1784ac	-0.59186816
41	0xbef79a33	-0.48359832
42	0xbf539196	-0.8264402
43	0xbf59c426	-0.85064924
44	0xbeda63ba	-0.4265421
45	0xbe325171	-0.1741388
46	0xbef1bbaa	-0.4721349
47	0xbeec8540	-0.46195412
48	0xbf45a4fe	-0.77204883
49	0xbf63c4f5	-0.8897241
50	0xbf0d79e6	-0.5526413
51	0xbe41ae73	-0.18914203
52	0xbf452c36	-0.77020586
53	0xbf02ecf0	-0.5114279
54	0xbeaa56ab	-0.33269247
55	0xbea8acce	-0.3294434
56	0x3c5e79d6	0.013578853
57	0xbe8ab3e9	-0.27090386
58	0xbedd5fc2	-0.4323712
59	0xbe950f93	-0.29113445
60	0xbe8c7421	-0.2743235
61	0xbd0016f4	-0.03127189
62	0xbe812206	-0.2522127
63	0x3df30666	0.11866455
64	0xbedc225c	-0.42994964
65	0xbf1c34f4	-0.610183
66	0xbe50a044	-0.20373636
67	0xbf413521	-0.75471693
68	0xbe297bf7	-0.16551195
69	0xbeb7ed25	-0.35923114
70	0xbf179489	-0.5921102
71	0xbe92d00c	-0.28674352
72	0xbe217ca4	-0.15770203
73	0xbf313491	-0.69220835
74	0xbdc3b24f	-0.09555494
75	0xbefe54e9	-0.49674156
76	0xbe8f2132	-0.27955014
77	0xbf3d0554	-0.73836255
78	0xbe66e114	-0.22546798
79	0xbf0e4c8a	-0.5558554
80	0xbf2becfd	-0.6715849
81	0xbe8f29a9	-0.27961472
82	0xbf146ebe	-0.5798148
83	0xbea55cf0	-0.32297468
84	0x3e0163b5	0.12635691
85	0xbe73d023	-0.23809867
86	0xbee52696	-0.44756
87	0xbf50004c	-0.81250453
88	0xbde683b6	-0.112555906
89	0xbd7c176f	-0.061545786
90	0xbe8c4951	-0.27399686
91	0xbf2d2c45	-0.67645675
92	0xbe58dd5a	-0.21178189
93	0xbf6a1583	-0.91439074
94	0xbe6150c4	-0.22003466
95	0xbf1d52a7	-0.6145424
96	0xbf12fd73	-0.5741798
97	0xbeef1fd2	-0.46703964
98	0xbec756ee	-0.3893351
99	0xbe5ce25c	-0.21570724
100	0xbe8fa81d	-0.28057948
101	0xbed3fff3	-0.4140621
102	0xbee3dfa5	-0.44506565
103	0xbf310f76	-0.69164217
104	0xbe96a59f	-0.29423234
105	0xbf222aa0	-0.6334629
106	0xbe89369b	-0.26799473
107	0xbdb08638	-0.0861935
108	0xbf15d991	-0.58535105
109	0xbea1f1de	-0.31629843
110	0xbe43ccef	-0.19121145
111	0xbf7363b4	-0.9507401
112	0xbe988216	-0.29786748
113	0xbef21962	-0.4728499
114	0xbf77cd76	-0.96797884
115	0xbe93178f	-0.2872891
116	0xbe83da75	-0.25752607
117	0xbf05932c	-0.5217769
118	0xbeefb07d	-0.46814337
119	0xbf06bb92	-0.5262996
120	0xbf09f1c3	-0.53884524
121	0xbe311012	-0.17291287
122	0xbe6ce411	-0.23133875
123	0xbe95c845	-0.29254356
124	0xbdb169ec	-0.08662781
125	0xbeb0b48d	-0.3451275
126	0xbe50e3bb	-0.20399372
127	0xbf51b648	-0.81918764

prednet_full2.weight f4 [64, 128]
0	0x3dfefebf	0.12450933
1	0x3e79ce2a	0.24395052
2	0x3dfef87e	0.1244974
3	0x3e33b822	0.1755071
4	0x3e0a700e	0.13519308
5	0x3e785ae6	0.24253425
6	0x3e861575	0.26188245
7	0x3dfee513	0.12446036
8	0x3dfe5a53	0.12419572
9	0x3e8efcf6	0.2792737
10	0x3dff050e	0.12452136
11	0x3e28df50	0.16491437
12	0x3dffa5fb	0.1248283
13	0x3e719489	0.23591818
14	0x3e34d923	0.17660956
15	0x3dfef962	0.1244991
16	0x3dfde3ec	0.12396988
17	0x3e8a6825	0.2703258
18	0x3dff6f1f	0.124723665
19	0x3e121e42	0.14269355
20	0x3e06ecc8	0.13176262
21	0x3eb5037d	0.35354224
22	0x3e43dea6	0.19127902
23	0x3dfe4700	0.12415886
24	0x3e3f28c6	0.18667898
25	0x3dfe4204	0.12414935
26	0x3e41a70e	0.18911383
27	0x3e60a872	0.21939257
28	0x3dfee337	0.124456815
29	0x3dff2c42	0.124596134
30	0x3e0f89c9	0.14017405
31	0x3e8ac23a	0.27101308
32	0x3e8968e1	0.2683783
33	0x3dff7632	0.12473716
34	0x3dff6ef7	0.12472337
35	0x3dfef7a3	0.12449577
36	0x3e8ebaad	0.27876797
37	0x3e72066b	0.23635261
38	0x3e05b34d	0.13056679
39	0x3e8c4d29	0.2740262
40	0x3dff3f66	0.12463264
41	0x3e8fc54b	0.2808021
42	0x3e0df72a	0.13863817
43	0x3dff67af	0.12470948
44	0x3e60810f	0.21924232
45	0x3dff4c2f	0.12465703
46	0x3e683dd1	0.22679831
47	0x3dff2cc9	0.12459714
48	0x3e00836d	0.12550135
49	0x3e5c927b	0.21540253
50	0x3e71e583	0.23622708
51	0x3e96036d	0.2929949
52	0x3dfecd79	0.124415345
53	0x3e77a03e	0.24182221
54	0x3dff3ef5	0.1246318
55	0x3dff6686	0.12470727
56	0x3e0d78cc	0.13815612
57	0x3e5cbfe4	0.21557575
58	0x3dff0dbb	0.12453791
59	0x3e676f49	0.22601046
60	0x3e83d5fd	0.25749198
61	0x3e07804c	0.13232535
62	0x3e630a76	0.2217196
63	0x3e80583a	0.25067312
64	0x3dff5b0b	0.12468537
65	0x3e9db1d2	0.3079973
66	0x3dfef252	0.12448563
67	0x3dfef6e7	0.12449437
68	0x3e0d8ee3	0.13824038
69	0x3e53cb03	0.20682912
70	0x3dfe7cda	0.12426157
71	0x3e806d68	0.2508347
72	0x3e2c7df0	0.16844916
73	0x3ea59e18	0.32347178
74	0x3e3cc35c	0.18433899
75	0x3dfebcf6	0.12438385
76	0x3dff60a6	0.12469606
77	0x3e4a24f1	0.19740655
78	0x3dfe86c5	0.12428049
79	0x3dfd359c	0.12363741
80	0x3dff6950	0.12471259
81	0x3e5a6221	0.21326496
82	0x3dfee3d8	0.124458015
83	0x3dff863d	0.12476776
84	0x3e158e1b	0.1460499
85	0x3dfed8db	0.12443706
86	0x3e87fd2d	0.26560345
87	0x3e0eadbf	0.13933466
88	0x3dfee79b	0.12446519
89	0x3dfe9a92	0.12431826
90	0x3dff13e0	0.12454963
91	0x3dff5e3f	0.12469148
92	0x3e567731	0.20943905
93	0x3e6fcf46	0.23418912
94	0x3e882a2b	0.26594672
95	0x3dfefc7c	0.12450501
96	0x3e85b775	0.2611653
97	0x3dff2ea3	0.12460067
98	0x3dff2f86	0.12460236
99	0x3ea562c1	0.32301906
100	0x3e681497	0.22664104
101	0x3e8e80b3	0.27832565
102	0x3dff5cb6	0.12468855
103	0x3e80bc06	0.2514345
104	0x3e0c8ab0	0.1372478
105	0x3ea27c45	0.31735435
106	0x3dff08e7	0.1245287
107	0x3e83de3a	0.25755483
108	0x3e68e700	0.2274437
109	0x3dff41c1	0.124637134
110	0x3e4a8276	0.1977633
111	0x3e16384f	0.14669918
112	0x3dff48ab	0.12465032
113	0x3e9eb659	0.30998495
114	0x3dff3ba3	0.12462547
115	0x3dfe5afe	0.12419699
116	0x3dfed46c	0.1244286
117	0x3dff374a	0.124617174
118	0x3e94bff6	0.29052705
119	0x3e226586	0.1585904
120	0x3dff5ddd	0.12469075
121	0x3e24996a	0.16074148
122	0x3dff2247	0.1245771
123	0x3e089ba1	0.13340618
124	0x3e16880f	0.1470034
125	0x3dfe61da	0.124210075
126	0x3e13ee5e	0.14446399
127	0x3ea70369	0.3261979
128	0x3dfd4aac	0.12367758
129	0x3dfe18fa	0.12407108
130	0x3e1c6a59	0.15274943
131	0x3dfcf7f4	0.12351981
132	0x3e1a8da2	0.15093091
133	0x3e6beced	0.23039599
134	0x3dfc309e	0.123139605
135	0x3e68effc	0.22747797
136	0x3e58a70a	0.2115747
137	0x3dfc1173	0.12308016
138	0x3e4e979e	0.20175025
139	0x3dfc72b5	0.12326566
140	0x3dfe1445	0.1240621
141	0x3dfd7ab4	0.123769194
142	0x3e370dfe	0.17876431
143	0x3dfc2cc9	0.123132296
144	0x3e2b40f4	0.16723996
145	0x3e67909f	0.22613762
146	0x3dfde809	0.12397773
147	0x3dfd7bd3	0.12377133
148	0x3dfd1494	0.123574406
149	0x3e402871	0.18765427
150	0x3e6378a0	0.22213984
151	0x3e86bf15	0.2631766
152	0x3dfe06ad	0.12403617
153	0x3dfbe37b	0.12299248
154	0x3dfd4eaa	0.123685196
155	0x3e32a0eb	0.17444198
156	0x3dfe218e	0.12408744
157	0x3e076a7d	0.13224216
158	0x3dfd1e5b	0.123593055
159	0x3e1f22f7	0.15540682
160	0x3e022fef	0.12713598
161	0x3e7a310e	0.24432775
162	0x3dfd0e03	0.12356188
163	0x3dfca564	0.12336233
164	0x3dfd3845	0.12364248
165	0x3e5d521f	0.21613358
166	0x3e88d816	0.2672736
167	0x3e7d7e1c	0.24755138
168	0x3e1248b2	0.14285544
169	0x3dfb0015	0.12255875
170	0x3dfde4c4	0.12397149
171	0x3e802c3d	0.2503375
172	0x3dfcbc68	0.12340623
173	0x3e5866b6	0.21132931
174	0x3dfc117b	0.12308022
175	0x3dfd2537	0.12360614
176	0x3e790405	0.2431794
177	0x3dfdecbc	0.12398669
178	0x3dfcbae7	0.12340336
179	0x3e2caaa9	0.16861977
180	0x3e05bf6d	0.13061304
181	0x3dfc8aa7	0.12331133
182	0x3e85a105	0.2609941
183	0x3e2bb22b	0.16767184
184	0x3dfb398a	0.12266834
185	0x3e12a7b5	0.14321788
186	0x3e144695	0.1448005
187	0x3e176b3e	0.14787003
188	0x3dfe173a	0.12406774
189	0x3e33b95d	0.17551179
190	0x3dfc7b1d	0.123281695
191	0x3dfcf7b1	0.12351931
192	0x3e6c1114	0.2305339
193	0x3dfd3b12	0.123647824
194	0x3e273919	0.16330375
195	0x3dfdb688	0.12388331
196	0x3e20a849	0.15689196
197	0x3e5a81fa	0.21338645
198	0x3e3c4767	0.18386613
199	0x3e0f04d1	0.13966681
200	0x3dfcf7da	0.123519614
201	0x3e8d3e14	0.27586424
202	0x3e222a21	0.15836383
203	0x3e4f6a22	0.2025533
204	0x3eac6f4f	0.33678672
205	0x3dfd8dad	0.12380538
206	0x3dfd25e2	0.12360741
207	0x3e4a4716	0.1975368
208	0x3ec553ee	0.38540596
209	0x3dfd39f1	0.12364567
210	0x3dfbfeff	0.12304496
211	0x3e3a8577	0.18214975
212	0x3dfd3c0d	0.123649694
213	0x3dfd023b	0.12353941
214	0x3dfc76a9	0.1232732
215	0x3e2a56cf	0.16634677
216	0x3e4e51a1	0.20148326
217	0x3e4f3c20	0.2023778
218	0x3eab8a99	0.3350418
219	0x3e321a14	0.1739276
220	0x3eab3829	0.33441284
221	0x3dfdec66	0.12398605
222	0x3eb58b96	0.35458058
223	0x3e63a2d2	0.2223008
224	0x3dfd4c07	0.12368017
225	0x3e7ec664	0.24880368
226	0x3dfd5143	0.12369015
227	0x3e055a01	0.13022615
228	0x3e2a0b5f	0.166059
229	0x3e59115b	0.21198027
230	0x3e0ad240	0.13556767
231	0x3e5ec4c2	0.21754745
232	0x3dfba2bc	0.122868985
233	0x3e1fc450	0.15602231
234	0x3e7765ac	0.24159878
235	0x3df949d0	0.12172282
236	0x3dfc3f05	0.123167075
237	0x3e12bf95	0.14330895
238	0x3e275cbd	0.1634397
239	0x3e813f1c	0.2524346
240	0x3eb85928	0.3600552
241	0x3e0d7c85	0.13817032
242	0x3e0dccaf	0.13847612
243	0x3df958c2	0.12175132
244	0x3e3f6b0e	0.18693182
245	0x3e1a0910	0.1504252
246	0x3efe2c1f	0.49643037
247	0x3e34eac6	0.17667684
248	0x3e015d19	0.1263317
249	0x3e9bc295	0.30421892
250	0x3dfcace0	0.12337661
251	0x3e51ced4	0.20489055
252	0x3ea50147	0.32227537
253	0x3dfc4f01	0.12319756
254	0x3e377bec	0.17918366
255	0x3dfe0168	0.12402612

prednet_full2.bias f4 [64]
0	0x3e5d8cbb	0.21635716
1	0x3e071b2d	0.1319396
2	0x3e352da5	0.17693193
3	0xbfbf04a2	-1.4923289
4	0x3e1bb262	0.15204766
5	0x3dea13dd	0.1142957
6	0xc00ebdfb	-2.2303455
7	0xbed6b9f6	-0.41938752
8	0x3e47a4ab	0.1949641
9	0x3e55566e	0.20833752
10	0xbef6b9e4	-0.48188698
11	0xbfb11383	-1.383408
12	0xc00c3649	-2.1908133
13	0xbf3b2f44	-0.73118997
14	0xbf03da8b	-0.51505345
15	0xc0162774	-2.346158
16	0x3e1187fb	0.14212029
17	0x3dedce1d	0.116115786
18	0x3db827fa	0.08992
19	0xbeed76d2	-0.46379715
20	0xc0026227	-2.0372407
21	0xbf12bae4	-0.5731642
22	0x3e10eac4	0.14152056
23	0x3dd50f33	0.1040329
24	0x3e5f3a64	0.21799618
25	0x3d9a4daa	0.075343445
26	0x3e2d2542	0.16908744
27	0x3e013bb8	0.12620437
28	0xbe86c163	-0.26319417
29	0x3e189ccf	0.14903568
30	0xbfd905ea	-1.695493
31	0xbef7c9b0	-0.48396063
32	0xbe934135	-0.28760687
33	0xbe908c35	-0.2823197
34	0xbf03b75c	-0.5145166
35	0xbf409509	-0.7522741
36	0xbfc6a68f	-1.551958
37	0xbf98c0ea	-1.1933873
38	0x3e44520f	0.19171928
39	0xbf192334	-0.5981934
40	0x3e6de631	0.23232342
41	0x3de64eb9	0.11245484
42	0xbf1fe09b	-0.62452096
43	0xbff8622f	-1.9404963
44	0x3e4a455e	0.19753024
45	0x3de12f0d	0.10995302
46	0x3d55931f	0.05214226
47	0xbe94030d	-0.28908578
48	0x3e59f164	0.2128349
49	0x3e13cc2e	0.14433357
50	0x3dcd7372	0.10031785
51	0x3e67c937	0.22635351
52	0xc009c8bd	-2.152877
53	0xc00a9cf4	-2.1658297
54	0x3dfe6a9a	0.124226764
55	0x3de89506	0.11356549
56	0xc016753f	-2.3509061
57	0xbe89d221	-0.26918128
58	0xbea1cb25	-0.316003
59	0xc00fa1e9	-2.2442572
60	0xbe8d14f3	-0.27555045
61	0xbe8f9379	-0.280422
62	0x3e385084	0.17999464
63	0xbed42742	-0.414362

prednet_full3.weight f4 [1, 64]
0	0x00000000	0.0
1	0x00000000	0.0
2	0x00000000	0.0
3	0x3db47b4c	0.088125795
4	0x00000000	0.0
5	0x00000000	0.0
6	0x3e416719	0.18886985
7	0x3b863bce	0.0040964847
8	0x00000000	0.0
9	0x00000000	0.0
10	0x3d1a985f	0.03774297
11	0x3dd4bd10	0.10387623
12	0x3e4590c5	0.19293506
13	0x3d11bad7	0.035578575
14	0x3cc25288	0.023720995
15	0x3e529105	0.20563133
16	0x00000000	0.0
17	0x00000000	0.0
18	0x00000000	0.0
19	0x3c187add	0.009306637
20	0x3e339965	0.17538984
21	0x3d5ad790	0.053428233
22	0x00000000	0.0
23	0x00000000	0.0
24	0x00000000	0.0
25	0x00000000	0.0
26	0x00000000	0.0
27	0x00000000	0.0
28	0x00000000	0.0
29	0x00000000	0.0
30	0x3df7e16f	0.12103545
31	0x3cd284dd	0.02569812
32	0x00000000	0.0
33	0x00000000	0.0
34	0x3d04e0f3	0.03244109
35	0x3cff239b	0.031144908
36	0x3dcdade6	0.10042934
37	0x3d50128d	0.05079894
38	0x00000000	0.0
39	0x3d001d96	0.031278215
40	0x00000000	0.0
41	0x00000000	0.0
42	0x3ce42625	0.02785022
43	0x3e2bceaf	0.16778062
44	0x00000000	0.0
45	0x00000000	0.0
46	0x00000000	0.0
47	0x00000000	0.0
48	0x00000000	0.0
49	0x00000000	0.0
50	0x00000000	0.0
51	0x00000000	0.0
52	0x3e4feefd	0.2030601
53	0x3e4ccf60	0.20000982
54	0x00000000	0.0
55	0x00000000	0.0
56	0x3e4f0e2c	0.2022025
57	0x00000000	0.0
58	0x00000000	0.0
59	0x3e41ceac	0.18926495
60	0x00000000	0.0
61	0x00000000	0.0
62	0x00000000	0.0
63	0x3c1c115f	0.009525626
